checkpoints/YourNet/pruning/17/epoch-30.pth (torch, 15887 bytes, 8 tensors)

weight f4 [3, 1, 3, 3]
00000000: eeb5 ad3e 3be3 af3e 8209 66bd 85e8 693e
00000010: c836 283e da25 21bf a543 b2be 1f90 0fbf
00000020: d6f0 88be c361 1b3e 602b a83a 514f f4be
00000030: 7365 9d3e d4e5 b23d f1c1 e2be 25b4 a83e
00000040: ebe4 a73d 7007 5d3e e8b7 a23d 32e7 403e
00000050: 7559 cd3e 7523 d3be e5f8 8f3d 855e 833e
00000060: dcc2 a0be d325 21bf f08a f5be
0.33927864 0.3435305 -0.05616141 0.22842605 0.16427147 -0.6294838 -0.34817234 -0.56079286
-0.26746243 0.15174012 0.001283031 -0.47716764 0.30741462 0.087352425 -0.4428859 0.3294994
0.081979595 0.21584868 0.079452336 0.18838194 0.40107313 -0.4123799 0.07029895 0.2565805
-0.31398666 -0.6294834 -0.47957563

bias f4 [3]
00000000: 7fd7 b4be a0a9 903c 0c65 a9be
-0.3532066 0.017659009 -0.33084905

weight f4 [4, 3, 3, 3]
00000000: 4681 bebd 1435 f9be ad7a d2be 78b3 de3e
00000010: 6a5d 81be b3dd 8abd c1b2 b7be f72f e6bc
00000020: 04c5 c03e 8511 06be 0fd6 56be 6cd1 bf3e
00000030: 9f9a 45bf ca7a 91be 2274 e53e 37ba 4abf
00000040: d587 86be 692e 203f d24f b33e 8f93 2f3f
00000050: c55f 6fbf 374d f33e 4db5 b4be f703 5bbf
00000060: de1a 97be 7d71 c4bd 6a95 1cbf 6129 8cbc
00000070: dfdd 5d3e a06d 3bbe 4e22 b9be e972 103e
00000080: 26a1 f33d 177d a6be 5370 073e 1a9f 2e3f
00000090: 023f 013e fedd e23b 36d3 283e b3ea 0b3f
000000a0: 412b 81bd de12 a8bd 3132 8ebe 5490 abbe
000000b0: 0a05 eabe dc51 a0be b17d 9abe 2922 3ebf
000000c0: 01a9 5b3d c1d0 343d 02f7 ea3e 7e24 c93e
000000d0: 661e 163f 2c2f cfbd b7f4 94be a324 133f
000000e0: b738 603f 03db 01bf 6982 78bf 1b6f 193d
000000f0: 3f43 a83e 5e72 b8be b496 5abf 60d1 283e
00000100: fa0e b93e 7a38 2bbf 224a ee3d ba05 31bd
00000110: 933c 053f 0629 f3be 3073 113e ca6c bd3e
00000120: 77de d6be 3555 98bf 7dd3 1cbe 839b 143e
00000130: 3128 ad3e 512d bdbe cb09 25bd f30f f63e
00000140: 4128 533e 721c 7abf 30e7 6ebe e025 713e
00000150: 9c1f 0abf 1120 3bc0 2e96 39bf 2a9a 893d
00000160: c370 d0bd 7138 05bf 873f 85bf 98d5 19c0
00000170: 2870 1abf efb3 a53e 1db5 19be a270 e2be
00000180: 945b 0d3f 884f 1c3f 6381 573e a704 843d
00000190: 8585 02be fd0d ef3e 3734 6bbf 58a1 5b3e
000001a0: 8a3a 663f 6254 bf3d 119e 903d 5eb0 4bbf
-0.09302001 -0.48673308 -0.4110922 0.434963 -0.25266582 -0.06780567 -0.35878566 -0.028099043
0.3765031 -0.1309262 -0.20980094 0.37464464 -0.7718906 -0.28413993 0.44815165 -0.7919039
-0.26275507 0.62570816 0.35021836 0.6858453 -0.9350551 0.47519848 -0.35294572 -0.85552925
-0.29512686 -0.09591959 -0.6116549 -0.017109575 0.21666668 -0.18303537 -0.36158985 0.14106335
0.11895971 -0.3251731 0.13226442 0.6821152 0.12621692 0.006923436 0.1648682 0.54655
-0.06307078 -0.08206724 -0.27772668 -0.3350855 -0.4570697 -0.31312454 -0.3017402 -0.74270874
0.05362797 0.044144396 0.45891577 0.39285654 0.58640134 -0.10116419 -0.29092953 0.5747778
0.8758654 -0.5072481 -0.9707399 0.037459474 0.32863805 -0.36024755 -0.85386205 0.1648612
0.3614424 -0.6688305 0.116352335 -0.043218352 0.52045554 -0.47492236 0.14204097 0.36997062
-0.41966602 -1.1901003 -0.15315051 0.14512448 0.33819726 -0.36948636 -0.040292542 0.48059043
0.20620824 -0.97699654 -0.23330379 0.23549604 -0.5395448 -2.9238322 -0.7249478 0.067188576
-0.101777576 -0.5203925 -1.0410012 -2.4036617 -0.60327387 0.3236384 -0.15010495 -0.44226557
0.5521786 0.61058855 0.21045451 0.064462 -0.12746246 0.4669036 -0.9187655 0.21448267
0.89933074 0.093422666 0.07061399 -0.7956599

bias f4 [4]
00000000: 69d4 f6be a83c 1ebf 067a 29bf 59c9 a0bd
-0.4820893 -0.61811304 -0.6620182 -0.07850904

weight f4 [26, 100]
00000000: 1980 83bf 8486 0c3f 825a b93e 6d70 0d3f
00000010: f696 a0bf e302 cdbe dc71 00be 34ee 143f
00000020: 313a e53d 9f0f 4abd 3cca 073b ff98 c43e
00000030: f7ba fa3e 4887 54bf cd70 6abf 4e8c cabf
00000040: be3e b0bf eb44 e73e c071 72be c9e6 2ebf
00000050: 6666 4cbf 60d8 83bf 25f9 603f f4cb 873f
00000060: 57e8 58bf a5e1 f6bf af16 eebf a5a2 9fbe
00000070: 0794 8c3e 0ef3 c83e 918b 7fbf 69a9 8cbe
00000080: b7cb 0dbf decd 4dbf b483 7abe 688d 8dbe
00000090: 091c 2d3e 8e62 13bf d359 b5bf ff2e ad3e
000000a0: 4796 11bf e54c c8be ebda 8bbf 5dcb 77bf
000000b0: 18a9 82bf 4fb1 a1bf c607 94be 043e f73e
000000c0: 9c9c ac3e 8a48 ffbd d530 82bf e0c3 b73e
000000d0: 4efd 8d3e d0b7 94be e4ad 0ec0 3fd9 a9bf
000000e0: d19f d2bf 7c75 49bf 6ce1 153f b5fc e9bf
000000f0: 4e66 543f 581e d5bf 34b3 70bf 0892 e23d
00000100: b662 77bf 7aa0 d1bf cc54 343e 84a1 34bf
00000110: a019 4a3c b25d 8abf 053b abbf 0cdc 28bf
00000120: 4f4b 3abe 7b44 c0bb a6e2 c33d 4509 a9bf
00000130: bd52 cabf b117 27bf 39bc 2f3f 2876 21bf
00000140: 36a4 d0bf d0e0 00bf 91e8 0ebf 701a 2d3f
00000150: f961 abbf 3947 9cbf ff06 63bc 355d edbe
00000160: 28f3 113f 0814 aebf c30f 183e 54ca 7bbe
00000170: 28d7 85bd 9df7 e3be 7fb9 77bf 3cdd ad3d
00000180: bc03 b6bd 6aae b03f 5c81 9c3d d049 153f
00000190: 169b 8dbf 30f4 02c0 08a0 afbf d210 91bf
000001a0: 98d3 30c0 03fb fa3e 7f1e fd3d 982e 25bd
000001b0: aad3 cdbe 3cd5 cebd 96fd 0b3f 8559 1b3e
000001c0: d757 c7bd 5d8f 903e c755 0e3e 5d65 b9be
000001d0: 3fd5 5fbf 2022 953e 29f1 bb3e 3139 8a3e
000001e0: 42c4 133c b745 8ebe b31a f73e 169f 873f
000001f0: 2821 7a3f 41b2 20bf 83d3 2a3f dd44 f23c
00000200: dcec 633d 00ac ecbe 4e79 26bf f97c 13bf
00000210: 4628 41be 4a4a 35bf fa92 69bf 51ba dfbe
00000220: 1317 e7bd 0d56 483f d5a0 0fbf 4b0d 3fbf
00000230: e286 07bf fed3 833e 94c7 273f bd8e 3abf
00000240: 6847 d9bf a471 da3e 50aa 143f bf6a fcbe
00000250: 3ff7 fdbe 2e80 43be 076e 3bbf 5b14 a0bf
00000260: 5005 a43e 3212 b43e 7a0b 303f 1a93 b63e
00000270: 7de3 693f d99c 163f c553 ca3e 259c 64be
00000280: 7b04 1c3f c56e 6c3f ee63 c0bc 6b25 b8be
00000290: e8ae 2bbf d3cd 1a3f 79a8 9abc b458 a9be
000002a0: d81f 89bf 5d1e bcbd 4069 ae3d 0bef 03bf
000002b0: 5613 87bf fa80 9cbe 88c9 b03f e2f5 5abf
000002c0: f8a4 3dbf b095 e33e 7e50 553f f834 8c3e
000002d0: 224d 9abf ced6 babf c7ac b5bf abcc 023f
000002e0: 1e03 303e 4831 38bf c665 a6be 14ff 84bd
000002f0: f6de 09bf 17ea 20bf 3080 85bd d3c6 903e
00000300: dc8c 523e cfc1 18bf 0633 51bf 8f92 293e
00000310: fb5a 353f 801a 1f3f 4064 743f fae3 adbe
00000320: 8cd5 5f3f 8b8c db3f 64b9 d73f e939 943f
00000330: 1bf7 ca3f 0d2f 333d 2862 f33e dd49 0f3f
00000340: efb3 db3b a48c e83d 5614 73be ad89 433e
00000350: 7520 c4be 3bca 94be cddd 6bbf d995 a13e
00000360: 3130 39be 22e8 06bd bf4a 6c3e d71f 97be
00000370: 6298 8abe 7f0a 133f 988e 923e b270 e53e
00000380: a661 993e f49b 83bf 1847 45c0 a310 e8bf
00000390: f5f2 0cc0 d03e ed3e b3d2 e7bf 3cc8 55bf
000003a0: 8b2a 8ebf 4c15 ddbf 68a0 cabe 938b 463f
000003b0: 234b c23e 78a3 933e 5089 ed3e c28c 683f
000003c0: 9331 723f 6628 203f 1d82 193f f15a 493f
000003d0: e2f4 b23f 109f ccbd c4e2 21bd 7464 ddbe
000003e0: 3a08 0bbe 92d6 df3e bf30 5a3f 93f2 0c3f
000003f0: b949 0cbf d1a6 57bf 16f5 41bf c3af 713e
-1.0273467 0.54892755 0.36201864 0.55249673 -1.254607 -0.40041265 -0.12543434 0.5817597
0.1119274 -0.049331304 0.0020719906 0.38397977 0.48970768 -0.8301892 -0.9157837 -1.5824068
-1.3769147 0.45169768 -0.23676205 -0.683209 -0.7984375 -1.0300407 0.87880164 1.0609117
-0.8472952 -1.9287611 -1.8600672 -0.31178775 0.27456686 0.39247936 -0.99822336 -0.27473
-0.5538897 -0.80392253 -0.24464303 -0.27646947 0.16905226 -0.5757226 -1.4168037 0.33824918
-0.5686993 -0.39121166 -1.0926183 -0.9679468 -1.0207853 -1.2632235 -0.2891218 0.48289502
0.33713233 -0.124650076 -1.0171152 0.35891628 0.2773232 -0.29046488 -2.2293634 -1.3269423
-1.6455022 -0.7869489 0.5854709 -1.8280245 0.82968605 -1.6649885 -0.9402344 0.110630095
-0.96634996 -1.6377099 0.17610472 -0.70558953 0.012335211 -1.0809844 -1.3377386 -0.65960765
-0.1819279 -0.0058675385 0.09564714 -1.3205954 -1.58065 -0.65270525 0.6864658 -0.6307092
-1.6300113 -0.50343037 -0.5582362 0.67618465 -1.3389274 -1.2209235 -0.0138566485 -0.46360174
0.5701165 -1.3599863 0.14849763 -0.24588901 -0.065351784 -0.4452485 -0.9676742 0.08489463
-0.08887431 1.3803227 0.07641861 0.58315754 -1.1062953 -2.046154 -1.3720713 -1.1333258
-2.7629147 0.49019632 0.12359332 -0.04032764 -0.4020055 -0.10099265 0.54683816 0.15170868
-0.09733551 0.28234378 0.13899909 -0.36210147 -0.8743476 0.29127598 0.36707428 0.2699676
0.0090189595 -0.27787563 0.48262557 1.0595424 0.9770684 -0.62771994 0.6672899 0.029573852
0.05564581 -0.46224976 -0.65028846 -0.5761257 -0.1886302 -0.7081648 -0.91239893 -0.43696836
-0.11283698 0.78256303 -0.56104785 -0.7462966 -0.5294019 0.25747675 0.6553891 -0.7287405
-1.6974916 0.42664826 0.58072376 -0.4930019 -0.49602696 -0.19091865 -0.73214763 -1.2506212
0.32035303 0.35170132 0.6876751 0.35659105 0.91362745 0.5883308 0.39517036 -0.2232519
0.60944337 0.9235652 -0.02348515 -0.35966048 -0.6706376 0.6047031 -0.018879162 -0.33075488
-1.0712843 -0.09185479 0.085161686 -0.51536626 -1.0552776 -0.3056715 1.3811502 -0.8553144
-0.7407985 0.4445014 0.83325946 0.27384162 -1.2054789 -1.4596803 -1.4193352 0.5109355
0.17188689 -0.719502 -0.32499522 -0.06493965 -0.53855836 -0.6285719 -0.065185905 0.2827669
0.20561546 -0.5967073 -0.8171848 0.16559814 0.7084195 0.6214981 0.9546547 -0.33962995
0.8743522 1.7152265 1.6853452 1.1580173 1.5856661 0.043746043 0.47535825 0.5597208
0.0067047994 0.1135495 -0.23738226 0.19095488 -0.38306013 -0.2906054 -0.92135316 0.31559637
-0.1808479 -0.032936223 0.23075388 -0.2951648 -0.27069384 0.5743789 0.28624415 0.44812542
0.29957312 -1.0281968 -3.0824642 -1.8130077 -2.202329 0.46336985 -1.8111175 -0.8350866
-1.1106733 -1.7272124 -0.39575505 0.77556723 0.3794795 0.28835654 0.46393824 0.9083978
0.94606894 0.62561643 0.5996416 0.7865439 1.3980982 -0.09991276 -0.0395229 -0.43240702
-0.13577357 0.43718392 0.8523063 0.5505764 -0.5479999 -0.84238917 -0.75764596 0.23602204

bias f4 [26]
00000000: 2caa a33f ac11 f0be ae06 403e bfda cdbe
00000010: a0bc a3be 8fd4 3d3f 6572 763e 9caf eb3b
00000020: ebeb f73e 032e 34bf ab00 1cbf 3d62 72bf
00000030: 6968 503e 82cc ccbe a7ea 353f 3d2e 22be
00000040: bddb 253e 07e0 c0bd c959 013f aee3 67be
00000050: 8abe fb3f a3e6 793c edd8 4fbe 0d92 14be
00000060: bda5 fdbe f27a 073f
1.2786307 -0.46888483 0.18752548 -0.40205953 -0.31979847 0.74152464 0.24067076 0.007192565
0.4842218 -0.7038271 -0.6093852 -0.9468115 0.2035233 -0.39999777 0.71061176 -0.15837951
0.16197105 -0.0941773 0.50527626 -0.22645447 1.9667523 0.015252742 -0.20297594 -0.14508839
-0.4954051 0.52921975

weight f4 [10, 26]
00000000: d4d4 60be 1049 d6be d0f8 c7be 1b32 3bbe
00000010: 0f53 0b3f afe1 1bbf b96f 38c0 5ede e5bd
00000020: 087b 01be 4391 1cbf 5c63 84bf 0607 293f
00000030: 7e0e 2bbf 7981 43bd c97c ef3d e308 153f
00000040: 9043 ccbc 2270 a6bf 5b4e 76be a71a c6bf
00000050: d4a4 debe 0c9d f3be ef48 42be 55fe 97be
00000060: 4827 2cbf a8aa 87be ebb7 453f 7140 12bf
00000070: 772b 7abe 9cc7 c7be 15e1 febe 5e7d e3bd
00000080: 47eb 14be 76c8 06bf 0c2c 9e3e 785d 4dbe
00000090: 5789 81be 559c 53be 3087 0bbd 5ef8 67be
000000a0: 429a 05bf ae65 c1be 4587 96be d210 083f
000000b0: 5687 3bbe 79ff 283f ee40 6a3f b699 1dbf
000000c0: c8f7 1abf 5c1e 5cbe cd18 08bf bf0c 28bc
000000d0: 934c e5be 02c8 f1be cc7b b4bd 70cd 023f
000000e0: f243 d3bc d54f 373e 4b2d 26bf 1e36 7bbe
000000f0: fa8b 17bf d9fd fabd 4324 a6bf 487e 27be
00000100: 6aa4 a2bd b816 d93e b535 74bf e213 e1be
00000110: 571e a0bc b5dc 9b3e 9fbb 1fbe e0dc e5be
00000120: f20f 0abf 290a b33d d503 4ebf 5588 16bf
00000130: 507d 233e c904 0c3f 02a2 dcbe 3515 42be
00000140: 651c a5be 966b a3be e1b6 0bbf c4be 14bf
00000150: c773 f2be 415a 85be 69b9 a4be 80a9 f53e
00000160: 4f92 e03d d12e 95be 9e6a d3be b175 6ebe
00000170: 9908 7bbf a195 14bf 1de9 7fbe f156 573e
00000180: e8b2 933d c043 22bf 5de0 c2bf 5992 9bbd
00000190: ae8a 47be 034e b5be 2197 7dbe dd42 debe
000001a0: adc2 8abe 0406 e6bd 9e64 1d3f 5443 d43d
000001b0: bfd5 f9be 9b95 b1be 7d5c 8f3e 8cb2 12bf
000001c0: 4633 9abe f9ed 0dbf 720d 69be 8374 47bf
000001d0: 9892 acbe 1b00 28bf b55f 813d 7bda e8be
000001e0: e8e1 94be 4ca3 00bf 3c89 2abf 5eb9 d4be
000001f0: 5374 88bf f66d 1dbe 90b7 dfbe fb46 c8bd
00000200: 6a6c 5ebf b18d 9abe 8088 c8be 9fba 56be
00000210: f038 f9be 775e b4be 9c76 b5be e27b c8be
00000220: 59a3 52be 51df 81bd 6268 cfbc 97c6 1cbe
00000230: 9774 1c3f 20a9 f1be 1c70 15bf f6b0 49bd
00000240: 9689 fdbe 8645 c9be 8a03 20be 31cf 34bf
00000250: d050 a83e b32c d7be 589b 7cbc 2fa9 f4bc
00000260: 3a1b 0c3f e21e ddbe 423c f93e 85bc 32bf
00000270: 3914 c2be 53f3 66bf 396c 1cbd a400 9dbe
00000280: f304 61bb ffef 9b3e 0b4f 1fc0 1022 adbf
00000290: 0185 99bf 884f c0be 2d03 5bbe aa7c 5bbe
000002a0: 2ece 66bf fe75 2abe ae6f aa3e 5bfb 23ba
000002b0: 327f a83b c068 44be 3043 1c3f c951 c2be
000002c0: 0dea 50bf 4765 73bf 5cda 96bc 9f40 78bf
000002d0: 9b8d 69be c6fe 93be 0971 9bbe 6916 0fbe
000002e0: b923 7ebe ab21 3d3d fa9c 30be 1079 a6bf
000002f0: 9457 babd e70c 373f 1e8b 023f 5104 03be
00000300: 0476 5bbf 63d5 0fbf 108e e63e acf6 23be
00000310: e7d0 56bf ba38 52bf fae1 9dbe 5347 4fbe
00000320: cf0e b6bf 1215 083e 6590 17bf 691c f43e
00000330: 9d3a a0be c93e 4ebe fb03 2f3e a4f1 b33d
00000340: 947c 28bf 8e9c ecbd 9766 bdbe 187a 02bf
00000350: 19d0 90be eece ffbe d63e 17bf 13bf 25be
00000360: f0af 4e3d 6489 81be 8935 21be 5b28 2abe
00000370: 27c1 bebe 3616 833d f2ba a4be 869b 2abe
00000380: bbb0 e83e 2e57 c0be b6c7 9fbe b6e0 b0bf
00000390: 29f6 bfbe e54c c9be 9da5 10be c38a 41be
000003a0: cb3b 083e c8eb 06bf f4ea d9be 3a9d 053f
000003b0: d654 81be 60c0 3fbe 040b 08bf 0f5a 99bf
000003c0: 5e20 143e 8b02 0abe 423b 01bf af07 e2be
000003d0: 19b6 2bbd e122 bcbc a43c aabd 1d86 3abf
000003e0: 7cde 253e 5594 01be 61e8 a5be 3b9d 8fbe
000003f0: 115e 95bf ee20 03be e4be 57be d60a bdbe
-0.21956187 -0.41852617 -0.39057016 -0.18280832 0.5442361 -0.6089124 -2.881819 -0.11224054
-0.12644589 -0.6115915 -1.0342822 0.6602634 -0.6681899 -0.047730897 0.11693723 0.58216685
-0.02493456 -1.300297 -0.24053328 -1.5476884 -0.4348513 -0.47580755 -0.18973134 -0.29686227
-0.6724744 -0.26497388 0.7723376 -0.5712958 -0.24430643 -0.39019477 -0.497811 -0.11107896
-0.14542876 -0.5264963 0.3089298 -0.20055187 -0.25300094 -0.20665105 -0.03406447 -0.22653338
-0.52188504 -0.37772888 -0.29400077 0.53150666 -0.18313345 0.6601482 0.91505325 -0.6156267
-0.60534334 -0.21495956 -0.53162843 -0.010256945 -0.44784984 -0.47222906 -0.08812675 0.5109472
-0.025789235 0.17901547 -0.6491286 -0.24532363 -0.5919796 -0.12255449 -1.2979816 -0.16356766
-0.07941516 0.42400146 -0.9539445 -0.43960482 -0.019545717 0.30441824 -0.15598916 -0.44895077
-0.5393058 0.08742172 -0.804746 -0.58801776 0.15965772 0.546948 -0.43092352 -0.18953402
-0.32248226 -0.3191802 -0.54575926 -0.58103585 -0.47353956 -0.2604542 -0.32172707 0.4798088
0.10965406 -0.2913728 -0.4129228 -0.23287083 -0.98059994 -0.58040816 -0.2499127 0.2102926
0.07211858 -0.6338463 -1.522472 -0.07596273 -0.19486496 -0.3541108 -0.24764682 -0.43410388
-0.2710165 -0.11231616 0.61481655 0.10364404 -0.48795888 -0.34684452 0.2800025 -0.5730369
-0.30117244 -0.5544124 -0.22759035 -0.7791216 -0.33705592 -0.6562516 0.06317083 -0.45479187
-0.29078603 -0.5024917 -0.66615653 -0.41547674 -1.0660499 -0.15373978 -0.43694735 -0.097791635
-0.86884177 -0.30186227 -0.3916664 -0.20969628 -0.48676252 -0.3522832 -0.35442054 -0.39157015
-0.20570125 -0.06341422 -0.025318328 -0.15310131 0.611154 -0.47199345 -0.5837419 -0.04924103
-0.49519032 -0.39310855 -0.1562635 -0.7062865 0.32874155 -0.4202629 -0.015417896 -0.02986583
0.54729044 -0.43187624 0.48678786 -0.6981891 -0.37906054 -0.90215033 -0.038189147 -0.3066455
-0.0034335225 0.3045654 -2.4891994 -1.352602 -1.1993715 -0.37560678 -0.2138793 -0.21434274
-0.90158355 -0.16646573 0.3328833 -0.00062554114 0.005142116 -0.19180584 0.6104002 -0.37953022
-0.81607133 -0.9507641 -0.018414669 -0.96973604 -0.22807924 -0.28905314 -0.30359676 -0.13973393
-0.24818315 0.046174686 -0.17247382 -1.3005695 -0.090987355 0.7150406 0.50993526 -0.12794615
-0.8572695 -0.5618498 0.4503026 -0.16012067 -0.8391251 -0.8211781 -0.3083647 -0.20242052
-1.4223269 0.13289288 -0.59204704 0.47677925 -0.31294718 -0.20141138 0.17091362 0.08786324
-0.6581509 -0.11553298 -0.36992332 -0.5096755 -0.28283766 -0.49962562 -0.59080255 -0.1618617
0.050460756 -0.25300133 -0.15743078 -0.16616957 -0.3725674 0.06400721 -0.32173878 -0.1666089
0.45447335 -0.37566513 -0.31207055 -1.3818576 -0.37492493 -0.39316478 -0.14125676 -0.1890059
0.13304059 -0.52703524 -0.42562068 0.52193034 -0.25260037 -0.18725729 -0.5314181 -1.1980609
0.14465472 -0.13477533 -0.50481045 -0.44146487 -0.04192171 -0.02296585 -0.083123475 -0.7286089
0.16198152 -0.1265424 -0.32403854 -0.28049645 -1.1669332 -0.1280553 -0.21068913 -0.3692233

bias f4 [10]
00000000: 2106 81be 2189 39be 5817 adbe 3ff1 f43d
00000010: a8ab 4cbe 462f 13bf 616a 85bf e9eb 1dbf
00000020: ae7c 883f c85d bd3e
-0.25199988 -0.18118717 -0.33806872 0.119600765 -0.19987357 -0.5749401 -1.0423089 -0.61688095
1.0663049 0.36985612
