checkpoints/YourNet/pruning/17/epoch-15.pth (torch, 15887 bytes, 8 tensors)

weight f4 [3, 1, 3, 3]
00000000: a85d 993e 4136 853e 0d43 d2bd f8ce a03e
00000010: 7c30 123e d00a 04bf eacb a9be 0fdd 06bf
00000020: a3aa eebe bd7b 1a3e d121 f43c 307a f5be
00000030: 128e 693e fa35 8c3d 09d2 c5be 769b 9d3e
00000040: a83b 0e3d 6151 393e 4a66 e13d 9c4b 183e
00000050: b85e ca3e f0b9 c2be 01c1 463e 6e5e 973e
00000060: da61 11bf 7ed7 00bf 4b7a 19bf
0.29954267 0.26017955 -0.10266695 0.31407905 0.14276308 -0.51579 -0.33163387 -0.5268106
-0.4661456 0.15086265 0.029801281 -0.47944784 0.22808102 0.06846233 -0.38636807 0.3078267
0.03472486 0.1809745 0.11005838 0.14872593 0.3952539 -0.38032484 0.19409563 0.29564232
-0.56789935 -0.50328815 -0.5995223

bias f4 [3]
00000000: 65b4 ecbe aa7c 60bd 56c3 02bf
-0.4623138 -0.05480639 -0.5107931

weight f4 [4, 3, 3, 3]
00000000: 9ce0 3b3d b71e 90be c5d3 c2be 0990 ca3e
00000010: 59e8 75be 0309 d8bd 7d09 24bf 7a7a 6f3c
00000020: afe3 af3e 05df 85be 5aee 20be c103 b43e
00000030: a680 47bf 9416 f2be 552c bb3e 80d3 00bf
00000040: ed1f adbe 7ca7 073f a877 c53e fdf4 2b3f
00000050: 56b8 4ebf 1e1b fd3e fb7a cdbe de4b 62bf
00000060: 0b62 ccbe 0416 1fbe 3b8b 09bf 1ca5 57bc
00000070: fc7d d23d 4633 9ebe 8998 02bf d39c 7e3e
00000080: 7744 f23d 306e 34be 50a0 293e 889a 2e3f
00000090: 2aa2 ec3d 6053 8cbd 241b 4d3d 299a 173f
000000a0: 2005 74ba 4c3a d1bd 1525 5ebe 4579 9ebe
000000b0: 9d00 b0be 9bfb 95be 0f0f 86be 2d35 32bf
000000c0: d527 b73d 6d98 13bd 26a1 043f fb84 dc3e
000000d0: 3717 1f3f 19d0 99bd 3642 8fbe 42bb 023f
000000e0: 1c45 553f 9645 7cbe 7d3f 54bf 7dee 9f3d
000000f0: 59e0 b73e 5ba8 b3be 9a43 56bf e3f6 693e
00000100: 9711 723e 50ba 0bbf 3de8 a9bd 9121 953d
00000110: 0d9c fe3e e934 d5be ad72 463d 3b9e ea3e
00000120: c8d6 08bf f114 5cbf 66dc 3ebe fe59 f0bd
00000130: 6cfd 7b3e 590b cdbe 31a3 b93d 12ec 073f
00000140: 011d 793e 1574 85bf 921a 4ebe 15cf b73e
00000150: 9ac5 f1be 63cc 31c0 cca6 2abf b815 413e
00000160: d630 ccbd f002 6fbe 4605 93bf 0c01 17c0
00000170: 7cd5 1fbf c0c5 5a3e cafe 74bd 46f1 fabe
00000180: 6ada 0e3f 8930 193f 61ab 203e 1631 bb3d
00000190: 150c 5dbe 9691 ed3e 910c a5bf 0328 803e
000001a0: e1fe 793f e1df 173e 856e 863e f702 22bf
0.0458685 -0.28148434 -0.38052192 0.39563015 -0.24014415 -0.10548594 -0.6407698 0.014616603
0.34353396 -0.26146713 -0.15715924 0.35159114 -0.77930677 -0.4728285 0.3655726 -0.50322723
-0.3381342 0.52989936 0.38567853 0.671707 -0.80750024 0.4943475 -0.4013289 -0.88397014
-0.3991855 -0.15535742 -0.53728074 -0.013161924 0.10277936 -0.30898494 -0.51014 0.24864511
0.11829465 -0.17620158 0.1656506 0.68204546 0.11554368 -0.0685184 0.05007471 0.59219605
-0.0009308625 -0.10216197 -0.21693833 -0.30951896 -0.34375468 -0.29293522 -0.26183364 -0.6961239
0.08943144 -0.036034036 0.51808393 0.43070206 0.621448 -0.075103946 -0.27980202 0.5106698
0.8330858 -0.2463592 -0.82909375 0.0780916 0.3591335 -0.35089383 -0.836969 0.22848086
0.23639522 -0.54581165 -0.08296249 0.07281793 0.49728432 -0.4164193 0.048449207 0.45823845
-0.5345273 -0.85969454 -0.18638763 -0.11735915 0.24608392 -0.4004772 0.090643294 0.5309459
0.2432747 -1.042605 -0.20127323 0.3590018 -0.4722107 -2.7780998 -0.6666076 0.18855941
-0.09970252 -0.23340964 -1.1485984 -2.359439 -0.62435126 0.21364498 -0.0598133 -0.49012202
0.55802023 0.59839684 0.15690376 0.09140222 -0.2158664 0.46400136 -1.289446 0.25030527
0.9765454 0.14831497 0.26256195 -0.63285774

bias f4 [4]
00000000: 7080 e5be 94e4 15bf 8b4e 3bbf 78bb 803b
-0.44824553 -0.5855191 -0.7316672 0.003928598

weight f4 [26, 100]
00000000: 759b 78bf 1604 d33e 19a9 0d3f c5ba 953e
00000010: 4add d7bf 366d 0abf fbef 6b3d cbf1 1d3f
00000020: e024 9f3d 69ff 95be 4fa2 d4bd 28f5 6d3d
00000030: 245b 8c3e 8601 52bf 3083 8abf d811 8cbf
00000040: c23f 93bf 5a63 8c3e bba6 d03c 49b4 c2bd
00000050: e103 01bf c7d2 88bf aa48 533f e84c 313f
00000060: 585d b2be a0ca 0ec0 1124 f3bf 500a 8ebe
00000070: 7d81 083d ad8d 743e e880 99bf c2ae 47be
00000080: 2e85 c5be d925 1cbf 2c3b 2b3f a5c5 69bf
00000090: 1be8 5dbe 44c2 40bf 4550 a9bf 70fd 6a3e
000000a0: 1e65 aabe 9871 0cbf 7429 94bf f8b4 71bf
000000b0: 10dc 7bbf 1db3 54bf d7af abbc a652 153f
000000c0: b06d 893e 8a00 85bd 7d2f 8dbf 0b95 13be
000000d0: d2d2 103e eb54 ffbe 3b5c cabf 38c2 e0bf
000000e0: 6446 50bf 54a9 40bf 84cd cb3e 2e04 eebf
000000f0: a7ec 233f 4ca4 d7bf 1934 70bf 9a53 193d
00000100: 0c58 74bf 0875 50bf dad5 38bf 2a31 b5be
00000110: f705 e9bd db4a 7fbf 0b01 1fbf 6516 09bf
00000120: b5da bebd dac0 ab3e efb9 733f f8c5 cdbf
00000130: 488e c7bf f2ff bcbe 61a1 3b3f fde5 09bf
00000140: 8253 e2bf e3db b2be e4e4 433d 01a0 0d3f
00000150: 0c09 56bf 2fa1 89bf 2dbe b73e ce57 efbe
00000160: 06f5 d33d 9667 b1bf 0b45 803d 5574 5a3e
00000170: 97d3 e4bd a5c1 7abe e7ed 77bf ccec 983e
00000180: a04e 56be b8e2 bd3f af9a 25bd 320b c33e
00000190: f39b 95bf 140c edbf 96e8 a9bf 0c0b a1bf
000001a0: 15c6 2ac0 1c36 0c3e 7000 023e 7c3d 79be
000001b0: 0c37 f0be a624 aabd 3226 bc3e 9585 0b3e
000001c0: f3a2 a73d 7076 a93c 95f1 be3e d08f 17bf
000001d0: be9c 8bbf f6a8 4d3e acc3 bd3e 5bd6 743d
000001e0: a936 07bf c9e0 86be 280f c63e c007 7e3f
000001f0: cc33 4e3f 98a7 9dbe 0c1f e53e da63 763d
00000200: fc4b b53c 6c82 37be 5f8b 17be 37a7 5dbe
00000210: faf4 e03d 0362 bcbe 2452 47bf 6b7d 65be
00000220: 9b44 5cbd 611d 513f caa7 3bbf d8c8 63bf
00000230: bdf7 02bf 4286 0b3f 93ee 423f c27b 37bf
00000240: b345 c6bf 1889 503e 8afb 0d3f 678c 05bf
00000250: aa63 2fbf 9c60 d2be 75ba 75be 555a a6bf
00000260: abb8 af3e 564d e43e 7756 b23e cf33 de3d
00000270: 37bb 423f 1804 1b3f 5d7f b33e 8061 5bbe
00000280: 70af 143f 6d40 603f 4273 50be 8b92 b5be
00000290: 45e2 73bf bdab 6f3e 1d18 d13d 0ac7 2dbf
000002a0: 6ab9 a8bf e696 893d b72a 00be 1897 2ebe
000002b0: 4099 48bf 45a7 e6be d00b ab3f 9fbc 0dbf
000002c0: be4d 2fbf 6fb6 c63e 4a18 433f ddbe db3e
000002d0: 632d 45bf f084 eebf f7ae b1bf 8403 a53e
000002e0: 9c94 813e 80ef 5abf eb8e dfbe 57aa 2bbe
000002f0: 4f79 5fbe 71da 2abf d8bf fe3d e36f bb3e
00000300: ee5a e03e 51f7 0abf d3c0 2fbf 3b97 be3e
00000310: d6c0 393f 521d 063f 81ad 803f 2f85 9cbe
00000320: 91a8 233f e81e f93f 7f1a da3f 4d8e ae3f
00000330: e7db de3f fe16 743d feb0 023f 5624 1d3f
00000340: 411a 863d a805 e03e 14ad bbbe e06d 5a3e
00000350: c273 d1be baed 93be 839c 13bf bb9a c4bd
00000360: 04f0 4dbe d08d 683d 17b0 0e3e 29fe abbe
00000370: e07c e9be 6c1a a63e fb10 ca3e b080 1a3f
00000380: 389f dc3e a858 25bf 45ab 01c0 ee45 debf
00000390: 270b 00c0 9c29 d63e 77e0 93bf cc9a 64bf
000003a0: d503 b3bf c6e6 c1bf 03d7 c9be 41c2 253f
000003b0: da7d 4c3e 528a 313e 0642 e93e b665 913f
000003c0: 1244 8c3f 103e 3b3f 0128 013f 69e8 563f
000003d0: 46c8 c03f 80b7 3dbd d2d6 61bd 46f4 b0be
000003e0: 3d0b 49be 1a19 0d3f d717 4c3f 1c9f b93e
000003f0: 5951 e6be 615c 42bf 7d34 19bf 36b3 e13d
-0.9711221 0.41214055 0.5533615 0.29244056 -1.6864407 -0.5407289 0.05760191 0.6169707
0.07770705 -0.29296425 -0.103825204 0.058095127 0.27413285 -0.82033575 -1.0821285 -1.0942945
-1.1503832 0.2741955 0.025470128 -0.09507043 -0.50396544 -1.0689324 0.8253275 0.69257975
-0.3483684 -2.2311172 -1.8995382 -0.27742243 0.033326615 0.2388217 -1.1992464 -0.19500259
-0.3857817 -0.6099525 0.66887164 -0.91317207 -0.21670572 -0.75296426 -1.3227621 0.22948241
-0.3328027 -0.5486083 -1.157515 -0.9441676 -0.98382664 -0.83085805 -0.02095787 0.58329237
0.26841497 -0.064942434 -1.1030117 -0.14412324 0.14142922 -0.49869475 -1.5809397 -1.7559271
-0.8135741 -0.75258374 0.39805233 -1.8595026 0.6403298 -1.6847014 -0.93829495 0.037433244
-0.9544685 -0.81428576 -0.7220131 -0.35389072 -0.11378091 -0.99723595 -0.62110966 -0.53549796
-0.09319059 0.33545572 0.9520559 -1.607604 -1.5590296 -0.3691402 0.7329312 -0.5386656
-1.7681735 -0.34933385 0.04782571 0.5532227 -0.83607554 -1.0752314 0.3588728 -0.46746677
0.10349469 -1.3859737 0.06263169 0.2133344 -0.1117317 -0.24487932 -0.96847385 0.29868162
-0.2092843 1.4834814 -0.04043072 0.3809448 -1.1688217 -1.8519311 -1.3274105 -1.2581496
-2.66834 0.13692516 0.1269548 -0.2433986 -0.46916997 -0.083077714 0.3674789 0.13625176
0.08185377 0.020686358 0.37293687 -0.59203815 -1.0907209 0.20083985 0.37063348 0.059774738
-0.5281778 -0.26343372 0.38683438 0.99230576 0.80547786 -0.30791926 0.4475025 0.06015382
0.022130959 -0.17920846 -0.1479926 -0.21645819 0.109842256 -0.36793527 -0.7785971 -0.22411124
-0.053776365 0.81685454 -0.733029 -0.8897834 -0.5115927 0.54501736 0.76145285 -0.71673214
-1.549002 0.20364797 0.55461943 -0.5216736 -0.6851145 -0.41089332 -0.23996909 -1.2996317
0.34320578 0.44590253 0.34831592 0.108497255 0.7606692 0.6055312 0.35058108 -0.21423912
0.58080196 0.87598306 -0.20356467 -0.35463366 -0.95267135 0.23405357 0.10209677 -0.67881835
-1.3181584 0.06718235 -0.12516294 -0.17049825 -0.7835884 -0.45049492 1.336298 -0.5536594
-0.68478 0.3881106 0.7620894 0.42919055 -0.7702238 -1.8634319 -1.388152 0.32229245
0.25308692 -0.855217 -0.43663725 -0.16764198 -0.2182362 -0.66739565 0.12438935 0.366088
0.43819374 -0.54283625 -0.686536 0.37224755 0.7255987 0.5238849 1.0052949 -0.3057036
0.63929087 1.9462557 1.7039336 1.3637177 1.7410859 0.05959224 0.5105132 0.6138357
0.06547976 0.43754315 -0.36655486 0.21330976 -0.4090863 -0.28892308 -0.5766069 -0.09599825
-0.2011109 0.056775868 0.1393436 -0.33592346 -0.45603085 0.32442033 0.3946608 0.6035261
0.43090224 -0.64588404 -2.0260785 -1.7365091 -2.0006807 0.4182862 -1.1552876 -0.892987
-1.3985544 -1.5148551 -0.39421853 0.6474953 0.19969884 0.17337921 0.45558184 1.1359165
1.0958273 0.73141575 0.50451666 0.8394838 1.5061119 -0.046317577 -0.05513651 -0.34561366
-0.19633193 0.55116427 0.79723877 0.36254203 -0.44983938 -0.7592221 -0.59845716 0.1102051

bias f4 [26]
00000000: a725 aa3f deb1 a7be 26e1 513e 133e 23be
00000010: 246d 2fbe 5a0f 503f d8d8 e83d 2d21 fbbd
00000020: b449 de3e daf2 1bbf f505 09bf 259d 89bf
00000030: a90e 773e a643 73be 7f5e 2b3f bd6f cebd
00000040: f0d7 2a3e d676 6b3d 2c24 0f3f 18ad a2be
00000050: 1d18 f53f 5134 8dbd eb18 70be 5853 15be
00000060: cd91 1cbe 249d 043f
1.329274 -0.3275289 0.20496044 -0.15941648 -0.17131478 0.81273425 0.11369485 -0.12262187
0.43415606 -0.6091744 -0.53524715 -1.0751082 0.24126686 -0.23756275 0.66941065 -0.10079906
0.16683936 0.057486378 0.5591457 -0.31772685 1.9147984 -0.06894744 -0.23447005 -0.14582574
-0.15289994 0.5180228

weight f4 [10, 26]
00000000: 2fcc a4be de2a 87be 419c 09bf 1448 393e
00000010: a499 023f 1d3f b5be 543f f4bf 08db 803d
00000020: df1c 98be 2a71 1dbf 924e 8fbf 05b2 313f
00000030: d162 6dbf c76d dcbd a0e5 953d 1290 2b3f
00000040: f7eb ccbd 5fd7 89bf 12c7 a0be ce6e afbf
00000050: 6199 05bf 1973 72be 0d95 89be 90ee 28be
00000060: 2705 05bf bd37 82be 88b3 313f 257b 26bf
00000070: 33ce 2fbe 84d3 cfbe 0f0d f4be 4cd7 3dbd
00000080: fb08 37be da94 b3be 2c45 343e 529b 88be
00000090: b26a d2bd f219 0fbf f6d4 b2bd c7b1 d9be
000000a0: c961 dabe 4a29 92be 76e8 3fbe 6176 063f
000000b0: 60da 3dbe 9b35 173f 483e 733f 9ecf 06bf
000000c0: e9bc f9be 7263 4dbe 8cb6 b8bf 46ce 40bd
000000d0: e533 e1be 94c1 08bf fcde dabd f92e 033f
000000e0: 4bf6 64bd 8e53 7d3e 3ef1 0abf 2037 2bbf
000000f0: 1a71 35bf 688d 84bd 938d b5bf a716 52be
00000100: 6dcc 02be bc64 f93e 5482 4dbf 109d 21bf
00000110: 678a e8bc 57d7 843e 4ea8 d4bd aea7 d1be
00000120: 06a9 34bf 14af 1f3e 3dd8 69bf f66c 03bf
00000130: 264d 413e 9b8b f43e d28e 11bf 28f6 87be
00000140: 8d62 2abf 2375 9dbe 3f49 c1be b44f c3be
00000150: ac2f d4be 6948 abbd 0e6c 85be 0f0e f53e
00000160: ae13 4dbd bf79 02bf 2df9 cabe 4e0c a8be
00000170: 19ea 6fbf 14c1 43bf 8eb5 bebe b173 5b3d
00000180: ff3a 693d 8f9d 1fbf 0d3e 00c0 a93d bfbd
00000190: 86a0 45be 3b4f e1be 4ace ddbe 3f57 b5be
000001a0: c147 f4be 0a1a 23be b544 423f 6ab2 e8bb
000001b0: e10b eebe 4cbe c9be 720a 4a3e 517e 2abf
000001c0: 3522 74be 8bfb 26bf c4d8 9cbe 15d6 31bf
000001d0: 53ea 88be 96ec d8be f392 e63d 4e42 d1bd
000001e0: bb12 aabe 12f3 8abe 6a95 ecbe 9ffa dcbe
000001f0: 7d58 85bf f46e b1be 4bc8 e9be e2f7 45bd
00000200: 2dbf 79bf 8fae 1bbe d23a f3be bec5 e4bd
00000210: 937c e2be 527a 26bf 3449 22be bd93 29bf
00000220: e465 a2be de41 3ebe 81eb fbbd b3bc 36be
00000230: ea17 fe3e 3dbf bfbe af27 25bf d3f3 87be
00000240: 69c8 ddbe 7996 efbe 4791 40be a574 56bf
00000250: ec64 cf3d 9852 3fbe fb74 63be 417c 1ebe
00000260: 273e 103f a2a4 23bf 9550 fd3e 3580 3cbf
00000270: 4657 8cbe 75ec 93bf e56f 85be f79c e8be
00000280: 6a88 36be 2c1d 643e 7ad8 23c0 87eb 86bf
00000290: 8a04 04c0 c1e5 83be 684f e13d 380a bbbe
000002a0: 7502 1abf af50 58be 0095 ba3e bac8 5f3d
000002b0: c681 d13c de40 71bc 224b 0f3f f5b4 21bf
000002c0: aac9 43bf 3be5 63bf 0fff dabc e5a5 40bf
000002d0: 2d18 c93d 8d79 afbe 12db b0bd 3645 3dbd
000002e0: 1d66 66be 8e79 bdbe 2833 2cbe 16eb 9abf
000002f0: caa4 f5bb 6e98 063f 6bb5 f33e 0313 45be
00000300: 08a0 5fbf 0e09 16bf 87a9 103f bc21 54be
00000310: fc01 62bf ab95 81bf cb8e 83be e946 dfbd
00000320: 90a2 adbf 1d9e c63d 81ab c8be 59ff fa3e
00000330: 1316 f1be b3c8 1abd 311a 1e3e 90c7 b2bb
00000340: 84d9 21bf f2dd 50be e877 ddbe 118f 15bf
00000350: 3f23 ccbe 3f03 13bf 3bb1 32bf f695 20bf
00000360: b4f9 d13d d8b4 b7be 8a65 7ebe 9e3e 1fbe
00000370: 09f4 b9be 686b 75bb de5b bcbe c9c6 53be
00000380: a280 033f dcc7 00bf 09e6 29bd 7a7a 6ebf
00000390: 5117 8cbe 8ea8 33bf c740 04be ecaf 78be
000003a0: 6fba 91be 5a4b f7be 6314 c8be ef95 fb3e
000003b0: 69ba 89be cca4 c63c 907f 86be 2b22 0dc0
000003c0: 99ac 223e 19d5 833e 7c0c c4be 1ea4 bfbe
000003d0: 8793 dd3d 2c01 033e 9fb7 2dbe 598f e5be
000003e0: 6ef4 e23d 680d 93be c1a1 babe 43d5 9fbe
000003f0: 8b2d bebf e87b 923d 8333 cdbe c918 aebe
-0.3218703 -0.26399893 -0.5375405 0.18093902 0.51015687 -0.35399714 -1.9081826 0.06291777
-0.29709527 -0.615008 -1.1195853 0.6941226 -0.92728907 -0.10763126 0.07319188 0.6701671
-0.10005944 -1.0768851 -0.3140188 -1.370569 -0.5218716 -0.23676719 -0.2687153 -0.16497254
-0.51960987 -0.2543315 0.6941457 -0.65031654 -0.17168503 -0.4059106 -0.47666213 -0.0463479
-0.1787452 -0.35074502 0.17604512 -0.26681 -0.10274257 -0.55898964 -0.08732025 -0.42518446
-0.4265273 -0.28547126 -0.1874102 0.5252438 -0.18540335 0.5906617 0.9501691 -0.5266055
-0.4877694 -0.20057467 -1.4430709 -0.047071718 -0.43984905 -0.53420377 -0.10687062 0.5124355
-0.055898946 0.24738905 -0.54274356 -0.6688099 -0.70875704 -0.064722836 -1.418383 -0.20516454
-0.12773295 0.48709667 -0.8027699 -0.63130283 -0.028386308 0.2594554 -0.10383664 -0.40948242
-0.7057041 0.15594131 -0.9134558 -0.51338136 0.18877086 0.4776276 -0.5685855 -0.2655499
-0.66556627 -0.3075343 -0.37751195 -0.38146746 -0.4144262 -0.083634205 -0.26059002 0.47862288
-0.050067596 -0.5096702 -0.3964323 -0.32821888 -0.9371658 -0.7646649 -0.3724789 0.05357713
0.05694103 -0.6234979 -2.0037873 -0.093379326 -0.19299516 -0.4400576 -0.4332145 -0.35418126
-0.47710994 -0.15927902 0.7588609 -0.0071013467 -0.46493438 -0.39402997 0.19730547 -0.66598994
-0.23841174 -0.65227574 -0.3063413 -0.6946729 -0.26741275 -0.42368 0.11258497 -0.10217725
-0.33217415 -0.27138573 -0.46207744 -0.4315996 -1.041763 -0.34654963 -0.45660624 -0.048332103
-0.97557336 -0.15203308 -0.47505814 -0.11170529 -0.44235668 -0.65030396 -0.15848237 -0.66241056
-0.3171836 -0.18579814 -0.12300778 -0.1784542 0.4962762 -0.3745059 -0.6451368 -0.2655321
-0.43316963 -0.4679449 -0.18805419 -0.83771735 0.10126671 -0.18683851 -0.22212593 -0.15477087
0.56344837 -0.63923085 0.49475542 -0.7363313 -0.27410334 -1.1556536 -0.2606193 -0.45432255
-0.17825475 0.22276753 -2.5600877 -1.0540627 -2.062777 -0.25761226 0.11001474 -0.36531234
-0.6016 -0.21124528 0.36441803 0.054634787 0.025574576 -0.014724938 0.5597402 -0.63166744
-0.7647959 -0.8902165 -0.02673295 -0.75253135 0.09819064 -0.34272423 -0.08635534 -0.046208583
-0.2249989 -0.370068 -0.1681639 -1.2102993 -0.007496451 0.5257634 0.47599348 -0.19245534
-0.87353563 -0.58607566 0.5650868 -0.20715994 -0.8828428 -1.01238 -0.2569488 -0.10902197
-1.3565235 0.096981265 -0.39193347 0.4902294 -0.47087154 -0.037789058 0.15439679 -0.0054559186
-0.6322253 -0.20397165 -0.43255544 -0.58421427 -0.3987064 -0.5742683 -0.6980168 -0.6272882
0.10252705 -0.3588016 -0.24843422 -0.1555123 -0.36318997 -0.0037448052 -0.3678884 -0.206813
0.51368153 -0.5030496 -0.041479144 -0.93155634 -0.2736154 -0.7017907 -0.12915336 -0.24285859
-0.2846255 -0.48299676 -0.39078054 0.49137828 -0.26900032 0.024248503 -0.26269197 -2.2052104
0.15886153 0.25748518 -0.38290775 -0.374299 0.10819154 0.12793416 -0.16964577 -0.44835928
0.110817775 -0.28721166 -0.36451533 -0.31217393 -1.4857649 0.071525395 -0.40078363 -0.34003285

bias f4 [10]
00000000: 7f56 05bf bdcc b7be 8327 a5be a4cb 013e
00000010: f63e 80be da1a 28bf 1145 8dbf 3da0 20bf
00000020: f061 973f 1028 403e
-0.5208511 -0.3589839 -0.32256708 0.12675339 -0.25048035 -0.6566597 -1.1036702 -0.62744504
1.1826763 0.18765283
