checkpoints/YourNet/pruning/18/epoch-23.pth (torch, 14927 bytes, 8 tensors)

weight f4 [3, 1, 3, 3]
0.33705366 0.30144092 -0.05402675 0.23554915 0.16756006 -0.57639354 -0.2625566 -0.698819
-0.28655663 0.08407729 0.050937418 -0.4710584 0.34576663 -0.0070048715 -0.34139174 0.23696074
0.10591525 0.20285028 0.12183884 0.1621186 0.4009763 -0.47175884 0.13320102 0.2595052
-0.5603057 -0.69380945 -0.48888847
00000000: 4c92 ac3e 7756 9a3e 274b 5dbd cc33 713e
00000010: dd94 2b3e 878e 13bf d26d 86be cde5 32bf
00000020: 8db7 92be b730 ac3d c1a3 503d 912e f1be
00000030: 5308 b13e 1f89 e5bb e6ca aebe d6a5 723e
00000040: 18ea d83d fcb7 4f3e a486 f93d 6b02 263e
00000050: c44c cd3e 608a f1be d965 083e dedd 843e
00000060: 3270 0fbf 7f9d 31bf 974f fabe

bias f4 [3]
-0.4765836 -0.0034461478 -0.5076249
00000000: c402 f4be c4d8 61bb b5f3 01bf

weight f4 [4, 3, 3, 3]
-0.047307618 -0.3988945 -0.31334043 0.3457472 -0.6230434 -0.08625054 -0.53679264 -0.08019376
0.3330264 -0.14993863 -0.11426661 0.30702528 -0.62396276 -0.28211084 0.47210798 -0.62499076
-0.24729046 0.6524506 0.3069108 0.37919635 -0.82249266 0.56415755 -0.29120535 -1.2719939
-0.18677834 -0.12735584 -1.027694 0.013375321 0.13565911 -0.122835316 -0.42047536 0.13021679
0.008883151 -0.22685997 0.15128487 0.76626796 0.058370177 0.05304831 0.15710965 0.53679824
-0.018125355 -0.12913875 -0.18524206 -0.28732446 -0.3920276 -0.27229384 -0.2730914 -0.84127516
0.0011181411 0.034792878 0.544104 0.18806884 0.7496537 -0.11136583 -0.5347492 0.76116115
0.71513224 -0.4478427 -1.005388 0.22456594 0.28231606 -0.28659308 -0.8505493 0.20872442
0.34125227 -0.5796455 0.11178513 0.06533422 0.43451285 -0.42077053 0.095215224 0.43864354
-0.3944349 -0.89963025 -0.028435493 0.039093487 0.2866819 -0.3217364 0.03712819 0.4475255
0.21049123 -1.1028877 -0.41536224 0.4895428 -0.6082374 -2.5230787 -0.5738101 0.004315355
-0.11239214 -0.3685425 -0.92570037 -1.9611799 -0.7402402 0.33332744 -0.076336354 -0.49144244
0.5625072 0.61189413 0.13062166 0.28696623 -0.38741612 0.42615488 -1.1409642 0.32640505
1.0156503 -0.012592696 0.1721399 -0.70825195
00000000: a2c5 41bd e63b ccbe 286e a0be c705 b13e
00000010: c67f 1fbf 20a4 b0bd 3e6b 09bf a03c a4bd
00000020: 7082 aa3e 8389 19be 9d04 eabd 6b32 9d3e
00000030: 06bc 1fbf d570 90be 23b8 f13e 65ff 1fbf
00000040: b639 7dbe 0107 273f 6a23 9d3e 0626 c23e
00000050: e18e 52bf a16c 103f de18 95be b2d0 a2bf
00000060: d242 3fbe 9269 02be 7a8b 83bf 2a24 5b3c
00000070: 39ea 0a3e 1591 fbbd 8c48 d7be 8d57 053e
00000080: a38a 113c fb4d 68be 6cea 1a3e 232a 443f
00000090: 9115 6f3d 2f49 593d 5ae1 203e 9c6b 093f
000000a0: a07b 94bc f33c 04be 18b0 3dbe 311c 93be
000000b0: d7b7 c8be 196a 8bbe a3d2 8bbe cf5d 57bf
000000c0: 978e 923a fa82 0e3d 664a 0b3f 1e95 403e
000000d0: 4ee9 3f3f c513 e4bd 53e5 08bf 75db 423f
000000e0: e812 373f a34b e5be 8eb0 80bf 9df4 653e
000000f0: bb8b 903e 54bc 92be 99bd 59bf dbbb 553e
00000100: 9eb8 ae3e a663 14bf 9aef e43d f3cd 853d
00000110: 7878 de3e 3c6f d7be 3300 c33d e395 e03e
00000120: 5ff3 c9be 2b4e 66bf 8df1 e8bc 7e20 203d
00000130: f8c7 923e a2ba a4be bb13 183d 1022 e53e
00000140: 038b 573e 6d2b 8dbf 5caa d4be 5ba5 fa3e
00000150: 72b5 1bbf 1f7a 21c0 38e5 12bf d267 8d3b
00000160: da2d e6bd 9ab1 bcbe b3fa 6cbf f107 fbbf
00000170: 6280 3dbf e5a9 aa3e 3c56 9cbd 589e fbbe
00000180: 7900 103f 18a5 1c3f afc1 053e 3ded 923e
00000190: 685b c6be f930 da3e 1d0b 92bf 901e a73e
000001a0: d400 823f 9851 4ebc 7145 303e 0050 35bf

bias f4 [4]
-0.47021627 -0.62787926 -0.6500171 -0.060955137
00000000: 30c0 f0be b2bc 20bf 8567 26bf 18ac 79bd

weight f4 [24, 100]
0.85136944 0.44900042 0.69716245 0.29971686 -1.9451317 -0.6301211 0.36891946 0.90152895
0.008411673 -0.20981424 -0.4381611 -0.0069498443 0.27373242 -0.6080402 0.25680578 -0.9102843
-1.4027227 0.25271836 -0.0022140394 0.15615688 -0.68178284 -1.1750435 0.5630666 0.6588957
-0.36351514 -1.4198738 -1.9036862 0.0012433045 0.06281745 0.034849413 -2.2071257 -0.27583393
-0.8259784 -0.6968037 -0.3465306 -0.75414324 -0.16375488 -1.2039222 -1.0813724 0.09740218
-0.35262865 -0.3863846 -1.0739545 -0.55124485 -0.43860123 -1.0889914 -0.4441147 0.39360207
0.39645115 0.30239013 0.8417322 0.100166894 0.14806469 -0.39426434 -1.9655025 -1.7321566
-0.8901236 -0.5433883 0.6631252 -2.262587 0.64622927 -1.4301617 -0.7975333 -0.077545196
-0.9348062 -0.4428917 -0.57375354 -0.24215035 0.058539618 -0.6530562 -1.1403916 -0.32569176
-0.10465551 0.27950203 1.4117231 -1.9022008 -0.5366202 -0.3448775 0.6560614 -0.98725396
-0.927972 -0.025081234 0.4232088 1.1092713 -1.350625 -1.2581899 0.40238547 -0.39304918
0.6444011 -1.4974487 -0.013746653 0.40149736 0.07159955 0.16863619 -0.63997984 -0.020497564
-0.17570233 1.1420194 0.96729094 0.7102507 -0.82494444 -2.0159218 -1.1308132 -1.4110956
-3.0061588 0.56854516 0.19523384 -0.08774086 -0.25865385 -0.08126121 0.29658043 0.22405873
-0.07370786 0.18112846 0.26130977 -0.5404875 -0.95127773 0.34083083 0.21864806 0.22823295
-0.90864766 0.009774514 0.4561609 1.0680474 0.80899596 -0.59919494 0.6048354 0.05463515
0.14251785 -0.41860974 -0.4275667 -0.39998013 0.34983692 -0.4277073 -1.2552046 -0.25007316
-0.1681952 0.84884876 -0.45869663 -0.73489076 -0.42592376 0.45950472 0.82320493 -0.7181731
-1.2807231 0.6871364 0.6135205 -0.5787874 -0.5628789 -0.19903632 -1.572632 -1.5694821
0.5380892 0.3194706 0.48823085 0.34833887 0.7501972 0.9549981 0.30477956 -0.40665412
0.70414495 0.90897125 -0.16093484 -0.2862481 -0.8732671 0.37212858 0.16101404 -0.4130455
-1.1835185 0.056889452 -0.10977172 -0.5160846 -0.64449435 -0.046719212 1.4841118 -0.66436285
-0.9205068 0.3883018 0.83437794 0.45683318 -1.176352 -1.8113811 -1.4112014 0.49481487
0.13720325 -0.29348612 -0.20101555 -0.3272152 -0.6297421 -0.7105887 -0.15783975 0.24326688
0.18413971 -0.5955412 -0.89514047 0.31439522 0.61285925 0.18967877 0.57955223 0.04308061
0.5929182 1.5390604 1.7846842 1.223338 1.6512216 0.14720339 0.5396102 0.71753144
0.36412543 0.31192532 -0.09622806 0.4379218 -0.26411968 -0.13564466 -0.45847708 0.02098677
-0.29005283 0.021859625 0.31809822 -0.41936505 -0.40206125 0.55227077 0.3034244 0.603965
1.001567 -0.72960174 -2.5326192 -1.937564 -1.8406576 0.851832 -1.0956165 -0.8564176
-1.2212075 -1.632061 -0.5408573 0.79644346 0.3349103 0.26882342 0.36783627 1.0869385
0.7298461 0.6176152 0.44553232 0.80968434 1.5263407 -0.36933804 -0.070368424 -0.47839534
-0.06061754 0.31865215 0.76535034 0.16394624 -0.51145697 -0.7583742 -0.56686425 0.31691793
00000000: 59f3 593f 62e3 e53e 3d79 323f 7d74 993e
00000010: 13fa f8bf 9e4f 21bf 03e3 bc3e 9aca 663f
00000020: 1dd1 093c 8bd9 56be a756 e0be 85bb e3bb
00000030: a826 8c3e 86a8 1bbf 0c7c 833e 6408 69bf
00000040: 6b8c b3bf 4d64 813e 6b19 11bb 97e7 1f3e
00000050: 5289 2ebf d367 96bf 2225 103f 63ad 283f
00000060: a81e babe 6dbe b5bf fdab f3bf 60f6 a23a
00000070: 6fa6 803d 42be 0e3d 8c41 0dc0 1b3a 8dbe
00000080: 5273 53bf ba61 32bf 756c b1be 880f 41bf
00000090: 5caf 27be 1f1a 9abf 696a 8abf cb7a c73d
000000a0: be8b b4be 34d4 c5be 5777 89bf 621e 0dbf
000000b0: 5790 e0be 1264 8bbf 0163 e3be 3686 c93e
000000c0: a5fb ca3e e1d2 9a3e c37b 573f 4d24 cd3d
000000d0: 459e 173e 04dd c9be 9695 fbbf 4fb7 ddbf
000000e0: 24df 63bf 7f1b 0bbf 93c2 293f 3ace 10c0
000000f0: 486f 253f 8a0f b7bf 242b 4cbf 04d0 9ebd
00000100: 764f 6fbf b3c2 e2be 83e1 12bf 43f6 77be
00000110: 3dc7 6f3d b12e 27bf 5af8 91bf 12c1 a6be
00000120: a155 d6bd e41a 8f3e 58b3 b43f 517b f3bf
00000130: f15f 09bf c993 b0be a4f3 273f adbc 7cbf
00000140: 938f 6dbf 2977 cdbc d3ae d83e 9afc 8d3f
00000150: 48e1 acbf 5e0c a1bf 7805 ce3e be3d c9be
00000160: 78f7 243f 66ac bfbf a439 61bc 1091 cd3e
00000170: c9a2 923d f7ae 2c3e b8d5 23bf 82ea a7bc
00000180: 50eb 33be b12d 923f 61a0 773f fdd2 353f
00000190: 8f2f 53bf dd04 01c0 7dbe 90bf c89e b4bf
000001a0: e864 40c0 2d8c 113f 61eb 473e 7bb1 b3bd
000001b0: 476e 84be 476c a6bd 64d9 973e a76f 653e
000001c0: 26f4 96bd bd79 393e 65ca 853e 645d 0abf
000001d0: f086 73bf 6181 ae3e 47e5 5f3e e6b5 693e
000001e0: 229d 68bf 4825 203c ec8d e93e c7b5 883f
000001f0: 5c1a 4f3f d764 19bf 7ed6 1a3f 1bc9 5f3d
00000200: 33f0 113e 0454 d6be 06ea dabe 32ca ccbe
00000210: d31d b33e 74fc dabe 8baa a0bf 9709 80be
00000220: 5d3b 2cbe 274e 593f 49da eabe cd21 3cbf
00000230: ae12 dabe 3444 eb3e 8fbd 523f 31da 37bf
00000240: bcee a3bf 2ce8 2f3f ae0f 1d3f 692b 14bf
00000250: d518 10bf 2dd0 4bbe 014c c9bf cae4 c8bf
00000260: 37c0 093f a791 a33e 65f9 f93e 7959 b23e
00000270: ec0c 403f c17a 743f 110c 9c3e f834 d0be
00000280: d842 343f 57b2 683f 1acc 24be 1c8f 92be
00000290: 6f8e 5fbf a387 be3e dde0 243e b37a d3be
000002a0: 897d 97bf ea04 693d ffcf e0bd 1f1e 04bf
000002b0: 95fd 24bf a55c 3fbd 60f7 bd3f af13 2abf
000002c0: 55a6 6bbf 7ecf c63e cb99 553f 0ae6 e93e
000002d0: b492 96bf 56db e7bf 3fa2 b4bf 6058 fd3e
000002e0: 027f 0c3e d043 96be 05d7 4dbe c088 a7be
000002f0: c736 21bf 24e9 35bf bea0 21be f41a 793e
00000300: 1f8f 3c3e 6375 18bf ed27 65bf 69f8 a03e
00000310: 58e4 1c3f 273b 423e 895d 143f 4b75 303d
00000320: 7dc9 173f eeff c43f 8870 e43f 5796 9c3f
00000330: 3b5b d33f 7cbc 163e e523 0a3f 24b0 373f
00000340: a66e ba3e adb4 9f3e 3813 c5bd 4937 e03e
00000350: b23a 87be 6fe6 0abe 82bd eabe 72ec ab3c
00000360: ce81 94be f512 b33c c5dd a23e 04b7 d6be
00000370: f9da cdbe 9e61 0d3f 715a 9b3e 739d 1a3f
00000380: 5933 803f 2ec7 3abf 6f16 22c0 1902 f8bf
00000390: ab9a ebbf a911 5a3f 293d 8cbf 2f3e 5bbf
000003a0: 8750 9cbf 60e7 d0bf a075 0abf b8e3 4b3f
000003b0: 5d79 ab3e 39a3 893e 0955 bc3e cd20 8b3f
000003c0: 32d7 3a3f 081c 1e3f d01c e43e 7947 4f3f
000003d0: 225f c33f e019 bdbe 521d 90bd 3cf0 f4be
000003e0: 194a 78bd 6026 a33e 00ee 433f 86e1 273e
000003f0: d8ee 02bf d024 42bf 041e 11bf 1143 a23e

bias f4 [24]
1.3515986 -0.46457914 0.11616124 -0.58566135 -0.36246678 0.48964638 -0.06430342 -0.09469499
0.75786114 -1.0536203 -0.55389214 0.19827479 0.2070666 0.9049814 0.16284268 -0.76856077
0.3989371 -0.26556596 1.9825877 -0.07174234 -0.10550874 -0.04227257 -0.1933076 0.30886495
00000000: 2f01 ad3f 51dd edbe f2e5 ed3d e7ed 15bf
00000010: 3f95 b9be eeb2 fa3e 83b1 83bd 72ef c1bd
00000020: 3003 423f 08dd 86bf e0cb 0dbf 8c08 4b3e
00000030: 4409 543e dcac 673f 3bc0 263e 66c0 44bf
00000040: 7c41 cc3e 43f8 87be 6fc5 fd3f a6ed 92bd
00000050: f714 d8bd 0126 2dbd 6df2 45be 8c23 9e3e

weight f4 [10, 24]
-0.5178325 -0.378022 -0.455623 0.17875563 0.4906298 -0.7210457 -0.77640295 0.26649475
-0.4663155 -1.4307842 0.2340811 -0.8586608 -0.16295657 0.060320944 0.58849424 -0.78026205
-0.33240476 -0.9830204 -0.33099425 -0.30973527 -0.21518596 -0.5502278 -0.51331806 -0.040136985
0.75292355 -0.7201092 -0.20445493 -0.3648728 -0.29690525 0.02761938 -0.19083409 -0.47260126
0.16416125 -0.30763942 -0.1412569 -0.13226978 -0.19328427 -0.19800644 -0.27072 -0.21630673
-0.65068054 0.5009534 0.9763446 -0.66117924 -0.7809635 -0.12391521 -1.0591091 -0.11186557
-0.12280253 -0.48157927 -0.08961335 0.5238011 0.06980686 0.37045157 -0.41888705 -0.36449915
-0.3871823 -0.6201663 0.35081625 -0.035597604 -0.062934995 -0.9443568 -0.692511 -0.037732266
-0.2476842 -0.36878198 -0.5708107 -0.03019923 -0.6486063 -0.57293266 0.09560829 0.574392
-0.51801026 -0.12292209 -0.4657413 -0.28838956 -0.3065055 -0.2094174 -0.49488977 -0.7123067
-0.13911593 0.23595835 -0.1735688 -0.37477398 -0.343742 -1.40613 -0.44653457 0.5477678
-0.23672695 -0.41548714 -0.7236225 -0.17882268 -0.14672923 -0.42198342 -0.30710718 -0.35563868
-0.22867866 -0.22708088 0.66565984 -0.0002223987 -0.45944318 -0.64405847 0.37316823 -0.862533
-0.20119528 -0.42592815 -0.57456106 -0.37182012 -0.2381269 0.14492777 -0.17994905 -0.45365164
-0.5925369 -0.37750778 -0.49552596 -0.08469582 -0.4784783 -0.02560724 -0.9909971 -0.12462501
-0.56056106 -0.22882475 -0.46546707 -0.48415536 -0.16943042 -0.51243585 -0.27709416 -0.28962502
-0.23143053 0.47990036 -0.21038026 -0.55178994 -0.13452266 -0.47318187 -0.29222086 -0.09674601
0.05493155 -0.41483125 -0.224579 -0.22970174 0.5213326 -0.48081046 0.4657841 -0.40810922
-0.19892451 -1.1698625 -0.11739855 0.010839991 -0.2337275 0.2806633 -1.5364515 -0.75712204
-0.8113526 -0.11055637 0.04942217 -0.74277616 0.03556723 0.4620612 -0.0823348 -0.08001817
0.837733 -0.3419787 -0.64051473 -0.98935306 0.03061401 -1.0690953 0.05702804 -0.3889462
-0.29979107 -0.027506106 -0.32735476 -0.6618467 -0.039141428 -0.033307847 -0.15828866 0.6000385
0.53984535 -0.3105173 -0.8859561 0.51764596 -0.31176808 -1.4197304 -0.4562732 -0.061689496
-1.1155288 0.08054059 -0.43108314 0.46907043 -0.5032545 -0.06317818 0.25442106 -0.11128952
-0.7034945 -0.09473453 -0.43491665 -0.27000293 -0.49745157 -0.58398277 -0.69306725 -0.47463822
-0.2279985 -0.38587853 0.0045861285 -0.6802447 0.54082274 -0.34547067 -0.18832028 -0.32445577
-0.34305334 -1.1528679 -0.59641725 -0.38628727 -0.15794952 -0.31194666 -0.09484497 -0.43546918
-0.2950605 0.46339455 -0.16393346 -0.18616481 -0.32585388 -1.029093 0.19038309 0.25866345
-0.36534846 -0.267033 -0.33751288 -0.06773124 -0.30551317 0.045985643 -0.20888136 -0.40864906
-1.3664564 0.112620704 -0.58382297 -0.34054363 -0.17049554 0.36269507 -0.73144484 -0.22588769
00000000: ac90 04bf 198c c1be 6b47 e9be b70b 373e
00000010: d433 fb3e 7396 38bf 58c2 46bf 0072 883e
00000020: e8c0 eebe f023 b7bf f5b2 6f3e 32d1 5bbf
00000030: 16de 26be 1813 773d 8fa7 163f 41bf 47bf
00000040: f530 aabe 3aa7 7bbf 1478 a9be 9f95 9ebe
00000050: b559 5cbe bbdb 0cbf d068 03bf ae66 24bd
00000060: 99bf 403f 1459 38bf a25c 51be 9cd0 babe
00000070: f703 98be 0a42 e23c 036a 43be cbf8 f1be
00000080: e319 283e ea82 9dbe a6a5 10be bb71 07be
00000090: 50ec 45be 33c2 4abe d09b 8abe 837f 5dbe
000000a0: 0093 26bf 7b3e 003f b8f1 793f 0b43 29bf
000000b0: 39ed 47bf 42c7 fdbd e390 87bf c719 e5bd
000000c0: e57f fbbd 8f91 f6be 3487 b7bd d417 063f
000000d0: e6f6 8e3d d4ab bd3e 5d78 d6be a29f babe
000000e0: c23c c6be 38c3 1ebf 309e b33e cbce 11bd
000000f0: 10e4 80bd 5ec1 71bf 6748 31bf 268d 1abd
00000100: eda0 7dbe fed0 bcbe a620 12bf 6064 f7bc
00000110: 100b 26bf b7ab 12bf 47ce c33d 5b0b 133f
00000120: 529c 04bf 94be fbbd a575 eebe cca7 93be
00000130: 4aee 9cbe 8471 56be 3162 fdbe bb59 36bf
00000140: 6874 0ebe 119f 713e 05bc 31be 60e2 bfbe
00000150: f4fe afbe 11fc b3bf 2ea0 e4be 833a 0c3f
00000160: 8d68 72be bbba d4be 533f 39bf 4b1d 37be
00000170: 3040 16be 360e d8be 273d 9dbe 4616 b6be
00000180: bd2a 6abe e487 68be af68 2a3f b233 69b9
00000190: 233c ebbe 04e1 24bf e80f bf3e f6ce 5cbf
000001a0: 2306 4ebe 4113 dabe 6f16 13bf 355f bebe
000001b0: 8ad7 73be f267 143e 9044 38be 0745 e8be
000001c0: 80b0 17bf b348 c1be 94b5 fdbe 0175 adbd
000001d0: 1cfb f4be 46c6 d1bc fcb1 7dbf 663b ffbd
000001e0: ee80 0fbf 0951 6abe b351 eebe 36e3 f7be
000001f0: 2b7f 2dbe ff2e 03bf 49df 8dbe bb49 94be
00000200: 20fc 6cbe 80b5 f53e ec6d 57be 1b42 0dbf
00000210: 4fc0 09be e544 f2be f99d 95be c622 c6bd
00000220: e8ff 603d c364 d4be 0af8 65be ef36 6bbe
00000230: 0e76 053f ca2c f6be 417b ee3e b1f3 d0be
00000240: deb2 4bbe 0ebe 95bf a76e f0bd 389a 313c
00000250: 4356 6fbe 1ab3 8f3e 71aa c4bf c0d2 41bf
00000260: ceb4 4fbf 616b e2bd e76e 4a3d 9426 3ebf
00000270: f2ae 113d 4993 ec3e 269f a8bd 91e0 a3bd
00000280: ab75 563f d517 afbe c6f8 23bf 3e46 7dbf
00000290: 3bca fa3c 1dd8 88bf 3c96 693d f523 c7be
000002a0: 377e 99be 7c54 e1bc 0b9b a7be c96e 29bf
000002b0: c352 20bd cf6d 08bd 6c16 22be 209c 193f
000002c0: 4e33 0a3f 20fc 9ebe 05ce 62bf 7284 043f
000002d0: 11a0 9fbe bab9 b5bf a49c e9be 20ae 7cbd
000002e0: a6c9 8ebf 77f2 a43d eeb6 dcbe 002a f03e
000002f0: 49d5 00bf 9063 81bd 7a43 823e c3eb e3bd
00000300: 3718 34bf 2d04 c2bd 65ad debe d33d 8abe
00000310: f9b1 febe e57f 15bf db6c 31bf c803 f3be
00000320: 7078 69be df91 c5be 3c47 963b 8424 2ebf
00000330: 5c73 0a3f 88e1 b0be 08d7 40be 111f a6be
00000340: b0a4 afbe 2d91 93bf cdae 18bf 72c7 c5be
00000350: 85bd 21be 79b7 9fbe 143e c2bd d1f5 debe
00000360: 2b12 97be 0d42 ed3e 2cde 27be fda1 3ebe
00000370: 52d6 a6be 52b9 83bf c9f3 423e 896f 843e
00000380: f40e bbbe 8db8 88be 7dce acbe adb6 8abd
00000390: 396c 9cbe 715b 3c3d ffe4 55be 733a d1be
000003a0: 0be8 aebf afa5 e63d 6c75 15bf bc5b aebe
000003b0: 6296 2ebe 2bb3 b93e f83f 3bbf 1a4f 67be

bias f4 [10]
-0.41909218 0.031028679 -0.49951458 0.090058304 -0.07673689 -0.4307308 -0.72877085 -0.4578945
1.1141653 -0.007794582
00000000: 4093 d6be db2f fe3c 60c0 ffbe 7d70 b83d
00000010: 3b28 9dbd bf88 dcbe ba90 3abf 2671 eabe
00000020: f89c 8e3f b169 ffbb
