checkpoints/YourNet/pruning/18/epoch-3.pth (torch, 14927 bytes, 8 tensors)

weight f4 [3, 1, 3, 3]
0.35396785 0.3385474 -0.019007593 0.25013223 0.14562805 -0.6152306 -0.28326365 -0.53715634
-0.1896792 0.099984765 0.025187125 -0.44081447 0.25280175 0.045822643 -0.35985577 0.33099508
0.10206365 0.1618115 0.12720084 0.13834757 0.3606308 -0.45470214 0.15773639 0.2457458
-0.33188292 -0.3872472 -0.38982126
00000000: 463b b53e 1656 ad3e d0b5 9bbc 5511 803e
00000010: 851f 153e c17f 1dbf ef07 91be 1483 09bf
00000020: 443b 42be d0c4 cc3d 3b55 ce3c 6fb2 e1be
00000030: 3b6f 813e 86b0 3b3d 043f b8be 3078 a93e
00000040: bf06 d13d eab1 253e f040 023e fcaa 0d3e
00000050: 9aa4 b83e b8ce e8be a685 213e c9a4 7b3e
00000060: 8fec a9be 4445 c6be a796 c7be

bias f4 [3]
-0.406558 0.013866035 -0.38762534
00000000: 5f28 d0be 5e2e 633c d476 c6be

weight f4 [4, 3, 3, 3]
-0.11858529 -0.27794734 -0.34941044 0.3163057 -0.15926492 -0.1831292 -0.3291732 -0.033737056
0.38220856 -0.22781742 -0.10917499 0.3917669 -0.6647667 -0.26539552 0.40510592 -0.80971247
-0.26460364 0.5362636 0.30580568 0.49027938 -0.51436335 0.3924032 -0.36871573 -0.8919181
-0.27933782 -0.09535956 -0.54156095 -0.052059576 0.2289742 -0.2653889 -0.3311895 0.13490202
0.018963471 -0.116030626 0.1101506 0.72041225 0.13931395 -0.044893276 0.11895656 0.46748927
-0.016900081 -0.15906212 -0.26579973 -0.29173523 -0.4855146 -0.32344374 -0.35122854 -0.3085164
-0.00071125 0.040967375 0.4193427 0.35670125 0.5428381 -0.042599004 -0.30869344 0.5964048
0.7474536 -0.4945649 -1.058135 0.0665082 0.26967174 -0.34737515 -0.8184422 0.10940119
0.32503918 -0.6500987 0.081709616 0.08665953 0.52294743 -0.50631106 0.052486595 0.41056353
-0.28637493 -0.973803 -0.113115475 0.07886161 0.25731763 -0.48139486 0.07659476 0.49851054
0.2184636 -0.8528396 -0.24561556 0.38965642 -0.25178882 -2.752824 -0.5629194 -0.057867408
-0.18371329 -0.4264243 -0.8352022 -1.9609313 -0.60691994 0.2719508 -0.17050533 -0.33784214
0.524263 0.48487458 0.1415202 0.25795907 -0.2999729 0.43120936 -1.1168443 0.12819667
0.90580726 0.13489908 -0.03250726 -0.79538584
00000000: d8dc f2bd 1d4f 8ebe ede5 b2be d2f2 a13e
00000010: 5816 23be 3986 3bbe 6489 a8be de2f 0abd
00000020: d7b0 c33e f848 69be 2397 dfbd ac95 c83e
00000030: 272e 2abf ece1 87be 0b6a cf3e 5149 4fbf
00000040: 217a 87be 9248 093f 9092 9c3e e605 fb3e
00000050: 51ad 03bf 12e9 c83e 4fc8 bcbe bf54 64bf
00000060: 5e05 8fbe df4b c3bd bda3 0abf 6c3c 55bd
00000070: 3678 6a3e 0ee1 87be ac91 a9be c123 0a3e
00000080: 4859 9b3c 77a1 edbd a396 e13d f06c 383f
00000090: 51a8 0e3e 03e2 37bd 7f9f f33d c15a ef3e
000000a0: 0a72 8abc 2ee1 22be e716 88be 525e 95be
000000b0: 5f95 f8be 6b9a a5be 3ad4 b3be ddf5 9dbe
000000c0: 2e73 3aba 68cd 273d 16b4 d63e 8ca1 b63e
000000d0: 70f7 0a3f 4b7c 2ebd 110d 9ebe fcad 183f
000000e0: 1e59 3f3f 9c37 fdbe f870 87bf 7335 883d
000000f0: 6a12 8a3e 28db b1be 6e85 51bf bb0d e03d
00000100: 896b a63e de6c 26bf 5f57 a73d 8d7a b13d
00000110: e2df 053f 9a9d 01bf 2ffc 563d 6235 d23e
00000120: bc9f 92be 274b 79bf 16a9 e7bd 3282 a13d
00000130: 23bf 833e 6379 f6be b7dd 9c3d c63c ff3e
00000140: ecb4 5f3e b253 5abf a582 7bbe 0c81 c73e
00000150: 77ea 80be 452e 30c0 7c1b 10bf 6006 6dbd
00000160: 561f 3cbe 4954 dabe d0cf 55bf ccff fabf
00000170: 1b5f 1bbf 233d 8b3e f398 2ebe a5f9 acbe
00000180: 1a36 063f 7b41 f83e acea 103e 3613 843e
00000190: 0c96 99be 79c7 dc3e c1f4 8ebf fd45 033e
000001a0: fce2 673f fc22 0a3e 5526 05bd 689e 4bbf

bias f4 [4]
-0.41744772 -0.5553316 -0.6975736 -0.09263297
00000000: b5bb d5be 362a 0ebf 2f94 32bf 5bb6 bdbd

weight f4 [24, 100]
-1.4187548 0.4591876 0.3364321 0.3344704 -1.3172016 -0.45445168 0.13572676 0.7989804
0.09720637 -0.015727801 0.23182146 0.38638866 0.54279256 -0.7830696 -0.23167121 -1.1588043
-1.059942 0.4380488 -0.3044466 -0.7225185 -0.7161853 -1.3427333 0.6844947 0.65890026
-0.4481185 -1.6677542 -1.7638465 -0.014996377 0.22408925 0.050451815 -1.0965996 -0.27783197
-0.6623987 -0.80726045 0.19376208 -0.4865934 -0.23817237 -1.0098388 -1.3837514 -0.14910714
-0.4542017 -0.4959636 -1.3665092 -0.7551823 -0.28094545 -1.0344857 0.07427782 0.34480938
0.03727872 0.30249694 -0.5190824 0.27186766 0.28373247 -0.3285595 -2.440396 -1.6696262
-0.7295337 -0.40218514 0.6513088 -1.6727318 0.7664172 -1.8511282 -0.6168994 0.025827538
-1.1337938 -1.0559831 -0.0024236133 -0.26925886 0.08526661 -1.2028772 -1.4239016 -0.5684056
-0.3462079 0.15337053 0.7266074 -1.3504132 -1.2037446 -0.24175817 0.5174346 -0.5597462
-1.0782514 -0.19027321 0.30775505 1.1489109 -1.001712 -0.94087523 0.2975549 -0.21165763
1.1817292 -0.9854917 -0.06848046 -0.025862189 0.14238152 0.06100565 -0.77631325 0.15744676
-0.25742525 1.2834293 0.34139362 0.676612 -0.8481552 -1.7697449 -1.253569 -1.0104415
-2.935288 0.1973652 0.22493364 -0.012826196 -0.15269147 -0.26207486 0.3581799 0.27089652
0.15222625 0.3229378 0.0264612 -0.1880464 -0.8660736 0.33383995 0.38072935 0.08480611
-0.23274036 -0.38624477 0.433514 0.9580466 0.5894276 -0.85446376 0.64739984 -0.06253646
0.023979167 -0.5309125 -0.44081438 -0.44648853 -0.043319743 -0.7965249 -0.9484176 -0.5199897
-0.08984906 0.5949198 -0.635844 -0.71878225 -0.20920716 0.42133 0.60829496 -0.4219453
-0.87614167 0.6864327 0.5612208 -0.6847298 -0.48190686 0.05502401 -0.90077823 -1.4403034
0.26431954 0.23160663 0.45643687 0.24376719 1.0486938 0.48639715 0.43113932 -0.25359917
0.61611927 0.814054 0.03803737 -0.42758232 -0.93892485 0.16609834 0.109020956 -0.51551664
-1.1996412 0.103609614 0.115768746 -0.35099772 -0.79469657 -0.3306854 1.4937317 -0.50625765
-0.6350958 0.43937877 0.74542046 0.34103557 -0.89356637 -1.3821625 -1.2195604 0.6165726
0.17745838 -0.35826024 -0.47533855 -0.2635906 -0.12190264 -0.58681947 0.050084785 0.17477842
0.54762954 -0.27974612 -0.8876246 0.34753218 0.7620937 0.33665976 0.66383594 0.1995136
0.75307417 1.5433093 1.936084 1.5460438 1.251153 -0.035883255 0.44154978 0.57345474
0.2294954 0.22886048 -0.52679384 0.19588418 -0.2494811 -0.15251216 -0.7267635 0.10873561
-0.06352085 -0.085194245 0.19345383 -0.44580546 -0.14743744 0.44353545 0.24212663 0.5069362
0.39421746 -0.6171129 -2.3475049 -1.7555176 -2.0261962 0.29322714 -1.0335859 -0.57159305
-1.3523347 -1.6847265 -0.6719717 0.82327235 0.3778601 0.1674302 0.43826225 0.7838449
1.030821 0.53708416 0.3720985 0.7290981 1.7374895 -0.020184651 0.12520349 -0.387477
-0.12216042 0.53765655 0.7316021 0.73268247 -0.26611257 -0.7368972 -0.5924087 0.1698934
00000000: c299 b5bf a31a eb3e d440 ac3e b43f ab3e
00000010: 109a a8bf e4ad e8be f5fb 0a3e fb89 4c3f
00000020: 2214 c73d 97d7 80bc 9b62 6d3e bcd4 c53e
00000030: 74f4 0a3f 4077 48bf 383b 6dbe b353 94bf
00000040: 2eac 87bf ef47 e03e 6de0 9bbe f9f6 38bf
00000050: eb57 37bf afde abbf 0b3b 2f3f b0ad 283f
00000060: ca6f e5be f878 d5bf b9c5 e1bf 5db3 75bc
00000070: a777 653e 90a6 4e3d 605d 8cbf fe3f 8ebe
00000080: f692 29bf 9fa8 4ebf 9169 463e c522 f9be
00000090: 75e3 73be 6642 81bf c41e b1bf 8baf 18be
000000a0: 208d e8be f1ee fdbe c6e9 aebf a153 41bf
000000b0: 15d8 8fbe 076a 84bf f81e 983d db8a b03e
000000c0: 92b1 183d e1e0 9a3e 96e2 04bf 3d32 8b3e
000000d0: 6245 913e f338 a8be 732f 1cc0 50b6 d5bf
000000e0: b8c2 3abf 36eb cdbe 2cbc 263f 131c d6bf
000000f0: eb33 443f c5f1 ecbf 1eed 1dbf 4694 d33c
00000100: 2820 91bf 742a 87bf 7cd5 1ebb 4cdc 89be
00000110: 43a0 ae3d e1f7 99bf 6842 b6bf 0883 11bf
00000120: 2942 b1be 2a0d 1d3e f102 3a3f 57da acbf
00000130: 4e14 9abf 748f 77be 9876 043f 874b 0fbf
00000140: 2404 8abf fbd6 42be 1292 9d3e 830f 933f
00000150: 1938 80bf 33dd 70bf 1e59 983e c7bc 58be
00000160: e742 973f 2f49 7cbf 7c3f 8cbd f1dc d3bc
00000170: 76cc 113e 0fe1 793d 77bc 46bf b939 213e
00000180: 3ecd 83be 6947 a43f 25cb ae3e 7236 2d3f
00000190: b320 59bf 0087 e2bf f374 a0bf 2656 81bf
000001a0: c2db 3bc0 1a1a 4a3e 0155 663e f724 52bc
000001b0: 275b 1cbe ad2e 86be 5b63 b73e f3b2 8a3e
000001c0: 33e1 1b3e 1a58 a53e 29c5 d83c 3c8f 40be
000001d0: 00b7 5dbf 12ed aa3e f5ee c23e d3ae ad3d
000001e0: 7d53 6ebe e0c1 c5be 8cf5 dd3e 8b42 753f
000001f0: bae4 163f 23be 5abf ffbb 253f 1e13 80bd
00000200: f56f c43c e2e9 07bf 6cb2 e1be 259a e4be
00000210: 0b70 31bd 0ee9 4bbf 7fcb 72bf 0c1e 05bf
00000220: c902 b8bd aa4c 183f acc6 22bf 1d02 38bf
00000230: 673a 56be 91b8 d73e 38b9 1b3f 3709 d8be
00000240: d24a 60bf 0eba 2f3f 2bac 0f3f 744a 2fbf
00000250: 7fbc f6be db60 613d 6799 66bf dd5b b8bf
00000260: e454 873e 4a2a 6d3e 18b2 e93e 1b9e 793e
00000270: 993b 863f 0c09 f93e 4bbe dc3e c0d7 81be
00000280: feb9 1d3f d865 503f 13cd 1b3d 12ec dabe
00000290: 615d 70bf af15 2a3e 6146 df3d e6f8 03bf
000002a0: d88d 99bf 4731 d43d 2a18 ed3d f9b5 b3be
000002b0: 3c71 4bbf 994f a9be 9a32 bf3f 1a9a 01bf
000002c0: a395 22bf 41f6 e03e e0d3 3e3f 379c ae3e
000002d0: c4c0 64bf b3ea b0bf 8e1a 9cbf b4d7 1d3f
000002e0: a6b7 353e e36d b7be 935f f3be 59f5 86be
000002f0: 17a8 f9bd cd39 16bf b425 4d3d 1df9 323e
00000300: 7331 0c3f e23a 8fbe 5e3b 63bf bdef b13e
00000310: 9318 433f ab5e ac3e 27f1 293f 4b4d 4c3e
00000320: 78c9 403f 298b c53f 9ad1 f73f c3e4 c53f
00000330: c825 a03f 52fa 12bd d012 e23e eecd 123f
00000340: d800 6b3e 675a 6a3e f6db 06bf dd95 483e
00000350: f977 7fbe 262c 1cbe 2c0d 3abf c7b0 de3d
00000360: 3817 82bd 527a aebd c318 463e 9d40 e4be
00000370: d7f9 16be 1417 e33e 0bf0 773e 92c6 013f
00000380: dfd6 c93e 1cfb 1dbf 853d 16c0 cdb4 e0bf
00000390: 33ad 01c0 de21 963e 8b4c 84bf ec53 12bf
000003a0: 4e19 adbf 1ea5 d7bf 5606 2cbf fac1 523f
000003b0: e176 c13e d372 2b3e e963 e03e 0faa 483f
000003c0: f1f1 833f 597e 093f b283 be3e 2ca6 3a3f
000003d0: 0e66 de3f 485a a5bc 5835 003e 6363 c6be
000003e0: 3e2f fabd dca3 093f 464a 3b3f 1491 3b3f
000003f0: e83f 88be 4ba5 3cbf 19a8 17bf 89f8 2d3e

bias f4 [24]
1.3416537 -0.42911664 0.35478035 -0.41100243 -0.19310461 0.6716456 0.03724894 0.010664967
0.4648268 -0.6491758 -0.878223 0.16004132 0.06847839 0.885819 -0.08939248 -0.30584317
0.47648522 -0.15651023 1.9503511 -0.20300667 -0.12903695 -0.24176857 -0.49219194 0.6947976
00000000: 4fbb ab3f 2db5 dbbe c5a5 b53e e96e d2be
00000010: 37bd 45be f7f0 2b3f 5892 183d 1dbc 2e3c
00000020: c7fd ed3e 6330 26bf 39d3 60bf dfe1 233e
00000030: 663e 8c3d 09c5 623f 6813 b7bd 7a97 9cbe
00000040: dff5 f33e 3844 20be 1ba5 f93f fbe0 4fbe
00000050: 4322 04be 2e92 77be 9500 fcbe 41de 313f

weight f4 [10, 24]
-0.5009268 -0.24386182 -0.3097098 -0.11246581 0.5348263 -0.5751572 -1.9532306 -0.0025399874
-0.1157981 -1.409356 0.56566507 -0.887308 -0.1499662 0.13708076 0.6867409 -0.5072283
-0.3096158 -1.8306295 -0.59082144 -0.57767695 -0.27910152 -0.7655024 -0.47549435 -0.20956802
0.594503 -0.82317024 -0.10528062 -0.60626113 -0.66171783 -0.23325285 -0.13845639 -0.8114107
0.20197803 -0.32262704 -0.45576233 -0.12066759 -0.27914575 -0.5169382 -0.2842923 -0.010997673
-0.4774223 0.61045927 0.96782726 -0.516096 -0.428898 -0.3893198 -0.8334937 -0.10761023
-0.25228885 -0.42457375 -0.041091867 0.47008356 -0.023743248 0.15112288 -0.3505435 -0.19242
-0.75819856 -0.5870336 -0.100189835 -0.14493322 -0.002173291 -0.926122 -0.6169827 0.038472723
-0.15399872 -0.3103917 -0.6524049 0.101694666 -0.80441463 -0.33339235 0.061188888 0.52658516
-0.61141247 -0.2944553 -0.55170625 -0.15954563 -0.45116177 -0.3199843 -0.70825577 -0.78657126
-0.20668408 0.21547057 -0.29092774 -0.48701963 -0.5354659 -1.4340072 -0.7680711 0.407018
-0.31088662 -0.8318127 -1.6542243 -0.35844532 -0.22744595 -0.66385365 -0.5067713 -0.44760776
-0.34603098 -0.13402602 0.7378922 -0.063237436 -0.38777438 -0.466927 0.29801053 -0.80192405
-0.16818923 -0.46562058 -1.0700707 -0.34438637 -0.19932397 -0.06611689 -0.37699446 -0.7590912
-0.6369504 -0.7044112 -1.0984983 -0.5287918 -0.47337765 -0.23950493 -1.1369857 -0.06581684
-0.47424892 -0.29068735 -0.6572332 -0.6492452 -0.24569851 -0.41194302 -0.39864305 0.22632493
-0.008840252 0.2934856 -0.27320606 -0.6661626 -0.11600608 -0.45892343 -0.44080845 -0.24587613
0.16668431 -0.39666006 -0.3012962 -0.078588456 0.5620628 -0.5181856 0.5043882 -0.5111932
-0.3559691 -0.95233226 -0.18115188 -0.24659365 -0.109472066 0.4022009 -2.078628 -1.0999546
-0.7656646 0.02138279 -0.15703154 -0.8352171 -0.090811975 0.36390185 0.008917271 -0.3129273
0.7208595 -0.36231434 -1.1081152 -0.84035736 0.0024735276 -0.9501472 -0.0087837335 -0.44700488
-0.56761676 -0.15139456 -0.31080878 -0.21624942 -0.27171105 -1.8255106 -0.10207443 0.7261909
0.4746453 -0.6070131 -0.8184877 0.48223826 -0.31056058 -0.8207778 -0.9313394 -0.06421191
-1.0272404 -0.15136565 -0.49976864 0.47673175 -0.537807 -0.28590208 0.30807418 -0.2111421
-0.8636699 -0.26656023 -0.50827503 -0.6628995 -0.6488428 -0.65918106 -0.8520528 -0.4887398
-0.21551384 -0.31408337 -0.2661279 -0.5384601 0.36882806 -0.5816092 -0.3232476 -0.4596875
-0.34785956 -1.5821418 -0.6392425 -0.6494346 -0.19679931 -0.2002291 -0.2737491 -0.5472232
-0.39207888 0.5035108 -0.35427922 -0.3199882 -0.3275453 -1.2755982 0.14568368 -0.10152339
-0.5740425 -0.16610003 -0.32512596 -0.11031663 -0.44590503 0.14299512 -0.34789234 -0.2600174
-1.0069634 -0.05517783 -0.40744877 -0.42093426 -0.22855964 0.41594896 -0.7429581 -0.43055293
00000000: bd3c 00bf eab6 79be 4892 9ebe 7954 e6bd
00000010: 60ea 083f 813d 13bf 7603 fabf eb75 26bb
00000020: 8e27 edbd c765 b4bf 6dcf 103f 9e26 63bf
00000030: bd90 19be e65e 0c3e 40ce 2f3f b7d9 01bf
00000040: f685 9ebe 1152 eabf 1340 17bf a3e2 13bf
00000050: 65e6 8ebe f7f7 43bf ff73 f3be 0099 56be
00000060: 5931 183f 49bb 52bf 5e9d d7bd ee33 1bbf
00000070: 5766 29bf d6d9 6ebe 83c7 0dbe 9db8 4fbf
00000080: 54d3 4e3e 5f2f a5be ae59 e9be 9220 f7bd
00000090: 31ec 8ebe 1056 04bf c38e 91be 952f 34bc
000000a0: b270 f4be 0f47 1c3f 87c3 773f de1e 04bf
000000b0: 8598 dbbe ed54 c7be d85f 55bf c162 dcbd
000000c0: 012c 81be bb61 d9be f24f 28bd cbae f03e
000000d0: 3381 c2bc f5bf 1a3e 707a b3be c009 45be
000000e0: 4d19 42bf d647 16bf 5430 cdbd 6069 14be
000000f0: c66d 0ebb 5516 6dbf 94f2 1dbf 9395 1d3d
00000100: d7b1 1dbe a9eb 9ebe 0204 27bf 4b45 d03d
00000110: 1eee 4dbf 67b2 aabe 33a1 7a3d 49ce 063f
00000120: 8785 1cbf d8c2 96be 9f3c 0dbf ee5f 23be
00000130: adfe e6be fbd4 a3be 4050 35bf bc5c 49bf
00000140: fea4 53be 51a4 5c3e 7bf4 94be a35a f9be
00000150: 4b14 09bf 8c8d b7bf 4fa0 44bf aa64 d03e
00000160: 882c 9fbe adf1 54bf 9fbd d3bf 2586 b7be
00000170: 97e7 68be 50f2 29bf c4bb 01bf d82c e5be
00000180: f92a b1be 1e3e 09be 81e6 3c3f a182 81bd
00000190: 5d8a c6be 0e11 efbe d694 983e e54a 4dbf
000001a0: cc39 2cbe d265 eebe 14f8 88bf 6953 b0be
000001b0: 951b 4cbe 4b68 87bd 6b05 c1be cd53 42bf
000001c0: 2e0f 23bf 4b54 34bf 989b 8cbf e65e 07bf
000001d0: 8e5e f2be c840 75be bf88 91bf fbca 86bd
000001e0: c1d0 f2be f9d4 94be 6f40 28bf ef34 26bf
000001f0: 6498 7bbe 32ea d2be f11a ccbe b9c1 673e
00000200: b4d6 10bc bf43 963e aae1 8bbe a289 2abf
00000210: 9894 edbd 03f8 eabe a5b1 e1be f4c6 7bbe
00000220: 4baf 2a3e 0717 cbbe 7f43 9abe fcf2 a0bd
00000230: 59e3 0f3f d0a7 04bf 961f 013f 8fdd 02bf
00000240: 9541 b6be 0ccc 73bf e17f 39be 0c83 7cbe
00000250: e432 e0bd 47ed cd3e 3e08 05c0 50cb 8cbf
00000260: 9802 44bf f62a af3c e0cc 20be cad0 55bf
00000270: a1fb b9bd 5851 ba3e bf19 123c 0238 a0be
00000280: 408a 383f 4481 b9be b8d6 8dbf a921 57bf
00000290: e81a 223b d93c 73bf a6e9 0fbc d3dd e4be
000002a0: 554f 11bf 2d07 1bbe 5422 9fbe 7d70 5dbe
000002b0: b61d 8bbe 55aa e9bf 660c d1bd a6e7 393f
000002c0: b504 f33e 3665 1bbf 6988 51bf efe7 f63e
000002d0: cc01 9fbe 7e1e 52bf 426c 6ebf 8981 83bd
000002e0: 9d7c 83bf 99ff 1abe ade1 ffbe 2f16 f43e
000002f0: b8ad 09bf c261 92be e6bb 9d3e a235 58be
00000300: 7819 5dbf 957a 88be 501e 02bf c8b3 29bf
00000310: 901a 26bf 17c0 28bf 2220 5abf 1a3c fabe
00000320: a9af 5cbe 89cf a0be eb41 88be 85d8 09bf
00000330: 08d7 bc3e 57e4 14bf b680 a5be 295c ebbe
00000340: a61a b2be 9f83 cabf 65a5 23bf 5941 26bf
00000350: c285 49be db08 4dbe d828 8cbe d216 0cbf
00000360: 90be c8be 15e6 003f 1664 b5be 7ed5 a3be
00000370: 04b4 a7be cd46 a3bf 1a2e 153e 7feb cfbd
00000380: 73f4 12bf 2016 2abe e976 a6be afed e1bd
00000390: aa4d e4be 506d 123e f21e b2be 0021 85be
000003a0: 2de4 80bf 2602 62bd 209d d0be b284 d7be
000003b0: 8a0b 6abe 43f7 d43e 8132 3ebf 6f71 dcbe

bias f4 [10]
-0.8998889 -1.0918765 -1.6879498 0.69423807 -0.68944776 -1.2176092 -1.2975546 -1.0874879
1.9621155 -0.27244967
00000000: 1e5f 66bf 9cc2 8bbf bd0e d8bf 96b9 313f
00000010: a67f 30bf 9eda 9bbf 4516 a6bf ce32 8bbf
00000020: 9a26 fb3f 867e 8bbe
