checkpoints/YourNet/pruning/18/epoch-12.pth (torch, 14799 bytes, 8 tensors)

weight f4 [3, 1, 3, 3]
000000 02 4a 9c 3e 99 85 be 3e 53 1d 4e bd 97 73 8e 3e
       0.30525213 0.37211302 -0.050320935 0.27822563
000010 c4 37 20 3e 4f 7d 48 bf 94 e7 c3 be 7e 2e 1e bf
       0.15646273 -0.78316206 -0.38262618 -0.6178969
000020 6b 1e 7b be 28 40 5a 3e 8d 8b a4 3d d9 ba 07 bf
       -0.24523322 0.21313536 0.0803443 -0.5301948
000030 9d ed 79 3e 95 5c 91 bc 68 03 9f be 78 e0 a6 3e
       0.24407049 -0.017744342 -0.31057286 0.3259313
000040 22 0a 3f 3e 96 a8 28 3e e3 a5 c9 3d 91 e4 20 3e
       0.18656209 0.1647056 0.098460935 0.15712191
000050 40 ea f9 3e 6a 15 e0 be 02 78 6a 3d da 70 1e 3e
       0.4881153 -0.43766338 0.057243355 0.15472737
000060 fd a7 01 bf 06 93 24 bf 22 93 f9 be
       -0.50646955 -0.6428684 -0.48745066

bias f4 [3]
000000 52 63 f9 be a8 13 86 bd 98 9d f3 be
       -0.48708588 -0.06546718 -0.47581172

weight f4 [4, 3, 3, 3]
000000 50 73 13 be 88 5c b1 be 68 d9 af be 13 d9 e3 3e
       -0.14399457 -0.34640908 -0.34345555 0.44501552
000010 86 14 6c be 9b f9 33 be ae 54 f3 be 92 65 b1 bd
       -0.23054704 -0.17575686 -0.47525543 -0.08661951
000020 30 3c b9 3e 65 12 b4 be 28 f4 43 be 3a 30 c7 3e
       0.36178732 -0.35170284 -0.19136107 0.3890398
000030 2e 0f 0b bf 6c 53 a6 be cc 51 d9 3e 96 95 4e bf
       -0.5432004 -0.3248552 0.4244522 -0.80697
000040 a9 e3 07 be 81 03 09 3f 0c 77 b6 3e 48 26 15 3f
       -0.13270439 0.5352097 0.356377 0.5826154
000050 6d 1f 16 bf 07 96 04 3f ea 05 92 be 5b 1a 63 bf
       -0.586417 0.51791424 -0.28520137 -0.8871209
000060 85 27 a4 be cc ce 82 be f5 ca 50 bf 88 23 00 bd
       -0.320614 -0.25548398 -0.8155969 -0.031283885
000070 75 fd 26 3e ca fe 8c bd 4b 69 00 bf 8f 8f 9d 3e
       0.16307624 -0.06884535 -0.50160664 0.3077359
000080 d7 3a e3 3c b0 ce 5b be 70 b0 8e 3d f8 fc 41 3f
       0.027738018 -0.21465564 0.069672465 0.75776625
000090 66 1b f8 3c f5 9c bf 3c 08 9e 85 3e 8a 31 07 3f
       0.030286502 0.023390273 0.2609713 0.52809966
0000a0 a2 43 38 3d 48 47 05 be c2 a8 c3 be 5b b7 cd be
       0.044986375 -0.13015473 -0.3821469 -0.40178952
0000b0 7a 61 de be a9 25 a3 be ee 47 83 be 79 8a ea be
       -0.43433744 -0.3186467 -0.25640815 -0.4580877
0000c0 b6 7b a4 bb 37 93 45 3e 9b cd f4 3e a4 5a b1 3e
       -0.0050196303 0.1929444 0.47813115 0.34639466
0000d0 86 7b 14 3f 5e 2e b0 3c c6 93 ba be 21 96 41 3f
       0.5800098 0.021506485 -0.36440867 0.75619704
0000e0 59 d8 0f 3f 09 5a f4 be 5e c1 6c bf 25 1a d0 3d
       0.56189495 -0.4772494 -0.92482555 0.10161237
0000f0 c9 a2 4a 3e 75 fd e0 be 1f 62 54 bf 63 04 a4 3e
       0.1978866 -0.43943372 -0.8296222 0.32034597
000100 b8 28 50 3e 75 a1 3a bf 42 8f 13 3e 18 4f 5a 3e
       0.20328033 -0.72902614 0.14410117 0.21319234
000110 e0 0b c7 3e 61 68 c0 be f6 6c 52 3e ef 9c cb 3e
       0.38876247 -0.37579635 0.20549378 0.39768168
000120 b1 c7 2a bf 5f 7e 86 bf c8 d1 ab 3d c2 bf 15 3e
       -0.66710955 -1.0507315 0.08389622 0.14623931
000130 3a e0 7f 3e 47 e4 da be 25 65 1e 3e 53 01 dc 3e
       0.2498788 -0.42752287 0.15468271 0.4296976
000140 78 77 8f 3e 58 04 7f bf b2 6e 9f be 2d 4e 82 3e
       0.28020835 -0.99616003 -0.3113914 0.25450268
000150 bb 89 9b be 17 cb 43 c0 42 ec 23 bf af ed 79 bd
       -0.30378518 -3.0592706 -0.64032376 -0.06101769
000160 fa f6 60 be de 0c 3e bf 60 d8 68 bf ef f8 06 c0
       -0.21969214 -0.74238384 -0.9095516 -2.1089437
000170 f6 03 79 bf 86 45 78 3e e7 cf 59 bd d3 2c fb be
       -0.9727167 0.24245271 -0.053176787 -0.49057636
000180 e9 e5 0e 3f 4b f2 04 3f d5 34 53 3e 29 c4 bb 3e
       0.55819565 0.5193221 0.20625623 0.36673096
000190 73 eb a3 be 5f 8a 0b 3f 39 f7 a8 bf 7e 7b 35 3e
       -0.3201557 0.5450801 -1.3200446 0.1772289
0001a0 c8 97 5c 3f ef e3 1f 3e ad 7b 5c 3e 24 e4 4d bf
       0.861691 0.15614294 0.21531554 -0.8042624

bias f4 [4]
000000 ae 44 0b bf 7f b8 25 bf 7a b1 3c bf 31 26 bd bc
       -0.5440167 -0.64734644 -0.7370831 -0.0230895

weight f4 [24, 100]
000000 47 19 05 bf 58 d8 71 bf b1 b4 25 be a0 44 68 be
       -0.51991695 -0.9447074 -0.1618221 -0.22682428
000010 7a 75 da bf 3c c3 94 be f5 99 21 3e dd 22 97 be
       -1.7067101 -0.29055202 0.15781386 -0.29518786
000020 0d f3 b6 3d 11 83 6d bf 53 b9 61 3f 6a 2f 87 3f
       0.08933077 -0.92778116 0.8817341 1.0561345
000030 28 94 14 3f bb ce 0e 3f b8 78 c6 3e 2a 0a 04 3e
       0.5803857 0.55784196 0.38763976 0.12894502
000040 f8 bd 21 3f ee c5 36 3e 8d 07 f4 3e 72 7c 96 3e
       0.63180494 0.17848942 0.4766201 0.2939182
000050 1d 65 a7 3f 9d eb 84 3d f5 cf a8 be 64 be 1d be
       1.3077732 0.06490252 -0.3297116 -0.1540466
000060 b4 d2 e4 be 4e 39 de bd b4 a2 98 3d 99 e5 98 3e
       -0.44692004 -0.10850774 0.07452908 0.2986267
000070 13 87 05 3e 9f 6e 97 bf 1a 62 44 3e 0a cd 8f be
       0.13039808 -1.1830634 0.19178048 -0.2808612
000080 e0 95 9e bd 1f 5a 98 be 6e 47 0e bf 34 e9 91 bf
       -0.0774343 -0.29756257 -0.55577743 -1.1399293
000090 f6 61 9f bf dc 2d 90 bf f6 3e 2e bf 88 ff 85 bd
       -1.245177 -1.1263995 -0.6806482 -0.06542879
0000a0 24 3a ea be 6f 11 e3 be e2 53 f4 bf a1 4d 53 bf
       -0.45747483 -0.44349238 -1.9088099 -0.8254033
0000b0 fc 2e 40 3f 0e 2d 2f bf 9d 5c 32 bf e9 83 cc 3e
       0.7507169 -0.68428123 -0.69672567 0.3994439
0000c0 09 a8 0b 3f c2 5c 36 3f f4 89 0b 3f 0c 53 d4 be
       0.54553276 0.7123529 0.54507375 -0.4146961
0000d0 8d 98 9b 3e a1 50 a4 3e c3 36 46 3f 94 7d 51 3e
       0.30389825 0.32092765 0.7742731 0.2045806
0000e0 45 31 b4 bf e8 85 a8 be 57 25 ef 3e ec 71 58 3f
       -1.4077536 -0.32914662 0.46708176 0.8454883
0000f0 da 3a da 3d 6d ac db be 86 38 b7 3c 92 13 63 bf
       0.10655756 -0.42904988 0.02236582 -0.88701737
000100 db 68 6c 3d eb bd da be 25 ed c1 3d 25 d5 58 3e
       0.057717185 -0.4272302 0.0946906 0.21175058
000110 4d 2b 00 c0 e1 46 98 bf c3 5b 3a bf 4b 93 82 be
       -2.0026429 -1.189663 -0.7279627 -0.25503
000120 7b 09 ec bb 9c ce ba bf 78 0c ad bf 6e 0c 98 3f
       -0.0072032786 -1.4594302 -1.351943 1.1878793
000130 80 34 1f 3f 62 b8 c8 3e c2 bb f1 3e 92 2d 79 3d
       0.62189484 0.39203173 0.4721356 0.060834475
000140 e2 35 0b be 20 78 74 bf 9f cd 4b bf 7f 00 1a 3f
       -0.13594773 -0.95495796 -0.7961063 0.60157007
000150 cd fa 66 bd cb 9a 6d bf 9f 66 31 bf f7 a7 b4 3e
       -0.056391526 -0.9281432 -0.6929721 0.35284397
000160 10 aa cc 3e c8 35 22 bf 4a 22 d8 bd 10 aa 8b bf
       0.39973497 -0.63363314 -0.10553415 -1.0911274
000170 2d ab 52 3e ba 60 98 3f 11 ec 86 3f f8 75 60 be
       0.20573111 1.1904519 1.0540792 -0.21920002
000180 b0 35 78 3e 69 4b 4d 3f 81 16 81 3d 62 02 8c bf
       0.2423923 0.8019319 0.063031204 -1.0938227
000190 1c e1 92 bf 83 3f f0 bf 04 fb 90 3f e4 de 2b 3e
       -1.1474948 -1.8769382 1.1326604 0.16784245
0001a0 95 bb 91 3f 28 83 e3 bf 6b 81 e5 bf 12 49 d5 3e
       1.138537 -1.7774401 -1.793012 0.4165731
0001b0 e5 21 ad be f5 9d fd 3e 58 b2 51 bf 3d 09 57 be
       -0.33814922 0.49534574 -0.81912756 -0.20999618
0001c0 15 b7 78 be fd 97 b9 be 3b 33 5f bf 28 24 cf be
       -0.2428859 -0.3624877 -0.87187546 -0.40457273
0001d0 a0 e9 31 3e 14 f5 a0 bd c9 64 26 3d e6 b6 2c bf
       0.17374277 -0.07859245 0.04062346 -0.6746658
0001e0 60 d3 24 3f ad 38 af 3e 9a b6 c8 bc df c3 11 3f
       0.6438503 0.34222928 -0.024501134 0.569395
0001f0 ce c2 2a bf 8f 54 90 bf 35 fc 95 bf 62 31 97 be
       -0.667035 -1.1275805 -1.1717592 -0.29529864
000200 f9 0c c2 bf 28 ca d0 bd 56 b5 67 bf a3 60 f8 be
       -1.5160209 -0.10194808 -0.9051107 -0.48511228
000210 34 95 0d 3f c4 78 60 bf d9 9e 1b bf 14 7b 5d 3f
       0.5530579 -0.87684274 -0.6078926 0.8651593
000220 1e 00 9f 3e 87 47 63 be ae da f7 be 17 23 11 3f
       0.31054777 -0.22195254 -0.48409027 0.5669417
000230 e0 6e 44 3f 55 e2 83 3d b2 1d b1 bd 40 94 8a 3f
       0.7673168 0.06439654 -0.08648242 1.0826492
000240 ef ca a0 3f 00 11 07 bf e2 e3 82 3e 4d e5 83 be
       1.256193 -0.52760315 0.25564486 -0.2576088
000250 56 83 ef bb 1e bc 9b 3e 73 94 4d bf cc 3a 92 3c
       -0.0073093576 0.3041696 -0.8030464 0.017850302
000260 df be 00 3e 2f 87 38 be bd 55 d3 bf ff ea a6 bf
       0.12572812 -0.18020318 -1.651054 -1.3040465
000270 2b cf 73 bf 6e 33 c3 be 77 e5 22 bf 3b 43 4e bf
       -0.9523799 -0.38125175 -0.63631386 -0.80571336
000280 a9 b0 16 3f d4 24 27 3f ed d6 6d 3f 47 86 cf bd
       0.5886331 0.6529057 0.92906076 -0.10133033
000290 a2 e1 88 3e f0 86 27 3f 66 91 6e 3f d1 8b f6 3e
       0.26734644 0.65440273 0.9319061 0.48153546
0002a0 5c ef 21 bf 4b 56 5e 3f 9e db 95 be 38 50 67 3d
       -0.6325586 0.8685042 -0.29269117 0.056472987
0002b0 a1 36 b2 be 51 92 48 3e 37 44 71 3f 44 51 0c bf
       -0.34807304 0.19587065 0.9424471 -0.548115
0002c0 24 5d a0 bf 85 e5 2d be 6c 84 19 3e 51 ac 01 bf
       -1.2528424 -0.16982086 0.14991921 -0.5065356
0002d0 71 44 73 bf e6 3a 8d be fb ad bd be 3b d0 11 ba
       -0.9502631 -0.27583998 -0.370468 -0.000556234
0002e0 9e f9 b3 be 13 0c 25 bf 0e 59 bb bf 25 96 0b bf
       -0.3515138 -0.6447155 -1.4636552 -0.5452598
0002f0 42 42 ce 3e d3 3b 7e bf 56 5d 29 3e c9 e6 df be
       0.40284926 -0.99310035 0.16539511 -0.43730763
000300 c7 64 64 bd f6 2e 7f bf 94 16 a3 bf b4 f0 b5 3e
       -0.05576017 -0.9968103 -1.2741265 0.35535204
000310 d9 56 6c be d0 4a 2e 3f fb ec 1e c0 85 d0 9c bf
       -0.23080005 0.68082905 -2.4832141 -1.2251135
000320 bf 1f 14 be df ed 96 3e 04 6f 43 bd 9f ed 1d bf
       -0.14465235 0.29478356 -0.047713295 -0.61690706
000330 ef f2 34 bf 87 68 ce be f7 db b5 3d 0e 82 c4 3e
       -0.7068319 -0.40314123 0.088798456 0.38380474
000340 c1 fa 22 3f 38 fa 02 3f ee e7 91 be 45 17 e8 3e
       0.6366387 0.51163054 -0.2849726 0.45330253
000350 e8 91 06 bf 48 a2 8d 3e 53 b9 3a bc b8 7d d1 bf
       -0.52566385 0.27662873 -0.011396724 -1.6366491
000360 b6 af 0d bf c1 78 c9 bd 15 78 08 bf 19 f4 b2 be
       -0.5534624 -0.09837485 -0.5330823 -0.34951857
000370 4f c9 8a 3f cb 6d 5d 3f 16 8e 1b 3f 25 10 cb 3e
       1.0842685 0.86495656 0.6076368 0.39660755
000380 e2 86 ca bf c7 1d 44 3e 3b 0a f5 3d f8 89 b6 3e
       -1.5822413 0.19151984 0.11964842 0.35652137
000390 89 87 ee 3d 46 37 e7 3e a2 6d 3c 3f a6 de 59 3e
       0.11646945 0.45159358 0.73604786 0.2127634
0003a0 1e 48 49 3f 2d 32 3f 3e 2f d9 91 3e 38 c4 23 3f
       0.7862567 0.18671484 0.2848601 0.6397128
0003b0 db d6 16 3f da c8 83 bf 3f b7 42 bf aa 96 16 3f
       0.58921593 -1.029567 -0.7606086 0.58823645
0003c0 dc d1 e1 bd a6 07 02 3d 4a 12 ec be 62 f1 ee 3d
       -0.110263556 0.031745575 -0.46107703 0.11667134
0003d0 67 c2 48 3f 22 e0 06 be 8d db bc be f8 ca f9 be
       0.78421634 -0.13171437 -0.36886254 -0.48787665
0003e0 f8 d9 88 bf 2f e6 3f 3d ed 5b 56 3f 1c e6 3d 3f
       -1.0691519 0.04685038 0.8373402 0.74179244
0003f0 f7 8d ae 3e a1 77 54 be 2a 3e e6 be ab 43 7a 3f
       0.34092686 -0.2074876 -0.44969302 0.97759503

bias f4 [24]
000000 c9 20 53 3d bc b6 bc be 9e 69 1c 3f a4 cd 68 bd
       0.05154494 -0.36858165 0.6109866 -0.05683674
000010 0f 8a 7f 3f 58 c9 c4 3c 5d 38 9f 3e a6 31 bf be
       0.99820036 0.02402179 0.3109769 -0.37342566
000020 dc 3f 9d be a6 5c ab 3f 00 57 a6 3d 8a 96 15 bf
       -0.30712783 1.3387649 0.08122063 -0.5843283
000030 2f 3e 37 3f 56 fb b7 be 57 d3 e3 bc 09 50 e0 be
       0.7157926 -0.35933942 -0.027810736 -0.43811062
000040 85 0f 11 be a7 41 4a 3f 2b 0a 00 be 4a d0 15 bf
       -0.14166076 0.7900643 -0.12503879 -0.5852095
000050 36 1f 21 3e d4 f8 08 40 2c 33 52 be e1 0d 16 bd
       0.15734562 2.1401873 -0.20527333 -0.03663433

weight f4 [10, 24]
000000 73 15 ee 3e 3c 4c 69 be 2b 4c c2 be 59 d9 ce be
       0.4650074 -0.22782987 -0.37948737 -0.40400198
000010 17 ee 22 bf 49 2a ff be b3 f3 8c be 44 08 1b be
       -0.63644546 -0.4983695 -0.27529678 -0.15139872
000020 bf 78 0c bf 1e b2 30 3e da 47 70 bf ad 42 73 be
       -0.54871744 0.17255446 -0.93859637 -0.23755904
000030 f6 0e fc bd 20 90 33 be b0 ce 5c be 24 0b c7 bc
       -0.12307541 -0.17535448 -0.2156322 -0.024297304
000040 44 a2 7f bf 01 8a 46 bf 3a 5b 8e be f6 61 d4 be
       -0.9985697 -0.7755433 -0.27803975 -0.41480988
000050 91 21 25 3f f7 f0 c8 be a3 90 d1 3e 16 8c a6 bc
       0.64504343 -0.39246342 0.40930662 -0.02033047
000060 b4 1c f6 be 91 46 86 bd 3e 93 9e bc f2 83 25 be
       -0.48068774 -0.06556428 -0.01935732 -0.16163614
000070 a8 fc 45 3f d4 51 3b bc f0 99 4f be b7 46 2c bf
       0.7733865 -0.011433084 -0.20273566 -0.672954
000080 e0 75 35 3d f6 3b f7 bd ef 57 ed bd 61 0e 34 bf
       0.044301867 -0.120719835 -0.115890376 -0.7033444
000090 07 06 01 bf 52 7d 2f be 99 f9 b5 be 66 b2 cc 3c
       -0.5039982 -0.1713765 -0.3554199 0.02498741
0000a0 06 53 3e 3f e8 a7 bb 3e cb fd 17 bf d6 2e 38 be
       0.74345434 0.3665154 -0.5937163 -0.17986616
0000b0 5f 30 86 be 22 44 72 3f 51 e7 05 bf 0c d8 2d be
       -0.2620878 0.9463521 -0.52306086 -0.16976947
0000c0 2b 28 30 3d c9 3f af bc 72 91 7e be 11 8c 0d be
       0.043007057 -0.02139272 -0.2486017 -0.13822962
0000d0 b7 03 d2 bd eb bf c6 bd e5 fa ec 3e 56 fc 02 bf
       -0.10254615 -0.09704574 0.46285167 -0.51166284
0000e0 d3 be bd bc be 55 86 bf 62 5b 5c bf 07 6d 0f 3f
       -0.023162281 -1.0494916 -0.8607694 0.5602574
0000f0 1b e0 cc bd 2b 36 26 3f ac 35 f4 be e2 76 09 3f
       -0.10003682 0.64926404 -0.47697198 0.53697026
000100 6e 61 f3 be 46 18 84 bf b7 ac 02 bf 83 96 59 bd
       -0.4753527 -1.0319908 -0.5104479 -0.053122055
000110 be 6c e1 be 25 e6 1e bf 4d 4b 11 be 90 50 0a 3d
       -0.44028276 -0.6206992 -0.14188881 0.033768237
000120 4b bb fe be eb 14 90 bf 2b cb 40 be bb d3 9a be
       -0.49752268 -1.1256384 -0.18827502 -0.30239663
000130 70 a2 0f bf 0d 00 9d 3c a2 3c c8 be 90 f9 ae be
       -0.56107235 0.019165063 -0.3910876 -0.34174776
000140 13 b8 2d bf 2b 28 91 bf 26 be ca be a4 e4 d4 be
       -0.67859 -1.1340383 -0.39598197 -0.4158069
000150 a6 3f 28 bf 34 e0 51 be 20 1c ea bd 1f 31 ca be
       -0.6572212 -0.20495683 -0.11431146 -0.394906
000160 00 03 61 bf 09 e8 d5 be f7 b6 4e be a3 13 ff 3e
       -0.878952 -0.4177859 -0.20186983 0.4981967
000170 22 9c e5 be d0 64 66 bf c9 88 d8 be 8d 4f 4f be
       -0.44845682 -0.8999758 -0.4229186 -0.2024519
000180 47 13 dd be 8a ef 28 3f e9 3d 28 bf 29 73 1b 3f
       -0.4317877 0.6599051 -0.6571947 0.60722595
000190 72 3a 5e be 01 7c 04 bd f5 eb 0e be 01 ec 31 bf
       -0.21701983 -0.03234482 -0.13957198 -0.6950074
0001a0 42 22 1b 3c 72 ec 81 bc f4 d0 45 3e e2 fc 12 bc
       0.009468617 -0.015859816 0.1931799 -0.008971425
0001b0 9a fe de be 68 d4 7e bf 7e c2 df be 82 0f 84 bb
       -0.4355362 -0.99542856 -0.43703073 -0.004030169
0001c0 28 c3 ba be 71 a7 36 bf bf 17 55 be 8d 72 15 bf
       -0.36477017 -0.71349245 -0.2080984 -0.58377916
0001d0 0c 45 0e bf 46 bc 8c bf 3f 01 69 bf 7b 3e 89 be
       -0.5557411 -1.0994956 -0.91017526 -0.2680548
0001e0 a1 1f fa be a8 d0 b3 be 22 41 9e be 63 87 e0 be
       -0.48852256 -0.3512013 -0.30909067 -0.43853292
0001f0 3a 0a 34 bf c4 19 27 bf ee c5 d4 be 3e d9 03 3f
       -0.70328104 -0.6527369 -0.41557258 0.5150336
000200 85 f6 1d bf 2e 73 0a bf f5 09 10 bf e1 8d 17 bf
       -0.61704284 -0.54082 -0.56265193 -0.59200865
000210 3e fb 10 be e9 49 7e be 99 d8 07 3f 3b cc 42 be
       -0.14158341 -0.24832882 0.53064877 -0.1902322
000220 a4 0a 2e bf 11 43 c4 3e 1a f0 37 be 8b 6b 32 bc
       -0.67984986 0.38332418 -0.17962685 -0.010889898
000230 1b cd b2 be 5b ae d0 be 79 19 55 3e 74 3a 12 be
       -0.34922108 -0.40758023 0.20810498 -0.1428011
000240 ad f3 37 be dd c2 3a be c0 03 1e bf 5a 94 8f be
       -0.17964049 -0.18238397 -0.6172447 -0.2804287
000250 ac 8c 83 be 02 fa 2f bf b4 98 16 bf e5 73 e9 3b
       -0.25693262 -0.68740857 -0.58826756 0.0071244114
000260 b9 17 83 bf 66 aa c8 3e d9 bc 12 c0 ae c6 9e 3d
       -1.0241615 0.39192504 -2.2927763 0.07752739
000270 8d 5d 06 3f 1b 8b 5a be fd 00 8d 3e 4d bd 19 be
       0.524865 -0.21342127 0.27539816 -0.15013619
000280 3b 4f f9 be ac 54 9f 3e 3b ab 91 bf 02 1b 85 be
       -0.4869326 0.31119287 -1.138038 -0.25997168
000290 89 4b 8b be ba ad 7a bf e8 3c 00 bf 55 e4 f0 3c
       -0.27206066 -0.97921336 -0.50092936 0.029405752
0002a0 86 85 79 3d 8a 1a c7 be 61 60 0a 3f e4 53 ad be
       0.060918353 -0.38887435 0.5405331 -0.33853066
0002b0 5b f4 d8 be a0 76 fa 3e 1f 6e d0 3d 83 94 b7 be
       -0.42373928 0.4891863 0.10177254 -0.35855493
0002c0 88 c7 9a 3e f3 3d a6 bf c8 80 7b 3d bc 05 96 bb
       0.30230355 -1.2987655 0.061402112 -0.0045783203
0002d0 1e 35 92 bf df 12 a9 be 44 98 6e bf 29 97 22 bf
       -1.142246 -0.3302221 -0.9320109 -0.635119
0002e0 c8 50 a4 3d 4d c5 15 bf 77 1a d6 bd 95 1a 58 bd
       0.0802322 -0.5850418 -0.104542665 -0.052759726
0002f0 5e 90 32 bf c2 10 a6 be f4 3e 05 3f 42 bb b4 be
       -0.69751537 -0.3243466 0.52049184 -0.35299116
000300 21 d1 ee be ae d3 1a bf 12 c6 9e be 95 fc b1 be
       -0.46643928 -0.6047925 -0.3101049 -0.34763017
000310 22 29 20 bf ee fd f5 be 2d db 27 bf 2f 94 20 be
       -0.62562764 -0.48045295 -0.6556881 -0.15681528
000320 28 99 16 bf 12 d8 1f bf 1f e1 06 bf 44 d1 10 bf
       -0.5882745 -0.6243907 -0.5268726 -0.56569314
000330 c8 57 31 bf d3 b7 18 be 32 87 9f 3c 03 0e c2 be
       -0.6927457 -0.14913873 0.019473646 -0.37901315
000340 f0 db b5 bf 47 25 b8 be a2 85 2e be 66 1b d2 be
       -1.4207745 -0.3596594 -0.17043164 -0.41036528
000350 2c f7 7a be fa 02 0a bf 14 25 c5 be c7 2c c7 3e
       -0.24508351 -0.5391079 -0.3850485 0.3890135
000360 55 ce 8d be da 0e 39 be ed b1 5d be 3f 46 34 be
       -0.2769648 -0.18072072 -0.21649905 -0.17604922
000370 a2 f2 cd be c3 06 9c be ec 8e b8 be b4 8a 89 be
       -0.40224177 -0.3047391 -0.3604654 -0.26863635
000380 19 bc 93 be 8e 99 a2 3e 0d 88 d2 3d 23 73 01 be
       -0.28854445 0.31757778 0.10279856 -0.12641577
000390 e8 a8 3e bf 99 af a4 bf fa a2 7e bf ec 8f a6 be
       -0.7447648 -1.2866088 -0.9946743 -0.3253168
0003a0 a6 18 4e be ef 35 9e be 45 ae 0e 3f bf f9 13 bf
       -0.2012659 -0.30900523 0.55734664 -0.5780296
0003b0 30 27 89 be b9 70 fa be f4 c9 86 be ef 51 96 be
       -0.2678771 -0.48914126 -0.26325953 -0.29359385

bias f4 [10]
000000 9a ba 4e bf c5 02 d2 be 4c 78 bf be 9b dc 09 3e
       -0.8075348 -0.41017738 -0.37396467 0.1346306
000010 13 96 d1 be 24 bf 4e bf 81 18 b1 bf c9 0a 57 bf
       -0.4093481 -0.8076041 -1.3835603 -0.8400083
000020 53 7d b7 3f db d5 4e 3e
       1.4335121 0.20198767
