checkpoints/YourNet/pruning/5/epoch-1.pth (torch, 77063 bytes, 10 tensors)

weight f4 [3, 1, 3, 3]
0	0xbe8a1fba	-0.2697733
1	0x3e0a2672	0.13491228
2	0x3e808f97	0.2510955
3	0x3e8446d8	0.258353
4	0x3ea9d50b	0.3317035
5	0xbda8cf85	-0.08242706
6	0x3e72d39f	0.2371354
7	0x3f1d914f	0.6154985
8	0xbe5c6e18	-0.21526372
9	0xbefcccee	-0.493751
10	0xbf34e9d1	-0.70669276
11	0xbf03beb1	-0.51462847
12	0x3f13e25c	0.5776727
13	0xbd8358b3	-0.064134024
14	0x3dc086fe	0.09400748
15	0x3ea8afc7	0.32946607
16	0x3e9f5043	0.31115922
17	0x3ed60589	0.41801098
18	0x3ef3ce66	0.47618407
19	0x3ea87fe2	0.32910067
20	0x3e120982	0.1426144
21	0xbddeb4d2	-0.108743325
22	0x3eab19d2	0.33418137
23	0x3ebc4349	0.36770085
24	0xbf3c59fa	-0.73574793
25	0xbf1be952	-0.60902894
26	0x3ed1cc1a	0.4097603

bias f4 [3]
0	0x3cfd873b	0.030948272
1	0xbf10b38d	-0.5652397
2	0xbf397741	-0.7244759

weight f4 [4, 3, 3, 3]
0	0x3ed68328	0.4189694
1	0x3e2aae4a	0.16668049
2	0x3f20f9d7	0.62881225
3	0xbe694416	-0.22779879
4	0x3e93c45d	0.2886075
5	0x3e40db76	0.18833718
6	0xbf376eb9	-0.71653324
7	0xbf984738	-1.1896734
8	0xbf54f27a	-0.8318249
9	0x3cf60155	0.030029932
10	0x3e0629d1	0.13101889
11	0x3e9b0ea8	0.3028462
12	0xbb532897	-0.0032220238
13	0x3e93e43e	0.28885072
14	0xbf009cc2	-0.50239193
15	0x3edb9b0d	0.42891732
16	0x3f358e19	0.7091995
17	0x3e165954	0.14682513
18	0xbc0b07f6	-0.008485785
19	0xbead9a07	-0.33906576
20	0xbd2d71a2	-0.042344697
21	0x3f143c82	0.5790483
22	0x3f187b46	0.595631
23	0x3dbe0797	0.092787914
24	0xbebe767f	-0.3719978
25	0xbe80cc47	-0.2515585
26	0xbf1727f2	-0.59045327
27	0xbf436726	-0.7632927
28	0xbd215d1f	-0.039395448
29	0x3ec44f17	0.3834159
30	0xbf083791	-0.5320979
31	0x3f081573	0.5315773
32	0x3e96ad0c	0.294289
33	0x3dd328dd	0.103105284
34	0x3f26a0eb	0.6508929
35	0xbd1e9195	-0.038713057
36	0xbe50b6ff	-0.20382307
37	0xbecf4640	-0.40483284
38	0x3d1c57a3	0.038169514
39	0xbef4d0f8	-0.4781568
40	0xbe8f6bd3	-0.2801195
41	0xbebb5e2d	-0.36595288
42	0xbea6b7e3	-0.3256217
43	0xbeb77b42	-0.35836226
44	0xbc5a4da4	-0.013324175
45	0xbcf2e7e6	-0.029651593
46	0x3e8edf1d	0.27904597
47	0xbea26fc9	-0.3172591
48	0x3ea12a19	0.3147743
49	0x3e45e294	0.19324714
50	0xbeb428f2	-0.3518749
51	0x3e556a74	0.2084139
52	0x3e1f78c4	0.15573412
53	0xbf0799d9	-0.5296913
54	0xbe3ae477	-0.18251215
55	0x3d2987bb	0.04138921
56	0x3eed4db5	0.46348348
57	0x3e5baf14	0.21453506
58	0x3eb0049a	0.3437851
59	0xbd106dfa	-0.03526113
60	0x3ea48080	0.32129288
61	0xbe3a7514	-0.18208724
62	0x3e2d1d00	0.16905594
63	0x3d3ff8bb	0.046868067
64	0x3eaaf5e8	0.33390737
65	0xbf3c17fb	-0.7347409
66	0xbd9942e0	-0.074834585
67	0xbf19bdf8	-0.60055494
68	0xbf3eba59	-0.74503094
69	0xbeecdd36	-0.4626252
70	0xbf2718e5	-0.6527236
71	0xbe83ea8a	-0.25764877
72	0xbe20800d	-0.15673847
73	0xbc1644b2	-0.009171652
74	0x3d009afe	0.031397812
75	0xbf05f5b0	-0.52328014
76	0xbe971edf	-0.2951574
77	0x3ed53bcd	0.41647187
78	0x3e8dfafd	0.2773055
79	0x3eea8140	0.45801735
80	0x3f6cd20a	0.92507994
81	0xbde2361d	-0.110454775
82	0xbe8957bd	-0.26824751
83	0xbe9d36eb	-0.30705962
84	0x3d6b5848	0.05745724
85	0x3d667561	0.056264285
86	0xbc0a1fa7	-0.008430398
87	0x3d5dbde0	0.054136157
88	0xbe23b142	-0.15985587
89	0x3da4757c	0.08030221
90	0x3ecc1eeb	0.3986734
91	0xbe2532f5	-0.1613272
92	0x3d6895c9	0.05678347
93	0x3e95b591	0.29240087
94	0x3e6d11ad	0.23151274
95	0x3e663905	0.22482689
96	0x3ea0e69a	0.31425935
97	0x3e4f4c6a	0.20243993
98	0x3e0d9ee5	0.13830145
99	0xbf11826c	-0.56839633
100	0x3e06a7a3	0.13149886
101	0x3d649690	0.05580765
102	0x3ede612a	0.43433505
103	0xbe813587	-0.2523615
104	0x3e5a77fb	0.21334831
105	0x3f0f62a0	0.56009865
106	0x3f3d2d91	0.73897654
107	0xbcd0c2b8	-0.025483474

bias f4 [4]
0	0xbd4d0f9b	-0.05006371
1	0xbdad15b7	-0.084514074
2	0xbf594330	-0.84868145
3	0xbee14769	-0.43999794

weight f4 [100, 100]
0	0x3d8687e3	0.06568887
1	0x3e9a3222	0.30116373
2	0x3e138916	0.14407763
3	0x3d105bc1	0.035243753
4	0xbe57bed9	-0.21068896
5	0x3de4366d	0.111431934
6	0x3e002ae0	0.12516356
7	0x3e21aa4b	0.15787618
8	0x3b8f6f15	0.0043772557
9	0xbe88441e	-0.2661447
10	0x3e3be40f	0.18348716
11	0xbef6ff3c	-0.48241603
12	0xbeddbfa3	-0.4331027
13	0xbd6e1982	-0.058129795
14	0x3d7bb1fc	0.061449036
15	0xbee49bca	-0.44650108
16	0xbeb4b3f6	-0.3529355
17	0xbefe609d	-0.49683085
18	0xbe82a8d6	-0.25519437
19	0xbd8d5297	-0.069005184
20	0xbe1c43a3	-0.15260176
21	0x3d3ce38a	0.046115436
22	0x3e99195f	0.2990217
23	0x3e239586	0.15975007
24	0x3e3b4fef	0.18292211
25	0xbd989adc	-0.07451412
26	0x3f23c534	0.63972783
27	0x3e8e4a99	0.27791288
28	0xbea64fe1	-0.32482818
29	0xbe8cf139	-0.27527788
30	0x3e2611f7	0.1621779
31	0x3ea2252b	0.31668982
32	0xbe23e2fe	-0.1600456
33	0xbe514183	-0.20435147
34	0xbf0946fd	-0.53623945
35	0x3ea84963	0.3286849
36	0xbcff1cba	-0.031141628
37	0xbed5322b	-0.41639838
38	0x3ee43d0a	0.4457782
39	0x3e931c84	0.28732693
40	0xbdb410b9	-0.08792252
41	0x3d8a99c6	0.06767611
42	0x3ebfaf1e	0.3743829
43	0x3e8fbd09	0.2807391
44	0x3e2bafc3	0.16766267
45	0xbe66d727	-0.22543012
46	0x3dc0b0b2	0.09408702
47	0xbe21519b	-0.15753786
48	0xbf1ddc74	-0.6166451
49	0xbf0aef5d	-0.5427149
50	0xbdb7a750	-0.08967459
51	0xbe2b11fc	-0.16706079
52	0x3e573f7d	0.21020313
53	0xbe0b75e0	-0.13619184
54	0xbf423dcb	-0.7587554
55	0x3e02eaf0	0.12784934
56	0xbb6b5239	-0.0035907163
57	0xbe0389b8	-0.12845504
58	0xbe8d6ac9	-0.27620533
59	0xbe87c258	-0.2651546
60	0x3e4f41bc	0.2023992
61	0xbf139e2b	-0.5766322
62	0xbe9dca80	-0.30818558
63	0xbc447641	-0.011991085
64	0xbe702ae2	-0.23453858
65	0x3ec84f71	0.3912311
66	0x3e5f5bed	0.2181241
67	0xbddcd156	-0.10782115
68	0x3e48dd56	0.19615683
69	0x3ef6c9e7	0.48200914
70	0xbe0a07f3	-0.13479595
71	0xbcfd317a	-0.030907381
72	0xbcb7ce76	-0.022437315
73	0x3e09bb1d	0.13450284
74	0x3dac9df0	0.08428562
75	0xbd7c27ed	-0.061561514
76	0x3c8d3086	0.017235052
77	0xbb156b34	-0.0022799494
78	0x3e424113	0.18970136
79	0xbf14b5f5	-0.58090144
80	0x3e5da9f5	0.21646865
81	0xbdf2ee2b	-0.11861833
82	0xbe1a8bfc	-0.15092462
83	0x3da329d1	0.0796696
84	0x3e81839c	0.25295722
85	0x3d58d3a3	0.052936208
86	0xbd6ae2cc	-0.057345197
87	0xbd1ce125	-0.038300652
88	0x3d2f383a	0.04277823
89	0xbd4ee416	-0.05051049
90	0xbe3c8294	-0.18409187
91	0x3cb43593	0.021998202
92	0x3d0db96f	0.03460067
93	0x3d9bded3	0.0761086
94	0xbe18078b	-0.14846627
95	0xbdf2cacc	-0.11855087
96	0xbe7776c4	-0.24166399
97	0xbd4276d4	-0.047476605
98	0x3e831265	0.2559997
99	0x3e3bd00e	0.18341085
100	0xbc556dc1	-0.013026656
101	0x3ecc9a0c	0.39961278
102	0x3f003c82	0.5009233
103	0x3eb2ec12	0.34945732
104	0x3e87db81	0.26534656
105	0x3e0c8f14	0.13726455
106	0x3e859d82	0.2609673
107	0x3ed1ac59	0.40951803
108	0x3e377e17	0.17919193
109	0xbebc469a	-0.36772615
110	0xbf093f1d	-0.5361193
111	0xbe82956c	-0.25504625
112	0xbefb4ae7	-0.49080583
113	0xbeaf7760	-0.34270763
114	0xbf3a2946	-0.7271923
115	0xbeabccfc	-0.33554828
116	0xbd70fda1	-0.05883563
117	0xbec3cccb	-0.38242182
118	0xbf0ec66d	-0.55771524
119	0xbc8a0946	-0.016850125
120	0xbe844070	-0.25830412
121	0xbe874d92	-0.2642637
122	0xbedb2bfe	-0.42807
123	0xbc0c2145	-0.008552854
124	0x3e68b981	0.22727014
125	0x3d81b7dd	0.06333897
126	0x3e1b7b16	0.15183672
127	0x3c938a2b	0.01801022
128	0xbef0470e	-0.4692921
129	0xbf30839b	-0.68950814
130	0x3eafa370	0.3430438
131	0x3e94b790	0.29046297
132	0xbe62b734	-0.22140199
133	0x3dc2df5b	0.09515258
134	0xbedb8d48	-0.42881227
135	0x3e88e2e8	0.26735616
136	0x3e8d6a1b	0.27620015
137	0xbe75a63c	-0.23989195
138	0x3de9b308	0.114111006
139	0xbdd57efb	-0.1042461
140	0x3c805861	0.015667142
141	0x3e92e4ff	0.28690335
142	0xbd091bc5	-0.03347375
143	0x3e7f211e	0.24914977
144	0x3dd91426	0.10599546
145	0xbe8f5bb2	-0.27999645
146	0xbd836c96	-0.064171955
147	0xbd85f94f	-0.065416925
148	0x3df2261a	0.118236735
149	0xbeb4200d	-0.35180703
150	0x3edff030	0.43737936
151	0x3f30b3eb	0.69024533
152	0x3dc77c40	0.09740496
153	0x3e27417f	0.16333579
154	0x3e1a52b2	0.15070608
155	0x3e13857d	0.1440639
156	0xbe2b8874	-0.16751271
157	0x3eb5fec5	0.35545936
158	0xbd6dcc97	-0.05805644
159	0x3d7af4b8	0.06126854
160	0xbe1ba485	-0.15199478
161	0x3e7d77b9	0.24752702
162	0xbcea2896	-0.028583806
163	0x3c896318	0.016770884
164	0xbef42ef3	-0.4769207
165	0xbd9d31db	-0.07675525
166	0x3e09e554	0.13466388
167	0xbf2da014	-0.67822385
168	0xbea03f10	-0.31298113
169	0x3e6eb71e	0.23312041
170	0x3d58bc6b	0.052914064
171	0x3ecef599	0.4042175
172	0xbda9b162	-0.08285786
173	0x3e9207a7	0.28521463
174	0x3d82ca5a	0.06386252
175	0x3e7cdc84	0.24693495
176	0x3e52df2f	0.2059295
177	0x3e85ce65	0.2613403
178	0x3e42d83e	0.19027802
179	0x3cffdc3f	0.031232951
180	0x3dbd9036	0.09256022
181	0x3d7a320e	0.061082892
182	0xbe075a40	-0.13218021
183	0xbd112f1d	-0.03544532
184	0xbdb3f8f5	-0.08787719
185	0x3b81987a	0.003954944
186	0xbeaa05b5	-0.3320748
187	0xbe573d81	-0.21019556
188	0xbe52032d	-0.20509024
189	0x3ef05ba4	0.46944916
190	0xbeb9b437	-0.36270306
191	0xbeaf9506	-0.34293383
192	0xbe0046e1	-0.12527038
193	0x3d8e5fde	0.06951879
194	0xbebdc16d	-0.37061635
195	0xbd2b3e1c	-0.04180728
196	0xbdfeb361	-0.124365576
197	0xbe0fa93e	-0.14029405
198	0x3c104611	0.008805768
199	0xbed5477c	-0.416561
200	0xbe062ae6	-0.13102302
201	0x3d5440c6	0.051819585
202	0x3e4bd26a	0.19904485
203	0xbcc8b334	-0.024499513
204	0x3e64d8fb	0.22348396
205	0x3de5e8df	0.11226057
206	0xbd9b73a0	-0.07590413
207	0x3dcb299f	0.09920048
208	0x3eaa31a4	0.33240998
209	0xbc61ee81	-0.013789774
210	0xbe9c987f	-0.30585095
211	0xbe908b45	-0.28231254
212	0x3da7df5e	0.08196901
213	0xbe016d22	-0.12639287
214	0x3d1afc4d	0.03783827
215	0x3e576235	0.21033557
216	0x3d734825	0.059394974
217	0x3e109873	0.14120655
218	0x3df49c67	0.11943894
219	0x3e889450	0.26675653
220	0xbdf0dbfa	-0.11760707
221	0x3da1a386	0.07892518
222	0x3d5c92a9	0.053850804
223	0x3db115b2	0.08646716
224	0x3e36fb81	0.17869379
225	0xbc9f30d6	-0.019432466
226	0x3d4a92e9	0.04945651
227	0x3f07121f	0.52762026
228	0x3e3bf936	0.18356785
229	0x3eefae5a	0.46812707
230	0xbdbbf82e	-0.09178196
231	0xbd2bce8e	-0.041945033
232	0x3e003d69	0.12523426
233	0xbefd4a26	-0.49470633
234	0xbf2ed822	-0.6829854
235	0x3dd87406	0.10569005
236	0x3d9d7e0c	0.07690057
237	0xbe88fa24	-0.26753342
238	0xbeb96517	-0.36209938
239	0xbf657513	-0.89631766
240	0x3d5a5f18	0.053313345
241	0xbd774276	-0.060366116
242	0xbebab766	-0.36468047
243	0x3d0d036b	0.034427088
244	0x3e382057	0.17981087
245	0xbdf9d9a6	-0.12199716
246	0xbee5f377	-0.4491231
247	0xbe1cfec0	-0.15331554
248	0x3d4c84e9	0.04993144
249	0x3e3b7a53	0.18308382
250	0x3e9c5812	0.30535942
251	0x3d241e7d	0.04006814
252	0x3c721b3f	0.014777004
253	0x3eaf5d4e	0.34250873
254	0x3ec09f09	0.37621334
255	0xbe01d1ca	-0.12677684

bias f4 [100]
0	0x3e876d73	0.2645069
1	0xbd829e13	-0.063778065
2	0x3d024f05	0.03181364
3	0xbda83799	-0.082137294
4	0xbc4452d0	-0.011982635
5	0xbdcf03d8	-0.10108155
6	0xbe684453	-0.22682314
7	0x3ca9eb1d	0.020741994
8	0xbd5cebe2	-0.053935893
9	0x3e4b5dcb	0.19859998
10	0x3e8390cf	0.25696418
11	0xbe44a632	-0.19204023
12	0xbe71415e	-0.23560092
13	0xbde70726	-0.1128066
14	0x3d0d6c5c	0.034527168
15	0x3bdb9b43	0.0067018582
16	0x3d70f285	0.058825035
17	0xbe125108	-0.14288723
18	0xbe93e511	-0.288857
19	0xbe85d00e	-0.26135296
20	0xbdb8dc21	-0.09026361
21	0xbdd562d2	-0.10419239
22	0xbe1fee47	-0.1561824
23	0xbe396df9	-0.18108357
24	0xbd759d4e	-0.05996447
25	0x3dec76e1	0.11546112
26	0x3d2dd9ba	0.04244397
27	0xbb71981d	-0.0036864348
28	0xba40273d	-0.0007330066
29	0xbdd4b579	-0.10386176
30	0xbd840246	-0.06445746
31	0xbc84c372	-0.016206477
32	0xbdc463aa	-0.09589322
33	0x3bb08a45	0.0053875768
34	0x3d8fdfbb	0.07025095
35	0xbd02c804	-0.03192903
36	0xbe1fc49f	-0.15602349
37	0x3dca37a6	0.09873895
38	0x3cbae3ae	0.022813644
39	0x3e1ece99	0.15508498
40	0x3e2a6c2f	0.16642831
41	0xbe9253b7	-0.28579494
42	0x3d0a44e8	0.03375712
43	0xbe82e3e6	-0.25564498
44	0x3d4358d6	0.047692142
45	0xbe935b4b	-0.28780589
46	0xbdcf1c90	-0.1011287
47	0x3e5388c1	0.20657636
48	0x3d2fdb56	0.042933784
49	0xbef18f42	-0.4717961
50	0xbbd8f35c	-0.0066208076
51	0xbe4afd8a	-0.1982328
52	0x3e25106c	0.16119546
53	0xbd0b6b69	-0.03403798
54	0xbe9463a6	-0.28982276
55	0xbce626e4	-0.028094716
56	0xbd356040	-0.044281244
57	0x3d6433e6	0.055713557
58	0xbe53da34	-0.20688707
59	0xbe59ec61	-0.21281578
60	0x3e701292	0.23444584
61	0x3da6e2e9	0.081487484
62	0xbdf16588	-0.11786944
63	0xbc99b2cc	-0.018762015
64	0xbd4ca724	-0.049964085
65	0x3dab7602	0.083721176
66	0xbd867b69	-0.06566507
67	0xbd5bce5f	-0.053663608
68	0x3dc180cf	0.094483964
69	0x3c365d14	0.01113059
70	0x3e33c783	0.17556576
71	0xbd131c1f	-0.03591549
72	0xbd94420f	-0.07239162
73	0xbea1e20d	-0.31617776
74	0x3e2e8126	0.17041454
75	0xbdebd0d8	-0.11514443
76	0xbdafa053	-0.08575501
77	0xbe3619c0	-0.1778326
78	0xbdb53040	-0.088470936
79	0x3d3113fe	0.043231957
80	0x3d5b19d2	0.05349142
81	0xbe16ec24	-0.14738518
82	0x3d1712cd	0.036883164
83	0xbc816cb3	-0.015798902
84	0xbd9120a7	-0.07086306
85	0x3eadcc19	0.33944777
86	0xbe0323c5	-0.12806614
87	0xbde53af8	-0.11192888
88	0x3e07939c	0.13239902
89	0xbe48a451	-0.19593932
90	0xbd362862	-0.044472106
91	0xbe188505	-0.14894493
92	0xbe0ba628	-0.13637602
93	0xbdc25899	-0.09489555
94	0xbd941223	-0.07230022
95	0xbca25ef0	-0.01982066
96	0xbe36380f	-0.17794822
97	0xbe14cea2	-0.14531949
98	0xbd6a64b9	-0.057224963
99	0xbe091510	-0.13386941

weight f4 [72, 100]
0	0x3dbc3ff3	0.09191885
1	0x3ded12cb	0.1157585
2	0x3e47406a	0.19458166
3	0x3ddab28a	0.10678585
4	0x3f226fb8	0.6345172
5	0xbe2ceb76	-0.16886696
6	0xbd81543c	-0.063148946
7	0x3ee52c7d	0.44760504
8	0x3dd22704	0.10261348
9	0x3d19f5d0	0.03758794
10	0xbe10bb18	-0.1413387
11	0x3d3f2032	0.046661563
12	0x3e74ba8f	0.23899291
13	0xbcc0b4a9	-0.023523645
14	0xbd2e7b7e	-0.04259824
15	0xbddfe0c5	-0.10931543
16	0xbebb8ee9	-0.3663247
17	0xbed217b3	-0.41033706
18	0x3e945831	0.28973535
19	0x3e88db37	0.26729748
20	0xbe06abd6	-0.13151488
21	0x3ea58c5f	0.32333657
22	0xbd08a01f	-0.03335583
23	0x3d0897ab	0.033347767
24	0xbeaf5ce0	-0.34250546
25	0xbe8ea686	-0.27861422
26	0xbd2438ee	-0.040093355
27	0xbf3f3e2e	-0.74704254
28	0xbe818e1d	-0.25303736
29	0xbe9cef1c	-0.30651176
30	0xbead93ab	-0.33901724
31	0xbd838ded	-0.064235546
32	0xbd9d8d29	-0.0769294
33	0xbe7bdbb0	-0.24595523
34	0x3d58c207	0.052919414
35	0xbddbebe1	-0.1073835
36	0xbda6c872	-0.08143701
37	0x3e215738	0.15755928
38	0xbe337052	-0.17523316
39	0x3eb3c980	0.3511467
40	0x3ece01ea	0.40235835
41	0x3e918d93	0.28428325
42	0x3dfee191	0.12445367
43	0xbc769232	-0.015049504
44	0x3e54fb3b	0.20798962
45	0x3ecb720a	0.39735442
46	0xbbe9a2c0	-0.007129997
47	0xbe1803ea	-0.14845243
48	0x3e698f5c	0.22808594
49	0x3db24aa3	0.08705642
50	0xbe2b03c1	-0.16700651
51	0x3e4352f3	0.19074611
52	0x3d4b72e9	0.049670134
53	0x3d0f5d07	0.035000827
54	0xbe24a9c0	-0.1608038
55	0x3edbd888	0.42938638
56	0xbe931ee2	-0.287345
57	0x3e2a058e	0.16603681
58	0xbdc48c3e	-0.095970616
59	0xbec68d2b	-0.38779578
60	0xbdf85bc5	-0.12126879
61	0x3e38e80d	0.1805727
62	0xbe0b3936	-0.13596043
63	0xbe720e7f	-0.23638342
64	0xbd73dbba	-0.05953572
65	0xbe4c3c69	-0.1994492
66	0xbd48f104	-0.049057975
67	0xbe5b5d15	-0.21422227
68	0x3d27ed49	0.040997777
69	0xbd5e8d67	-0.05433407
70	0xbd6a8f5a	-0.057265617
71	0xbd74ee9d	-0.05979787
72	0x3e51f9b8	0.20505416
73	0xbd902c01	-0.07039643
74	0xbf1a2d7a	-0.6022564
75	0x3e6e385f	0.23263691
76	0x3f0f77ad	0.56041986
77	0x3d80da44	0.06291631
78	0xbe850e06	-0.25987262
79	0x3e7824cc	0.24232787
80	0x3e9c0f26	0.30480307
81	0xbd96db0a	-0.07365997
82	0xbe33d7c5	-0.17562778
83	0x3d8ad8ea	0.06779654
84	0x3df23427	0.118263535
85	0x3d1de5e2	0.03854931
86	0xbe8aac00	-0.2708435
87	0x3dd505f1	0.10401524
88	0x3e57d7d0	0.2107842
89	0xbedba242	-0.4289723
90	0xbec294f5	-0.3800427
91	0xbe1141fc	-0.14185327
92	0xbf0968de	-0.5367564
93	0xbe780d28	-0.24223769
94	0x3cbde3c7	0.023179902
95	0x3e90493a	0.28180867
96	0x3dce80d6	0.10083167
97	0xbf099f2b	-0.53758496
98	0x3c05ca13	0.008165854
99	0xbe294f07	-0.16534053
100	0xbc198e5c	-0.00937232
101	0x3e4cbb08	0.19993222
102	0x3e0c850a	0.13722625
103	0xbe0ba27c	-0.13636202
104	0xbf0fe30c	-0.5620582
105	0xbe0feeed	-0.14055987
106	0xbebae08b	-0.36499438
107	0xbed05fb7	-0.40698025
108	0x3cf8a292	0.030350957
109	0xbde2b64f	-0.11069929
110	0xbe53fbc8	-0.20701516
111	0xbe051d37	-0.12999426
112	0xbe52ca3d	-0.2058496
113	0x3bca89d6	0.006180982
114	0x3d93f56b	0.07224544
115	0xbdc30ed2	-0.09524311
116	0x3e3ccd2f	0.18437646
117	0xbdaee92f	-0.0854057
118	0xbda4162a	-0.0801204
119	0xbcbefc8b	-0.023313781
120	0xbea1efab	-0.31628165
121	0x3ea922e9	0.33034447
122	0xbe8ee88d	-0.27911797
123	0x3de7a5ea	0.113109425
124	0x3c9384ff	0.018007753
125	0xbe4646e2	-0.19362977
126	0xbd859934	-0.06523362
127	0xbd1a32a7	-0.037645962
128	0xbdcf62d7	-0.10126274
129	0xbdd392f3	-0.10330763
130	0xbd72eab1	-0.05930585
131	0x3e351d59	0.17686976
132	0x3dfb42d1	0.122686036
133	0xbb85a0d1	-0.0040780087
134	0xbe95da23	-0.29267988
135	0x3d955537	0.07291644
136	0x3e820207	0.25392172
137	0x3ee2aa8b	0.4427074
138	0xbe528751	-0.20559432
139	0x3ee5b65a	0.44865686
140	0x3efa6d08	0.4891131
141	0x3e6bbc8b	0.23021142
142	0xbdc0b262	-0.09409024
143	0xbe92cd0e	-0.2867207
144	0xbda8daa8	-0.0824483
145	0x3d4e9868	0.050438315
146	0xbdaa9534	-0.083292395
147	0xbe409919	-0.18808402
148	0x3d39ae8c	0.045332476
149	0x3e95504b	0.2916282
150	0xbac6c130	-0.0015163776
151	0x3c7f0369	0.015564778
152	0xbed6e972	-0.4197498
153	0x3eaa0a9a	0.33211213
154	0x3e014efe	0.1262779
155	0xbe00e7a7	-0.12588368
156	0xbe623618	-0.22090948
157	0x3e13fc01	0.144516
158	0xbbcf8138	-0.0063325427
159	0x3e093dec	0.13402528
160	0xbe44da17	-0.1922382
161	0x3cab47b5	0.020908216
162	0x3dbcbe69	0.09216005
163	0x3e07835f	0.13233708
164	0xbda66187	-0.081240706
165	0xbddaef41	-0.10690165
166	0x3e837860	0.25677776
167	0xbf0e510f	-0.55592436
168	0x3df410e6	0.119172856
169	0xbeac8ea7	-0.33702585
170	0x3ea5ebb4	0.3240639
171	0x3e4d7167	0.20062791
172	0xbd5a0ff4	-0.05323787
173	0x3daad461	0.08341289
174	0xbea06186	-0.31324404
175	0xbd79726b	-0.060900133
176	0xbe8a2a6a	-0.26985484
177	0x3e168dcf	0.14702533
178	0xbd526920	-0.051369786
179	0xbc4e6cc5	-0.012599175
180	0x3db078df	0.08616804
181	0xbe255730	-0.1614654
182	0x3dafaa79	0.08577437
183	0xbe17220d	-0.14759083
184	0xbdf1e7ee	-0.11811815
185	0xbec15eca	-0.3776763
186	0xbe8703d0	-0.26370096
187	0x3d303ce3	0.043026816
188	0xbddcb679	-0.107769914
189	0x3f18da26	0.5970787
190	0xbdab3914	-0.08360496
191	0x3e435d51	0.19078566
192	0x3e8f9f27	0.2805111
193	0x3e1615c0	0.14656734
194	0x3dab0e5c	0.08352348
195	0xbdf2ca02	-0.11854936
196	0xbc4243e2	-0.011857005
197	0x3f02cace	0.51090705
198	0x3b92b5ab	0.004477223
199	0xbd091fdb	-0.033477645
200	0xbdea060e	-0.11426936
201	0xbec275f4	-0.37980616
202	0x3d9370a4	0.07199219
203	0x3d3bf696	0.04588946
204	0x3a557ba0	0.0008143727
205	0xbda6662a	-0.08124955
206	0xbd6fe080	-0.05856371
207	0xbd792c29	-0.06083313
208	0xbd4bd3df	-0.049762603
209	0xbaed18d4	-0.0018089064
210	0x3c433e10	0.011916652
211	0xbc830484	-0.015993364
212	0xbded2fb3	-0.115813635
213	0xbd26b3ba	-0.040698744
214	0x3cae0d66	0.021246623
215	0x3b028500	0.00199157
216	0xbe8d6223	-0.27613935
217	0xbda01247	-0.07815986
218	0x3dd9677c	0.10615441
219	0x3e11cecd	0.14239044
220	0xbd21cab4	-0.039499953
221	0xbe0f71ae	-0.14008209
222	0xbb355227	-0.0027667375
223	0xbeb3aa23	-0.35090742
224	0xbdfea14f	-0.12433111
225	0xbee199dd	-0.440627
226	0xbd39d01f	-0.045364495
227	0xbe18a3f5	-0.14906295
228	0x3c2b2367	0.010445452
229	0xbe76a548	-0.24086487
230	0x3d240151	0.040040318
231	0xbe575587	-0.2102872
232	0xbd88a2c9	-0.06671674
233	0xbcd70f4f	-0.026252417
234	0xbd6ad3ac	-0.057330772
235	0x3cceddf5	0.025252322
236	0x3c70832d	0.014679712
237	0x3d1b7836	0.03795644
238	0xbe513b1c	-0.20432705
239	0xbecb18cf	-0.39667365
240	0xbdedf15f	-0.116183035
241	0x3d3adad0	0.045618832
242	0xbd661d3a	-0.056180216
243	0xbe50e626	-0.20400295
244	0x3ca5840c	0.020204566
245	0x3df964f6	0.1217746
246	0x3dd38850	0.10328734
247	0x3e099376	0.13435158
248	0x3db9a889	0.09065349
249	0x3d77ff98	0.060546488
250	0xbe2d2d7a	-0.16911879
251	0xbe18c504	-0.14918905
252	0x3e13371d	0.14376493
253	0x3ceff2f8	0.029290661
254	0xbca687c7	-0.020328416
255	0x3d9a7ede	0.07543729

bias f4 [72]
0	0xbea9102a	-0.33020145
1	0x3d13ff38	0.036132067
2	0xbe99447a	-0.29935056
3	0xbe802935	-0.25031438
4	0xbea94a12	-0.33064324
5	0x3ec6dee3	0.38841924
6	0xbf3c94f9	-0.73664814
7	0xbe988158	-0.2978618
8	0xbe862e85	-0.26207367
9	0xbeb46c09	-0.35238674
10	0xbec0da90	-0.3766675
11	0xbef8fe7e	-0.48631662
12	0xbf1f066f	-0.6211919
13	0x3df04a37	0.11732905
14	0xbece03ce	-0.40237278
15	0x3d5fdde9	0.05465499
16	0xbeec44ee	-0.4614634
17	0xbeed80ea	-0.46387416
18	0xbe4bf3aa	-0.19917169
19	0xbd3f05e5	-0.04663648
20	0xbe590482	-0.21193126
21	0xbd8f9585	-0.070109405
22	0xbe8b01cd	-0.2714981
23	0x3b1b5668	0.0023702625
24	0xbeca5ce2	-0.3952399
25	0xbe8e43ad	-0.27786008
26	0xbee32d02	-0.44370276
27	0xbe901be9	-0.28146294
28	0x3d78f547	0.06078079
29	0xbe4effb8	-0.20214736
30	0x3e01b4c7	0.12666617
31	0xbed158ee	-0.4088816
32	0xbe4a0019	-0.197266
33	0xbf059240	-0.52176285
34	0xbdebaaf4	-0.11507216
35	0x3deca25c	0.11554405
36	0x3f0c729b	0.54862374
37	0xbe876274	-0.264423
38	0xbe92e072	-0.28686863
39	0xbec1586d	-0.37762776
40	0xbe1ae672	-0.1512697
41	0xbed5e8b7	-0.4177911
42	0x3e360f61	0.17779304
43	0xbed43133	-0.41443786
44	0x3dbc6fd6	0.092010185
45	0xbeff0407	-0.4980776
46	0x3dc00aff	0.09377097
47	0xbecf222d	-0.40455762
48	0x3e83d5bb	0.25749
49	0x3d12e20b	0.035860103
50	0xbe1afe32	-0.1513603
51	0xbe899184	-0.26868832
52	0x3f06cc4f	0.526555
53	0xbe597b62	-0.21238473
54	0xbe6a338a	-0.22871223
55	0xbe4a228c	-0.19739741
56	0xbe412ccf	-0.1886475
57	0xbe994cc5	-0.29941383
58	0xbe9ecac5	-0.31014076
59	0xbee86380	-0.45388412
60	0xbef9e429	-0.48806885
61	0xbe051834	-0.12997514
62	0xbe9d05da	-0.30668527
63	0x3e51d219	0.20490302
64	0x3e84e041	0.25952342
65	0xbef0949c	-0.4698838
66	0x3e739acf	0.23789524
67	0xbeecdb7d	-0.46261206
68	0x3cd19ef2	0.025588486
69	0x3e8977cc	0.2684921
70	0x3f315334	0.6926758
71	0x3e358cf1	0.17729546

weight f4 [10, 72]
0	0xbe04d1f5	-0.12970717
1	0x3e3639ba	0.17795458
2	0xbe3b0a10	-0.18265557
3	0xbea7b53b	-0.32755455
4	0xbea846db	-0.32866558
5	0xbdf697d3	-0.12040677
6	0xbeae39d8	-0.34028506
7	0xbe9ad626	-0.30241507
8	0xbe9149ab	-0.28376517
9	0xbeb6e544	-0.3572179
10	0xbeef5535	-0.46744695
11	0x3ebb1bd3	0.36544666
12	0xbf23cd40	-0.6398506
13	0xbedbb297	-0.4290969
14	0xbef77d9a	-0.48338014
15	0x3db2452d	0.087046005
16	0xbedd205b	-0.43188748
17	0xbe857f28	-0.26073575
18	0xbedfa81a	-0.4368294
19	0xbf51b49b	-0.8191621
20	0x3e9ffc2d	0.31247082
21	0xbcb21e91	-0.02174309
22	0x3cb01d87	0.021498455
23	0xbe33e11e	-0.17566344
24	0xbf045f1a	-0.51707613
25	0x3e9005cf	0.28129432
26	0xbefad31a	-0.48989183
27	0xbd455021	-0.04817212
28	0xbf0b670d	-0.5445412
29	0xbe720fba	-0.23638812
30	0xbeb69b63	-0.35665426
31	0xbe787493	-0.2426322
32	0x3e5af788	0.21383488
33	0x3eecb71c	0.4623345
34	0xbe4399e0	-0.19101667
35	0xbe163a93	-0.14670782
36	0xbdd7dddb	-0.105403624
37	0x3e02e10b	0.1278116
38	0x3e4084a1	0.18800594
39	0x3e52906d	0.20562907
40	0xbec08933	-0.37604675
41	0x3e07d78c	0.13265818
42	0x3ddfbb8e	0.10924445
43	0x3e11e134	0.14246064
44	0x3ebd2024	0.36938584
45	0x3dc3ef49	0.095671244
46	0xbecbc8d5	-0.3980166
47	0xbd96d377	-0.073645525
48	0xbf367612	-0.7127391
49	0x3d3847f2	0.044990487
50	0xbccb07dd	-0.024784023
51	0xbf130bac	-0.57439685
52	0xbec58ad2	-0.38582474
53	0xbed335e5	-0.41252056
54	0x3df69463	0.12040021
55	0x3e48ada7	0.19597493
56	0xb934b4fb	-0.00017233558
57	0xbe675159	-0.22589625
58	0xbe4ae721	-0.19814731
59	0x3d216413	0.03940208
60	0x3d5df8c5	0.054192323
61	0xbef76f8e	-0.48327297
62	0xbeca009f	-0.394536
63	0xbd9dad1e	-0.07699035
64	0xbf326546	-0.6968578
65	0xbe7e05f5	-0.2480696
66	0xbe2e7235	-0.17035754
67	0xbe17ec5c	-0.14836258
68	0xbed51df3	-0.41624412
69	0xbf21d30f	-0.63212675
70	0xbebadef8	-0.36498237
71	0xbf231fc4	-0.63720345
72	0xbecb9069	-0.39758614
73	0xbf43b08e	-0.76441276
74	0xbe6e7e0d	-0.23290272
75	0xbf09bfd7	-0.5380835
76	0xbcf6eac9	-0.030141251
77	0xbf44624b	-0.76712483
78	0xbd00977b	-0.031394463
79	0x3ed53654	0.41643012
80	0xbeda42ae	-0.42628998
81	0xbed4e6e2	-0.415824
82	0xbdbb1346	-0.091345355
83	0xbf1ed6f1	-0.62046725
84	0x3e43869b	0.19094317
85	0xbd40da31	-0.047083084
86	0x3deb8c76	0.115014
87	0xbf034fba	-0.5129353
88	0x3e2bccd9	0.16777362
89	0xbe6b6016	-0.22985873
90	0x3dc0cb00	0.09413719
91	0x3eda41e6	0.42628402
92	0xbdb37af7	-0.08763688
93	0xbf2ff492	-0.6873256
94	0x3e0feda8	0.14055502
95	0x3de55c50	0.11199248
96	0x3d411999	0.047143552
97	0xbf47abb5	-0.7799638
98	0x3da0a475	0.07843868
99	0xbe14e629	-0.14540924
100	0xbf44067d	-0.765724
101	0xbed265a3	-0.41093168
102	0x3e42e217	0.19031559
103	0xbe7f63bc	-0.2494039
104	0xbe418d67	-0.18901597
105	0xbf8084b8	-1.0040503
106	0xbecd24b2	-0.4006706
107	0xbf0f0f14	-0.5588238
108	0x3d8516fd	0.06498525
109	0xbf109530	-0.5647764
110	0xbf6838f9	-0.90711933
111	0xbece18e8	-0.40253377
112	0x3e8b231a	0.27175218
113	0x3e76be67	0.2409607
114	0xbe7e2697	-0.24819408
115	0xbf090208	-0.53518724
116	0x3e9a0f94	0.3009001
117	0xbe2d943c	-0.16951078
118	0xbd86ba0f	-0.065784566
119	0xbe25eda7	-0.16203938
120	0x3e2fc2ab	0.17164104
121	0x3ce0e426	0.02745254
122	0xbcd883aa	-0.02642997
123	0xbe3cab2f	-0.18424676
124	0xbebd25a0	-0.36942768
125	0x3d1e0eda	0.038588382
126	0xbcadbb72	-0.021207545
127	0x3bf22941	0.0073901718
128	0x3e145da2	0.14488843
129	0xbe3774c4	-0.17915636
130	0x3e1f0358	0.1552862
131	0xbf254ad8	-0.6456733
132	0x3d59b00e	0.053146414
133	0xbeec2dfb	-0.4612883
134	0x3e99f80c	0.30072057
135	0xbebaa926	-0.36457175
136	0xbea3d22f	-0.31996295
137	0xbe9cb5ca	-0.30607444
138	0xbf077b64	-0.52922654
139	0xbf9c7d9e	-1.2225835
140	0xbf339fde	-0.7016581
141	0x3e1e826a	0.15479437
142	0x3d302c75	0.043011148
143	0x3dc54177	0.09631627
144	0xbf25a19a	-0.6469971
145	0xbeeacf69	-0.45861366
146	0xbed1f93d	-0.41010466
147	0x3e2960b3	0.16540794
148	0x3e2dea39	0.1698388
149	0xbd8db768	-0.069197476
150	0x3d2060ff	0.039155003
151	0xbf0a0324	-0.5391104
152	0xbdcb039f	-0.099128
153	0xbe7b33af	-0.24531434
154	0xbe166bb9	-0.1468953
155	0x3eee8e1b	0.46592793
156	0x3df0d1de	0.11758779
157	0x3e37e294	0.17957526
158	0x3e340b3f	0.17582415
159	0xbf19f8aa	-0.60145056
160	0x3e0b23b8	0.13587844
161	0x3e298f6e	0.1655862
162	0x3ed89932	0.4230438
163	0xbee6d0df	-0.4508123
164	0x3d9ff9e5	0.078113355
165	0xbf519e60	-0.81882286
166	0xbec9e2aa	-0.39430743
167	0x3c9d3d8a	0.019194383
168	0xbf1e52fa	-0.6184536
169	0xbc4871d7	-0.012234173
170	0x3e3e54ae	0.1858699
171	0xbec1d476	-0.37857407
172	0x3e0602fd	0.13087077
173	0xbebcdb45	-0.3688604
174	0xbe83cdb5	-0.2574288
175	0xbd8a275d	-0.06745789
176	0xbe43e3cd	-0.19129868
177	0xbef9925b	-0.48744473
178	0xbee424c9	-0.44559315
179	0xbf07a1e2	-0.5298139
180	0x3e240afe	0.16019818
181	0x3dae3436	0.08506052
182	0x3e0237b5	0.12716563
183	0x3eab7b5b	0.3349255
184	0xbea4e3e8	-0.3220513
185	0x3e1faa51	0.15592314
186	0xbe83c342	-0.25734907
187	0xbe14153a	-0.14461222
188	0xbf335f32	-0.7006713
189	0x3dc07184	0.093966514
190	0x3d7ccfdc	0.061721668
191	0x3d060237	0.032716956
192	0x3e58d74b	0.21175878
193	0xbd81e68b	-0.06342801
194	0xbe516488	-0.20448506
195	0xbe9a5123	-0.30140027
196	0x3cab4337	0.020906074
197	0xbf2215cd	-0.63314515
198	0x3d68d1ef	0.056840833
199	0x3e6ce89a	0.23135605
200	0x3dfe0b38	0.124044836
201	0x3e8c4e26	0.27403373
202	0xbf31293d	-0.6920355
203	0x3dbfd48e	0.093667135
204	0xbf251bf0	-0.64495754
205	0xbde244ee	-0.110483035
206	0xbeb56470	-0.3542819
207	0xbf312c0e	-0.6920785
208	0xbf3d9f83	-0.7407152
209	0xbd820e14	-0.063503414
210	0x3db06e14	0.08614746
211	0xbda6e16f	-0.08148467
212	0xbe37c033	-0.17944412
213	0xbea1b4dc	-0.31583297
214	0xbf3561d4	-0.708524
215	0x3c72fe56	0.014831146
216	0xbf3080b7	-0.68946403
217	0x3e22b8b2	0.15890768
218	0xbe82e011	-0.25561574
219	0x3e3c2af3	0.18375759
220	0x3ce2913f	0.02765715
221	0xbca1c9e2	-0.019749586
222	0xbf2a239c	-0.66460586
223	0xbefafaad	-0.49019375
224	0xbe065c26	-0.1312109
225	0xbeba7716	-0.3641898
226	0xbeaea6d6	-0.3411166
227	0xbeba85c5	-0.36430183
228	0x3e1da8e0	0.15396452
229	0x3d9c7368	0.076391995
230	0xbe98ec34	-0.2986771
231	0x3e61f624	0.22066551
232	0xbf392896	-0.72327554
233	0xbebcb170	-0.36854124
234	0xbe00dc41	-0.1258402
235	0x3d6f8431	0.058475677
236	0xbdae7ec2	-0.08520271
237	0xbf0ae448	-0.5425458
238	0xbf3651b3	-0.71218413
239	0x3e651498	0.22371137
240	0xbe0fe042	-0.14050391
241	0xbcd3ef24	-0.025870867
242	0xbca88d05	-0.020575056
243	0x3bcff594	0.006346414
244	0x3e88cb0d	0.26717415
245	0xbd81f8c5	-0.06346277
246	0xbea5951b	-0.3234032
247	0xbedd6d9a	-0.43247682
248	0xbf0a086d	-0.53919107
249	0xbe47a7e6	-0.19497642
250	0x3e9fdc27	0.3122265
251	0xbf3fd22d	-0.7493008
252	0xbd8e92eb	-0.06961616
253	0xbf2096e6	-0.6273025
254	0xbf17e3af	-0.5933179
255	0xbf0da9e8	-0.5533738

bias f4 [10]
0	0xbeaa220a	-0.33229095
1	0x3def5dca	0.11687811
2	0xbecd9d9e	-0.40159315
3	0x3e87d921	0.26532844
4	0xbe47853e	-0.19484422
5	0xbeaad74c	-0.33367383
6	0xbe891482	-0.2677346
7	0xbe125a51	-0.14292265
8	0x3f0f79d6	0.5604528
9	0x3f01d665	0.50717765
