checkpoints/YourNet/pruning/5/epoch-26.pth (torch, 30799 bytes, 8 tensors)

weight f4 [3, 1, 3, 3]
000000 75 d4 fe 3e 97 ac 45 3e ba 2c 83 be b1 85 c6 3d
       0.49771467 0.19304119 -0.2562006 0.09693468
000010 21 fa 08 be 27 cd 18 bf 34 2c c3 be b7 17 1d bf
       -0.13376667 -0.5968804 -0.38119662 -0.6136431
000020 f7 a7 ae bb 19 c3 bf 3d 50 19 ab 3c 57 1a a9 be
       -0.0053300816 0.09363384 0.020886093 -0.33027908
000030 03 5c 91 3e 30 e7 0d 3d a4 76 80 be 92 d3 50 3e
       0.28390512 0.034644306 -0.25090516 0.20393208
000040 97 5c 43 3e 56 fd 01 3e 84 1c b3 3d 65 16 25 3e
       0.19078289 0.12694296 0.08745673 0.16121824
000050 f5 13 b9 3e c4 f4 04 be 2c e7 12 3d 5a e7 05 3e
       0.36148039 -0.12983996 0.035864994 0.13076535
000060 28 85 fa be d4 e1 f5 be bf e8 ff be
       -0.48929715 -0.48023856 -0.4998226

bias f4 [3]
000000 4a be 29 bf 59 19 8b 3d 01 66 f5 be
       -0.66305983 0.06791944 -0.47929385

weight f4 [4, 3, 3, 3]
000000 77 d7 10 be bb f7 b8 be 4c 4b b0 be 83 d1 b7 3e
       -0.14144693 -0.36126503 -0.34432447 0.35902032
000010 c8 f1 b4 be 3b d6 14 bd 0b a7 e2 be 1d 98 ed be
       -0.35340714 -0.03633712 -0.4426807 -0.46405116
000020 43 07 b4 3e 5b bd 83 bd e0 d3 f7 3c d1 59 c2 3e
       0.3516179 -0.06432601 0.030252397 0.3795915
000030 e5 1e 29 bf 4a 2f 21 be 88 7a b2 3e 22 3d 91 bf
       -0.66062766 -0.15740696 0.3485911 -1.1346781
000040 cd d5 19 be 21 cd 03 3f 1d 6a 66 3e fe b9 af 3e
       -0.15022965 0.51484877 0.22501417 0.34321588
000050 02 f2 8d bf fd 45 d4 3e 4b df 81 be 45 b3 68 bf
       -1.108948 0.41459647 -0.25365672 -0.90898544
000060 84 64 d4 be 6b 06 9b bd 9f bf 3c bf a9 5c 0f 3d
       -0.41482937 -0.075695835 -0.7372989 0.035000477
000070 c3 22 10 3e dd 52 3c be 47 1a 7b be e9 30 cf bd
       0.1407576 -0.18390985 -0.24521743 -0.10116751
000080 ed 97 60 bc 34 11 44 be 3e a5 b9 bd 5c 7c 55 3f
       -0.013708097 -0.19147187 -0.090647206 0.8339288
000090 9a 95 16 bc 1c ca 99 3b 6c fa d9 3c dd 88 06 3f
       -0.009190941 0.004693283 0.026608668 0.52552587
0000a0 85 61 9d 3d fc e2 7d bb 01 70 56 be 91 c0 9c be
       0.07684616 -0.003874003 -0.20941164 -0.30615667
0000b0 6c 18 61 be 20 9a dc be b2 76 b0 bd 2f 58 89 be
       -0.21981972 -0.43086338 -0.08616389 -0.2682509
0000c0 93 a0 69 bd 78 e2 6b bd 0b 37 da 3d 50 d5 46 3e
       -0.0570379 -0.057589024 0.1065503 0.1941731
0000d0 d3 18 10 3f 0c 53 3c 3e 35 87 46 bd 1c bd 2a 3f
       0.5628788 0.18391055 -0.048468787 0.6669481
0000e0 6f c8 13 3f 8e 7f 46 bf cf 45 43 bf a6 19 6a 3e
       0.5772771 -0.77538383 -0.76278394 0.22861347
0000f0 15 ed bc 3d d0 97 fd be 7f 91 c3 be 13 ed 7d 3d
       0.09224907 -0.49529886 -0.38196942 0.06199367
000100 56 27 8c 3d 13 8e 06 bf 82 70 12 3e 75 49 01 3f
       0.0684344 -0.5256054 0.14300731 0.5050271
000110 f1 3c 45 3d 28 bb 54 be 35 f3 f5 bb 1d a3 ac 3e
       0.04815382 -0.2077452 -0.007505799 0.33718196
000120 a0 03 35 bf 28 9b 26 bf 73 f1 56 3e 7a 7b 9a 3e
       -0.70708656 -0.650805 0.20990543 0.3017233
000130 66 2c ed bd c6 80 d9 3c 47 b3 5d 3e e3 28 4c 3e
       -0.11580734 0.026550662 0.2165042 0.19937472
000140 44 90 dd bd 8a e2 37 bf e2 b7 01 bf 95 05 09 3e
       -0.10818532 -0.71830046 -0.5067121 0.13381036
000150 b8 13 02 bf 8c db 1f c0 0c 71 61 bf d9 07 bd bd
       -0.5081134 -2.497775 -0.8806312 -0.092300124
000160 ad fd e4 bd a7 a5 61 bf 88 93 95 bf f4 66 3e c0
       -0.11181197 -0.8814339 -1.1685648 -2.9750338
000170 4b 6f a9 be 22 48 7c 3e 0f a1 fd bd 24 02 05 bf
       -0.33092722 0.24636891 -0.12384235 -0.5195639
000180 d4 77 ff 3e 8f e4 0e 3f 7d 0b 4f 3d aa 8a 10 be
       0.4989611 0.558175 0.050548065 -0.14115396
000190 9d 7e cd bd d1 1d fb 3e 6f 56 62 bf f4 7b ea 3e
       -0.10033915 0.49046186 -0.8841314 0.45797694
0001a0 39 49 61 3f 21 d6 3d 3e 07 28 bf 3d 25 c6 13 bf
       0.88002354 0.18538715 0.093338065 -0.5772422

bias f4 [4]
000000 61 ce b7 be ca 11 11 bf 30 73 0f bf 4f d2 92 bc
       -0.35899642 -0.5666777 -0.5603514 -0.017922549

weight f4 [60, 100]
000000 2a 68 39 bf ad c9 1e bf fc 0b 17 bf e0 5e 0f 3f
       -0.72424567 -0.6202648 -0.5900266 0.5600414
000010 79 4b 6c bf aa 70 2c bf c9 34 0b bf a1 01 92 3c
       -0.9230266 -0.6735941 -0.5437742 0.017823042
000020 cf 42 dc 3e 64 d0 c6 3e 31 d3 ed be cb ce 17 3f
       0.4301972 0.38830864 -0.4645019 0.59299916
000030 05 9a b1 3e ec 46 18 3f 22 0f 1a 3e 35 62 ed 3e
       0.3468782 0.5948322 0.15044835 0.4636399
000040 6f ab 5c 3f d7 b4 59 3e 2f c9 92 3e b8 5e ee 3e
       0.86199087 0.21260391 0.28669116 0.4655664
000050 b3 c9 46 3f aa 0a e9 3e c6 0f 22 3e 1d 2e 1d be
       0.7765152 0.4551595 0.1582633 -0.15349622
000060 69 74 27 3f 03 27 a8 bf 6b 00 1c bf cf 3e 4b bf
       0.65412 -1.3136905 -0.6093814 -0.79392713
000070 f3 02 20 3f 89 78 c9 3e 53 20 7a be 58 70 99 be
       0.625045 0.39349774 -0.24426393 -0.29968524
000080 27 15 93 bd 97 c4 c2 bf 9b 48 9e bf 6a 2d d9 bc
       -0.07181769 -1.5216244 -1.2365907 -0.026510913
000090 cc 0e d0 be 91 62 16 c0 84 2b 0a c0 fa ea 72 be
       -0.4063629 -2.349766 -2.158906 -0.23722449
0000a0 cb 49 23 bf 9b 05 a5 bf b4 3e 03 c0 d1 2a e9 be
       -0.63784474 -1.2892336 -2.050702 -0.4554048
0000b0 a1 fa 99 bf 5c 40 35 bd 3d 20 7e 3e bf f7 e2 3d
       -1.2029611 -0.04425083 0.24816985 0.1108241
0000c0 e6 28 49 3e 92 84 f0 be 20 66 39 be be 99 1e bf
       0.19644508 -0.46976143 -0.18105364 -0.6195334
0000d0 0a f2 86 3e 75 dc 5a 3f 73 b0 d9 be d6 4b f8 3e
       0.26356536 0.8549264 -0.42517433 0.48495358
0000e0 d5 94 93 3e ce 97 bf bf dc 4e 4a be 9b f6 c5 3e
       0.28824487 -1.4968202 -0.19756645 0.38664708
0000f0 d6 c5 46 3f 14 fb 00 3e 9c 8b d0 be 0d e4 5c bf
       0.77645624 0.12595779 -0.40731514 -0.8628548
000100 4a c0 ec be 56 d3 48 bf d9 53 74 be 23 d6 a6 be
       -0.46240455 -0.78447473 -0.2386011 -0.32585248
000110 80 64 c4 bf 0c e8 b9 bd 2e df ba 3e ae 16 a5 be
       -1.534317 -0.090774626 0.36498398 -0.32243866
000120 dc e5 b9 3e 78 da 1e c0 8d e8 59 bf 5d c3 09 bf
       0.3630818 -2.4820843 -0.8512047 -0.53813726
000130 38 25 3a bf e2 2c 83 be 57 15 48 be 1c f1 8a bd
       -0.7271304 -0.2562018 -0.1953939 -0.06784269
000140 ee 7a a6 be c3 7d 12 bf f7 d6 f7 3e 24 b1 f2 be
       -0.32515663 -0.5722315 0.48406193 -0.47400773
000150 04 e1 5a bf 2e 83 ce be 54 48 e7 3e 07 96 69 bf
       -0.85499597 -0.40334457 0.4517237 -0.9124455
000160 c1 8a 90 3f 7a 40 db bf 8f 51 a9 bd 47 6d 85 bf
       1.1292344 -1.7129052 -0.08267509 -1.0423974
000170 a1 f4 ec bd 5d 80 94 bd f4 44 2f c0 07 f6 c7 be
       -0.11570097 -0.07251046 -2.7385836 -0.3905489
000180 37 dc 51 bd 2c 75 3a 3f 3a 01 62 3f ae 4a d1 be
       -0.051235404 0.7283504 0.8828312 -0.4087729
000190 61 28 cd be 3b 9a b4 3e 86 1b a7 bc 05 d9 ef be
       -0.4006987 0.35273919 -0.020398866 -0.4684526
0001a0 25 94 c2 bf 54 47 5d 3f e7 76 16 3f 49 24 08 3f
       -1.520146 0.86436963 0.5877518 0.53180367
0001b0 ad df 8c bf 75 6c 0a c0 4d 2c 0a be e7 85 cb bd
       -1.100576 -2.1628697 -0.13493462 -0.09937649
0001c0 2d c6 0a 3e 01 64 81 3e 3d 02 14 be 28 7d 03 bf
       0.1355216 0.2527161 -0.14453979 -0.5136285
0001d0 f5 74 05 bf 3e 90 a6 be f3 ef c4 3e a2 80 97 3e
       -0.5213159 -0.32531923 0.38464317 0.29590327
0001e0 9c 8e 3c 3e 9b 3a 03 be b8 a8 d0 bf de 77 25 bf
       0.18413776 -0.12815325 -1.6301489 -0.6463603
0001f0 50 f7 23 3e db 3a 02 c0 a6 dd f7 bf 30 83 5e be
       0.16012311 -2.0348423 -1.9364517 -0.21729732
000200 99 ec d1 3f 27 42 d0 3f 11 e4 7f bf c0 ea 8f bf
       1.6400329 1.6270188 -0.99957377 -1.1243515
000210 c6 d3 a7 be 27 6c 9e 3f 4d cc f2 3f 6e 0f c6 3c
       -0.32778758 1.2376755 1.8968598 0.02417728
000220 57 90 e4 3e 09 bf 15 3e 23 03 5a bf 96 0d 08 bd
       0.44641373 0.14623655 -0.85161036 -0.03321608
000230 7b be 80 bd 66 11 07 3f d9 ce 11 bf 49 b3 42 be
       -0.06286331 0.5276092 -0.5695625 -0.19013704
000240 89 94 5b bf 12 10 9f be b6 b9 c8 bd cc 2e 4a bd
       -0.8577352 -0.31066948 -0.098010466 -0.049361035
000250 ec 8e 60 be 28 76 17 bf 47 8e 50 bf c0 e9 15 3f
       -0.2192952 -0.5916467 -0.814671 0.585598
000260 69 86 29 bf 73 a8 ac be b7 65 bb be 6f 5d 03 3f
       -0.6622072 -0.33722267 -0.3660104 0.51314443
000270 4c ba ea 3e c2 74 b4 3e 31 a3 83 3e 3e a4 04 bf
       0.45845258 0.3524533 0.25710443 -0.51813114
000280 71 4f 32 bf 11 11 19 be a3 f3 f7 3d d5 c5 cd bd
       -0.6965247 -0.14947917 0.12107017 -0.10047499
000290 0c ad ae 3e a0 71 a9 be 04 f5 33 3e 9d c1 a2 3e
       0.341164 -0.33094501 0.17573935 0.3178834
0002a0 1e d5 ca bd d7 e1 d4 bd de d9 41 be 2e ad 8a 3e
       -0.0990393 -0.10394638 -0.18930766 0.2708525
0002b0 b9 31 92 3e 62 6d 7c bf 8f 2a a8 bf e2 d8 61 bf
       0.2855356 -0.98604405 -1.3137988 -0.8822156
0002c0 f5 f0 61 bf be 0f 36 bd 33 05 b7 be 1c d5 fb 3b
       -0.88258296 -0.044448607 -0.35746154 0.0076853167
0002d0 20 e3 d8 bf ad 16 91 bf 93 07 8b bf 90 d3 39 bf
       -1.6944313 -1.1335045 -1.0861686 -0.72588444
0002e0 3d 83 21 be 52 c8 04 3e 5b c7 64 bd d8 42 17 bd
       -0.1577272 0.12967041 -0.055854183 -0.03692898
0002f0 4d c0 c7 3f 2d 6c ad 3f 68 82 dc 3e 20 c8 17 3f
       1.560556 1.3548638 0.43068242 0.5928974
000300 82 62 96 3e 96 c5 28 bd 01 7c cd 3e c1 6f cc 3e
       0.2937203 -0.041204058 0.4013367 0.3992901
000310 66 d8 ab 3e da 29 ca 3e ac 61 83 bf 63 41 ae bf
       0.33563536 0.39485055 -1.0264182 -1.3613704
000320 7a d9 76 bb d1 6a 11 bf 2e 06 2c 3d a9 2b 16 bf
       -0.0037666247 -0.56803614 0.04199808 -0.5866037
000330 20 e9 df 3e 5b 7c 42 be 39 67 20 3e f3 e3 e0 3e
       0.43732548 -0.1899275 0.15664376 0.4392391
000340 dc 3d 80 3e 0a da 5c 3d 82 df ca 3e b5 dd 09 3f
       0.25047195 0.053918876 0.39623648 0.53853923
000350 91 e6 7b bf 9b e1 91 be 54 e1 b7 3e 03 a1 92 3d
       -0.9839869 -0.28492436 0.359141 0.07159617
000360 52 e0 5d bf 38 c3 e8 3c c0 a7 96 bd c2 2c 25 be
       -0.8667041 0.0284134 -0.073562145 -0.16130355
000370 0c e7 b3 bf 50 14 ec be 99 4c 11 3f 2d 82 11 3f
       -1.4054885 -0.46109247 0.56757504 0.5683926
000380 07 40 6f 3f 28 24 31 bf 2f 2c 93 3e 6d 45 5a bf
       0.9345707 -0.69195795 0.28744647 -0.85262185
000390 7d 80 ac be 18 82 23 bf 29 d4 9b bf cd b5 01 3f
       -0.3369178 -0.6387038 -1.2174121 0.5066803
0003a0 06 51 60 be 45 87 36 bf a9 05 82 bf 40 e1 7b be
       -0.21905908 -0.71300155 -1.0157977 -0.24597645
0003b0 bf 89 92 be bb 23 f3 be 48 e4 cf be 4f d5 5b be
       -0.28620717 -0.47488198 -0.40603852 -0.2146809
0003c0 ba 73 c6 3e 94 20 72 3f cd 2e 9d 3f 3b e6 93 bd
       0.38760167 0.9458096 1.2279907 -0.07221647
0003d0 c6 9b e0 be 88 85 f1 3e 6b 10 26 3e 8b 02 31 bc
       -0.43868846 0.4717219 0.162172 -0.010803829
0003e0 ac 6a 46 3e d3 c8 88 be 2f ba 5b bf 56 f4 6d bf
       0.1937663 -0.26715717 -0.8583097 -0.9295095
0003f0 aa 48 51 3d 0b b5 05 bf 4c 05 ef bd 61 9e fa 3d
       0.05109469 -0.52229375 -0.11670932 0.1223724

bias f4 [60]
000000 34 69 72 3e 73 7a 1c bf 65 f0 54 be 7d 4d 4f bc
       0.23672944 -0.6112434 -0.20794828 -0.012652752
000010 ca 61 8e 3d 9c b8 aa be 81 c8 63 3e 23 51 0f bf
       0.069522455 -0.3334397 0.22244455 -0.5598318
000020 54 f7 42 bf a3 81 31 bf da 40 c2 be 41 80 d8 3e
       -0.7615864 -0.69338435 -0.37940103 0.4228535
000030 e2 47 16 bd 2d a6 4d 3e 54 84 0b bf 52 42 dd be
       -0.036689647 0.20082922 -0.5449879 -0.4321466
000040 b7 6f 06 bf 3f c8 8b bf 57 8b fb be eb cf 43 bf
       -0.52514213 -1.0920485 -0.49129745 -0.7648913
000050 d4 f0 01 bf a8 e2 4f bf 71 11 80 bf df d2 3d bf
       -0.507581 -0.81205225 -1.0005323 -0.7414989
000060 37 e7 88 be 5b 73 82 be 73 a2 25 bf 36 3b 71 bf
       -0.26738903 -0.25478634 -0.64701 -0.94230974
000070 bd f8 64 3f 26 4f 68 3d 9d 08 0f bf eb 36 18 3e
       0.89442044 0.056716107 -0.5587252 0.148647
000080 5a 24 91 3f d2 9d e6 be 1f 90 d5 bd ad be 21 bf
       1.1339219 -0.45042282 -0.104278795 -0.63181573
000090 01 5d cf 3c ed 37 5b be 61 37 2c bf bc bf 23 bf
       0.025312902 -0.21408053 -0.67272 -0.6396444
0000a0 ae d4 68 bf 19 02 27 bf 42 70 a0 be 80 36 5b bf
       -0.90949523 -0.65237576 -0.31335646 -0.85630035
0000b0 be 61 e0 be 7b 88 05 bf 66 8e 18 3f 28 59 07 bf
       -0.4382457 -0.5216138 0.5959228 -0.52870417
0000c0 90 15 ea 3e 53 e1 ec 3d 90 55 f7 be 6f 03 95 bd
       0.45719576 0.11566415 -0.48307467 -0.072760455
0000d0 e0 2b f4 3e e2 da bc 3f 73 47 27 bf 71 24 9a be
       0.47689724 1.4754298 -0.653434 -0.30105928
0000e0 b7 4d cb bd 83 be 3f 3f 5f e1 51 3f 84 61 01 bf
       -0.09926932 0.7490007 0.81984514 -0.5053942

weight f4 [10, 60]
000000 37 30 03 3f 09 9b 27 bf e2 01 1a be f3 31 a8 bf
       0.51245445 -0.6547094 -0.1503978 -1.3140243
000010 c0 76 71 be 5e bf 72 bf 2f dc 2a bf 7e 71 f8 bd
       -0.23580456 -0.94823253 -0.66742224 -0.12131022
000020 3a d0 61 bf 80 a9 0a be f5 c7 c1 be 72 22 03 bf
       -0.88208354 -0.13541222 -0.37847868 -0.51224434
000030 44 c3 4c be 1c 53 76 be 67 97 91 bd 36 fb fb be
       -0.19996363 -0.24055141 -0.07108956 -0.49215096
000040 e8 9c 09 3f f2 a5 bb be b6 8c 4b bf 79 e0 3a bf
       0.53755045 -0.36650044 -0.7951158 -0.7299877
000050 2a 80 73 3d eb f1 fa 3d 29 4e 2e bf bf 00 9a be
       0.0594484 0.122531734 -0.6808801 -0.30078694
000060 25 cd 03 3e eb db 91 3d 41 cc aa bd e3 33 42 bf
       0.12871225 0.07122024 -0.083397396 -0.7586042
000070 46 5d 11 3e e7 be c4 bf b1 86 16 be 4c a8 8f bf
       0.14195737 -1.5370759 -0.14699818 -1.1223235
000080 20 de 74 bf 32 6a 0e be 22 1a 91 3e 3e dd ea be
       -0.95651436 -0.13907698 0.2834025 -0.4587192
000090 21 09 be be 47 5c b3 3d 31 c1 84 be 63 4e 02 bf
       -0.3711634 0.08757835 -0.25928643 -0.5090086
0000a0 29 e8 bb bf c4 e4 fe be 9c c8 2a be f5 27 0c bd
       -1.4680225 -0.4978391 -0.16678089 -0.034217793
0000b0 92 a3 e6 be ff 46 11 bf 2f c6 32 bf 09 bb 8a bf
       -0.4504667 -0.56748956 -0.69833654 -1.0838329
0000c0 87 c1 cb bd b3 c5 0c bf fd b7 66 be 6d 82 74 be
       -0.09949022 -0.54989165 -0.22531123 -0.23877878
0000d0 fe 43 09 3f 9c f9 18 bf c1 1e d8 be 41 1a 4b 3f
       0.5361937 -0.59755874 -0.42210963 0.79336935
0000e0 8c 3b f4 be 83 d2 00 bf 95 66 a8 be 69 23 fb bd
       -0.4770168 -0.50321215 -0.32890764 -0.12262613
0000f0 d9 07 47 3e a8 d7 41 bf 2f e6 3d bf 60 e7 c6 3e
       0.19436587 -0.7571969 -0.7417936 0.388484
000100 50 7f f2 be bc 13 5e be 2b 5d e0 bd 5e 69 90 bf
       -0.47362757 -0.21687216 -0.109552704 -1.1282156
000110 4e 7d 06 bf 5a b8 27 3b c3 4e 90 bf dd e9 42 3f
       -0.5253495 0.002559206 -1.1274036 0.761381
000120 ec 04 92 be fb 76 0c be 5b 07 8f be 7f 81 0a bd
       -0.2851938 -0.13717262 -0.279353 -0.033814903
000130 cf 87 6c bf 3d d8 77 be d0 60 b1 3d 3a 0e 1d bf
       -0.9239473 -0.24203582 0.08661044 -0.61349833
000140 f6 e7 8b be d0 c5 0f bf 84 d8 ca be 5c cb 2e bf
       -0.2732541 -0.5616121 -0.39618313 -0.6827905
000150 d8 31 0d bf bb a0 f7 bd d3 25 a2 be e2 be 51 bf
       -0.5515418 -0.12091204 -0.31669483 -0.8193189
000160 b2 b8 9d bd 93 8d 1b bf 7d 01 f9 bd 70 47 61 be
       -0.077012435 -0.607629 -0.12158487 -0.21999907
000170 31 23 96 3f d3 8d c1 be 13 76 17 bd dd 80 24 be
       1.172949 -0.37803516 -0.03697784 -0.16064782
000180 a8 03 84 bf 53 14 5e 3e 94 08 ab be cf cb 3b be
       -1.0313616 0.2168744 -0.33404982 -0.18339466
000190 21 fb 3c bd e9 79 cd be 1d 43 c4 3e fd 1c d8 be
       -0.046137933 -0.40132073 0.38332453 -0.42209616
0001a0 2c 91 41 3f f9 f8 9f be d3 35 ff 3e 17 a3 3f bf
       0.7561214 -0.3124464 0.49845752 -0.7485823
0001b0 44 fa c4 3e 0f cf 52 be 56 03 20 bf 73 f0 aa bf
       0.38472188 -0.20586799 -0.6250509 -1.3354629
0001c0 a2 91 9e bc 2a 5d 65 3f ae ed ce be f0 93 8c be
       -0.019356553 0.8959528 -0.4041571 -0.27456617
0001d0 cc 41 7c bf 6b 0e 91 be fe 7a 5b 3e 50 2c 04 3e
       -0.985379 -0.28331313 0.21433637 0.12907529
0001e0 a7 80 16 bf 8d 01 81 bf 81 9d 35 bf 6e 8a ef bd
       -0.5879006 -1.0078598 -0.70943457 -0.11696325
0001f0 66 57 31 be 19 27 c3 be 31 1f e7 3c d6 29 da be
       -0.17318496 -0.38115767 0.028213115 -0.42610043
000200 a0 8d 59 3c 62 19 fb 3e 8e 2c 0d bf d9 fb 90 be
       0.013278395 0.49042803 -0.5514611 -0.28317145
000210 6f 6f 7c ba cb 64 d1 3e bf a5 ad bc c8 bd 9c 3e
       -0.0009629642 0.4089721 -0.021197198 0.30613542
000220 b8 2c 08 be d1 e2 93 bc 57 9a 10 bf a9 46 1f bf
       -0.13298309 -0.01805249 -0.56485504 -0.62217194
000230 6f 2a cc 3e 58 ea d4 3e 51 7c e6 be f5 cf 38 bf
       0.39876124 0.4158504 -0.4501672 -0.7219232
000240 42 2c 75 bf b7 68 a0 be af 94 96 be cb 0e eb bd
       -0.9577066 -0.3132989 -0.29410312 -0.11477431
000250 29 2f 4a bf ff c9 00 bd 27 f3 01 3f 4b c2 c2 be
       -0.7897821 -0.03144264 0.50761646 -0.3803886
000260 18 de 43 bf d0 9e 7b 3e ca 2d 2c 3f 94 2f 05 3f
       -0.76510763 0.24572301 0.6725737 0.52025723
000270 16 3f c9 bf 0f d3 01 bf 85 05 17 3f 7c f1 d7 be
       -1.5722377 -0.50712675 0.589928 -0.42176425
000280 41 d9 fe be 03 ea 8f 3e b2 5f e5 bd 16 91 48 3f
       -0.49775127 0.28108224 -0.11199893 0.78346384
000290 35 89 b4 be 0f d6 bb be 85 2a 74 3e 99 11 a1 bf
       -0.3526093 -0.3668675 0.23844345 -1.2583495
0002a0 fd 07 42 bf 6b f5 f7 be c5 0a 8d 3e 1d 0a d8 be
       -0.7579344 -0.48429427 0.2754728 -0.42195216
0002b0 c5 f2 23 bf d8 ad 1a bf 29 d2 6b be cf 6b 3f be
       -0.6404231 -0.60421515 -0.23029388 -0.1869347
0002c0 07 68 ba be a3 0e 93 3d 19 9b 62 bf 62 ab 65 bb
       -0.36407492 0.07180526 -0.8851791 -0.003504478
0002d0 fa b1 b9 be db b7 d3 be d1 bd 8e be e9 d3 5e bf
       -0.36268598 -0.41351208 -0.27879193 -0.870421
0002e0 e4 10 b7 bd b3 37 c1 be 7c 1f bf be 20 ee 2b 3d
       -0.089387685 -0.37737808 -0.37328708 0.04197514
0002f0 23 59 2a 3f d1 ca ad be 8a 37 fd bd 0d e3 43 bf
       0.6654226 -0.339438 -0.12364109 -0.76518327
000300 46 92 3c bf 49 93 cc be f1 7d 64 3d 38 2c d9 3d
       -0.73660696 -0.3995612 0.05578417 0.10604137
000310 2d d1 bc be 1f a9 f6 be 63 5f c4 be 57 38 3b be
       -0.36878338 -0.48175904 -0.38354024 -0.1828321
000320 5e 64 bd be 2e ad a8 be 4e 7e df 3e 7a 39 66 be
       -0.36990637 -0.32944626 0.4365105 -0.22482863
000330 52 4a b1 be 2f 8d 9b bd 50 9a be be d3 04 1b be
       -0.34627014 -0.07595288 -0.37227106 -0.15138559
000340 b8 5e 8f bf 1d e4 65 be 7a 17 40 be 32 6c 02 bf
       -1.1200781 -0.224503 -0.18758956 -0.5094634
000350 08 f1 c3 bf 4b 2a ff 3e 7d 6c 25 be 84 bf 82 be
       -1.5307932 0.49836954 -0.16154666 -0.2553674
000360 79 4f 9d bf 4e 47 16 bf 3a 9f 3a be 5a 0c d1 3e
       -1.2289878 -0.5870255 -0.18224803 0.40829736
000370 ec 99 03 3f 6e de 6d be 59 17 a1 be 8e 44 01 bf
       0.5140674 -0.23229381 -0.31463125 -0.5049523
000380 23 d0 03 bf 2f e5 56 3e 28 bc 48 bf 53 a2 50 bf
       -0.51489466 0.20985864 -0.78412104 -0.8149769
000390 40 b9 e1 be 22 4b 39 be e0 88 39 3e 46 44 9b be
       -0.44086647 -0.18095067 0.1811862 -0.30325526
0003a0 f6 97 85 bf 34 a0 08 bf 65 19 82 bf 17 cc 9b bd
       -1.0437 -0.5336945 -1.0164 -0.076072864
0003b0 2e 60 86 bf 58 1a 7e bf 0a 2f 0e bf ed d5 f3 be
       -1.0498102 -0.9925895 -0.55540526 -0.4762415
0003c0 e4 8f e5 be 8b be 1e bf 3d 94 6c 3e 8b 9d a0 3e
       -0.44836342 -0.62009495 0.23103423 0.31370196
0003d0 a5 f6 18 bf 13 5a fc 3d a5 e4 28 3f 1c 46 3c bf
       -0.5975135 0.12321868 0.65973884 -0.7354448
0003e0 1d 70 d1 bd b1 67 04 be 51 ed e0 be fc d7 08 bf
       -0.10226462 -0.1293018 -0.43931058 -0.53454566
0003f0 ae fe 39 be 8a 39 9c be a1 80 08 bf 39 69 f0 be
       -0.18163559 -0.3051265 -0.5332127 -0.4695528

bias f4 [10]
000000 fc e9 be 3d 78 6d d2 3d 86 d3 aa be da e8 be bd
       0.09321973 0.10274786 -0.33364505 -0.09321757
000010 ce ee 2a be 9c 15 1f bf ee 9e f4 be 89 fc d4 3d
       -0.1669266 -0.6214235 -0.47777504 0.1039973
000020 f5 c1 a7 3f 9e b3 84 be
       1.3106066 -0.25918287
