checkpoints/YourNet/pruning/5/epoch-19.pth (torch, 30927 bytes, 8 tensors)

weight f4 [3, 1, 3, 3]
0.5082832 0.18620047 -0.24626625 -0.005343978 -0.21634352 -0.567841 -0.39328703 -0.5504518
0.019946137 0.01061282 -0.10630168 -0.22942747 0.18453383 0.045854907 -0.12485447 0.13975689
0.38186625 -0.00163751 0.20056988 0.14376873 0.37241566 -0.36944804 0.08899186 0.120120555
-0.51124895 -0.38533026 -0.38741133
00000000: d91e 023f 56ab 3e3e 382d 7cbe 891c afbb
00000010: 2889 5dbe 075e 11bf eb5c c9be 69ea 0cbf
00000020: 1566 a33c 65e1 2d3c b2b4 d9bd 09ef 6abe
00000030: 70f6 3c3e 5bd2 3b3d b3b3 ffbd 6e1c 0f3e
00000040: f983 c33e b8a1 d6ba 3162 4d3e 1c38 133e
00000050: 44ad be3e 4b28 bdbe 5d41 b63d c401 f63d
00000060: 36e1 02bf 024a c5be c75a c6be

bias f4 [3]
-0.5815647 0.044027627 -0.35209665
00000000: 6de1 14bf 5056 343d 0346 b4be

weight f4 [4, 3, 3, 3]
-0.18617325 -0.14642856 -0.44312385 0.06262323 -0.22502014 -0.07202879 0.049744684 -0.15960683
0.56851256 0.0013991361 0.015151641 0.4687627 -0.732711 -0.032182753 0.35364595 -0.993535
-0.20365849 0.42562222 0.22822951 0.33997512 -0.6844897 0.4738946 -0.48200265 -0.8827222
-0.28059348 -0.25526172 -0.5164208 0.3208233 0.2516868 -0.34138322 -0.3669813 0.018339926
-0.0108679095 -0.3408444 0.014025609 0.5612378 0.00184471 -0.20905186 0.14881903 0.48410648
0.0855976 0.14855598 -0.24297814 -0.0946596 -0.32604006 -0.41442648 0.05712038 -0.438878
-0.29888344 -0.20006765 0.39147198 0.35963306 0.54971904 0.0823701 -0.048047844 0.62172145
0.4830111 -1.2584807 -0.6730852 0.26527104 -0.11439608 -0.90928316 -0.31043243 0.09191732
0.047978006 -0.43470615 0.21833871 0.54271394 -0.18216759 -0.32004678 0.13722475 0.3175488
-0.8598664 -0.44928694 0.1971106 0.13687204 -0.035854872 0.22070709 0.30846033 0.008128493
-0.019421311 -0.5185358 -0.25935048 0.08778662 -0.7683457 -1.8472788 -0.9598371 0.057066116
-0.2593977 -1.1098942 -0.9564137 -2.9484174 -0.025003131 0.20506196 -0.120913915 -0.7424127
0.47840762 0.4725873 0.09307994 -0.32784107 -0.27504313 0.31258687 -0.632076 0.13891648
0.88814807 0.0987019 0.23236646 -0.5009207
00000000: 33a4 3ebe 5ef1 15be 21e1 e2be 9c40 803d
00000010: ae6b 66be d583 93bd 15c1 4b3d f96f 23be
00000020: 0a8a 113f 3863 b73a 973e 783c aa01 f03e
00000030: f392 3bbf 10d2 03bd 1511 b53e 4f58 7ebf
00000040: da8b 50be 28eb d93e ffb4 693e 3811 ae3e
00000050: b83a 2fbf 50a2 f23e 0dc9 f6be 15fa 61bf
00000060: f3a9 8fbe aab1 82be 2734 04bf f442 a43e
00000070: 18dd 803e c8c9 aebe f9e4 bbbe 9d3d 963c
00000080: 510f 32bc 2883 aebe abcb 653c 48ad 0f3f
00000090: 32ca f13a b111 56be 0464 183e cedc f73e
000000a0: cb4d af3d 0f1f 183e 43cf 78be e4dc c1bd
000000b0: b9ee a6be b52f d4be 0ff7 693d 9eb4 e0be
000000c0: 4007 99be 89de 4cbe 046f c83e d321 b83e
000000d0: 63ba 0c3f a8b1 a83d d1cd 44bd 2329 1f3f
000000e0: 3b4d f73e e515 a1bf 504f 2cbf 9bd1 873e
000000f0: 7e48 eabd c8c6 68bf 00f1 9ebe 263f bc3d
00000100: 9684 443d ce91 debe 2f94 5f3e 4def 0a3f
00000110: 248a 3abe 2cdd a3be a584 0c3e c295 a23e
00000120: 3420 5cbf f008 e6be 5cd7 493e 2f28 0c3e
00000130: 8fdc 12bd 0a01 623e 83ee 9d3e 5f2d 053c
00000140: 7119 9fbc c3be 04bf 96c9 84be 79c9 b33d
00000150: 4eb2 44bf a273 ecbf e2b7 75bf 29be 693d
00000160: c6cf 84be 0311 8ebf 87d7 74bf dfb2 3cc0
00000170: 5ed3 ccbc c3fb 513e b7a1 f7bd c20e 3ebf
00000180: d8f1 f43e f6f6 f13e b2a0 be3d c9da a7be
00000190: 74d2 8cbe 630b a03e bccf 21bf 1f40 0e3e
000001a0: ac5d 633f 3924 ca3d 79f1 6d3e 573c 00bf

bias f4 [4]
-0.06206056 -0.5883225 -0.6694457 -0.06878022
00000000: 3733 7ebd 4e9c 16bf cb60 2bbf a5dc 8cbd

weight f4 [60, 100]
-1.0941889 -0.22155057 -0.30437738 -0.041356992 0.24301758 -0.86225504 0.03413024 -0.49767983
0.23312292 0.24904191 -0.62221503 0.5527722 0.3120301 0.5205833 0.001718055 -0.27467796
0.826874 0.20726748 0.14601979 0.0984473 0.4335932 0.15212466 0.07082061 -0.28672048
-0.4759582 -0.13415375 -1.4874889 0.37702683 0.75582635 0.26304245 0.27326745 -0.68521065
-0.24715576 -0.19788942 0.050425902 -0.7492765 -1.2344506 -1.1196297 -0.38401243 -0.12179799
-0.7524246 -0.60014015 -1.4766176 -0.022087533 -1.1160184 0.42816818 -0.33731085 1.0582006
0.21581231 -2.0443869 0.6638787 -0.57321733 -0.3346575 -0.08900378 0.034339614 -0.5206422
-0.1200774 0.52705926 0.13271809 0.020114742 -1.2246933 0.742863 0.412191 0.30678892
-0.12098133 -1.0840353 -1.0779581 -0.114502035 0.74313515 0.1539471 0.29567266 0.42910713
0.42063302 -0.33815026 -0.30734962 0.6829379 0.20573993 0.10501844 0.23274331 -0.12788613
0.9809419 0.08078183 -0.026804984 -0.32302108 0.15986125 0.46442658 -0.0984303 -0.62941736
-1.3673567 -0.10769724 -0.6871228 -0.56755453 -3.1303582 -1.0808845 -0.8085737 -1.7997202
-1.3861227 -2.4356065 -0.61205727 -0.95616066 -2.1365972 0.41557965 -0.04672908 -0.1074363
-1.1727003 -1.5752008 -0.5659065 0.7975989 -0.18803598 -0.06851169 0.20138535 -1.4628025
0.6033442 -0.4634261 -1.4469545 0.70440966 -0.9543473 0.47461608 0.12435826 -0.44386724
-0.64517874 -0.8227266 -0.015702996 0.59855366 -0.7932972 -1.335448 -1.5913607 -0.2928918
0.8250486 0.86558646 -1.8040066 -0.6126843 0.09404864 0.2600143 0.015461617 -0.99810743
-3.0518148 -1.2694057 -2.806991 -1.087656 0.4639439 -0.55505157 -0.7567997 -1.0796158
-0.6435349 0.34175456 0.11034882 -0.24485187 0.23810956 -0.07707967 0.26083457 -0.5685638
0.21607804 -0.8273134 -0.6931204 0.07946437 -1.3907667 0.37044185 0.5046598 -0.9499799
0.769702 0.5183416 0.20566429 -0.09368316 -0.14141089 0.33960208 0.26175135 -0.23570313
0.17129827 -0.52200156 -0.7727302 0.22236437 -0.35705653 0.46509752 -0.19646738 -0.51470274
-1.009223 0.24178268 0.15209661 -0.9670496 -2.2175217 0.6165425 -0.12158981 0.46621796
-1.5567793 -1.0067422 -0.16845667 -1.1386536 0.797607 0.08205774 -1.0705202 0.170802
0.69436914 -0.3457496 0.010655839 -0.35955584 -0.6745529 0.67695767 -0.4145413 0.45045352
-0.06792867 0.045621365 0.25158843 -0.45506832 1.0542592 -0.30998114 0.3423648 0.17987783
0.034515414 -0.77090806 -0.25784156 0.43094182 -0.6144659 0.20099777 0.5128871 0.09882239
-0.8715605 -0.28466257 -0.4056824 -0.0003177045 -1.2920996 0.48154542 0.7705368 0.56141216
0.60915554 -0.1944745 -1.1455607 -1.0104727 -0.7614172 -0.15022068 -1.6560061 0.021195265
0.080856025 -1.0278896 -0.4001227 -0.8541928 -0.6979425 -0.6590856 -0.86796016 0.08293329
0.46336496 1.017731 1.0128671 0.15026858 0.05434308 -0.21126764 -0.12376586 0.2960777
0.21508464 0.645296 -1.427669 -0.8603502 0.07571942 -0.9101464 -1.3204045 -0.2026219
00000000: 620e 8cbf 27de 62be 5ad7 9bbe f365 29bd
00000010: 9ad9 783e bfbc 5cbf 27cc 0b3d e4cf febe
00000020: c6b7 6e3e d804 7f3e 7c49 1fbf 7b82 0d3f
00000030: 69c2 9f3e f244 053f 5c30 e13a 97a2 8cbe
00000040: 04ae 533f ed3d 543e 3686 153e bd9e c93d
00000050: eeff dd3e 91c6 1b3e 650a 913d 07cd 92be
00000060: cbb0 f3be 9a5f 09be 0966 bebf a909 c13e
00000070: d67d 413f 80ad 863e b6e9 8b3e f769 2fbf
00000080: 6616 7dbe 86a3 4abe 648b 4e3d 96d0 3fbf
00000090: 7a02 9ebf 0750 8fbf 479d c4be 3971 f9bd
000000a0: e69e 40bf c9a2 19bf ce01 bdbf eaf0 b4bc
000000b0: b1d9 8ebf dc38 db3e 02b4 acbe 1e73 873f
000000c0: e7fd 5c3e 3cd7 02c0 f4f3 293f 5fbe 12bf
000000d0: 3a58 abbe 9d47 b6bd b2a7 0c3d cf48 05bf
000000e0: 24eb f5bd 5bed 063f 40e7 073e acc7 a43c
000000f0: c0c2 9cbf 452c 3e3f b30a d33e 7013 9d3e
00000100: 0fc5 f7bd abc1 8abf 88fa 89bf 0b80 eabd
00000110: 1b3e 3e3f 4fa4 1d3e 6862 973e eeb3 db3e
00000120: 365d d73e 0822 adbe ee5c 9dbe 05d5 2e3f
00000130: 7dad 523e e813 d73d 4354 6e3e 95f4 02be
00000140: 021f 7b3f f270 a53d 2096 dbbc 0563 a5be
00000150: abb2 233e 52c9 ed3e d395 c9bd 7f21 21bf
00000160: 8b05 afbf 5f90 dcbd 48e7 2fbf 414b 11bf
00000170: ca57 48c0 6c5a 8abf b0fe 4ebf 3b5d e6bf
00000180: 786c b1bf fae0 1bc0 c9af 1cbf f2c6 74bf
00000190: 02be 08c0 dbc6 d43e fe66 3fbd 9007 dcbd
000001a0: 0b1b 96bf 2ea0 c9bf 40df 10bf 712f 4c3f
000001b0: 818c 40be db4f 8cbd f637 4e3e 1d3d bbbf
000001c0: c474 1a3f 3046 edbe ce35 b9bf 3154 343f
000001d0: 1b50 74bf e100 f33e 8baf fe3d 9142 e3be
000001e0: 6f2a 25bf 369e 52bf 92a3 80bc d03a 193f
000001f0: 8615 4bbf f6ef aabf b5b1 cbbf eaf5 95be
00000200: 6336 533f 1397 5d3f b0e9 e6bf e1d8 1cbf
00000210: 939c c03d 9820 853e b952 7d3c f883 7fbf
00000220: ef50 43c0 e37b a2bf bea5 33c0 5038 8bbf
00000230: 0e8a ed3e dc17 0ebf a0bd 41bf da30 8abf
00000240: b4be 24bf 74fa ae3e 90fe e13d 73ba 7abe
00000250: fed2 733e f2db 9dbd 1c8c 853e 668d 11bf
00000260: 9043 5d3e d0ca 53bf 5770 31bf 37be a23d
00000270: a504 b2bf 8eaa bd3e 6231 013f e231 73bf
00000280: 310b 453f 09b2 043f a999 523e f5dc bfbd
00000290: 04ce 10be 53e0 ad3e 4604 863e 295c 71be
000002a0: d068 2f3e e5a1 05bf a5d1 45bf 7cb3 633e
000002b0: 1dd0 b6be 4321 ee3e bf2e 49be 8fc3 03bf
000002c0: 382e 81bf e195 773e 37bf 1b3e 9090 77bf
000002d0: e0eb 0dc0 bbd5 1d3f 1404 f9bd 1fb4 ee3e
000002e0: 8b44 c7bf eedc 80bf e87f 2cbe 67bf 91bf
000002f0: f92f 4c3f e30d a83d ce06 89bf b8e6 2e3e
00000300: 2dc2 313f 1706 b1be d495 2e3c b417 b8be
00000310: 80af 2cbf 194d 2d3f c23e d4be d8a1 e63e
00000320: 301e 8bbd 78dd 3a3d 33d0 803e b7fe e8be
00000330: f7f1 863f d9b5 9ebe 704a af3e e531 383e
00000340: 0960 0d3d 3b5a 45bf cf03 84be 68a4 dc3e
00000350: a34d 1dbf 5cd2 4d3e 924c 033f 6563 ca3d
00000360: 971e 5fbf 4bbf 91be 9bb5 cfbe 9391 a6b9
00000370: 8563 a5bf 1f8d f63e e641 453f b5b8 0f3f
00000380: 9ef1 1b3f 5324 47be bca1 92bf 2b57 81bf
00000390: 3dec 42bf 73d3 19be 02f8 d3bf b1a1 ad3c
000003a0: d897 a53d e391 83bf e2dc ccbe 61ac 5abf
000003b0: 5cac 32bf d5b9 28bf a332 5ebf eed8 a93d
000003c0: 2c3e ed3e 0245 823f a1a5 813f 02e0 193e
000003d0: d996 5e3d 8b56 58be f578 fdbd 7f97 973e
000003e0: 263f 5c3e 1e32 253f dcbd b6bf e93f 5cbf
000003f0: c912 9b3d 5bff 68bf 0403 a9bf 1e7c 4fbe

bias f4 [60]
0.53119195 -0.555566 0.06360557 -0.1908448 -0.38347378 -0.2292919 0.2577974 -0.4883793
-0.5633155 -0.40040037 -0.27392328 -0.35010713 0.84761024 0.023969278 -0.2904248 -1.022074
-1.0989133 0.084696 -0.13910335 0.7648632 -0.15476649 0.26243982 -0.6001936 -1.0434587
-0.8691995 -0.30612326 -0.5147954 -0.32577205 -0.26799524 -0.41390407 -0.85173637 0.41642535
-1.0170828 -0.8482334 -0.6733532 -0.80067205 -0.4234614 0.86784405 0.3571381 -0.52378595
-0.4402641 0.46783313 -0.5458088 0.07758099 -0.193404 -0.3269192 0.84195805 0.07240698
0.78997153 -0.90628016 -0.3174465 -0.8335299 -0.31226835 0.45086694 0.20623964 0.0927672
-0.3501276 -0.36417082 -0.49392003 -0.5810206
00000000: 32fc 073f 9339 0ebf a343 823d d26c 43be
00000010: ad56 c4be 7fcb 6abe 05fe 833e da0c fabe
00000020: 7235 10bf 4701 cdbe ac3f 8cbe 3e41 b3be
00000030: fcfc 583f 385b c43c 8fb2 94be 52d3 82bf
00000040: 31a9 8cbf 1975 ad3d 1c71 0ebe 13ce 433f
00000050: 1b7b 1ebe 835e 863e 4aa6 19bf 0e90 85bf
00000060: dc83 5ebf 30bc 9cbe a2c9 03bf 98cb a6be
00000070: ac36 89be 3ceb d3be 650b 5abf b435 d53e
00000080: c52f 82bf d325 59bf e060 2cbf d8f8 4cbf
00000090: efcf d8be 072b 5e3f ceda b63e d616 06bf
000000a0: 4c6a e1be d387 ef3e 20ba 0bbf c8e2 9e3d
000000b0: b30b 46be f461 a7be 908a 573f 1c4a 943d
000000c0: 933b 4a3f fa01 68bf 5988 a2be 3762 55bf
000000d0: a3e1 9fbe 08d8 e63e 7c30 533e bbfc bd3d
000000e0: ed43 b3be 9974 babe 16e3 fcbe c4bd 14bf

weight f4 [10, 60]
0.36520088 -1.000615 -0.14478329 0.30005217 -0.34108254 -0.7905382 -0.72264427 0.022558497
-0.24723062 0.60875595 -0.7183886 0.040688317 0.014495419 -1.2520608 -0.61659276 -0.16819826
-0.23793432 -0.15148662 -0.5400653 -0.8944326 0.6449336 -0.11449672 -0.12990752 -0.639836
-0.75412804 0.14436525 -0.63827085 -0.47485176 -0.87243223 0.35769707 -0.47226807 -0.7079405
0.012912606 -0.53014624 -0.90005904 0.0021608036 -0.21522513 0.067224324 0.6208681 -0.04114984
-0.9198718 -0.69067055 -0.39503276 -0.3286578 -1.0198557 -1.1410142 -0.48709768 -0.49122626
-0.38182843 -1.229539 -0.022373423 0.011810399 0.10872604 -0.56755996 -1.0139967 -0.399363
-0.25119734 -0.3274762 -0.6844577 -0.96178246 0.097612575 0.4673868 -0.7137438 -0.7797338
-1.123228 0.0054409523 -0.15784813 -0.051399317 -0.65896696 -0.4661441 0.09834353 -0.6034221
0.085832365 -0.07735315 -0.13161926 -0.11040337 -0.3492302 -0.56251204 -0.44936818 0.9422693
0.047861733 0.10207543 0.07796481 -0.31125018 -0.5485131 -1.704123 -1.5769223 -0.56611156
-0.5715795 -0.6696753 -0.50366527 -0.090410225 -0.6715838 -0.06866798 -0.17575948 -0.09463758
-0.52042794 -0.14886802 0.038856987 -0.3826068 -0.45180258 0.56231457 -0.02889735 -0.99133545
-0.94129294 0.7254787 0.598047 -0.2517772 0.38759604 -0.7947908 -0.7337189 -0.23950905
-0.49752244 0.25915682 -0.24215363 -0.12466618 -0.7674669 -0.74969774 -0.49715376 -0.0012016761
-0.3307479 -0.1418489 -0.7045757 0.335125 -0.33569324 -0.17660964 -0.12161712 0.7561141
-0.06765856 -0.052430328 -0.49387395 -0.22985147 -0.52190644 -0.45131484 -0.054282077 0.15468149
-0.024492526 -0.92125905 0.38222077 -0.81084967 0.5869634 -0.64788604 0.42439705 -0.37922713
-0.50731736 -0.6171179 -0.17897722 -1.0110856 -0.09201852 -0.7252822 -0.32507238 0.23035932
-1.1167898 0.031170452 -0.25105974 -0.17426348 0.6158881 -0.98531175 -0.7899408 0.59510714
-0.75302327 -0.07410416 0.0049384087 -0.5451214 -0.53844166 -0.34315965 -0.06984092 0.110574074
-1.1177307 -0.5225271 -0.7595672 -0.2009792 0.01801722 0.12446023 -0.7094122 -0.30800006
-0.36775583 -0.54706 0.7074893 -0.15889171 -0.71080536 -0.16152804 -0.92978686 -0.26224643
-0.12725733 -0.3414825 -0.06755383 -0.26166642 0.06568201 -0.3888794 -0.71920735 -0.32189977
-0.5404735 -0.996933 -0.49728736 0.29657236 0.544065 -0.60720605 -0.18464293 -0.63260657
-0.17339337 0.1299358 -0.13792802 0.43247926 -0.25151145 -0.6334697 -0.779351 -0.83834803
-0.18793286 -0.32334507 0.517712 -0.45875236 -0.04739466 0.51225674 -0.19472422 -0.492124
-0.36641303 -0.51872116 -0.75172514 -0.2724562 0.34488276 -0.41100472 0.013526091 -0.8784813
-0.24285968 -0.59641683 -0.5563152 -0.40087458 -0.79147226 0.5701144 -0.43401578 -0.15039119
-0.54678273 -0.46379825 -0.42679918 -0.041695964 -1.4660618 0.4229468 -0.18193907 0.22609803
-0.7669619 -0.5989919 0.35715365 -0.24024785 -0.47001383 -0.028720288 0.7508266 -0.4533504
-0.2915823 -0.45781115 0.8018301 0.22275163 -0.47894198 -0.0625821 -0.32055008 -0.25954428
00000000: 9cfb ba3e 2714 80bf 1242 14be 70a0 993e
00000010: 5fa2 aebe b660 4abf 37ff 38bf 99cc b83c
00000020: 062a 7dbe 6ed7 1b3f 51e8 37bf cba8 263d
00000030: 327e 6d3c 8743 a0bf 06d9 1dbf 2a3c 2cbe
00000040: 0ea5 73be 4f1f 1bbe b841 0abf 89f9 64bf
00000050: 5e1a 253f 427d eabd 7a06 05be 4bcc 23bf
00000060: 890e 41bf 7cd4 133e b865 23bf c51f f3be
00000070: b857 5fbf 1224 b73e 1fcd f1be 973b 35bf
00000080: 658f 533c aab7 07bf 456a 66bf 459c 0d3b
00000090: fa63 5cbe e8ac 893d 36f1 1e3f bc8c 28bd
000000a0: b87c 6bbf c9cf 30bf bc41 cabe d645 a8be
000000b0: a28a 82bf c10c 92bf de64 f9be 0282 fbbe
000000c0: 047f c3be 8961 9dbf 7848 b7bc 6780 413c
000000d0: c2ab de3d 9c4b 11bf a5ca 81bf 4f79 ccbe
000000e0: f09c 80be f6aa a7be 9f38 2fbf 6037 76bf
000000f0: 1ae9 c73d 534d ef3e eab7 36bf a29c 47bf
00000100: efc5 8fbf 044a b23b f1a2 21be 1788 52bd
00000110: 0fb2 28bf 71aa eebe 5568 c93d df79 1abf
00000120: e1c8 af3d 546b 9ebd 33c7 06be 291b e2bd
00000130: 4dce b2be ca00 10bf 9613 e6be 9038 713f
00000140: aa0a 443d ec0c d13d 04ac 9f3d 2f5c 9fbe
00000150: 5b6b 0cbf b420 dabf 97d8 c9bf b0ec 10bf
00000160: 0953 12bf d76f 2bbf 35f0 00bf ff28 b9bd
00000170: eaec 2bbf cca1 8cbd 4bfa 33be 59d1 c1bd
00000180: c43a 05bf dc70 18be 8128 1f3d 0ae5 c3be
00000190: ab52 e7be d9f3 0f3f 23ba ecbc 29c8 7dbf
000001a0: 93f8 70bf f9b8 393f 9c19 193f f1e8 80be
000001b0: fd72 c63e 6977 4bbf 00d5 3bbf dc41 75be
000001c0: 43bb febe 34b0 843e 1ff7 77be fb50 ffbd
000001d0: b678 44bf 31ec 3fbf f08a febe 8f81 9dba
000001e0: ca57 a9be d740 11be 135f 34bf 8195 ab3e
000001f0: fcdf abbe 28d9 34be 6612 f9bd b290 413f
00000200: 9290 8abd 2fc1 56bd 0cdd fcbe 2f5e 6bbe
00000210: a99b 05bf bd12 e7be e256 5ebd d364 1e3e
00000220: 8da4 c8bc a2d7 6bbf 71b2 c33e d893 4fbf
00000230: 3c43 163f dcdb 25bf 924a d93e 0f2a c2be
00000240: 8ddf 01bf 70fb 1dbf ce45 37be 416b 81bf
00000250: 3574 bcbd 18ac 39bf e36f a6be 50e3 6b3e
00000260: f8f2 8ebf 2d59 ff3c e78a 80be 2072 32be
00000270: d8aa 1d3f 643d 7cbf 8f39 4abf f158 183f
00000280: 22c6 40bf ecc3 97bd 60d2 a13b 138d 0bbf
00000290: 50d7 09bf 9fb2 afbe c208 8fbd a974 e23d
000002a0: cd11 8fbf 56c4 05bf ff72 42bf 7ecd 4dbe
000002b0: d998 933c 01e5 fe3d 0a9c 35bf 2fb2 9dbe
000002c0: 7e4a bcbe 200c 0cbf 051e 353f 82b4 22be
000002d0: 57f7 35bf 9b67 25be 8306 6ebf 2a45 86be
000002e0: bf4f 02be cbd6 aebe aa59 8abd 24f9 85be
000002f0: 4a84 863d 331b c7be f91d 38bf 0cd0 a4be
00000300: 795c 0abf 0037 7fbf 739c febe 55d8 973e
00000310: d847 0b3f db71 1bbf 0913 3dbe 81f2 21bf
00000320: 088e 31be e40d 053e 013d 0dbe ec6d dd3e
00000330: 1cc6 80be 122b 22bf 8c83 47bf fa9d 56bf
00000340: 7971 40be 7c8d a5be c688 043f 97e1 eabe
00000350: e720 42bd 4223 033f c965 47be adf7 fbbe
00000360: 7d9a bbbe e9ca 04bf 0f71 40bf 617f 8bbe
00000370: 7994 b03e 366f d2be 8a9c 5d3c 27e4 60bf
00000380: 35b0 78be c6ae 18bf ac6a 0ebf 6f3f cdbe
00000390: ed9d 4abf 04f3 113f 5137 debe 2600 1abe
000003a0: f4f9 0bbf f776 edbe 6c85 dabe 63c9 2abd
000003b0: eaa7 bbbf 7c8c d83e 3c4e 3abe 3e86 673e
000003c0: 9d57 44bf 8857 19bf d8dc b63e 8803 76be
000003d0: a7a5 f0be cf46 ebbc 2c36 403f 8b1d e8be
000003e0: 464a 95be 3966 eabe bd44 4d3f 0119 643e
000003f0: e237 f5be 0b2b 80bd 241f a4be fde2 84be

bias f4 [10]
-0.08336503 0.24461372 -0.16273254 0.14494804 -0.011703178 -0.74799055 -0.76477814 0.1451828
0.9491759 -0.11163309
00000000: 49bb aabd 057c 7a3e 5ca3 26be 426d 143e
00000010: b0be 3fbc 4f7c 3fbf 80c8 43bf cdaa 143e
00000020: 31fd 723f e49f e4bd
