checkpoints/YourNet/pruning/1/epoch-11.pth (torch, 77063 bytes, 10 tensors)

weight f4 [3, 1, 3, 3]
0	0xbe8d7596	-0.27628773
1	0x3e0bbe98	0.13646924
2	0x3e930a53	0.28718814
3	0x3eabc780	0.33550644
4	0x3ea2b298	0.3177688
5	0xbd75a579	-0.05997226
6	0x3e8da3a8	0.27663922
7	0x3f1fc840	0.6241493
8	0xbe5a4040	-0.21313572
9	0xbf006695	-0.5015653
10	0xbf1b0cfc	-0.6056669
11	0xbeff13a8	-0.49819684
12	0x3f162fcd	0.5866669
13	0xbd6b2d8d	-0.057416487
14	0x3df1d063	0.11807325
15	0x3e8db7a4	0.2767917
16	0x3e956046	0.29175013
17	0x3eb36438	0.35037398
18	0x3eeef55e	0.46671575
19	0x3eaab27a	0.33339292
20	0x3e48f8c6	0.1962615
21	0xbe0f1356	-0.1397222
22	0x3eae814a	0.34083015
23	0x3eb31fc3	0.3498517
24	0xbf3574ab	-0.70881146
25	0xbf1184a9	-0.5684305
26	0x3ed4a874	0.4153477

bias f4 [3]
0	0x3d9213cc	0.07132682
1	0xbf018c56	-0.5060476
2	0xbf18d15d	-0.59694463

weight f4 [4, 3, 3, 3]
0	0x3ec552bd	0.38539687
1	0x3e0bdd74	0.13658696
2	0x3f078a3d	0.5294531
3	0xbe404fb6	-0.18780407
4	0x3e87307e	0.26404184
5	0x3e387ede	0.18017146
6	0xbf1c08d8	-0.60950994
7	0xbf83329d	-1.0249821
8	0xbf2a6e53	-0.6657459
9	0xbbd13b82	-0.0063852677
10	0x3e0472d9	0.12934436
11	0x3e8d8358	0.2763927
12	0xbc9de8df	-0.01927608
13	0x3ea6d169	0.32581642
14	0xbee512ea	-0.44740993
15	0x3eca9651	0.39567807
16	0x3f3723e9	0.7153917
17	0x3e24c3e5	0.16090353
18	0xbbcd882d	-0.006272337
19	0xbe8a5b82	-0.2702294
20	0xbd4bab38	-0.049723834
21	0x3f12544f	0.57159895
22	0x3f0b7666	0.54477537
23	0x3e129642	0.14315131
24	0xbebb50b0	-0.36584997
25	0xbe812f87	-0.25231573
26	0xbf122eab	-0.5710246
27	0xbf1e96e2	-0.6194898
28	0xbcd98d99	-0.026556777
29	0x3e98dcfc	0.29856098
30	0xbf008802	-0.5020753
31	0x3ee4826b	0.4463075
32	0x3e89155d	0.2677411
33	0x3dbca5ce	0.09211312
34	0x3f1d0024	0.6132834
35	0x3c03d389	0.008046039
36	0xbe0ef3c1	-0.13960172
37	0xbec6f238	-0.38856673
38	0xbc044292	-0.008072512
39	0xbf0043e4	-0.5010359
40	0xbe811cb7	-0.2521722
41	0xbec215c6	-0.37907237
42	0xbea262ad	-0.3171591
43	0xbea5fa00	-0.32417297
44	0xbd360aec	-0.04444401
45	0xbda2b150	-0.07943976
46	0x3e837bcb	0.25680384
47	0xbe86f1f0	-0.2635646
48	0x3ea1d11d	0.31604853
49	0x3e44370e	0.19161627
50	0xbeaa3397	-0.33242485
51	0x3dd2e897	0.10298269
52	0x3e3f5d8d	0.1868803
53	0xbee97c3e	-0.45602602
54	0xbe148afd	-0.14506145
55	0xbcb0b20f	-0.02156928
56	0x3ec4b212	0.38417107
57	0x3e1d0a9a	0.15336075
58	0x3e8a0152	0.26954132
59	0x3c423264	0.011852834
60	0x3e90b7cb	0.28265223
61	0xbe2de626	-0.16982326
62	0x3deb886b	0.11500629
63	0x3deaf253	0.11472001
64	0x3e97a567	0.2961838
65	0xbf2d1d6f	-0.6762304
66	0xbd992c45	-0.07479147
67	0xbf001acb	-0.5004088
68	0xbf3744d6	-0.7158941
69	0xbefcfbc8	-0.49410844
70	0xbf1aa8b0	-0.60413647
71	0xbe802bf6	-0.2503354
72	0xbe31a881	-0.17349435
73	0x3c1586eb	0.009126405
74	0x3c81f864	0.015865512
75	0xbefa5d7b	-0.48899445
76	0xbe3cc870	-0.18435836
77	0x3ec8dc99	0.39230803
78	0x3e75645c	0.23964065
79	0x3ed722b1	0.42018655
80	0x3f547dc5	0.8300441
81	0xbdbaa672	-0.09113778
82	0xbe3c1950	-0.18369031
83	0xbe87393e	-0.2641086
84	0x3d3adb3e	0.045619242
85	0x3cacdbb9	0.021100866
86	0x3c0f4e71	0.008746729
87	0x3ca1338c	0.0196779
88	0xbdd6ddbc	-0.10491511
89	0x3d9a49ec	0.07533631
90	0x3eaa28e0	0.3323431
91	0xbe1bfad3	-0.152324
92	0x3dc44844	0.09584096
93	0x3e92e0b5	0.28687063
94	0x3e99e28b	0.3005565
95	0x3e87ceb0	0.26524878
96	0x3eb06d8e	0.34458584
97	0x3e5e897b	0.21732132
98	0x3dad5699	0.08463783
99	0xbeeb6ef8	-0.459831
100	0x3de9d515	0.11417595
101	0x3d860ac6	0.065450236
102	0x3ea4851a	0.32132798
103	0xbe94234e	-0.28933185
104	0x3e397fb1	0.18115117
105	0x3f09eb08	0.53874254
106	0x3f26fbda	0.65228045
107	0xbcb5f642	-0.022212151

bias f4 [4]
0	0xbcad76f0	-0.021174878
1	0xbd4f82de	-0.050661914
2	0xbf423f65	-0.7587798
3	0xbeb09144	-0.3448583

weight f4 [100, 100]
0	0x3e285f8a	0.16442695
1	0x3eb28bad	0.3487219
2	0x3e41f57b	0.189413
3	0x3d35ee93	0.044416975
4	0xbe2447ba	-0.16042987
5	0x3d485ac9	0.048914704
6	0x3de0ea09	0.10982139
7	0x3e43aa33	0.19107895
8	0xbd1b25b0	-0.03787774
9	0xbeadd21e	-0.3394937
10	0x3d728e4d	0.05921774
11	0xbee6d515	-0.45084444
12	0xbee373aa	-0.44424182
13	0xbe22e4e5	-0.15907629
14	0x3cf40108	0.029785648
15	0xbeb2a062	-0.34887987
16	0xbeaf9e79	-0.34300593
17	0xbeed9727	-0.46404383
18	0xbe7df518	-0.24800527
19	0x3b4b438b	0.00310156
20	0xbdc59685	-0.0964785
21	0x3d9aff6c	0.07568249
22	0x3e925b72	0.28585392
23	0x3dadd84f	0.08488523
24	0x3e4b5d98	0.19859922
25	0xbd802f29	-0.06258995
26	0x3f1812d5	0.59403735
27	0x3e10e39d	0.14149328
28	0xbe6f8fef	-0.2339475
29	0xbe917446	-0.28409022
30	0x3e277f0c	0.16357058
31	0x3e592a91	0.21207644
32	0xbdfd3804	-0.123642
33	0xbde9f1f3	-0.11423101
34	0xbefbcd4a	-0.4918006
35	0x3eb5f323	0.3553706
36	0xbd867207	-0.06564718
37	0xbea4087d	-0.32037726
38	0x3ec19d1d	0.3781518
39	0x3e99112f	0.29895923
40	0x3e148f25	0.1450773
41	0x3da4d2cc	0.08048019
42	0x3e922929	0.28547028
43	0x3e52011f	0.2050824
44	0x3e099ed8	0.134395
45	0xbe5af81e	-0.21383712
46	0x3dcc4cd8	0.09975594
47	0xbdab275a	-0.08357115
48	0xbf169132	-0.588153
49	0xbf03bb9d	-0.5145815
50	0xbdd11fba	-0.102111295
51	0xbdbce997	-0.09224241
52	0x3e4d12e1	0.20026733
53	0xbe1a83de	-0.15089366
54	0xbf295df5	-0.6615899
55	0x3e1750ef	0.14776967
56	0x3c41db8f	0.011832132
57	0xbe08a363	-0.13343577
58	0xbe3bece6	-0.18352088
59	0xbe43359a	-0.19063416
60	0x3e03b7b3	0.12863044
61	0xbee1d46e	-0.44107383
62	0xbe636579	-0.22206677
63	0xbd53a115	-0.05166729
64	0xbe56e375	-0.20985205
65	0x3edb78cb	0.42865595
66	0x3e4910fb	0.19635384
67	0xbe02c07f	-0.12768744
68	0x3e492918	0.19644582
69	0x3ed54219	0.4165199
70	0xbd932aa5	-0.07185868
71	0x3d08503a	0.033279635
72	0x3d167960	0.036736846
73	0x3e36a226	0.17835292
74	0x3d7d9533	0.061909866
75	0xbc0a532b	-0.00844268
76	0x3d6aadfd	0.057294834
77	0x39be5654	0.00036303943
78	0x3e2e46ff	0.1701927
79	0xbf079e53	-0.5297596
80	0x3da4bfb5	0.08044378
81	0xbde7ef77	-0.11324971
82	0xbe8e0d96	-0.2774474
83	0x3d2e9b74	0.04262872
84	0x3e898d8c	0.26865804
85	0x3d923e28	0.071407616
86	0xbdfc5a61	-0.12321926
87	0xbd4d4ada	-0.050120212
88	0x3da42abe	0.08015965
89	0x3cc0256c	0.023455344
90	0xbe155af4	-0.14585477
91	0x3d9e239f	0.07721638
92	0xbbc3f182	-0.0059797177
93	0x3dab38f5	0.08360473
94	0xbe04f153	-0.12982683
95	0xbe1f6ae4	-0.1556812
96	0xbe1a02cd	-0.15040131
97	0xbb8498fc	-0.0040465575
98	0x3e34d1ee	0.17658207
99	0x3e10b6ff	0.14132307
100	0x3c23fbed	0.010008794
101	0x3e609bc0	0.21934414
102	0x3ec95bec	0.39327943
103	0x3e74cf7f	0.23907278
104	0x3e592d91	0.21208788
105	0x3df12971	0.117754824
106	0x3e30ad32	0.17253569
107	0x3ebb7c3a	0.36618215
108	0x3e4b23df	0.19837902
109	0xbe786cc9	-0.24260248
110	0xbeac34d6	-0.3363406
111	0xbe1670a8	-0.14691412
112	0xbec6e57a	-0.38846952
113	0xbe8ad5d5	-0.27116266
114	0xbf411ad4	-0.7543156
115	0xbe2b8ad6	-0.1675218
116	0xbdc80728	-0.0976699
117	0xbe9881cd	-0.2978653
118	0xbee173b1	-0.44033578
119	0xbdc51a6e	-0.09624182
120	0xbe803ee6	-0.25047988
121	0xbeae8324	-0.34084427
122	0xbedb442b	-0.42825446
123	0xbd96b0d5	-0.07357947
124	0x3e2fe018	0.17175329
125	0x3ddb23fd	0.107002236
126	0x3dd15d22	0.10222842
127	0x3d7879b7	0.06066295
128	0xbe76256d	-0.24037714
129	0xbec276d1	-0.37981275
130	0x3e8a5be1	0.27023223
131	0x3e778ac0	0.24174023
132	0xbe471b59	-0.19444026
133	0x3dbba560	0.09162402
134	0xbe9422ba	-0.28932744
135	0x3e61c3e2	0.2204738
136	0x3e76f93c	0.24118513
137	0xbe908bbc	-0.2823161
138	0x3da552b0	0.08072412
139	0xbe3f841d	-0.18702741
140	0x3a35345d	0.0006912405
141	0x3e835890	0.25653505
142	0xbd5ac870	-0.05341381
143	0x3e5d443d	0.21608062
144	0x3e31ced1	0.1736405
145	0xbe51dbec	-0.2049405
146	0x3d7a99bb	0.061181765
147	0xbd9d28c8	-0.07673794
148	0x3e16936d	0.14704676
149	0xbe8a1aeb	-0.26973662
150	0x3eb4ecbb	0.3533686
151	0x3f0b2fdf	0.5436992
152	0x3d8a3b15	0.0674955
153	0x3deccce3	0.115625165
154	0x3e80ec5e	0.25180334
155	0x3e476429	0.19471802
156	0xbdefe4f2	-0.1171359
157	0x3e903dc6	0.2817213
158	0xbd3c7afa	-0.046015717
159	0x3a38edd1	0.00070544804
160	0xbd98f22d	-0.07468066
161	0x3e578a78	0.21048915
162	0xbcbcbd56	-0.023039501
163	0xbc983b3e	-0.018582936
164	0xbebbe457	-0.36697647
165	0xbd531f87	-0.05154374
166	0x3daa2534	0.08307877
167	0xbf17bf24	-0.5927603
168	0xbe63be1d	-0.22240491
169	0x3e3680fc	0.17822641
170	0x3d86d67b	0.06583878
171	0x3ecd6ff9	0.4012449
172	0xbc8fd59c	-0.017557912
173	0x3e84abf0	0.25912428
174	0x3d9048f2	0.07045163
175	0x3e9b47c8	0.30328202
176	0x3e6aea61	0.22940971
177	0x3e64a14b	0.22327153
178	0x3e388349	0.18018831
179	0x3d97f5d9	0.074199386
180	0x3dc7c47b	0.097542726
181	0x3d0a8c70	0.033825338
182	0xbe103de2	-0.14086106
183	0x3d326817	0.0435563
184	0xbd3648f8	-0.044503182
185	0xbddb35c9	-0.10703618
186	0xbed3217f	-0.41236493
187	0xbe5686e7	-0.20949899
188	0xbe4d5c88	-0.20054829
189	0x3ec772c3	0.38954744
190	0xbea1369c	-0.31486976
191	0xbe7a1f41	-0.24425985
192	0xbe3210c5	-0.1738921
193	0x3d87c0ac	0.06628546
194	0xbe9af59d	-0.30265513
195	0xbdc8aee2	-0.09798981
196	0xbe1f418a	-0.15552345
197	0xbd91451f	-0.07093262
198	0x3d6add8a	0.057340182
199	0xbed5555e	-0.41666692
200	0xbdbb675d	-0.09150574
201	0x3d847bfd	0.064689614
202	0x3e3b2a86	0.1827794
203	0xbd0e50cb	-0.03474502
204	0x3dd2042d	0.10254703
205	0x3db69cac	0.089166015
206	0xbd9f80c1	-0.0778823
207	0x3d5890dc	0.052872524
208	0x3e9a7b3b	0.30172142
209	0xbc7bcdea	-0.015368918
210	0xbe70cb5f	-0.2351508
211	0xbe6de908	-0.23233426
212	0x3af010eb	0.0018315589
213	0xbdf49b4c	-0.11943683
214	0xbc9df514	-0.019281901
215	0x3e1daab4	0.1539715
216	0x3d65da18	0.056116194
217	0x3e1f7ac8	0.15574181
218	0x3e319ef4	0.17345792
219	0x3e424b32	0.18973997
220	0xbe0d0d14	-0.1377452
221	0x3d0b0048	0.033935815
222	0xbcd7caa0	-0.026341736
223	0x3d8cd5c6	0.068767115
224	0x3e53b3bd	0.20674033
225	0x3b70b2f2	0.0036727753
226	0x3d81e038	0.063415945
227	0x3ec5012a	0.3847745
228	0x3e1327b1	0.1437061
229	0x3eadccbc	0.33945262
230	0xbe08b475	-0.13350089
231	0xbcc51e05	-0.024062166
232	0x3d98ac1b	0.074547015
233	0xbef789dd	-0.4834737
234	0xbf1a71e4	-0.60330033
235	0x3d1f4d5b	0.03889213
236	0x3d531cfe	0.05154132
237	0xbe76be84	-0.24096113
238	0xbec88da3	-0.3917056
239	0xbf39ee00	-0.72628784
240	0x3d32ff03	0.04370023
241	0xbcb3a648	-0.021929875
242	0xbe995d75	-0.29954115
243	0x3d7f93a5	0.062396664
244	0x3da7dde2	0.08196618
245	0xbe2d5531	-0.16927029
246	0xbea8e4c7	-0.32987043
247	0xbe168f76	-0.14703164
248	0xbcbbbc6d	-0.022916997
249	0x3e20a97d	0.15689655
250	0x3e92d539	0.286783
251	0x3d9bdecc	0.076108545
252	0xbd2bf279	-0.041979287
253	0x3e8323f6	0.25613374
254	0x3e46ef0b	0.19427125
255	0xbde41935	-0.1113762

bias f4 [100]
0	0x3e611916	0.21982226
1	0xbdaa39fa	-0.083118394
2	0x3c0dd7cd	0.008657408
3	0xbd44491b	-0.04792128
4	0xbc61d9bd	-0.013784823
5	0xbda3698f	-0.07979118
6	0xbe3a7281	-0.18207742
7	0x3c4eeabb	0.012629206
8	0xbd5cebe2	-0.053935893
9	0x3e7cc457	0.24684273
10	0x3e8afcd6	0.27146024
11	0xbe06f74b	-0.13180272
12	0xbe504267	-0.2033783
13	0xbde70726	-0.1128066
14	0x3d0d6c5c	0.034527168
15	0x3bdb9b43	0.0067018582
16	0x3d944efb	0.07241627
17	0xbe1001fb	-0.14063255
18	0xbe55ddce	-0.20885393
19	0xbe4442d2	-0.19166115
20	0xbda3cfdd	-0.07998631
21	0xbd89b4aa	-0.06723912
22	0xbe168ffa	-0.1470336
23	0xbdc94dc1	-0.098292835
24	0xbd913c15	-0.07091538
25	0x3e0815e2	0.13289598
26	0x3d2dd9ba	0.04244397
27	0xbcc091b5	-0.023506979
28	0x3cde056e	0.027102198
29	0xbd18705e	-0.037216537
30	0xbd3498df	-0.0440911
31	0x3c4d0937	0.012514404
32	0xbda1a42e	-0.07892643
33	0x3ce8e625	0.028430054
34	0x3da85545	0.08219389
35	0xbd02c804	-0.03192903
36	0xbe096d00	-0.13420486
37	0x3dd4468c	0.10365018
38	0xbc7614cb	-0.015019606
39	0x3e0a7966	0.13522872
40	0x3e3808c4	0.17972094
41	0xbe8927ad	-0.26788083
42	0x3d0a44e8	0.03375712
43	0xbe65ae9c	-0.2242989
44	0xba21c60b	-0.00061711733
45	0xbe8873b1	-0.26650766
46	0xbd764dc0	-0.060132742
47	0x3e3f66e5	0.18691595
48	0x3d6005fb	0.054693203
49	0xbec2419a	-0.37940675
50	0xbaca7b29	-0.0015448082
51	0xbdf74998	-0.12074584
52	0x3e2b583c	0.16732877
53	0x3d9142ef	0.07092845
54	0xbe6fe9af	-0.23428987
55	0x3d3f73e0	0.046741366
56	0x3cbe316e	0.02321693
57	0x3dacd02f	0.08438145
58	0xbe3c158c	-0.18367594
59	0xbe158d0d	-0.14604588
60	0x3e89f86f	0.26947352
61	0x3d2dc3b7	0.042422976
62	0xbdfad5f5	-0.1224784
63	0x3a21ae6e	0.00061676546
64	0xbb551d64	-0.003251874
65	0x3d8e1f33	0.069395445
66	0x3cddbf3b	0.027068725
67	0xbbf1d498	-0.0073800795
68	0x3dbb189d	0.09135554
69	0x3c20bb87	0.009810335
70	0x3e2c9348	0.16853058
71	0xbd0e6231	-0.03476161
72	0xbd863b66	-0.06554298
73	0xbe8c170f	-0.27361342
74	0x3e245c0d	0.1605074
75	0xbdc924df	-0.09821486
76	0xbddaec26	-0.10689573
77	0xbdb13cd8	-0.08654183
78	0xbda579ef	-0.080798976
79	0x3dac36a9	0.08408863
80	0x3d53ac6c	0.051678106
81	0xbdbebb09	-0.09313018
82	0x3c3c767b	0.011502857
83	0xbd4e0488	-0.05029729
84	0xbd9120a7	-0.07086306
85	0x3e8d639a	0.27615052
86	0xbdc6dd0f	-0.09710132
87	0xbe014aae	-0.12626144
88	0x3e28fa91	0.16501833
89	0xbdc8216e	-0.09772001
90	0x3ca7f3e9	0.020502048
91	0xbe0538d1	-0.13009955
92	0xbdb1cf8c	-0.086821645
93	0xbdb8d58e	-0.09025107
94	0xbc82bc1d	-0.01595884
95	0x3d3665ec	0.044530794
96	0xbe0c15cc	-0.1368019
97	0xbdc21d49	-0.09478242
98	0xbd6a64b9	-0.057224963
99	0xbe1e6c41	-0.15470983

weight f4 [72, 100]
0	0x3db59500	0.0886631
1	0x3d6c884c	0.05774717
2	0x3e1014d3	0.14070444
3	0x3d8a5687	0.06754785
4	0x3f09781f	0.53698915
5	0xbde8b4c5	-0.11362604
6	0xbde271ca	-0.1105686
7	0x3e8f6bb8	0.2801187
8	0x3dd22704	0.10261348
9	0xbb82b2bf	-0.0039885934
10	0xbe6a55f8	-0.22884357
11	0x3d76b86a	0.060234465
12	0x3e7205d2	0.23635033
13	0xbcc0b4a9	-0.023523645
14	0xbd2e7b7e	-0.04259824
15	0xbddfe0c5	-0.10931543
16	0xbeaeed3e	-0.34165376
17	0xbebe5876	-0.37176865
18	0x3e9914a5	0.29898563
19	0x3e58e611	0.21181513
20	0xbdc7b989	-0.09752185
21	0x3e51aeec	0.20476884
22	0xbd2d492b	-0.042306107
23	0x3d3aa894	0.045570925
24	0xbe62f767	-0.22164689
25	0xbe578c1d	-0.21049543
26	0xbd2438ee	-0.040093355
27	0xbf2802b2	-0.6562911
28	0xbe91f762	-0.2850905
29	0xbe8da8dc	-0.27667892
30	0xbe82f3f5	-0.2557675
31	0xbe09b439	-0.13447656
32	0xbe064528	-0.13112319
33	0xbe41e1eb	-0.18933837
34	0xbdbf4714	-0.09339729
35	0xbddbebe1	-0.1073835
36	0xbdc8ff6e	-0.09814344
37	0x3e2c77f9	0.16842641
38	0xbe21b38c	-0.15791148
39	0x3e4d21c3	0.2003241
40	0x3e7ffb88	0.24998295
41	0x3de5ee2b	0.112270676
42	0x3dfee191	0.12445367
43	0xb9cddb6e	-0.00039264135
44	0x3e178c81	0.14799692
45	0x3ea30d84	0.3184625
46	0x3d388ee1	0.045058135
47	0xbe1f8f62	-0.1558204
48	0x3e56bc7c	0.20970339
49	0x3df07103	0.11740305
50	0xbd8b5fc6	-0.06805377
51	0x3e6c00c8	0.23047173
52	0x3d297c49	0.041378293
53	0x3c98ae2a	0.018637735
54	0xbe22f8b5	-0.15915187
55	0x3ecfc1a2	0.40577418
56	0xbe6ce473	-0.23134021
57	0x3e41e1c1	0.18933775
58	0xbc60647f	-0.013695835
59	0xbeb2d6b9	-0.34929445
60	0xbd759d2c	-0.059964344
61	0x3de8f382	0.113745704
62	0xbd258d88	-0.040418178
63	0xbea2b94f	-0.31782004
64	0xbdd52dac	-0.10409102
65	0xbe4cea0e	-0.2001116
66	0xbd8cb2df	-0.068700545
67	0xbe8750e5	-0.26428905
68	0x3d7a1754	0.061057404
69	0xbd91d0a2	-0.07119872
70	0xbda81f38	-0.082090795
71	0xbd9ad095	-0.07559315
72	0x3e1f12a6	0.15534458
73	0xbe10936e	-0.1411874
74	0xbf00c691	-0.5030299
75	0x3e9032cd	0.28163758
76	0x3efa399e	0.48872083
77	0x3d9933d4	0.074805886
78	0xbe89c216	-0.26905888
79	0x3e09a0fb	0.13440315
80	0x3e5a1abf	0.21299265
81	0xbdd1f694	-0.10252109
82	0xbe2475f5	-0.16060622
83	0x3d592b1f	0.05301964
84	0x3df23427	0.118263535
85	0x3c9564f2	0.018236611
86	0xbe7b4456	-0.24537787
87	0x3e3d9587	0.18514071
88	0x3e4da273	0.200815
89	0xbe97d6c5	-0.29656044
90	0xbeafd9ab	-0.34345755
91	0xbdb601b0	-0.088870406
92	0xbed49397	-0.41518852
93	0xbdd3f1ca	-0.10348852
94	0x3d0f75a5	0.035024304
95	0x3e9d7f1e	0.30761045
96	0x3dc090eb	0.09402641
97	0xbf15d596	-0.5852903
98	0x3c05ca13	0.008165854
99	0xbda51878	-0.08061308
100	0x3c58c692	0.013230937
101	0x3e152820	0.14566088
102	0x3e085a6b	0.13315742
103	0xbde90ac3	-0.11379006
104	0xbf0815d8	-0.5315833
105	0xbdcc775d	-0.09983704
106	0xbea086c9	-0.31352833
107	0xbeb1b929	-0.34711578
108	0x3cf8a292	0.030350957
109	0xbe174a7f	-0.14774512
110	0xbe1a0392	-0.15040424
111	0xbd9ada98	-0.07561225
112	0xbe585fca	-0.2113029
113	0x3bca89d6	0.006180982
114	0x3d93f56b	0.07224544
115	0xbdc30ed2	-0.09524311
116	0x3e46c019	0.19409217
117	0xbd81ba38	-0.063343465
118	0xbd562a56	-0.05228647
119	0x3db6824a	0.089115694
120	0xbe1f3dc8	-0.15550911
121	0x3e05c5ec	0.13063782
122	0xbe4d0f51	-0.20025374
123	0x3daae2f0	0.08344066
124	0xbdccf772	-0.10008134
125	0xbe022f84	-0.12713438
126	0xbd859934	-0.06523362
127	0xbd796482	-0.060886867
128	0xbd91fff4	-0.07128897
129	0xbe254da5	-0.161429
130	0x3b74994b	0.0037322815
131	0x3e440a9f	0.19144677
132	0x3e292e14	0.16521484
133	0xbc3c1524	-0.01147965
134	0xbe5323e5	-0.20619161
135	0x3d955537	0.07291644
136	0x3e8af911	0.27143148
137	0x3eb863f6	0.36013764
138	0xbe85469d	-0.26030436
139	0x3ed5f850	0.4179101
140	0x3ebb7ab7	0.36617061
141	0x3dc66b1d	0.09688399
142	0xbdc0b262	-0.09409024
143	0xbe8a9b90	-0.2707181
144	0xbd838ba8	-0.06423122
145	0xbc8cbd1c	-0.017180018
146	0xbbf6e996	-0.00753517
147	0xbda03b37	-0.07823794
148	0x3d31f217	0.043443765
149	0x3e5c7ff0	0.2153318
150	0x3bd7bd71	0.0065838625
151	0xbdc8c707	-0.098035865
152	0xbe9b1142	-0.30286604
153	0x3e80e255	0.25172678
154	0x3dc2e302	0.095159546
155	0xbe1042f6	-0.14088044
156	0xbe235f21	-0.15954258
157	0x3d9426d3	0.07233968
158	0x3d2123c1	0.03934074
159	0x3dac81eb	0.084232174
160	0xbd7cd662	-0.06172789
161	0xbcc8f290	-0.024529725
162	0x3de858e8	0.113450825
163	0x3d849d2c	0.06475291
164	0xbe35a920	-0.17740297
165	0xbc40406b	-0.011734108
166	0x3e50a7b1	0.20376469
167	0xbf0add79	-0.5424419
168	0x3d98ae23	0.07455089
169	0xbebc7416	-0.36807317
170	0x3ea34315	0.31887117
171	0x3e440661	0.19143058
172	0x3b4c5f3a	0.003118469
173	0x3c8ecd04	0.017431743
174	0xbea868aa	-0.32892352
175	0x3d033d4f	0.03204089
176	0xbe35603c	-0.17712492
177	0xb98ea380	-0.00027206168
178	0xbdaf9a51	-0.085743554
179	0xbdac0ade	-0.0840051
180	0x3e0b5c4a	0.13609424
181	0xbd185dc4	-0.037198797
182	0x3d80a9ff	0.06282424
183	0xbe2f6afa	-0.17130652
184	0xbdf1e7ee	-0.11811815
185	0xbe9dec4c	-0.30844343
186	0xbe7b6c34	-0.24552995
187	0x3b6de471	0.0036299492
188	0xbd666947	-0.056252744
189	0x3f0356a6	0.5130409
190	0xbda73fdb	-0.08166476
191	0x3e10b28e	0.14130613
192	0x3eb0e474	0.34549296
193	0x3cc488aa	0.023990948
194	0x3da8745e	0.0822532
195	0xbd8fa4ea	-0.07013877
196	0x3c906375	0.01762555
197	0x3ef607a8	0.48052716
198	0x3b92b5ab	0.004477223
199	0x3d85846b	0.06519397
200	0xbbe66e40	-0.007032186
201	0xbe7b7663	-0.2455688
202	0x3dadc3ea	0.08484633
203	0x3b4bc685	0.0031093669
204	0x3c4c45db	0.012467827
205	0x3c6ea57a	0.01456582
206	0xbe092791	-0.13394
207	0xbdbe5dce	-0.092952356
208	0xbd4bd3df	-0.049762603
209	0x3ddfe738	0.10932773
210	0xbd2e4de6	-0.04255476
211	0x3cee5c59	0.02909677
212	0xbe0cd4de	-0.13753077
213	0xbd26b3ba	-0.040698744
214	0x3cae0d66	0.021246623
215	0x3b028500	0.00199157
216	0xbe047dd5	-0.12938626
217	0xbdf2abf5	-0.118492045
218	0xbd8ea382	-0.069647804
219	0x3de80229	0.11328537
220	0xbd94543f	-0.07242631
221	0xbd576474	-0.052586034
222	0x3bffdb89	0.007808153
223	0xbe2d1783	-0.169035
224	0xbd03a7b0	-0.03214234
225	0xbea2a4bf	-0.31766316
226	0xbd39d01f	-0.045364495
227	0xbd820cc8	-0.06350094
228	0xbd6659b9	-0.05623791
229	0xbe646acc	-0.22306365
230	0x3d7bd661	0.061483745
231	0xbe18fc56	-0.14940009
232	0xbd5c0ccd	-0.053723145
233	0xbcd4bea5	-0.025969813
234	0x3ad3a952	0.0016148484
235	0x3cceddf5	0.025252322
236	0x3c0c7cdb	0.00857469
237	0x3c4c5e6d	0.012473685
238	0xbddce7e2	-0.10786416
239	0xbeb4cac9	-0.35310963
240	0xbd4c5968	-0.049889952
241	0x3daee088	0.0853892
242	0xbd661d3a	-0.056180216
243	0xbe0b5d6a	-0.13609853
244	0xbd6dc224	-0.058046475
245	0x3d7d9dd2	0.061918087
246	0xbd31576f	-0.043296274
247	0x3e2220df	0.15832852
248	0x3d132374	0.035922483
249	0x3ddfb58f	0.109233014
250	0xbdc918c8	-0.0981918
251	0xbdfe090b	-0.124040686
252	0x3e1ac445	0.15113933
253	0xbc4cba00	-0.012495518
254	0xbcba1c04	-0.022718437
255	0x3d04a26d	0.032381464

bias f4 [72]
0	0xbe480e9a	-0.1953682
1	0x3dc4a97e	0.096026406
2	0xbe69d656	-0.22835669
3	0xbe42dafc	-0.19028848
4	0xbe7d66f6	-0.24746308
5	0x3ea5fa00	0.32417297
6	0xbf13e55a	-0.5777184
7	0xbe2d2e74	-0.16912252
8	0xbe83c4b5	-0.25736013
9	0xbe6cf066	-0.2313858
10	0xbe5b1eba	-0.2139844
11	0xbea67211	-0.325089
12	0xbefa53d4	-0.4889208
13	0x3dbbd98d	0.09172354
14	0xbeb51249	-0.35365513
15	0x3ddb0e3a	0.10696073
16	0xbeafda20	-0.34346104
17	0xbe983ae9	-0.29732445
18	0xbdcadd72	-0.099055186
19	0xbcfc14e5	-0.030771682
20	0xbdf9a7ab	-0.12190183
21	0xbd868895	-0.0656902
22	0xbe269887	-0.16269122
23	0x3d74b22f	0.05974024
24	0xbe9d48ae	-0.30719513
25	0xbe2bd730	-0.16781306
26	0xbeb73af3	-0.35787162
27	0xbe1d35b1	-0.15352513
28	0x3d1ec9ee	0.038766794
29	0xbe2dfb18	-0.16990316
30	0x3e14d03f	0.14532565
31	0xbeaf494d	-0.34235612
32	0xbe0d1695	-0.13778146
33	0xbebc2a98	-0.36751246
34	0x3c0c7335	0.008572389
35	0x3e155ed6	0.14586958
36	0x3f032fbd	0.5124472
37	0xbe01acd6	-0.12663588
38	0xbe97ee4b	-0.2967399
39	0xbe531215	-0.20612366
40	0xbdb8e99c	-0.090289325
41	0xbe8210db	-0.25403485
42	0x3e182223	0.14856772
43	0xbe940354	-0.2890879
44	0x3e158bb4	0.14604074
45	0xbee12368	-0.43972325
46	0x3e3267f3	0.17422466
47	0xbeb92a97	-0.36165306
48	0x3e59142f	0.21199106
49	0x3d12e20b	0.035860103
50	0xbdb271b8	-0.087130964
51	0xbe1677da	-0.14694157
52	0x3eed9424	0.46402085
53	0xbdd450da	-0.10366984
54	0xbe1590e2	-0.1460605
55	0xbe3efc6e	-0.18650982
56	0xbde1fc97	-0.11034506
57	0xbe940e9e	-0.28917402
58	0xbe5f656c	-0.21816033
59	0xbebcd479	-0.36880854
60	0xbec8b473	-0.39200172
61	0xbd8b7592	-0.06809534
62	0xbe40ac24	-0.18815666
63	0x3e22a376	0.15882668
64	0x3e4f6a30	0.20255351
65	0xbecc22bc	-0.3987025
66	0x3e68c901	0.22732927
67	0xbebfd1de	-0.37464803
68	0x3e01ef38	0.12688911
69	0x3e8e3491	0.2777448
70	0x3f115389	0.5676809
71	0x3e1015e2	0.14070848

weight f4 [10, 72]
0	0xbdd0c2ca	-0.10193403
1	0x3e55c19b	0.20874636
2	0xbdca6a1f	-0.09883522
3	0xbe6f82d6	-0.23389754
4	0xbe7114d1	-0.23543097
5	0xbd871921	-0.0659659
6	0xbe96a92a	-0.29425937
7	0xbe701f72	-0.23449495
8	0xbe64fab5	-0.22361262
9	0xbe877782	-0.26458365
10	0xbeaecd51	-0.3414102
11	0x3ebae26b	0.36500868
12	0xbefe0319	-0.49611738
13	0xbe9f5536	-0.31119698
14	0xbebfdbe5	-0.37472454
15	0x3e1a8541	0.15089895
16	0xbe87a02a	-0.26489383
17	0xbe52f1e0	-0.2060008
18	0xbe9b5f1e	-0.30346006
19	0xbf1805c9	-0.5938383
20	0x3e83f0c8	0.2576964
21	0xbd68fa25	-0.05687918
22	0x3ca61c35	0.020277122
23	0xbe26a965	-0.16275556
24	0xbeda5491	-0.42642644
25	0x3e983faa	0.29736072
26	0xbeb81249	-0.3595145
27	0x3d06cb2e	0.03290861
28	0xbed4b46d	-0.41543904
29	0xbe251953	-0.16122942
30	0xbe88a34a	-0.2668708
31	0xbddab2f9	-0.106786676
32	0x3e94b824	0.29046738
33	0x3ee83f26	0.45360678
34	0xbe0983ac	-0.13429135
35	0xbdfea11b	-0.12433072
36	0xbd453cb9	-0.048153613
37	0x3e1bb4cf	0.15205692
38	0x3e0f56c3	0.1399794
39	0x3e57bc4c	0.21067923
40	0xbe9364e0	-0.287879
41	0x3e0c2c02	0.13688663
42	0x3df0623a	0.11737485
43	0x3db73530	0.089456916
44	0x3eb35b68	0.35030675
45	0x3e1d1d63	0.15343241
46	0xbe849f5c	-0.25902832
47	0x3dc2ffd4	0.095214516
48	0xbf1bda15	-0.6087964
49	0x3d3847f2	0.044990487
50	0xbd72bfab	-0.05926482
51	0xbed973c0	-0.42471123
52	0xbebb4dca	-0.36582786
53	0xbeb9f9ae	-0.36323303
54	0x3e2d5db1	0.16930272
55	0x3e4a8045	0.19775493
56	0x3b160e2d	0.0022896633
57	0xbe013899	-0.12619247
58	0xbde4c814	-0.111709744
59	0x3d5aaff1	0.053390447
60	0x3d681cda	0.05666814
61	0xbeab6e12	-0.33482414
62	0xbeba585f	-0.36395547
63	0xbda65306	-0.08121304
64	0xbf0385c8	-0.5137601
65	0xbe7e460a	-0.24831405
66	0xbe2dcb9b	-0.169722
67	0xbe1bc308	-0.15211117
68	0xbe88a086	-0.2668497
69	0xbee1ea8d	-0.4412426
70	0xbea559d6	-0.32295102
71	0xbf05d400	-0.5227661
72	0xbea0107d	-0.3126258
73	0xbf2a39fe	-0.6649474
74	0xbe5c7dee	-0.21532413
75	0xbec7ac15	-0.38998476
76	0xbd2fce01	-0.04292107
77	0xbf3426ec	-0.7037189
78	0x3dd3a3cd	0.10333977
79	0x3ea12aec	0.3147806
80	0xbeb9808e	-0.36230892
81	0xbec075ba	-0.37589818
82	0x3c431def	0.011908992
83	0xbef29f3e	-0.47387117
84	0x3e40593e	0.18784043
85	0xbcf12252	-0.02943531
86	0x3e0bb9a7	0.1364504
87	0xbecf8d4c	-0.40537488
88	0x3cf321ed	0.029679263
89	0xbe501e7f	-0.20324133
90	0x3e128198	0.14307249
91	0x3ec87d90	0.39158297
92	0xbdc5802f	-0.0964359
93	0xbf0e17fd	-0.55505353
94	0x3de47b5a	0.1115634
95	0x3de35894	0.11100879
96	0xbb3bc290	-0.0028649904
97	0xbf05b99f	-0.5223636
98	0x3d43a9f4	0.0477695
99	0xbd7feca3	-0.062481534
100	0xbf261264	-0.6487181
101	0xbea25414	-0.31704772
102	0x3e38ee1d	0.18059583
103	0xbe38dfed	-0.18054171
104	0xbd430681	-0.047613624
105	0xbf63d1f9	-0.8899227
106	0xbec82d56	-0.3909709
107	0xbeeecf4e	-0.46642536
108	0x3de786ab	0.11304983
109	0xbea7a8c6	-0.3274595
110	0xbf45869b	-0.77158517
111	0xbe89ad47	-0.26890013
112	0x3e208cd6	0.15678725
113	0x3e511c3b	0.20420925
114	0xbe5541cc	-0.20825881
115	0xbe580614	-0.21096069
116	0x3e84370b	0.25823244
117	0xbd374e10	-0.04475218
118	0xbd6a12d4	-0.057146862
119	0xbddfc1b8	-0.10925621
120	0x3e239e42	0.1597834
121	0x3ce0e426	0.02745254
122	0x3ca8709b	0.020561507
123	0xbe108c6d	-0.14116068
124	0xbebe02ca	-0.37111503
125	0x3d7a12d1	0.0610531
126	0x3d9d4ec0	0.07681036
127	0x3d30c1a2	0.043153413
128	0x3d8f1841	0.06987048
129	0xbe120d37	-0.14262854
130	0x3e21392d	0.15744467
131	0xbef33d3b	-0.47507653
132	0x3de896c4	0.11356881
133	0xbeaa2d92	-0.33237892
134	0x3e80f389	0.25185803
135	0xbe79784f	-0.243623
136	0xbe81db36	-0.25362557
137	0xbe4bebfc	-0.1991424
138	0xbed12878	-0.40851188
139	0xbf745e2c	-0.95456195
140	0xbf159bd0	-0.58440876
141	0x3dd04af2	0.10170545
142	0x3d57099d	0.052499402
143	0x3de4a8b3	0.11164989
144	0xbef8d51e	-0.48600096
145	0xbea09606	-0.3136446
146	0xbeb3d6f7	-0.35124943
147	0x3d9fcd43	0.078028224
148	0x3e34a20e	0.17639944
149	0x3b83b800	0.0040197372
150	0x3bed3097	0.0072384584
151	0xbef5851c	-0.47953117
152	0xbd20cffb	-0.039260846
153	0xbdd0a33e	-0.10187386
154	0xbe010c27	-0.12602292
155	0x3eaa5602	0.33268744
156	0x3dd6acec	0.10482201
157	0x3e3406a4	0.17580658
158	0x3e15b3e5	0.14619406
159	0xbefba2c4	-0.49147618
160	0x3e4d305c	0.20037979
161	0x3e1c96ef	0.15291952
162	0x3edba4ba	0.42899114
163	0xbedffd4b	-0.43747935
164	0x3dcc0fba	0.09963937
165	0xbf09ed18	-0.538774
166	0xbe92dc96	-0.2868392
167	0x3d8f6942	0.07002498
168	0xbefbded7	-0.4919345
169	0x3d4b24e8	0.049595743
170	0x3e4ebd4f	0.20189403
171	0xbe6608b9	-0.22464265
172	0x3e0579db	0.13034765
173	0xbeb1ae71	-0.347034
174	0xbe033a58	-0.12815225
175	0xbd1b394c	-0.03789644
176	0xbe6cc1d7	-0.23120819
177	0xbed3d786	-0.4137537
178	0xbeada911	-0.3391805
179	0xbee3d0ee	-0.44495338
180	0x3de509eb	0.11183532
181	0x3d2d034a	0.042239465
182	0x3e34e563	0.17665629
183	0x3e879b3e	0.26485628
184	0xbe7e5022	-0.24835256
185	0x3e472305	0.19446953
186	0xbe6e78b7	-0.23288237
187	0xbd880425	-0.066414155
188	0xbf24630c	-0.64213634
189	0x3d548468	0.051884085
190	0x3da47300	0.08029747
191	0x3d9b3a7b	0.07579514
192	0x3e74b3b9	0.23896684
193	0xbd81e68b	-0.06342801
194	0xbdc6173f	-0.096724026
195	0xbe708cba	-0.23491183
196	0x3d01aa8c	0.031656787
197	0xbf0c758c	-0.5486686
198	0x3df13154	0.11776987
199	0x3e17d1b8	0.14826095
200	0x3df7fb05	0.12108425
201	0x3e9446f4	0.28960383
202	0xbf1afaee	-0.6053914
203	0x3d9b2627	0.07575636
204	0xbec7fa2c	-0.39058053
205	0xbdc5aca3	-0.096520685
206	0xbeadfc7e	-0.339817
207	0xbf09b7ff	-0.5379638
208	0xbf2b9afa	-0.6703335
209	0x3b01a50f	0.001978222
210	0x3dbbda70	0.09172523
211	0xbd1d7fb1	-0.038451854
212	0xbdffae34	-0.124843985
213	0xbe8a88c9	-0.27057484
214	0xbf23a972	-0.6393043
215	0x3ce00495	0.027345935
216	0xbf0b9301	-0.54521185
217	0x3e23b3e5	0.15986593
218	0xbe120a42	-0.14261726
219	0x3d66542b	0.056232613
220	0x3c71d849	0.014761039
221	0x3d00edcf	0.031476792
222	0xbf1176fa	-0.5682217
223	0xbecae7a8	-0.39629865
224	0xbdcf8ac9	-0.10133893
225	0xbe9e6efe	-0.30944055
226	0xbe9c6622	-0.3054667
227	0xbebf4877	-0.37359974
228	0x3e22700d	0.15863056
229	0x3ca6a7dc	0.020343713
230	0xbe7f1868	-0.24911654
231	0x3e71febc	0.2363233
232	0xbf1e00c3	-0.6171991
233	0xbe9fef3d	-0.31237212
234	0xbe01eaa2	-0.12687162
235	0x3d5b3bc3	0.05352379
236	0xbd72f32c	-0.059313938
237	0xbeb546cb	-0.35405573
238	0xbf1cce02	-0.6125184
239	0x3e6dfc35	0.2324074
240	0xbdfd16e7	-0.12357884
241	0xbc118a8d	-0.008883131
242	0x3cfeada4	0.031088658
243	0x3c187a08	0.009306438
244	0x3e53b5a5	0.2067476
245	0xbddb50c4	-0.10708764
246	0xbde05439	-0.10953564
247	0xbec4166d	-0.3829836
248	0xbec8673b	-0.3914126
249	0xbe18387e	-0.148653
250	0x3e8cea26	0.2752239
251	0xbf2893dd	-0.6585062
252	0xbd1d94c4	-0.038471952
253	0xbf06b758	-0.5262351
254	0xbee29c7f	-0.44260022
255	0xbf03c534	-0.51472783

bias f4 [10]
0	0xbe3376a3	-0.17525725
1	0x3d5777c1	0.05260444
2	0xbe902010	-0.28149462
3	0x3e8d0882	0.27545553
4	0xbe0951ae	-0.13410065
5	0xbe9d2194	-0.3068968
6	0xbe8620e2	-0.26196963
7	0xbd9dae41	-0.07699252
8	0x3ef02b83	0.46908197
9	0x3ee55200	0.44789124
