checkpoints/YourNet/pruning/1/epoch-31.pth (torch, 40655 bytes, 8 tensors)

weight f4 [3, 1, 3, 3]
0.5094578 0.16389425 -0.3044318 0.048637673 -0.18902607 -0.62054366 -0.31879666 -0.5610065
0.14324962 -0.0073521393 -0.043932445 -0.23331048 0.15237601 0.18013406 -0.027547786 -0.0062641185
0.26668397 0.1449031 0.15314028 0.11853115 0.39333594 -0.26939747 0.13505162 -0.033229385
-0.5815189 -0.48553967 -0.64810514
00000000: d46b 023f e5d3 273e 7cde 9bbe 4c38 473d
00000010: 0d90 41be f3db 1ebf 5139 a3be 1f9e 0fbf
00000020: 07b0 123e 37ea f0bb 82f2 33bd f1e8 6ebe
00000030: 7508 1c3e 1075 383e e5ab e1bc 3c43 cdbb
00000040: cd8a 883e 7a61 143e ced0 1c3e 76c0 f23d
00000050: 5463 c93e 77ee 89be f94a 0a3e 891b 08bd
00000060: 6cde 14bf a898 f8be 38ea 25bf

bias f4 [3]
-0.66598564 0.08335877 -0.55875957
00000000: 097e 2abf 01b8 aa3d de0a 0fbf

weight f4 [4, 3, 3, 3]
0.011531574 -0.40543497 -0.24374253 -0.06673454 -0.020956192 -0.29796305 0.23593865 -0.7869913
0.29448095 0.043548904 -0.025286337 0.53511375 -0.44931063 -0.32876 0.6850375 -0.68648577
-0.34051788 0.24809407 0.0432895 0.5046423 -0.834728 0.5291553 -0.16121899 -1.3161994
0.14599408 -0.5222184 -0.7630146 0.024416981 0.17207699 -0.25455546 -0.35601246 0.023963023
-0.008150227 -0.13640684 -0.08135179 0.56734383 -0.03457732 -0.20352004 0.20821774 0.28436124
0.22078404 0.09156824 -0.13368636 -0.11094903 -0.47375256 -0.31509286 -0.0013309915 -0.18993722
-0.17728965 -0.24882567 0.19935784 0.2024186 0.60947394 0.17109963 -0.18875623 1.0656177
0.49263495 -0.8891871 -0.8225349 0.43697774 -0.117972165 -0.55391026 -0.3844892 0.06526545
-0.10887523 -0.50153196 0.4331173 0.5671291 -0.12996706 -0.27756074 0.0709391 0.45760348
-1.124561 -0.45986336 0.13123322 0.1524688 -0.1284931 0.269506 0.15992545 0.10618533
-0.07152779 -1.1148114 -0.23708978 0.11700188 0.033010248 -2.154031 -0.79647714 0.067301005
-0.07812143 -0.6964532 -2.1576664 -1.2364558 0.10316793 0.12977098 -0.4821507 -0.6825935
0.54074687 0.34948608 0.31631246 0.10536538 -0.1784724 0.45321715 -1.1479559 0.4642095
0.7581264 0.17134055 0.20951553 -0.63911444
00000000: edee 3c3c 2c95 cfbe a497 79be 1eac 88bd
00000010: 52ac abbc 9d8e 98be e799 713e 4378 49bf
00000020: 35c6 963e 5660 323d 4b25 cfbc 37fd 083f
00000030: 0b0c e6be 3b53 a8be 9e5e 2f3f 88bd 2fbf
00000040: 5c58 aebe 5f0c 7e3e 5550 313d 3d30 013f
00000050: bcb0 55bf b976 073f 9716 25be 3979 a8bf
00000060: 797f 153e 1bb0 05bf ed54 43bf 1f06 c83c
00000070: f334 303e 1855 82be 4447 b6be 1a4e c43c
00000080: 8888 05bc 3cae 0bbe c49b a6bd 723d 113f
00000090: f3a0 0dbd 8f67 50be 0837 553e cc97 913e
000000a0: 3615 623e 2188 bb3d 14e5 08be 3f39 e3bd
000000b0: b28f f2be da53 a1be aa74 aeba e77e 42be
000000c0: 6b8b 35be 28cc 7ebe 7624 4c3e d246 4f3e
000000d0: 7c06 1c3f be34 2f3e 5049 41be 2966 883f
000000e0: a63a fc3e c4a1 63bf a691 52bf 8cbb df3e
000000f0: 649b f1bd 10cd 0dbf c5db c4be e4a9 853d
00000100: faf9 debd 6664 00bf 8dc1 dd3e 5f2f 113f
00000110: 1616 05be 711c 8ebe 8548 913d 014b ea3e
00000120: 9df1 8fbf 3673 ebbe 0062 063e c820 1c3e
00000130: b293 03be b1fc 893e 7fc3 233e b277 d93d
00000140: 297d 92bd 24b2 8ebf aac7 72be af9e ef3d
00000150: c135 073d a5db 09c0 ede5 4bbf 1cd5 893d
00000160: 21fe 9fbd c24a 32bf 3517 0ac0 2f44 9ebf
00000170: b549 d33d afe2 043e 75dc f6be 73be 2ebf
00000180: 636e 0a3f d7ef b23e b5f3 a13e cec9 d73d
00000190: 78c1 36be 140c e83e 38f0 92bf deac ed3e
000001a0: 9214 423f e673 2f3e 3d8b 563e 019d 23bf

bias f4 [4]
-0.1520612 -0.49640608 -0.63044614 -0.02778095
00000000: eeb5 1bbe f028 febe eb64 21bf e094 e3bc

weight f4 [82, 100]
-0.00014189928 -0.0005667056 -2.7476754e-05 -9.386042e-05 -0.0002902587 -0.0003852082 -0.0002955893 -0.00027314769
9.530327e-05 -0.00040829365 5.9534523e-05 -0.00028273024 -9.337342e-05 -0.00018480641 -0.00031323155 -0.00014723388
-0.00021477234 0.000110043926 -0.00056611846 -0.0004296776 -0.00012944241 -0.00021970553 -6.293447e-05 -4.2010597e-05
-0.00022305684 -0.000284241 -0.00052422594 0.000109985995 -0.00019734506 3.8578637e-05 -0.0002934674 5.1448907e-05
-0.00048818084 -0.00047384505 -0.00031511395 -0.00019826491 -0.00026079686 -0.00051811355 6.6258086e-05 -0.00047868546
0.00013975664 -3.066112e-05 4.7997728e-05 -0.00045932512 -0.00058870565 0.00031408353 -0.0004107967 -0.00020497282
-1.4143106e-05 -0.00024235593 0.00034820364 -0.00057833974 -0.00052895234 9.031887e-05 -0.00044705943 0.00016220145
-0.00018573491 1.9817144e-05 8.070845e-05 -0.00029068295 0.00020516984 6.875099e-05 -0.0002337639 -0.0003494162
0.00044033548 -0.00018398356 -0.0004903341 -0.000430994 -0.0003147359 -0.00029942507 0.00024713174 -0.000115818555
-0.00041386942 -8.734572e-05 0.00040289786 -0.00034292875 -0.00023710959 0.00013935447 -0.00021697693 -0.00029049077
-0.00018402863 -0.000314419 -0.00020905923 -1.039669e-05 -0.00040382464 -0.00030243883 -0.00022855592 -0.000436533
-0.0003710007 -4.0438856e-05 -2.203834e-05 -0.0005700253 -0.0002731248 -0.00020002737 -0.0002979233 0.00017777833
-0.00047461255 -0.0001616146 -9.4495554e-05 -0.000580998 -0.38195997 -0.13814148 0.11790759 0.21817325
0.52009004 -0.13583119 0.3407358 0.24496575 0.36531866 0.45438853 0.75718445 0.62438345
-0.08611233 0.7199486 0.1336359 0.4930642 0.5760823 -0.63792515 -0.12849942 0.42288217
0.08495235 0.47804105 -0.26565957 -1.2269831 -1.1846294 -0.97130454 -1.0192193 -0.1182292
0.30104905 0.71213293 -0.26125458 -0.2885732 0.30739573 -0.37212732 -0.8186914 -0.31861007
-0.6044669 -1.543826 -1.9438359 0.3699598 -1.070216 -1.7706678 -0.8504868 -0.066058636
-0.5987797 -0.34302714 -0.10146757 0.42332125 0.2877588 -1.1699351 0.41802198 -0.4133849
0.28960574 0.82927513 0.1890771 -0.1457238 0.079019204 -1.2064201 -0.38313746 0.028464256
0.5559238 -0.15656236 -0.8624298 -1.3733752 -1.0123234 0.05600573 0.15518977 -0.014843933
-2.3737137 -0.6442927 0.3613361 0.20860289 0.44259834 -2.4339297 -1.2178285 0.6715757
-0.60725105 -0.31112784 -0.02685602 -0.35885796 0.17718922 -0.7370911 -0.008983759 -0.8781599
-0.40133807 -0.46636984 -0.3883562 -2.1461623 1.0199383 -0.8620189 -0.5187088 -1.5818732
0.03283539 0.40291974 -3.7692988 -0.93505186 -0.50006145 1.1555048 0.8923463 -1.3482375
-0.59859663 0.26003104 0.80677 -0.08039324 -1.8922298 0.5698007 0.22240007 0.7769313
-0.83890367 -0.9158614 -0.106035456 -0.46447256 -0.013693251 0.42056283 0.22093655 0.07717471
-0.4886694 -0.053187296 0.009786217 0.4814162 0.75793767 -0.2562455 -1.7249215 -1.2843628
-0.6691871 -0.8268793 -1.7223831 -1.3272147 0.39206803 1.2063762 -0.48070666 -1.7889175
-0.9047326 0.13268586 2.1460958 0.42197582 -0.01795542 -0.19797179 -1.1033183 -1.0896207
-0.028638313 0.14939323 -0.36583468 -0.8128453 -1.0376624 -0.44978172 -0.09555466 -0.48654196
-0.006861721 -0.31847724 0.17968437 -0.89145845 -0.5533736 0.27062163 0.38982937 -0.7173902
00000000: ccca 14b9 f88e 14ba e17d e6b7 eed6 c4b8
00000010: dd2d 98b9 c5f5 c9b9 53f9 9ab9 4335 8fb9
00000020: 8edd c738 3f10 d6b9 b5b4 7938 693b 94b9
00000030: 79d1 c3b8 98c8 41b9 3a39 a4b9 cb62 1ab9
00000040: 8334 61b9 62c7 e638 9167 14ba 5a46 e1b9
00000050: efba 07b9 c160 66b9 b0fb 83b8 8934 30b8
00000060: 5de4 69b9 2e06 95b9 356c 09ba 48a8 e638
00000070: 69ee 4eb9 7fcf 2138 87dc 99b9 d8ca 5738
00000080: 86f2 ffb9 686e f8b9 e135 a5b9 55e5 4fb9
00000090: 90bb 88b9 03d2 07ba 0af4 8a38 13f8 fab9
000000a0: a38b 1239 209a 00b8 2b51 4938 93d1 f0b9
000000b0: 5e53 1aba 94ab a439 3360 d7b9 f9ed 56b9
000000c0: 2d48 6db7 ed20 7eb9 1a8f b639 b99b 17ba
000000d0: 64a9 0aba 9369 bd38 4d63 eab9 9f14 2a39
000000e0: d6c1 42b9 fe3c a637 0542 a938 ce66 98b9
000000f0: dc22 5739 682e 9038 851e 75b9 d931 b7b9
00000100: d4dc e639 b6eb 40b9 c489 00ba 09f7 e1b9
00000110: 2303 a5b9 27fc 9cb9 7691 8139 9de3 f2b8
00000120: 9dfc d8b9 602d b7b8 093c d339 1ecb b3b9
00000130: 9fa0 78b9 ae1f 1239 4d84 63b9 034d 98b9
00000140: cff7 40b9 9bd8 a4b9 e936 5bb9 726d 2eb7
00000150: 6db8 d3b9 a790 9eb9 83a8 6fb9 78de e4b9
00000160: df82 c2b9 e49c 29b8 fade b8b7 c06d 15ba
00000170: 3132 8fb9 70be 51b9 9732 9cb9 026a 3a39
00000180: 6bd5 f8b9 1777 29b9 ea2b c6b8 1e4e 18ba
00000190: 4290 c3be f674 0dbe 8979 f13d cf68 5f3e
000001a0: 9f24 053f 5517 0bbe ec74 ae3e 4dd8 7a3e
000001b0: 0c0b bb3e 9da5 e83e d7d6 413f 98d7 1f3f
000001c0: a95b b0bd 8d4e 383f d9d7 083e e972 fc3e
000001d0: 217a 133f 104f 23bf 5a95 03be 0384 d83e
000001e0: 7ffb ad3d ccc1 f43e 8804 88be c80d 9dbf
000001f0: f0a1 97bf 6aa7 78bf c775 82bf 2722 f2bd
00000200: 1a23 9a3e 584e 363f 29c3 85be debf 93be
00000210: f962 9d3e 7987 bebe c295 51bf dc20 a3be
00000220: 58be 1abf 179c c5bf 9dcf f8bf 5f6b bd3e
00000230: d6fc 88bf 3ea5 e2bf 81b9 59bf c049 87bd
00000240: a049 19bf 41a1 afbe 3bce cfbd 90bd d83e
00000250: 1f55 933e 6fc0 95bf fa06 d63e 30a7 d3be
00000260: 3447 943e 604b 543f 6d9d 413e 9f38 15be
00000270: d2d4 a13d f96b 9abf 982a c4be df2d e93c
00000280: 0651 0e3f e251 20be 33c8 5cbf c2ca afbf
00000290: d093 81bf 4466 653d 11ea 1e3e f833 73bc
000002a0: edea 17c0 5ef0 24bf 0c01 b93e ff9b 553e
000002b0: 409c e23e 81c5 1bc0 cee1 9bbf 63ec 2b3f
000002c0: ce74 1bbf 264c 9fbe 2801 dcbc 3bbc b7be
000002d0: 1771 353e 01b2 3cbf 9e30 13bc 16cf 60bf
000002e0: 2f7c cdbe 07c8 eebe a0d6 c6be b95a 09c0
000002f0: 578d 823f 45ad 5cbf 1aca 04bf d27a cabf
00000300: 677e 063d 7f4b ce3e 313c 71c0 8f5f 6fbf
00000310: 0704 00bf 95e7 933f cf70 643f 0c93 acbf
00000320: a13d 19bf ca22 853e 7b88 4e3f 36a5 a4bd
00000330: 9634 f2bf 75de 113f d8bc 633e f8e4 463f
00000340: 64c2 56bf e575 6abf 1e29 d9bd 59cf edbe
00000350: a859 60bc 0354 d73e 313d 623e c60d 9e3d
00000360: e032 fabe ecda 59bd 5e56 203c 2f7c f63e
00000370: 3408 423f 9c32 83be 3aca dcbf 0066 a4bf
00000380: d94f 2bbf 5dae 53bf 0d77 dcbf 2ce2 a9bf
00000390: 24bd c83e 896a 9a3f 2f1f f6be 40fb e4bf
000003a0: 8e9c 67bf cdde 073e a259 0940 370d d83e
000003b0: 3f17 93bc 1eb9 4abe 8939 8dbf b178 8bbf
000003c0: e59a eabc 8afa 183e af4e bbbe a116 50bf
000003d0: 1fd2 84bf ca49 e6be 29b2 c3bd 071c f9be
000003e0: 4ad8 e0bb 730f a3be 2eff 373e 9f36 64bf
000003f0: e4a9 0dbf eb8e 8a3e b797 c73e e2a6 37bf

bias f4 [82]
0.0001064463 0.41838822 -0.8391601 -0.004702789 0.025178717 -0.0039908085 -0.00036788615 0.2641187
-0.5763618 -0.0005504374 0.50399244 -0.4338779 -0.84054244 -0.00029761516 -0.58034843 -0.020644851
-0.0002450261 -6.8575166e-05 -0.85061413 0.3313431 0.07740912 0.39751092 -0.3518041 -0.7872646
-0.025602866 -0.52571124 -0.5605019 -2.630453e-05 -0.75733757 -0.4901031 -0.7014782 -0.9265545
-0.0092887 -0.6073106 -0.5040421 -0.0008473639 -0.3426712 -0.008920716 -0.007847148 -0.056691103
-0.52703923 0.59385824 0.46985778 -0.0020702193 -0.40385318 0.026851866 0.8417587 -0.3408727
-0.009813701 -0.68204534 -0.78204757 0.13309512 0.17791806 -0.11655129 -0.8237379 -1.0716561
-0.8696536 -0.9622193 -0.39615926 -0.5650104 -0.29919967 0.00054866436 -1.1995716 1.433474
0.08288303 1.1437138 -0.023402322 0.13725702 -0.46412465 -0.795868 0.6029023 1.3579799
-0.0011871497 -0.49625117 -0.6231247 -0.13220502 0.44072 -0.00029817893 -0.00031998387 0.59427875
-0.00030024635 -0.32218325
00000000: ec3b df38 fb36 d63e 32d3 56bf da19 9abb
00000010: 9943 ce3c 54c5 82bb d8e0 c0b9 913a 873e
00000020: 728c 13bf 3b4b 10ba a605 013f 3e25 debe
00000030: ca2d 57bf 3b09 9cb9 b791 14bf 641f a9bc
00000040: d976 80b9 03d0 8fb8 d9c1 59bf cea5 a93e
00000050: ac88 9e3d 8d86 cb3e ab1f b4be 2c8a 49bf
00000060: 1abd d1bc 0395 06bf 0d7d 0fbf 8ca8 dcb7
00000070: e0e0 41bf cbee fabe 1394 33bf ad32 6dbf
00000080: a22f 18bc b578 1bbf e708 01bf a121 5eba
00000090: 9972 afbe 3228 12bc 5391 00bc ee34 68bd
000000a0: 0bec 06bf 1807 183f 3391 f03e 84ac 07bb
000000b0: d8c5 cebe 72f8 db3c 807d 573f de86 aebe
000000c0: a5c9 20bc 869a 2ebf 4534 48bf 164a 083e
000000d0: 2730 363e 71b2 eebd 7de0 52bf 072c 89bf
000000e0: 9ea1 5ebf 0154 76bf 63d5 cabe 86a4 10bf
000000f0: b330 99be 3ed4 0f3a 908b 99bf 137c b73f
00000100: 94be a93d 3765 923f 3ab6 bfbc 1b8d 0c3e
00000110: bfa1 edbe 01be 4bbf ce57 1a3f 49d2 ad3f
00000120: 229a 9bba a214 febe 1a85 1fbf c160 07be
00000130: 0da6 e13e e654 9cb9 82c3 a7b9 a722 183f
00000140: 626a 9db9 34f5 a4be

weight f4 [10, 82]
-0.000445023 0.5905714 -0.51659286 -0.07715649 -0.63348603 0.004436394 9.582374e-05 -0.35307866
-1.0387695 -1.6860908e-05 -0.6597321 -0.40065873 -0.39417303 -6.5410604e-05 -0.15489683 -0.017926026
-9.568545e-05 -0.0001217461 -0.6634474 -0.5256056 -0.69220054 0.08387244 -0.1393743 -0.4259697
0.67340016 -1.2502129 -1.1994087 6.814021e-05 -0.10024793 -0.44475216 -0.19900768 -0.98449683
-0.00024175887 0.07834357 0.08545356 -0.00064917444 -0.2655723 -0.0065996996 -0.005563322 -0.7246317
-0.5007238 -0.009059018 -0.8748905 0.0011311724 0.05025734 -1.2339761 -0.93040043 0.14932938
-0.010831524 0.5408352 -0.38705534 0.029731063 0.64446723 -0.019242672 -0.36439425 -0.53709614
-1.4024549 -0.26351202 -0.60047513 -0.3206235 -0.27903298 -0.76692843 -0.97803694 -0.17217737
-1.6095423 -0.31513214 0.00068502163 -0.70359325 -0.525 -0.25031197 0.46222362 -0.49017814
-0.0005441662 -0.06614058 0.55115026 -0.39234617 -0.25463632 -5.9824797e-05 0.0001742711 -0.09923726
-0.00019324831 -0.35269797 -5.7949466e-05 0.060257703 -0.5804046 -0.6844229 0.28194964 -0.0012941416
0.00013660161 -0.13692905 -0.25557724 -0.00023749514 -0.05257955 -1.3293966 -0.051083453 0.00016853613
-0.21524756 -0.022735376 -0.00059950666 -2.3814495e-05 -0.29498485 0.59018385 -0.5234522 -0.25762695
-0.65417844 -0.19015616 -0.8173564 0.031309154 -0.10846229 0.00013356762 -0.3032279 -0.35777628
-0.18245573 -1.0190983 0.0050389958 -0.18647258 -0.96803796 -0.0013970694 -0.23963282 -0.0049040066
-0.0016627334 -0.1953428 -0.4738585 -0.29012507 -0.66213727 -0.0010643546 -0.08201213 0.06569145
0.89358944 0.026861994 -0.008440808 0.045649856 -1.1582931 -0.82303274 0.07848945 0.09641164
-0.3864492 -0.23073559 -0.013143428 -0.06662824 0.77009195 -0.17871237 -0.51910174 0.7206294
-0.52257305 0.85535854 -0.40958378 0.44366935 0.017421264 -0.22732441 -0.29711914 -0.80556566
-0.3134283 0.57939374 -0.0014487794 -0.36665854 -0.675915 -0.7912936 -0.18058543 1.1125793e-05
7.707419e-05 0.07919585 -0.00050374115 -0.18569496 -0.0003024317 -0.8787307 -0.86122304 -0.900482
-0.071183264 0.0023442816 -0.0005445626 -0.46398947 -0.29379362 -9.597555e-05 -0.060426496 -0.6057305
-0.27548537 -0.000106912594 0.4513138 -0.02177848 0.000253464 0.000292458 -0.29507127 -0.012048107
0.0880506 0.47628653 0.09666227 0.105260454 -0.19180098 0.11539835 -0.3783059 4.6808377e-06
-0.54250443 0.4559286 0.44196495 -0.3026128 -6.472613e-05 -0.7369977 -0.63125217 0.00044144038
-0.5214308 -0.0037512707 -0.0010852912 -0.58012456 -0.2278885 -1.1397285 -0.99361706 0.0032227887
0.457173 -0.7671525 -0.9503093 0.256769 0.0066314675 0.5440847 0.5451935 -0.54967064
-0.40329382 -0.019176945 0.6747224 -0.4000289 -0.72747487 -0.05129882 -0.7085279 -0.08910487
0.6477994 -0.59786487 -0.33110937 -0.4170188 -0.60262686 -0.61816347 -0.0053184587 -0.38120198
0.31673774 -0.6419647 -0.32536644 -0.24563695 -0.0005679116 -0.5708344 -0.059148043 -0.47309417
0.01194863 -0.00034758402 3.160588e-05 -0.6638313 -2.0577116e-05 0.004303215 0.00011430747 -0.62494653
-0.65845275 -0.8191097 -0.5586064 0.0047666114 -0.00031215674 0.05341957 -0.2327875 0.00014994196
00000000: fa51 e9b9 b02f 173f 6e3f 04bf 3904 9ebd
00000010: 242c 22bf 2c5f 913b fbf4 c838 bac6 b4be
00000020: 66f6 84bf 8670 8db7 34e4 28bf 2423 cdbe
00000030: 0cd1 c9be 0d2d 89b8 469d 1ebe 9ad9 92bc
00000040: bcaa c8b8 f151 ffb8 b0d7 29bf 178e 06bf
00000050: 0e34 31bf 50c5 ab3d 23b8 0ebe b318 dabe
00000060: f463 2c3f fa06 a0bf 3986 99bf 7fe6 8e38
00000070: c94e cdbd 8eb6 e3be abc8 4bbe fc07 7cbf
00000080: a780 7db9 9872 a03d 4702 af3d 5c2d 2aba
00000090: 18f9 87be 4b42 d8bb 874c b6bb 7781 39bf
000000a0: 6f2f 00bf 476c 14bc d3f8 5fbf d943 943a
000000b0: a4da 4d3d eef2 9dbf b92e 6ebf cde9 183e
000000c0: b476 31bc 2d74 0a3f 1e2c c6be 8f8e f33c
000000d0: cefb 243f cfa2 9dbc e291 babe 227f 09bf
000000e0: a483 b3bf 0ceb 86be bdb8 19bf c328 a4be
000000f0: 69dd 8ebe 6c55 44bf a160 7abf 444f 30be
00000100: 7b05 cebf 0059 a1be 0693 333a b01e 34bf
00000110: 6666 06bf e428 80be 93a8 ec3e a1f8 fabe
00000120: 60a6 0eba b674 87bd 2f18 0d3f 99e1 c8be
00000130: b15f 82be 63ec 7ab8 8bbc 3639 e83c cbbd
00000140: b3a2 4ab9 d494 b4be c40e 73b8 c8d0 763d
00000150: 6595 14bf 5736 2fbf b45b 903e 30a0 a9ba
00000160: b73c 0f39 2137 0cbe 05db 82be 1e08 79b9
00000170: a75d 57bd ab29 aabf e23c 51bd 13b9 3039
00000180: db69 5cbe 8a3f babc 3628 1dba 3dc5 c7b7
00000190: 4108 97be 4a16 173f f700 06bf aee7 83be
000001a0: 3d78 27bf 4cb8 42be 453e 51bf 073e 003d
000001b0: 7a21 debd 490e 0c39 b040 9bbe 742e b7be
000001c0: add5 3abe d071 82bf 291e a53b abf2 3ebe
000001d0: 56d1 77bf df1d b7ba 4e62 75be cab1 a0bb
000001e0: 13f0 d9ba f107 48be 959d f2be 468b 94be
000001f0: d481 29bf d081 8bba faf5 a7bd 3d89 863d
00000200: 47c2 643f af0d dc3c 514b 0abc 58fb 3a3d
00000210: f342 94bf 46b2 52bf 14bf a03d 7773 c53d
00000220: abdc c5be f345 6cbe 8857 57bc 6374 88bd
00000230: bf24 453f 6000 37be dae3 04bf 2b7b 383f
00000240: 59c7 05bf c7f8 5a3f f7b4 d1be a128 e33e
00000250: 0ab7 8e3c bbc7 68be 0020 98be 8d39 4ebf
00000260: ad79 a0be 2653 143f f8e4 bdba abba bbbe
00000270: c408 2dbf 3892 4abf 63eb 38be eba8 3a37
00000280: e4a2 a138 6f31 a23d 7f0d 04ba d226 3ebe
00000290: b28f 9eb9 7ff4 60bf 1d79 5cbf fd85 66bf
000002a0: 88c8 91bd 85a2 193b fac0 0eba 0790 edbe
000002b0: 1e6c 96be 7b46 c9b8 c681 77bd 2711 1bbf
000002c0: 6b0c 8dbe 4336 e0b8 9a12 e73e c868 b2bc
000002d0: 5de3 8439 0c55 9939 9513 97be 6c65 45bc
000002e0: df53 b43d d4db f33e def6 c53d cb92 d73d
000002f0: 7a67 44be f855 ec3d 50b1 c1be 1710 9d36
00000300: 92e1 0abf 796f e93e 3b49 e23e 11f0 9abe
00000310: 94bd 87b8 e2ab 3cbf be99 21bf 2071 e739
00000320: 7d7c 05bf e1d7 75bb 5440 8eba 0b83 14bf
00000330: 9a5b 69be a0e2 91bf b05d 7ebf 6c35 533b
00000340: 9412 ea3e 1b64 44bf 7847 73bf 3a77 833e
00000350: c84c d93b 2349 0b3f cd91 0b3f 37b7 0cbf
00000360: 877c cebe f818 9dbc 9bba 2c3f 97d0 ccbe
00000370: cb3b 3abf b61e 52bd 1662 35bf 9d7c b6bd
00000380: 2ed6 253f ac0d 19bf 2b87 a9be 7d83 d5be
00000390: c145 1abf f63f 1ebf 7746 aebb e82c c3be
000003a0: 732b a23e cc57 24bf 6e96 a6be 4188 7bbe
000003b0: e7df 14ba 3422 12bf 3845 72bd 6639 f2be
000003c0: 30c4 433c f03b b6b9 8e90 0438 d9f0 29bf
000003d0: 059d acb7 fc01 8d3b 5bb8 ef38 7ffc 1fbf
000003e0: 5c90 28bf 2cb1 51bf d400 0fbf 3c31 9c3b
000003f0: f8a8 a3b9 7bce 5a3d d95f 6ebe bd39 1d39

bias f4 [10]
-0.4247549 -0.11158901 0.14975841 -0.045811266 -0.1252721 -0.42494127 -0.16309339 -0.17527732
1.2729691 -0.3393483
00000000: 7979 d9be c788 e4bd 455a 193e 98a4 3bbd
00000010: 5447 00be e791 d9be f401 27be e67b 33be
00000020: a7f0 a23f 0fbf adbe
