checkpoints/YourNet/pruning/7/epoch-16.pth (torch, 27279 bytes, 8 tensors)

weight f4 [3, 1, 3, 3]
0.501247 0.15086833 -0.29773852 0.07292392 -0.025246775 -0.6565863 -0.38794076 -0.6843058
0.014230544 0.1899041 0.04909784 -0.34520566 0.23695195 -0.040427748 -0.25308064 0.20379561
0.10674994 0.20850372 0.20547986 0.069003515 0.45324302 -0.22585596 0.07453717 0.07313353
-0.5702142 -0.46108553 -0.45553818
00000000: b951 003f 3a7d 1a3e 2f71 98be 2359 953d
00000010: 53d2 cebc 0a16 28bf 2ca0 c6be aa2e 2fbf
00000020: 3a27 693c 3876 423e d11a 493d ccbe b0be
00000030: 88a3 723e 9197 25bd c993 81be ccaf 503e
00000040: b69f da3d 0082 553e 5069 523e b751 8d3d
00000050: 780f e83e c946 67be f2a6 983d 08c7 953d
00000060: 8ff9 11bf 6713 ecbe 4d3c e9be

bias f4 [3]
-0.71172506 0.036143325 -0.46062273
00000000: 9d33 36bf 060b 143d bed6 ebbe

weight f4 [4, 3, 3, 3]
-0.23770747 -0.15798709 -0.41900393 0.28927076 -0.34386832 -0.15354916 -0.24659781 -0.61047447
0.46281916 -0.16192268 -0.15894333 0.37439513 -0.40011722 -0.13336426 0.31387153 -1.083247
-0.3034408 0.57629913 0.32969895 0.16369608 -0.81232595 0.36955833 -0.03387051 -0.8958561
-0.5544913 -0.030901812 -0.46643493 -0.006017031 0.13537762 -0.1793519 -0.515856 0.29824555
0.1531676 -0.38755408 -0.037091184 0.68463576 0.15581328 0.09057169 0.10183463 0.5871226
-0.09401659 -0.032229435 -0.30000022 -0.35713223 -0.36349213 -0.8639797 -0.48256642 -0.3611464
0.002848628 0.11391753 0.1605181 0.17796661 0.51450574 0.17133199 -0.1866717 0.81677234
0.62080973 -0.7452923 -1.0541977 0.35077646 0.16344367 -0.6897786 -0.4766098 0.10123717
0.047721807 -0.43083963 0.21453908 0.3670099 0.020277021 -0.19661254 -0.00971131 0.35874492
-0.9752995 -0.5786179 0.23523521 0.23887756 0.019876199 -0.06828718 0.33275017 0.20329884
-0.07106704 -0.5080656 -0.35418186 0.1332884 -0.6792261 -2.8724914 -1.2741166 0.11219929
-0.15559053 -0.4678381 -1.1883878 -3.9326522 -0.5526624 0.23274334 -0.11330278 -0.48567975
0.45394352 0.59262484 -0.0040896945 -0.13803191 -0.06458712 0.397556 -0.9968051 0.07354287
0.9896149 0.09337868 0.111910865 -0.61061513
00000000: 9669 73be 5ec7 21be af87 d6be 4c1b 943e
00000010: 820f b0be fe3b 1dbe 2384 7cbe 0e48 1cbf
00000020: a2f6 ec3e 0fcf 25be 0ac2 22be b8b0 bf3e
00000030: 2adc ccbe a490 08be c5b3 a03e d6a7 8abf
00000040: 985c 9bbe 5788 133f 4dce a83e f29f 273e
00000050: 98f4 4fbf c036 bd3e cebb 0abd d356 65bf
00000060: 24f3 0dbf cc25 fdbc 8fd0 eebe 842a c5bb
00000070: 6ea0 0a3e 06a8 37be 240f 04bf a4b3 983e
00000080: f8d7 1c3e 7d6d c6be edec 17bd 4a44 2f3f
00000090: 848d 1f3e a67d b93d ad8e d03d ab4d 163f
000000a0: c58b c0bd 0303 04bd a199 99be 09da b6be
000000b0: a41b babe c62d 5dbf f212 f7be 2ee8 b8be
000000c0: 0cb0 3a3b 984d e93d db5e 243e e13c 363e
000000d0: a6b6 033f a771 2f3e de26 3fbe fe17 513f
000000e0: 63ed 1e3f 7acb 3ebf f3ef 86bf f998 b33e
000000f0: c75d 273e 5595 30bf 3306 f4be 6f55 cf3d
00000100: f177 433d 0397 dcbe 22b0 5b3e b9e8 bb3e
00000110: ff1b a63c cc54 49be 301c 1fbc 6aad b73e
00000120: 3aad 79bf 4d20 14bf 80e1 703e 529c 743e
00000130: 69d3 a23c 26da 8bbd 3b5e aa3e 922d 503e
00000140: 998b 91bd 9610 02bf 5357 b5be c17c 083e
00000150: c3e1 2dbf e6d6 37c0 4116 a3bf bec8 e53d
00000160: 2053 1fbe 7a88 efbe 171d 98bf 93b0 7bc0
00000170: 487b 0dbf 4554 6e3e 4a0b e8bd 04ab f8be
00000180: 496b e83e 43b6 173f d802 86bb 3d58 0dbe
00000190: 4146 84bd 768c cb3e 9e2e 7fbf a59d 963d
000001a0: 6757 7d3f 523d bf3d 8631 e53d 4651 1cbf

bias f4 [4]
-0.3828169 -0.6131162 -0.6580374 -0.06079389
00000000: 9400 c4be 2ff5 1cbf 2475 28bf 0403 79bd

weight f4 [52, 100]
-1.0812154 -0.3124741 -0.2447805 -0.3251624 -0.46025038 -0.3564626 0.039046265 0.07500048
0.17807607 0.4275999 0.09917575 1.2345512 0.5340725 0.862237 0.3010716 0.31931257
1.0850482 -0.14555117 0.4598771 0.60013366 1.2060813 0.3946202 0.027677849 -0.50078684
0.09211712 -1.3285534 -1.1524016 -0.35830477 0.083910465 -0.24969894 -0.67830324 -0.6798131
-0.16886039 -0.67322713 -0.588786 -0.5950762 -0.70873225 -2.164658 -1.494774 -0.048139162
0.20209916 -0.83301204 -1.6250063 0.15108873 -1.1410155 0.16819343 0.095112905 0.5918184
0.59485316 -0.43263367 -0.1488672 -0.34675667 0.3541726 1.144956 0.20902734 -0.50905836
0.4383633 -0.38773698 0.057233773 0.7402893 0.8776331 -0.05320831 -0.11018359 -1.0006117
-0.69154465 -0.27152914 -0.009449867 -0.13579765 -2.158723 -0.7672196 -0.52863795 -0.21258244
0.4061215 -1.9825644 -1.1458869 -0.3274498 -0.79898775 -0.60203207 0.1130743 -0.012341496
-0.8258357 -0.25072825 0.24577378 -0.8419149 -0.36436796 -0.38558227 -0.03961842 -0.99626416
0.55418956 -1.4073699 -0.12794462 -1.0772411 0.2969467 0.24917576 -2.5956838 -0.6043661
0.22787668 1.2438989 1.2323416 -0.38159853 0.5237697 0.50787264 -0.14205782 -0.35418624
-1.4152637 1.2407533 0.26823685 0.4341924 -2.218927 -2.26005 -0.063612774 0.102271244
0.29279676 0.40905505 -0.27950507 -0.4333381 -0.65726125 -0.092027456 0.51892906 0.90860593
0.513637 -0.53440934 -1.5028462 -0.5583984 0.26511273 -2.413858 -1.5168545 -0.25704387
1.4725636 0.9896096 -1.0856988 -0.56902534 -0.22520258 0.9790999 1.7502861 -0.04879645
0.44564536 0.044376258 -0.7519261 0.081401266 -0.04009966 0.5856913 -0.29672095 -0.46024728
-0.883242 -0.096065804 0.14046809 0.14812934 -0.29360148 -0.40096584 -0.50055456 0.7806285
-0.25649545 -0.81430423 -0.4643232 0.10049595 0.69040734 0.1399567 0.17253946 -0.37856755
-0.50000864 0.042194866 0.110566534 0.058913756 0.8121827 -0.14985265 0.014052931 0.37143517
0.25865984 -0.07720213 -0.70025283 0.25977516 0.0003460339 -0.8793645 -1.4261321 -1.4589425
-0.63874626 0.23639438 -0.1934368 -0.038614437 -0.94553226 -1.0899041 -0.6095966 -0.264301
-0.35824278 0.13662767 -0.102566145 -0.23792692 1.4030718 1.2707218 0.45852357 0.67323416
0.42830247 0.6453701 0.3111618 0.39205778 -0.20088567 0.2639478 -0.40432543 -0.5666107
0.18950725 -0.60690284 -0.24385804 -1.7305423 0.8308355 -0.56258357 -0.14254767 0.28331482
0.33534053 0.16269441 0.3565223 0.35743117 -1.0050942 0.026684362 0.061619468 0.1891549
-0.5281445 0.1066395 -0.2739351 0.18110108 -1.4439582 -0.42491752 0.6019747 0.74019957
1.1497097 -0.6351741 -0.056745734 -0.42843083 -0.18979186 -0.4551548 -0.868262 0.27816463
-0.4035098 -0.5865638 -0.9646248 0.15714471 -1.0266576 -1.4276619 -1.0209134 -0.3997759
-0.12566902 0.60898465 1.11646 0.11477508 -0.069803074 0.23122665 0.19585712 -0.11526207
-0.1300183 0.40838897 -1.055523 -1.1317724 -0.074359514 -0.35367855 0.29050457 -0.3502122
00000000: 4465 8abf 9bfc 9fbe bda7 7abe b07b a6be
00000010: f0a5 ebbe 4482 b6be faee 1f3d da99 993d
00000020: 9359 363e 60ee da3e a81c cb3d c605 9e3f
00000030: fab8 083f 90bb 5c3f 0f26 9a3e f07c a33e
00000040: dce2 8a3f 5e0b 15be 0375 eb3e 5ca2 193f
00000050: df60 9a3f a90b ca3e a8bc e23c 9133 00bf
00000060: e7a7 bc3d 0a0e aabf e581 93bf b973 b7be
00000070: 40d9 ab3d 14b1 7fbe 48a5 2dbf 3b08 2ebf
00000080: bde9 2cbe 9d58 2cbf aeba 16bf ea56 18bf
00000090: 7a6f 35bf c289 0ac0 c154 bfbf 922d 45bd
000000a0: 15f3 4e3e 4740 55bf 3500 d0bf 01b7 1a3e
000000b0: cc0c 92bf e63a 2c3e 8eca c23d 6981 173f
000000c0: 4c48 183f 2982 ddbe a570 18be 178a b1be
000000d0: 1c56 b53e eb8d 923f 430b 563e a651 02bf
000000e0: 2871 e03e 7685 c6be f66d 6a3d 9983 3d3f
000000f0: 90ac 603f f5f0 59bd efa7 e1bd 0b14 80bf
00000100: 1209 31bf de05 8bbe 9dd3 1abc 8a0e 0bbe
00000110: 8528 0ac0 8168 44bf d154 07bf 36af 59be
00000120: 28ef cf3e acc4 fdbf 6cac 92bf 80a7 a7be
00000130: 768a 4cbf c61e 1abf 8093 e73d fc33 4abc
00000140: f869 53bf 745f 80be 1fac 7b3e bc87 57bf
00000150: 708e babe 0a6b c5be ed46 22bd 2b0b 7fbf
00000160: 5edf 0d3f b224 b4bf ea03 03be 09e3 89bf
00000170: 6609 983e ee27 7f3e af1f 26c0 bdb7 1abf
00000180: 8158 693e 1438 9f3f 5fbd 9d3f e260 c3be
00000190: c515 063f f103 023f 9b77 11be e657 b5be
000001a0: 5c27 b5bf 01d1 9e3f 5756 893e 774e de3e
000001b0: e602 0ec0 a9a4 10c0 6a47 82bd 9673 d13d
000001c0: 75e9 953e aa6f d13e 4a1b 8fbe 7ede ddbe
000001d0: 4642 28bf e478 bcbd 89d8 043f 669a 683f
000001e0: b77d 033f 0dcf 08bf 445d c0bf 33f3 0ebf
000001f0: dbbc 873e a67c 1ac0 4a28 c2bf 419b 83be
00000200: f77c bc3f 0e57 7d3f 2ef8 8abf a5ab 11bf
00000210: 819b 66be 4ba6 7a3f 6009 e03f c9de 47bd
00000220: a12b e43e e1c3 353d 3b7e 40bf b5b5 a63d
00000230: 8b3f 24bd ddef 153f cfeb 97be 88a5 ebbe
00000240: 261c 62bf 26be c4bd ded6 0f3e 38af 173e
00000250: ef52 96be 654b cdbe 5824 00bf 45d7 473f
00000260: 5f53 83be 3e76 50bf c5bb edbe d2d0 cd3d
00000270: 89be 303f cf50 0f3e 2fae 303e 9bd3 c1be
00000280: 9100 00bf 86d4 2c3d b570 e23d 8d4f 713d
00000290: 35eb 4f3f f972 19be 443e 663c c02c be3e
000002a0: 106f 843e 261c 9ebd c543 33bf 4001 853e
000002b0: e26b b539 081e 61bf 7f8b b6bf a1be babf
000002c0: e084 23bf 5e11 723e 4c14 46be 2c2a 1ebd
000002d0: 670e 72bf fa81 8bbf 860e 1cbf 7652 87be
000002e0: 996b b7be 20e8 0b3e 330e d2bd 1da3 73be
000002f0: db97 b33f 03a7 a23f 9ac3 ea3e 1359 2c3f
00000300: 764a db3e fa36 253f 9950 9f3e ccbb c83e
00000310: f9b4 4dbe 2b24 873e be03 cfbe 660d 11bf
00000320: 300e 423e fc5d 1bbf ecb5 79be 6982 ddbf
00000330: a3b1 543f 7a05 10bf 04f8 11be a40e 913e
00000340: c1b1 ab3e 5d99 263e 178a b63e 3801 b73e
00000350: eda6 80bf 2a99 da3c b264 7c3d d2b1 413e
00000360: 7a34 07bf cf65 da3d 3941 8cbe 9072 393e
00000370: 9fd3 b8bf ca8e d9be 041b 1a3f b87d 3d3f
00000380: b029 933f c59a 22bf 376e 68bd 495b dbbe
00000390: cc58 42be 0d0a e9be 6b46 5ebf 986b 8e3e
000003a0: d698 cebe 0c29 16bf a7f1 76bf 8bea 203e
000003b0: 8469 83bf a0bd b6bf 4aad 82bf 6daf ccbe
000003c0: 61af 00be 6be6 1b3f 29e8 8e3f 320f eb3d
000003d0: eaf4 8ebd aec6 6c3e c58e 483e 850e ecbd
000003e0: 8423 05be 5c18 d13e 611b 87bf ebdd 90bf
000003f0: cd49 98bd 5b15 b5be 04bd 943e 034f b3be

bias f4 [52]
0.00081126974 -0.4455105 -0.4063447 -0.03934443 -0.3292763 -0.46161476 0.33212265 -0.5768926
-0.74325585 -0.5445799 -0.3899568 0.47812155 0.0026904806 0.038205463 -0.37996352 -0.44349968
-0.8650948 -0.37616873 -0.40404996 -0.29246154 -0.40951428 -0.7798661 -0.3068641 -0.9246601
0.784633 -0.17104754 -0.47432724 -0.03769066 -0.51086116 -0.29400823 -0.37725466 -0.048928853
-0.62432075 -0.86805224 -0.45339942 -1.0169865 0.12240917 -0.046989143 -0.36704847 0.8479046
0.4084787 -0.25404882 -0.38885045 -0.06773838 0.60585576 2.0387757 -0.8495599 -0.511121
-0.21531187 0.5078761 1.0075291 -0.51417387
00000000: 64ab 543a f419 e4be 6a0c d0be a027 21bd
00000010: e796 a8be c558 ecbe fb0b aa3e 3caf 13bf
00000020: 0446 3ebf 9769 0bbf 6ba8 c7be 59cc f43e
00000030: c652 303b 557d 1c3d 948a c2be 6412 e3be
00000040: da76 5dbf 3099 c0be a3df cebe 85bd 95be
00000050: dbab d1be 4ea5 47bf 4b1d 9dbe 86b6 6cbf
00000060: b5dd 483f 1627 2fbe 05db f2be 8661 1abd
00000070: ccc7 02bf 3f88 96be 8627 c1be 9f69 48bd
00000080: 7cd3 1fbf ac38 5ebf f823 e8be 9d2c 82bf
00000090: a9b1 fa3d b077 40bd c7ed bbbe 4710 593f
000000a0: 1f24 d13e b012 82be 6817 c7be 6bba 8abd
000000b0: 5d19 1b3f 4d7b 0240 c27c 59bf d3d8 02bf
000000c0: b77a 5cbe 2b04 023f b7f6 803f e6a0 03bf

weight f4 [10, 52]
0.6581501 -0.18938267 -0.092046626 -0.7280521 -0.15492621 -0.8189208 -0.76921535 -0.06814974
-1.0422207 -0.26034412 -0.24052262 -0.91250104 -0.29707906 0.045112178 -0.62361515 0.50624293
-0.30598298 -1.4912404 -1.1867001 -0.080080755 0.096031085 -0.68929225 -0.07678773 -0.24596255
0.28034538 -1.1542833 -0.20770831 -0.8210894 -0.40586582 0.2560377 -0.08559544 -0.05986183
-0.13815129 -0.16936964 -0.8187786 -0.16630676 -0.38318947 -0.07748659 -1.3650881 -0.7461313
-0.0702986 -0.39312312 -0.7854729 -0.28856125 0.5111168 -0.676575 -0.28979027 0.5369298
-0.29767415 -0.54174 -0.33061922 -0.3484887 -0.099132136 -0.78635645 -0.84201235 0.5254787
-0.6221607 -0.59316033 -0.29899207 -0.82067454 -0.79495203 -0.27678317 -0.6236869 0.69623595
0.050214402 -0.54162604 -0.21553293 -0.67837965 -0.16256782 -0.122904874 -0.47399613 -0.12537879
0.23189065 -1.2719493 -0.025684902 -0.5315469 -0.040432326 -0.37082836 -0.56623363 -0.29877684
-0.47853264 -0.101264976 -0.23952287 -0.8230917 -0.046293303 -0.5127164 -0.33262226 -0.3181651
0.08400913 -0.30016965 0.5444312 0.22905095 0.6294273 -0.49663368 -1.1431116 -1.0942571
-0.23169468 0.88427943 -0.43745068 0.34268135 -0.57363766 -0.6116373 0.1447461 -0.17119078
-0.5839925 -0.91678584 -0.68298435 0.14057547 -0.24296522 -0.14969467 -0.11035936 -0.7148593
-0.28163713 0.5206232 -0.6031712 0.032762177 -0.07460633 0.3582029 -0.08426955 -0.14789374
0.13561472 -0.3894836 -2.0405684 0.423909 0.4180169 -0.28903142 -0.08646503 -0.15138082
-0.7495457 -0.9602512 0.5451797 -0.726988 0.24954967 0.47765216 0.3878044 -0.48030806
-0.27969185 0.6117751 -0.20907621 -0.08401098 -0.89193714 0.74719626 -0.32659042 0.42095596
-0.44895807 -0.28398737 0.23039654 -0.08010649 -0.7224264 -0.75283325 -0.15109612 -0.30071107
-0.35723048 0.01648059 -0.7976714 -0.29939163 -0.2517182 -0.1473021 -0.63008237 -1.0920954
-0.22510217 -0.026128752 -0.21462564 0.20391583 0.7722621 -0.10228973 -0.44031486 -0.38320428
-0.43111706 -0.22753996 0.04888992 -0.15750563 -0.48494354 -0.5051243 0.19919999 -0.09267032
-0.19716564 -0.11595758 -0.35587007 0.013882025 -0.6227464 -1.0199924 -0.34904072 -0.5501656
0.47806504 -0.32515666 -0.080117896 -1.2481302 -0.76264876 -0.110549584 0.5913427 -0.20984243
-0.29461154 -0.62792087 -0.42558008 -0.4057355 -1.3144723 -0.4508715 -0.2783568 -0.43837893
-0.73541963 -0.6130976 -0.36042762 0.110806 -1.447385 -0.72930616 -0.24287137 -0.29809403
-1.5282023 -0.7140252 0.22518426 0.29376432 -0.46056977 0.04092053 0.72492707 -0.62524307
-0.9533695 -0.56989115 -0.62774307 -0.8748784 -0.38437733 -0.33944038 -0.4725053 -0.4520707
-0.19424993 0.19729732 -0.042704552 -1.1429074 -0.4294503 -0.031415556 -0.17944656 -0.48437765
-0.1349483 0.37939364 0.01993117 -0.5066936 -1.0168188 -0.70542437 0.2679591 -0.6744907
-0.16437458 -0.40853733 -0.42374444 -0.2261776 -0.2723082 0.05215108 -0.66503006 -0.61803144
0.116830535 -0.032072548 -0.38359457 -0.43807504 -0.74646187 -0.5914396 -0.2567458 -0.19921668
00000000: 867c 283f 88ed 41be f182 bcbd 9f61 3abf
00000010: faa4 1ebe cba4 51bf 4ceb 44bf 1792 8bbd
00000020: 7d67 85bf d34b 85be 904b 76be ab99 69bf
00000030: bf1a 98be 8cc7 383d 3ea5 1fbf 2399 013f
00000040: cda9 9cbe f7e0 bebf cae5 97bf 6101 a4bd
00000050: f2ab c43d 7575 30bf e342 9dbd 9bdd 7bbe
00000060: 6e89 8f3e 8ebf 93bf 7db1 54be ea32 52bf
00000070: a5cd cfbe 6017 833e a94c afbd ae31 75bd
00000080: 8877 0dbe 3c6f 2dbe 799b 51bf 524c 2abe
00000090: 6931 c4be 4ab1 9ebd 35bb aebf 7602 3fbf
000000a0: b6f8 8fbd 6f47 c9be c114 49bf 4dbe 93be
000000b0: 8dd8 023f 0534 2dbf 645f 94be 3b74 093f
000000c0: bf68 98be 79af 0abf ec46 a9be 1c6d b2be
000000d0: ca05 cbbd a84e 49bf 1f8e 57bf c685 063f
000000e0: ec45 1fbf 5bd9 17bf 7d15 99be ba17 52bf
000000f0: fa81 4bbf 86b6 8dbe f2a9 1fbf 853c 323f
00000100: 9ead 4d3d 01a8 0abf aab4 5cbe 4aaa 2dbf
00000110: 2e78 26be 8db5 fbbd 9faf f2be 4c63 00be
00000120: be74 6d3e 3ccf a2bf 2569 d2bc 7513 08bf
00000130: 5e9c 25bd 37dd bdbe b0f4 10bf 47f9 98be
00000140: 3b02 f5be 0364 cfbd 7c45 75be 23b6 52bf
00000150: 0c9e 3dbd 6241 03bf 774d aabe 89e6 a2be
00000160: fb0c ac3d d6af 99be d85f 0b3f 558c 6a3e
00000170: 2622 213f c546 febe 7b51 92bf 9e10 8cbf
00000180: 5f41 6dbe 2360 623f 89f9 dfbe ee73 af3e
00000190: ebd9 12bf 4394 1cbf 5238 143e a34c 2fbe
000001a0: 8880 15bf 7ab2 6abf 10d8 2ebf 04f3 0f3e
000001b0: e0cb 78be 8f49 19be 1704 e2bd 0501 37bf
000001c0: be32 90be 9047 053f 6e69 1abf a231 063d
000001d0: 34cb 98bd 5f66 b73e 8495 acbd 7571 17be
000001e0: 96de 0a3e 656a c7be ac98 02c0 9a0a d93e
000001f0: 5006 d63e edfb 93be 9414 b1bd 9303 1bbe
00000200: 3ae2 3fbf 06d3 75bf e690 0b3f e31b 3abf
00000210: f389 7f3e d38e f43e 4c8e c63e f0ea f5be
00000220: c533 8fbe 4b9d 1c3f 1318 56be f30d acbd
00000230: fe55 64bf 4148 3f3f dc36 a7be 8a87 d73e
00000240: d5dd e5be cb66 91be 12ed 6b3e df0e a4bd
00000250: f0f0 38bf aeb9 40bf f1b8 1abe cdf6 99be
00000260: eae6 b6be 4d02 873c 3134 4cbf dc49 99be
00000270: 35e1 80be 5dd6 16be 144d 21bf c8c9 8bbf
00000280: 2f81 66be f70b d6bc d3c6 5bbe 50cf 503e
00000290: f8b2 453f 477d d1bd f370 e1be 5a33 c4be
000002a0: 60bb dcbe 3c00 69be cc40 483d 2849 21be
000002b0: 854a f8be d34f 01bf 15fb 4b3e f0c9 bdbd
000002c0: cae5 49be 2b7b edbd 9a34 b6be 6f71 633c
000002d0: 4f6c 1fbf 1c8f 82bf 77b5 b2be a7d7 0cbf
000002e0: f1c4 f43e ef7a a6be da14 a4bd bbc2 9fbf
000002f0: f33c 43bf d267 e2bd 3c62 173f efe0 56be
00000300: 53d7 96be 6cbf 20bf a2e5 d9be 90bc cfbe
00000310: a140 a8bf a1d8 e6be c884 8ebe 3473 e0be
00000320: 7644 3cbf f7f3 1cbf f889 b8be 42ee e23d
00000330: e943 b9bf cfb3 3abf 46b3 78be c89f 98be
00000340: 229c c3bf 5bca 36bf b496 663e 4768 963e
00000350: cdcf ebbe 499c 273d d294 393f ee0f 20bf
00000360: 0610 74bf 63e4 11bf c5b3 20bf 08f8 5fbf
00000370: 1bcd c4be 21cb adbe 37ec f1be d075 e7be
00000380: 74e9 46be 4f08 4a3e f8ea 2ebd ca4a 92bf
00000390: e9e0 dbbe 99ad 00bd d7c0 37be 5900 f8be
000003a0: e32f 0abe e23f c23e b146 a33c acb6 01bf
000003b0: 1e27 82bf b196 34bf ef31 893e 6cab 2cbf
000003c0: cf51 28be ce2b d1be 08f5 d8be 1a9b 67be
000003d0: fb6b 8bbe 5f9c 553d 693f 2abf 4f37 1ebf
000003e0: d944 ef3d 815e 03bd 8266 c4be 5f4b e0be
000003f0: 2018 3fbf 9668 17bf 2f74 83be 75ff 4bbe

bias f4 [10]
-0.19480543 -0.27723604 -0.364691 0.4353895 -0.2569267 -0.5242406 -0.88323563 -0.114781015
1.2226759 0.05926489
00000000: 137b 47be e2f1 8dbe c7b8 babe 5feb de3e
00000010: e58b 83be a234 06bf bb1b 62bf 4f12 ebbd
00000020: a580 9c3f bebf 723d
