checkpoints/YourNet/pruning/0/epoch-39.pth (torch, 43727 bytes, 8 tensors)

weight f4 [3, 1, 3, 3]
000000 94 08 0e 3f 58 19 b1 3d 19 f1 39 be 19 82 da 3c
       0.5548184 0.08647412 -0.18158378 0.026673364
000010 5a f0 b1 bc 34 e7 20 bf 86 b0 9f be 2d cb 09 bf
       -0.021721054 -0.6285279 -0.31189364 -0.53825647
000020 71 b3 c7 3d 31 41 93 3d 3b 25 ad bd 5d fa 85 be
       0.097510226 0.07190169 -0.08454367 -0.26167575
000030 37 6d 0c 3e 52 4a 42 3e 64 5e 87 bb 03 61 88 3c
       0.13713537 0.18973663 -0.0041311253 0.016647821
000040 c0 55 7b 3e 32 a1 45 3e f6 a0 26 3e 71 4e 0f 3e
       0.2454443 0.19299772 0.16272339 0.13994767
000050 92 4c d5 3e b8 ab c1 be bb 6e 8b 3d 21 e1 a4 bc
       0.4165998 -0.37826324 0.068082295 -0.020126881
000060 4c 45 c4 be 61 e4 ef be 0e 81 30 bf
       -0.3833412 -0.46853927 -0.6894692

bias f4 [3]
000000 9e 04 1f bf e8 f7 0b 3e 71 b3 da be
       -0.6211642 0.13668787 -0.42715028

weight f4 [4, 3, 3, 3]
000000 7d 73 93 bc a2 86 a5 be e8 fe 76 be 81 7a 46 be
       -0.017999405 -0.3232928 -0.24120677 -0.19382669
000010 46 89 02 bd d4 06 ce be 06 bf d4 3e 56 32 ba be
       -0.031869195 -0.40239584 0.4155199 -0.36366528
000020 3a 90 fc 3d 95 1f 06 bd 89 b5 31 3c df ba 04 3f
       0.123321965 -0.032744963 0.010846504 0.5184764
000030 8d 18 78 be 54 2b 07 bf 50 e7 29 3f 9c c3 16 bf
       -0.24228115 -0.5280049 0.6636858 -0.58892226
000040 37 f8 f5 be 8c dd 67 3e 90 2b ee 3d b0 bf dc 3e
       -0.48040935 0.22643107 0.11629403 0.43114996
000050 14 f4 9a bf 33 18 03 3f ee 77 09 3e 6d 79 90 bf
       -1.2105737 0.512088 0.13424656 -1.1287056
000060 a3 f7 a1 3d be b5 de be b3 fc 39 bf 11 88 5b 3d
       0.07908561 -0.43498033 -0.72651213 0.05359656
000070 4a 20 3d 3e bc f2 4f be ff 6a 90 be 69 d2 30 3d
       0.18469349 -0.2030744 -0.28206632 0.043169413
000080 40 bc 13 3e 38 cd 4a be 62 81 94 bd 09 4c 0a 3f
       0.1442728 -0.19804847 -0.0725124 0.5402227
000090 fe 22 9c bd c6 39 38 be f1 63 6f 3e 11 48 b5 3e
       -0.07623862 -0.17990789 0.23377968 0.35406545
0000a0 f2 25 5d 3e 58 9f a7 3d 82 61 07 be a6 fb 7a be
       0.21596506 0.08184689 -0.1322079 -0.24510059
0000b0 9a 0a c4 be 30 c4 37 bf 73 b1 97 be 57 92 a9 be
       -0.38289338 -0.71783733 -0.2962757 -0.3311946
0000c0 72 c4 3a bd 94 bc 25 bd 7d 9d 7e 3e da a9 29 3e
       -0.0455975 -0.040463045 0.24864765 0.165687
0000d0 e5 4c 00 3f af 49 48 3e 18 e1 5b be 58 ba 82 3f
       0.5011733 0.19559358 -0.21472585 1.0213118
0000e0 61 6a 8f 3e e3 7e 15 bf 6c 60 25 bf 12 16 93 3e
       0.28010848 -0.5839674 -0.64600253 0.28727776
0000f0 e5 32 db bd 12 c0 0c bf 35 28 5c be be 5f f1 3d
       -0.10703067 -0.54980576 -0.21499713 0.117858395
000100 e2 34 5e be 68 58 1a bf f2 79 c8 3e b0 89 c3 3e
       -0.2169986 -0.6029115 0.39155537 0.38190985
000110 29 ca 1d 3e dc 02 53 bd e5 5c 73 3d 9f ec a6 3e
       0.15409149 -0.0515164 0.059414763 0.32602403
000120 ae 54 70 bf d8 7b 14 be 57 56 03 bd d3 1c 42 3e
       -0.9387921 -0.14500368 -0.032064762 0.18956308
000130 c0 23 cd bd ff cb e2 3e 11 e0 2d 3e aa d1 3e 3e
       -0.100165844 0.44296262 0.16980006 0.18634668
000140 1e 23 3e 3e 70 06 66 bf 42 c9 43 be 97 04 a8 3e
       0.18568084 -0.8985357 -0.19119743 0.32816002
000150 86 2b 16 bf d5 8e da bf eb 88 28 bf fa 0c 39 be
       -0.5866016 -1.7074839 -0.6583392 -0.18071356
000160 e7 e2 c0 be 1d 85 4f bf 0e 2f 25 c0 86 66 83 bf
       -0.37673113 -0.8106249 -2.580997 -1.0265663
000170 ec cb e5 3c 1f 3d 50 3e 91 39 86 be e4 55 1e bf
       0.02805134 0.20335816 -0.26215795 -0.6184981
000180 f5 92 d2 3e ba e9 9d 3e d7 8f 99 3e 35 f0 57 3e
       0.41127744 0.30842382 0.29992554 0.21087725
000190 4d 2b 5c be a8 c7 ee 3e 42 c2 40 bf 05 de 82 3e
       -0.21500893 0.466367 -0.75296414 0.25560012
0001a0 6c 7e 66 3f f9 b5 10 3e 31 fb cd 3e c2 28 19 bf
       0.90036654 0.14131917 0.40230706 -0.59827816

bias f4 [4]
000000 a1 b8 a8 bd 61 a0 ce be c2 20 36 bf 94 68 ef bd
       -0.0823834 -0.40356734 -0.71143734 -0.116898686

weight f4 [89, 100]
000000 95 c4 72 ba 0b 63 72 bb b5 08 3c b9 a7 94 20 ba
       -0.00092608604 -0.0036985304 -0.00017932321 -0.00061256666
000010 61 4b f8 ba 0e c2 24 bb a7 da fc ba 43 a8 e9 ba
       -0.0018943363 -0.002514008 -0.0019291238 -0.0017826635
000020 98 0c 23 3a d2 a1 2e bb 6a b5 cb 39 b3 da f1 ba
       0.0006219833 -0.0026646745 0.0003885434 -0.0018452018
000030 6c bf 1f ba 7f 16 9e ba 06 f9 05 bb 07 e5 7b ba
       -0.0006093893 -0.0012061148 -0.002044262 -0.0009609018
000040 9a b8 b7 ba ba 44 3c 3a b1 22 72 bb 2d c7 37 bb
       -0.0014016808 0.0007181872 -0.0036946947 -0.0028042302
000050 d0 74 5d ba dd f0 bb ba ce 57 d7 b9 4b bf 8f b9
       -0.00084478874 -0.0014338751 -0.00041073415 -0.0002741761
000060 d6 ce be ba 8d 25 f3 ba 9d 37 60 bb 51 2b 3c 3a
       -0.0014557492 -0.001855062 -0.0034212836 0.00071780855
000070 4d d0 a8 ba 23 01 84 39 09 0a fb ba dd 0a b0 39
       -0.0012879461 0.0002517785 -0.0019152771 0.0003357743
000080 02 cd 50 bb 38 ab 4a bb 23 c7 06 bb bb 99 a9 ba
       -0.0031860475 -0.0030924808 -0.0020565472 -0.0012939492
000090 86 17 df ba 84 9a 5d bb 0e b7 e2 39 3f bd 4c bb
       -0.001702056 -0.0033814022 0.00043242465 -0.003124073
0000a0 3e 1a 6f 3a 5c d3 51 b9 d4 3b a4 39 63 75 44 bb
       0.0009121037 -0.0002001053 0.00031325093 -0.0029977194
0000b0 da cb 7b bb 5a 56 06 3b cd b3 2f bb b4 56 af ba
       -0.0038421066 0.0020498247 -0.002681005 -0.001337728
0000c0 ce 92 c1 b8 1d 51 cf ba 4f ee 14 3b e6 5c 77 bb
       -9.230302e-05 -0.001581702 0.002272505 -0.003774458
0000d0 2d 3d 62 bb 9b 85 1a 3a 63 36 3f bb 41 c0 8a 3a
       -0.0034521327 0.00058945426 -0.0029176704 0.001058586
0000e0 c3 e1 9e ba cb 9d 07 39 71 14 0a 3a 3a a8 f8 ba
       -0.0012121726 0.00012933386 0.0005267328 -0.0018971034
0000f0 d6 81 af 3a c0 3e eb 39 9c f7 c7 ba 04 73 15 bb
       0.0013390135 0.00044869445 -0.0015256288 -0.002280415
000100 33 56 3c 3b 42 62 9d ba c0 b8 51 bb 4b 57 38 bb
       0.0028737902 -0.0012007433 -0.0032000989 -0.0028128203
000110 bc 9d 06 bb 3f 11 00 bb 08 67 d3 3a be 25 46 ba
       -0.0020540794 -0.001954153 0.0016128728 -0.00075587246
000120 54 04 31 bb 64 6f 15 ba f0 52 2c 3b ad ac 12 bb
       -0.0027010636 -0.00057004974 0.0026294552 -0.0022380755
000130 2f d4 ca ba 19 6a 6e 3a 77 9b b9 ba 30 7e f8 ba
       -0.0015474613 0.0009094789 -0.0014160712 -0.0018958505
000140 2d 6c 9d ba 13 7b 06 bb 6f d5 b2 ba 11 4c 8e b8
       -0.0012010388 -0.0020520135 -0.001364393 -6.785256e-05
000150 6e b8 2c bb 43 5b 01 bb 1d 83 c3 ba df b5 3a bb
       -0.0026355046 -0.0019738234 -0.0014916394 -0.0028489751
000160 73 ae 1e bb 88 5e 8a b9 0a d1 16 b9 84 ce 73 bb
       -0.0024212867 -0.00026391842 -0.00014382988 -0.003720195
000170 20 a3 e9 ba 89 1b ab ba ac d9 fe ba 64 13 98 3a
       -0.0017825104 -0.0013054471 -0.0019443533 0.0011602459
000180 6c ff 4a bb bb 3f 8a ba cc aa 21 ba ed 7f 78 bb
       -0.0030974997 -0.0010547558 -0.00061671133 -0.0037918047
000190 9a e3 47 bb f1 2d b4 39 a1 7f 2b 37 2d 58 20 bb
       -0.0030500651 0.00034366504 1.022211e-05 -0.002446662
0001a0 3d 97 03 bb b0 0a 62 ba 15 36 53 3a 1a c6 1b bb
       -0.0020079159 -0.00086228084 0.000805707 -0.00237692
0001b0 e6 40 3c ba b9 c3 9c 3a a8 7f 1b ba 11 b4 32 bb
       -0.00071813015 0.0011960185 -0.0005931803 -0.0027267972
0001c0 a0 1d 52 bb fa ab ed ba 2c 88 45 3a da 2d f8 ba
       -0.0032061115 -0.0018132918 0.0007535245 -0.0018934563
0001d0 23 0e 41 38 6c 64 a5 39 0a 07 80 3a ae 0a 24 bb
       4.602795e-05 0.00031546073 0.0009767723 -0.002503078
0001e0 c0 f8 4d 3b 99 1b 54 bb 3a 34 0f ba d0 16 a8 ba
       0.0031428784 -0.0032365082 -0.00054627995 -0.0012824181
0001f0 cf 0c 75 ba cc 2c 4d bb 39 a4 23 39 7d 00 37 36
       -0.0009347917 -0.0031307219 0.00015606069 2.726941e-06
000200 0c a9 38 b9 67 b9 9a 3a 42 d7 3f 3a c6 da 8d 3a
       -0.00017610582 0.0011804522 0.00073181477 0.0010822646
000210 1f 99 2e ba 7b 32 46 ba 73 bf ae ba 76 3b 56 bb
       -0.000666039 -0.0007560623 -0.0013332203 -0.003268925
000220 60 af cf ba d9 35 da ba 7d 15 f3 ba 5a 1b 61 bb
       -0.0015845113 -0.0016648128 -0.0018545833 -0.0034348578
000230 48 56 5d bb 1a 0c 1e bb 71 fa 61 bb 81 2e 3a 3a
       -0.0033773351 -0.00241161 -0.003448155 0.00071022665
000240 ab 57 98 3a b7 57 70 ba de 8f 7b b9 ca 92 aa ba
       0.0011622807 -0.0009168344 -0.0002399082 -0.0013013717
000250 f2 64 5d bb eb 01 80 b9 89 9d 52 bb 05 e2 48 bb
       -0.0033782092 -0.00024415491 -0.0032137355 -0.0030652296
000260 9c 79 9b 39 2d ac 37 bb fd 07 2a ba 50 54 4e bb
       0.0002965451 -0.0028026209 -0.00064861757 -0.003148336
000270 fd 3d 9f 3a 12 fb 0d 3a 8c be e9 b9 8c d6 0b 3a
       0.0012149211 0.00054161355 -0.00044583192 0.0005334399
000280 0e bf 88 ba 61 29 a9 ba 23 99 96 b9 e7 63 90 3a
       -0.0010432915 -0.0012906009 -0.00028724325 0.0011016101
000290 93 63 d5 ba ec 70 1a 3a c9 33 9d ba 25 b8 92 ba
       -0.0016280286 0.00058914605 -0.0011993583 -0.0011193795
0002a0 11 b0 50 bb e5 b3 3e bb 1a 69 dc 3a 0b de 75 3a
       -0.0031843225 -0.0029098925 0.0016815991 0.0009379095
0002b0 9b 5c a5 ba b0 97 5f bb c5 9e e6 39 c3 78 e5 ba
       -0.00126161 -0.0034117512 0.0004398731 -0.0017507303
0002c0 17 c7 e0 ba 97 a2 50 3a 55 f6 96 3a 38 7a cf ba
       -0.0017149177 0.0007958798 0.0011517504 -0.0015829271
0002d0 e2 1b 86 ba 17 d9 b6 b9 5b 5a cd ba 5d 3c 27 3a
       -0.0010231698 -0.0003487549 -0.0015667187 0.0006379539
0002e0 5a 98 50 bb 35 0c 7c ba a2 78 05 bb 63 c8 2f b7
       -0.003182909 -0.0009614856 -0.0020366092 -1.0477469e-05
0002f0 af cf 45 bb 35 59 14 bb b2 e2 6e ba 13 6e 76 ba
       -0.0030183604 -0.002263618 -0.000911276 -0.00094005576
000300 25 d2 47 ba 36 d8 6c ba 60 f7 a0 b8 e2 c0 3e ba
       -0.00076225615 -0.00090349035 -7.675472e-05 -0.00072766666
000310 63 02 49 bb 14 f9 5b bb 83 7e cd 38 e0 ea 41 bb
       -0.0030671589 -0.003356521 9.7987264e-05 -0.002958946
000320 c8 9f 07 bd ae cd 45 be 57 87 0a 3f f0 f8 53 bd
       -0.033111364 -0.19316742 0.5411276 -0.051751077
000330 a4 7f 85 3f 65 97 1d be ae 62 14 3f 8b ed b9 3e
       1.0429578 -0.15389784 0.57963073 0.36314043
000340 27 e3 32 3f 34 bd 06 3f 60 ff 03 3f 5d 8b 08 3f
       0.69877857 0.5263245 0.51561546 0.5333765
000350 da 1a ed be 2e 9c 9c 3e 28 f0 2b 3f 6c b0 b3 3e
       -0.4630955 0.30587906 0.67163324 0.35095537
000360 40 49 ed 3e b4 c1 b4 be e1 ae c3 be 17 48 93 be
       0.46344948 -0.35304034 -0.3821936 -0.28765938
000370 55 7f 6e 3e 7d c5 6e 3f 63 9f 32 be c5 26 0a c0
       0.23290761 0.93270093 -0.17443614 -2.1586163
000380 65 eb 89 bf 7d 8a ef be 3f fa 6e bf 12 2d cb 3c
       -1.0774962 -0.46785346 -0.93350595 0.024801765
000390 2e d5 00 3e ef 3e 0a 3f f9 6e 23 bf 64 78 95 be
       0.12581322 0.5400228 -0.63841206 -0.29193413
0003a0 0a 23 96 3e 4d 0c 67 be 66 8f 2c bf f5 8b 5b be
       0.29323608 -0.22563286 -0.6740631 -0.21440108
0003b0 17 2b c1 be 0d 38 94 bf 05 00 f5 bf df fa 8e 3d
       -0.37728187 -1.1579605 -1.9140631 0.069814436
0003c0 f6 95 0a bf a3 fe 9f bf 72 c7 b8 bf 91 a6 1a be
       -0.5413507 -1.2499584 -1.4435866 -0.15102603
0003d0 38 bd 93 be fa 3c a8 bd f9 90 11 be 6c de d9 3e
       -0.288553 -0.08214755 -0.14215459 0.42552507
0003e0 63 8d 04 3f c5 4a 53 bf 73 94 1a 3e e6 dc 47 bd
       0.5177824 -0.82535964 0.15095691 -0.04879465
0003f0 a8 cc 03 3e 69 9a 20 3f e7 18 12 3d 2b a6 69 bf
       0.12871039 0.6273561 0.03566828 -0.9126918

bias f4 [89]
000000 07 1d 36 3a 4e b9 25 bb 59 b3 48 3f a2 29 85 bf
       0.00069470744 -0.0025287452 0.7839866 -1.040333
000010 31 59 00 be 8f 3c 8e 3e 37 5d d5 bc 5d 59 1d bb
       -0.12534024 0.27780578 -0.026045425 -0.0024009563
000020 26 08 83 bd 4c 0d d1 be 90 7e 44 bb a4 6d 6b bb
       -0.063980386 -0.40830457 -0.0029982664 -0.0035923505
000030 ac 23 e8 3e 3b b8 0e bf d6 41 4e bf 32 96 fe ba
       0.45339715 -0.55749863 -0.8056921 -0.0019423424
000040 7e 15 20 bf 16 f8 09 be e2 99 d1 ba b4 a4 ea b9
       -0.62532794 -0.13473544 -0.0015991295 -0.0004475467
000050 d9 cc 18 bf 71 5e e1 3d 2e 24 9f 3e 2d 6c 85 3e
       -0.5968757 0.110043414 0.3108229 0.26059094
000060 7e 48 6f bf c2 60 3b bf 93 d7 06 b9 03 7c 0c 3e
       -0.9346999 -0.73194516 -0.00012859543 0.13719182
000070 3c af 93 be 8c 06 0c bf 0f 03 34 b9 bb 02 4b bf
       -0.2884463 -0.5469749 -0.00017167277 -0.7930104
000080 1c ad db be c1 ec 2b bf f0 35 93 bf 23 4e 78 bd
       -0.4290551 -0.6715813 -1.1500835 -0.060621392
000090 ce 73 51 bf 48 8c 21 bf b7 36 b5 bb 1e b5 ad bd
       -0.8181733 -0.6310468 -0.005530204 -0.08481811
0000a0 e8 77 6e bd 18 c5 51 bd e6 02 10 3f 8f ac af be
       -0.05821982 -0.051213354 0.5625442 -0.3431134
0000b0 26 2c f4 3e 57 ea de 3e 3a 5d 5d bc 0a 9a ee 3d
       0.47689933 0.43538162 -0.0135109965 0.11650474
0000c0 9d 11 66 3e ad f6 b3 3e 5c 6d 03 bf 72 2b 83 bd
       0.22467656 0.35149136 -0.51338744 -0.06404771
0000d0 f2 8c 51 bf 65 17 59 bf da 26 88 3d 0e fd cd 3e
       -0.8185569 -0.8480132 0.06648035 0.40232128
0000e0 75 35 be bd 90 06 80 bf 44 a7 94 bf 19 2c 4b bf
       -0.0928754 -1.0002003 -1.1613545 -0.7936416
0000f0 ba 3e 2e bf 65 3a 2a 3d 19 82 2c bb 1c b4 22 bb
       -0.68064463 0.041559596 -0.0026322661 -0.0024826592
000100 7e e5 37 bf 19 f4 b6 be 9c 79 9d 3e a3 35 91 bf
       -0.7183455 -0.35733107 0.30756843 -1.1344494
000110 24 1a da 3f 82 35 6d 3d 99 1e 50 bb 6e 8b a1 3f
       1.7039227 0.057912357 -0.003175652 1.2620676
000120 c5 65 1c be b9 57 0c 3f c4 08 ac be fd 1c 57 bf
       -0.15273197 0.54821354 -0.33600438 -0.8402861
000130 fb 67 b8 3e 22 5a b3 3f 12 e1 fd bb dc ef 95 b9
       0.3601683 1.4011881 -0.0077477777 -0.00028598204
000140 0a b5 e5 be d3 1f 73 be 04 af 67 be b6 04 d9 3e
       -0.44864684 -0.23742609 -0.22625357 0.42386407
000150 af 11 ff ba 55 dc 08 bb dc e3 f2 3e 2b 6b 00 bb
       -0.0019460226 -0.0020883281 0.47439468 -0.0019595127
000160 65 d5 eb be
       -0.46061245

weight f4 [10, 89]
000000 6f 57 3e bb cd 75 86 ba 38 01 0f 3f f1 25 af bd
       -0.0029043814 -0.0010258496 0.55861235 -0.085521586
000010 e2 ce d8 3d e0 3d e5 be e0 2f ed 3c 7f f0 23 3a
       0.10586335 -0.4477377 0.028953493 0.0006253793
000020 8d bc fc be be 18 54 bf b9 30 88 ba 94 c5 e6 b8
       -0.49362603 -0.82850254 -0.0010390497 -0.000110040564
000030 05 72 76 bf 92 40 85 3c 8c 69 61 bf b6 d0 df b9
       -0.9626773 0.016266141 -0.88051677 -0.00042689376
000040 6f 15 9f bd 50 99 ef bd ff b3 23 ba d6 49 50 ba
       -0.0776776 -0.11699164 -0.0006244778 -0.0007945573
000050 f4 8d 22 be 42 0c 28 bf 80 92 10 bf 2f fe 6c 3e
       -0.15874463 -0.65643704 -0.5647354 0.23143838
000060 87 cd 20 3e c7 db db be a8 52 5e ba 23 a0 f1 3e
       0.15703402 -0.42941114 -0.00084809447 0.47192487
000070 88 7a 72 bf 03 26 28 3d 95 27 e9 39 65 49 5b be
       -0.9471822 0.041051876 0.00044470714 -0.21414717
000080 53 8d a7 be e4 d1 35 be 9f a5 59 bf 6f ce ce ba
       -0.3272501 -0.17755848 -0.8501834 -0.0015778075
000090 96 42 f1 3c fc 23 dc 3d 78 d4 8a bb af 65 38 bc
       0.029450696 0.10749051 -0.004236754 -0.011254712
0000a0 50 6c 30 bd 00 b8 14 bd ae ca 0e bf 50 a7 ca be
       -0.043072045 -0.03630829 -0.55778015 -0.39580774
0000b0 82 28 b0 3d 6a 76 0c bf 5d e8 f1 3b 82 25 a3 be
       0.08601476 -0.54868186 0.007382436 -0.31864554
0000c0 90 73 85 bf e0 f5 2c bf 26 08 54 3e 28 c6 90 bd
       -1.0425892 -0.67562675 0.20706233 -0.07069045
0000d0 82 8a 09 3f 67 cb a8 bd c6 40 0a 3c 35 08 0a 3f
       0.5372697 -0.08241921 0.008438295 0.5391877
0000e0 67 33 ca bd 55 44 c5 be e7 be b0 be 88 f6 ae bf
       -0.098730855 -0.38528696 -0.34520647 -1.3668985
0000f0 fe b2 ff be a1 92 24 bf b3 30 e2 ba 63 0f 0d ba
       -0.49941248 -0.6428624 -0.0017256945 -0.0005381016
000100 48 2d 6e be 9b 2d 0c bf ad 7d 9f bf 11 a4 8b bf
       -0.23259461 -0.5475709 -1.2460228 -1.0909444
000110 35 20 15 bf c3 a6 26 bf d7 db e3 b9 17 e0 06 bf
       -0.5825227 -0.6509821 -0.00043460607 -0.52685684
000120 f1 7e 92 3b 94 66 fa be 80 47 35 bf 59 58 88 be
       0.004470699 -0.48906386 -0.70812225 -0.26629904
000130 48 fe 04 3f 5e 88 98 bf 0a bf 68 bb 9d 03 a4 b9
       0.519505 -1.1916616 -0.0035514259 -0.0003128321
000140 3c 29 c1 be 35 19 da 3e ce c5 53 bd cd 1f 2c bf
       -0.37726772 0.42597356 -0.051702313 -0.67236024
000150 b0 b3 cc b9 5a 13 95 3a 1b a2 6b 3e 12 4f a5 ba
       -0.0003904379 0.0011373565 0.23011057 -0.0012612066
000160 d3 4e 62 be 15 49 c6 b9 a7 4f e1 ba 58 ae bd bd
       -0.22100382 -0.00037819953 -0.0017189876 -0.09261769
000170 67 46 50 bf a8 a0 95 bf 45 2a 01 3f 37 61 0a bc
       -0.81357425 -1.1689653 0.50455123 -0.008446029
000180 68 b4 69 3a 17 d9 de be 20 bb 87 3e f4 e2 9c ba
       0.0008915127 -0.43525 0.26509953 -0.0011969493
000190 ad 28 cb ba 39 d6 b7 3d 5f 3d ab be 6c e8 12 bf
       -0.0015499793 0.089764066 -0.3344526 -0.573859
0001a0 70 2b 90 3a 75 85 11 bf be f0 17 be 45 35 80 bb
       0.0010999274 -0.56844264 -0.1483793 -0.0039126
0001b0 ad f8 22 b9 5f e5 1c bf 87 dd b9 3e 82 42 14 bf
       -0.00015542163 -0.6128749 0.36301824 -0.5791398
0001c0 d1 d4 e1 be cb 51 1b bf 98 ea f3 bc 3a 32 c3 ba
       -0.4410768 -0.6067168 -0.029774949 -0.0014892288
0001d0 34 c3 3b bf 16 0d 17 be 3b 39 a2 be 8a 83 64 3a
       -0.7334473 -0.14751086 -0.31684288 0.00087171106
0001e0 7a d6 59 bf 8a 3e 88 be 45 25 ea be 51 ae 45 bf
       -0.8509289 -0.26610214 -0.4573156 -0.7721911
0001f0 d3 b3 06 3d 54 7f e9 be a5 1d 25 be c4 62 15 bc
       0.032886337 -0.45604956 -0.1612459 -0.009117786
000200 d1 8f 88 3d f5 17 03 bd d4 ca 31 bc 9d fd 01 3e
       0.06668056 -0.03200527 -0.010851581 0.12694402
000210 e2 fe 4e bf 40 69 03 3e e0 bb d6 be 74 9e e3 bb
       -0.8085767 0.12833118 -0.41940212 -0.0069463793
000220 16 80 29 3b b4 4d 8f 3d 99 04 0f 3f 9d b7 31 3e
       0.0025863699 0.069972426 0.5586639 0.17355199
000230 b9 a3 61 bd 82 86 54 3e 30 66 20 bd 96 94 67 bf
       -0.05508778 0.20754436 -0.039159954 -0.904611
000240 3f 48 7b 3d 16 00 38 bd 55 1e 0c bf 1c 57 ce be
       0.061348196 -0.044921957 -0.54733783 -0.40300834
000250 e2 27 12 be 54 f7 54 be 17 ac 44 3f 3f 7f 4c 38
       -0.14273027 -0.20797473 0.7682509 4.8755897e-05
000260 34 67 2b bb 68 f8 a8 be c3 75 5d be a2 80 09 3f
       -0.0026154043 -0.3300202 -0.21626954 0.53711903
000270 6b d5 ee be 28 2c 8f 3f 48 44 ce be bf 64 3e bb
       -0.466472 1.118535 -0.4028647 -0.0029051749
000280 58 e0 46 3f 2e da e8 3d f7 46 e4 3c 7a 85 93 be
       0.7768607 0.113697395 0.02786587 -0.28812772
000290 61 42 54 bf 23 e0 0e bf fb a4 22 3f 41 ea 1a bc
       -0.82913786 -0.55810755 0.6353299 -0.009455265
0002a0 e7 51 a0 ba aa 3a c3 3e 8c 52 51 bf d8 bc 96 bf
       -0.001223144 0.38130695 -0.8176658 -1.177638
0002b0 12 45 22 bf bd 46 98 38 b3 dc 03 3a bf 17 82 bd
       -0.6338664 7.261101e-05 0.000503014 -0.063521855
0002c0 9d 74 57 bb b1 1f 11 be 82 5a 01 bb fd 39 9f 3a
       -0.0032875903 -0.14172246 -0.0019737785 0.0012148019
0002d0 64 f2 f7 be e6 52 a3 be ae ae 26 bf 78 45 6f 3d
       -0.48427117 -0.31899184 -0.6511029 0.05841586
0002e0 67 ab 7a 3c 59 ea 68 bb ef a4 06 bf 03 9d d8 be
       0.015299655 -0.0035540073 -0.5259542 -0.4230729
0002f0 9f 53 ce b9 15 33 24 ba 6c 06 06 3b 71 1a 08 bf
       -0.00039353684 -0.00062637153 0.0020450605 -0.53165346
000300 d0 ef 07 bf 3f e9 36 ba e7 6b 08 3f af 8b 11 be
       -0.531003 -0.00069775054 0.53289646 -0.14213441
000310 bf d1 d8 3a ea 2c fa 3a 0d d0 64 be 9a 5f 12 3c
       0.0016542001 0.0019086872 -0.2234499 0.008933926
000320 44 c8 79 bf 2f 66 e3 3e 7b 45 a0 3e a0 53 1e 3e
       -0.97571206 0.44413897 0.3130301 0.15461588
000330 33 2e ad ba 4c 11 96 be cb b4 b5 3e 2d 68 12 bf
       -0.0013212621 -0.2931007 0.35489497 -0.5719021
000340 87 21 00 38 69 37 01 bf 0c 18 d2 3e 83 71 98 3e
       3.0548803e-05 -0.50475174 0.4103397 0.29774103
000350 28 c2 89 be 17 79 dd b9 c7 59 a8 be f5 0c 30 bf
       -0.26905942 -0.00042242624 -0.32880995 -0.6876977
000360 29 cf 3c 3b 6b 00 e2 be bf 8e c8 bc 74 18 e8 bb
       0.002881 -0.44140944 -0.02448213 -0.007082993
000370 c4 df d2 be d1 56 2d bf 56 9f 71 bf c2 b9 88 be
       -0.41186345 -0.67710596 -0.9438375 -0.26704222
000380 74 4d ac 3c 98 67 9d 3e 71 6a 3b bf f5 b7 da be
       0.021033026 0.30743098 -0.7320929 -0.42718473
000390 67 d8 36 3c ba 45 31 3d 02 50 19 3f e8 8b 00 3f
       0.011159993 0.043279387 0.5988771 0.5021348
0003a0 db a9 00 bf 45 83 b3 be 45 dc a8 bd a8 a1 2c 3f
       -0.5025918 -0.35061088 -0.08245138 0.6743417
0003b0 9f 43 06 bf c9 9a 9e be f1 3b d7 3c 5c 71 aa be
       -0.5244693 -0.30977467 0.0262737 -0.3328961
0003c0 11 03 32 bb f2 f9 66 ba 58 7c 56 be 53 9b e4 3e
       -0.0027162472 -0.00088110485 -0.20945871 0.44649753
0003d0 be f5 29 be f8 48 e2 bd 5d 0d 09 bf 01 0f 5f be
       -0.1659765 -0.11049074 -0.53536016 -0.21783067
0003e0 e9 58 64 39 aa 08 28 bf 3d 2c 0e bd fc 4e e5 be
       0.00021776896 -0.6563822 -0.034710158 -0.44786823
0003f0 07 0d 38 3e 71 f0 c6 be 26 67 19 bf 88 21 b1 be
       0.1797372 -0.38855317 -0.5992302 -0.34595895

bias f4 [10]
000000 f0 35 e1 bd 27 e6 b1 bd 6b b9 59 3e ab f2 db bc
       -0.10996616 -0.08686476 0.21262138 -0.026849112
000010 65 6e dd be 50 f2 f1 be c9 a4 8f be 35 b8 81 be
       -0.43248287 -0.47255182 -0.2805541 -0.2533585
000020 f6 48 89 3f 0c 3d 57 3a
       1.0725391 0.0008210696
