checkpoints/YourNet/pruning/16/epoch-26.pth (torch, 16591 bytes, 8 tensors)

weight f4 [3, 1, 3, 3]
00000000: b861 bf3e 8fa9 c33e c084 00be 8a07 743e
00000010: 74e6 183e 6e20 12bf d471 b9be 4186 14bf
00000020: 8b4f a7be 9bfe 163e c06e bf3d cf13 f0be
00000030: be52 9f3e 73e7 a0bd bb6e 99be 3422 833e
00000040: 9225 033e ba2c 283e 3d2e 833d 45a4 133e
00000050: f7b7 d93e 7fc9 96be f6a9 e33d ec0e 513e
00000060: 2a20 47bf 8d57 19bf 74de 12bf
0.3737924 0.382153 -0.1255064 0.23831001 0.14931661 -0.57080734 -0.36219656 -0.58017355
-0.32677874 0.14745562 0.09347296 -0.46890113 0.31117815 -0.078566454 -0.29967293 0.25612032
0.128073 0.16423312 0.064053036 0.14418133 0.42523167 -0.29450604 0.11116402 0.20415848
-0.77783453 -0.59899217 -0.57370687

bias f4 [3]
00000000: fb6b fabe c7c7 32bc 0fa4 fbbe
-0.48910508 -0.010911888 -0.49148604

weight f4 [4, 3, 3, 3]
00000000: 9938 0ebe e477 94be 5f27 c1be 1f1a a73e
00000010: 636e 72be 83a1 ddbd 47a1 a2be 196e 90bd
00000020: d6d4 8b3e 72b2 24be ff0c 28be 7dd4 d43e
00000030: 8436 34bf 257c 9dbe dbaf ea3e fced 47bf
00000040: d1ff aabe b859 1a3f 4404 b93e e1d3 0d3f
00000050: 7b8d 69bf a789 133f 27c3 a3be c923 6bbf
00000060: a272 c6be a1e8 9cbe 8ab6 fbbe ad50 0bbd
00000070: b599 903e bed3 29be 9aed 01bf a859 d53d
00000080: de40 443c f9da 80be b0d5 103e 180e 363f
00000090: 5abd 3b3e b836 89bc c1ed 2d3e 9b42 0d3f
000000a0: ac58 be3d 1ecf 1cbd e58f 98be 2f6b b8be
000000b0: 1c80 bdbe 0336 02bf 1c1e 9abe 95be 2ebf
000000c0: 5c02 07bd 8632 bfbd 3ee3 1d3f dba4 8b3e
000000d0: ade2 e13e d000 913d 2e06 b3be b2f9 513f
000000e0: 5f14 313f e4a1 2fbf 97e8 26bf 4e59 e83d
000000f0: 031d c03d a7a1 e6be fe79 39bf ac47 323e
00000100: 4de5 9e3d df20 1fbf 04a8 7d3e ac41 513e
00000110: 0ba3 c93e 344b 8cbe 6fff 3d3e 1e7c d83e
00000120: 4d37 2abf 0e3f 30bf 4f80 2dbc 483d 0f3e
00000130: 5e78 d53d 618b 8abe 8420 143e 9778 bf3e
00000140: af81 643e 649f 62bf de7d 6fbd c8ea 983e
00000150: ef00 b4be ccb1 4ec0 7046 50bf d9d6 ad3c
00000160: 3235 5bbe 49b9 c6be 9503 86bf 50c9 0ec0
00000170: 8a35 4fbf c0fe 053e 7f83 c83d 6aaa b8be
00000180: 66ff 163f ec9e 303f 3f6a f93d f3ef af3e
00000190: fa98 8ebe 4f1d cf3e 9e66 85bf dd46 e53d
000001a0: 7354 833f 3986 863e ff47 8fbd 4ee9 20bf
-0.13888778 -0.2899772 -0.3772535 0.32637116 -0.23674922 -0.108218215 -0.3176367 -0.070522495
0.27310818 -0.16083696 -0.16411208 0.41568366 -0.70395684 -0.30758777 0.45837292 -0.7809751
-0.33398297 0.6029315 0.36136067 0.55401427 -0.9123151 0.57631916 -0.31984827 -0.9185148
-0.38759333 -0.30646232 -0.49162704 -0.034012485 0.2824227 -0.1658468 -0.50753176 0.10417491
0.011978356 -0.25167063 0.14144015 0.71115255 0.1833395 -0.016749725 0.16985227 0.55179757
0.092942566 -0.03828346 -0.29797283 -0.36019275 -0.37011802 -0.50863665 -0.30101097 -0.68259555
-0.032961234 -0.093358085 0.6167487 0.27274212 0.44118252 0.07080233 -0.34965652 0.8202163
0.6917171 -0.686064 -0.65198654 0.113451585 0.093805335 -0.45045206 -0.7245177 0.17410153
0.077585794 -0.6215953 0.24771124 0.20435208 0.39382204 -0.27401125 0.18554471 0.42282194
-0.6649063 -0.68846214 -0.010589673 0.1398822 0.10423349 -0.27059463 0.14465529 0.3739669
0.22315095 -0.8852446 -0.058469646 0.29866624 -0.35156962 -3.2296019 -0.8135748 0.021220611
-0.21407011 -0.38813236 -1.0469843 -2.2310371 -0.8094107 0.1308546 0.09790706 -0.36067516
0.5898346 0.68992496 0.12178468 0.34362754 -0.27851087 0.40452048 -1.0421941 0.11195157
1.0260147 0.2627428 -0.06996154 -0.62855995

bias f4 [4]
00000000: b13a bfbe 9713 10bf 31be 33bf db2e bfbd
-0.37349465 -0.5627989 -0.70212084 -0.09335109

weight f4 [28, 100]
00000000: a37b c0bf b0c2 9ebe cc63 f8be bb68 6abe
00000010: f1b6 34bf 7742 203f 7ac7 183f e84b f03d
00000020: 59e1 5cbe 0a30 95be 817e e53e aa2d 9d3f
00000030: 60d9 7d3e 0f69 493f 874e b43e b2fa 6a3f
00000040: 48dd 0c3f cc6f 55be 3d64 073e d70d f43e
00000050: 9265 a23f 01e0 a43e 2461 6bbc 4dc6 72be
00000060: de1b cabe 877e bdbf f74a 76bf e320 6dbd
00000070: d3f3 82bc 8b91 30bf 7698 93be 7d98 8cbe
00000080: 0bb2 29bd 237e b1be 2062 39bf 201f e3be
00000090: 52e4 68bf dc32 93bf 1af4 96bf c923 13bf
000000a0: 73cf 993d 93eb 3ebf 5730 1ac0 bfd6 34bf
000000b0: 28df 013e d032 a9be 76ae 26bf e59b 1d3f
000000c0: 706d 223f cc06 2c3d da05 02be 639c 593e
000000d0: edc9 693e e8c4 163f b9a3 703f 997c 56bf
000000e0: a28b e6be b192 1cbf bb66 243d aaac 823f
000000f0: d757 3fbe 24db 36be 9de2 93bd b5c6 3ebf
00000100: 30b8 a23c 1a14 1ebf 47e7 22be 62d4 04bc
00000110: 2880 0dc0 0d7c 85bf ccf1 48bf 125f ee3b
00000120: 9181 803e f6fa dbbf 8a7e 61c0 3ec1 4cbf
00000130: 438a cdbd b9e4 8c3e dafe ab3c 6aa8 573e
00000140: 1e44 06bb 901d aebf 68bb 6abf dd4c 97be
00000150: 4dcd b4be cdbe 66bf 08d2 0fbf 0ada 0d3f
00000160: 51f8 c43e a502 56bf 4f09 fabc 662f 2ebf
00000170: 2e90 9a3d 4a0c ab3e 5005 cfbf ee90 263d
00000180: 40fb 343f 0b3e 6b3f c429 f6be a4c4 c6bf
00000190: cad8 bcbf 14a0 c2bf d213 6e3f 8a7e 2c3e
000001a0: bddd 783f 9a44 eabf bc89 e2bf 7408 ed3e
000001b0: d083 1bbf 27c7 793e 24f1 79bf a557 80be
000001c0: c79a 863e 4a6c 5c3c c5f4 22bf 6eac 4fbd
000001d0: ad1e 6ebe 36bb e93d bdf4 073d 4194 64bf
000001e0: 3f28 1e3f 4e7f 393e 71fc 113f 7b2f 1c3f
000001f0: 4996 56bf 7b5d 3bbf d390 9cbf 4a79 22bc
00000200: b1d1 fcbe adb1 66bf 5f7b 4fbf e265 6abe
00000210: 1aef 263f 02bd 9bbf 432e b9be 0a2a 853f
00000220: 4bfb b03e e1dd 2fbf 9994 1bbf df1d 033f
00000230: 111c 1b3f 74fc e43d 9d84 15be aee9 943f
00000240: 20bd 973f 0107 79be 0cb6 d33e 2623 00bf
00000250: e341 44be afb2 c43e f9fa 8b3d ebc1 42bd
00000260: dcb8 db3e 42b0 cfbe 7d86 c2bf 8123 e8bf
00000270: d6df 12bf 5251 4bbf 91bd 0dbf 7fbd 89bf
00000280: bd9f 6b3f b430 3b3f 4752 363f 5fe8 b8be
00000290: 566f 32be 3120 163f 7c3f 6e3f fc17 0c3e
000002a0: 5aa4 2ebf 31b0 da3e 9694 66bf 76a0 2abe
000002b0: 7955 1cbe 6c80 443e 57da 353f 61d0 f4be
000002c0: 1920 b3bf 47d2 d6be 2041 b93e 77bd 28bf
000002d0: cd42 85be bfe6 96be cf37 a1bd 15ef d13e
000002e0: 6bb4 e6be 5c3b b3be 2751 cbbf e141 443c
000002f0: ca04 663f c437 2bbf eb7a 253d 514f c2be
00000300: cf3a 3a3e 5fa0 34be 9278 aabf 482b c83e
00000310: 6f14 16be 7faa 953e c8e8 02c0 9ca2 89bf
00000320: 508a eabe ab2f ef3c 9648 4cbf bd89 95bf
00000330: 22d6 2dbf 2c7b 6a3e 0525 f1bc 6a88 56be
00000340: f3c2 1b3f d7bd 803d d01f b5bd 8f67 793e
00000350: de37 b1be 6107 143f 3037 2ebe 8df2 d5be
00000360: 7c29 fdbe b3f0 b9be 7794 d5be 321b 8bbd
00000370: a027 253f 434b 7f3f 6a2d 343f d311 6f3e
00000380: efbf 7fbf b9ae 8cbe 4461 b0be 5f6c ae3e
00000390: 50ff 5f3e c5e1 fa3e d8cf 0c3f d606 043e
000003a0: f61f 273f c14e 663e c191 1d3f 2483 463f
000003b0: 1a09 083f eaca aabf 8525 0abf 4a98 543f
000003c0: 0031 b1be 2f94 9e3e 35c5 efbe d57b 2b3f
000003d0: d027 7a3f 97fd 1abf 9023 c5be 42a7 41bf
000003e0: 054b 88bf ddd8 f7be e2d5 393f 17d3 173f
000003f0: 1fda 063d c896 9bbe d053 29be 6d61 853f
-1.5037731 -0.3100791 -0.4851364 -0.22891514 -0.70591646 0.6260142 0.5967938 0.11733228
-0.21570338 -0.29138213 0.44823077 1.227956 0.24789953 0.7867593 0.35216162 0.9178878
0.5502515 -0.20843428 0.13221832 0.4766681 1.2687247 0.3220215 -0.014366422 -0.23708458
-0.39474386 -1.4804238 -0.9620814 -0.05789269 -0.015985405 -0.6897208 -0.28827256 -0.2746009
-0.04142956 -0.34666547 -0.7241535 -0.44359684 -0.9097339 -1.1499896 -1.1793244 -0.5747648
0.07510271 -0.7457821 -2.4092004 -0.70640177 0.12682784 -0.3304658 -0.65109956 0.61566
0.6344824 0.04199867 -0.12697545 0.21251063 0.22830935 0.58894205 0.9399982 -0.8378387
-0.45028406 -0.61161333 0.040137034 1.0208943 -0.18685852 -0.17857033 -0.072209574 -0.7452195
0.019863218 -0.6174942 -0.15908538 -0.008107277 -2.210947 -1.0428482 -0.7849395 0.007274517
0.2509885 -1.7185962 -3.5233483 -0.79982364 -0.10036137 0.27518252 0.020995546 0.21060339
-0.0020487378 -1.3602772 -0.9169221 -0.2955083 -0.35312882 -0.9013489 -0.5617986 0.55410826
0.384707 -0.83597785 -0.030522017 -0.68041074 0.07547031 0.33407813 -1.6173496 0.04066556
0.7069588 0.91891545 -0.4807874 -1.552876 -1.4753659 -1.5205102 0.92998993 0.16845146
0.97213346 -1.8302186 -1.7698283 0.46295512 -0.60748005 0.24392377 -0.97633576 -0.25066867
0.2628996 0.0134535525 -0.6365474 -0.05070155 -0.2325389 0.11412661 0.033192385 -0.8928872
0.6178016 0.18114969 0.5702582 0.6100995 -0.83823067 -0.73189515 -1.2231697 -0.009916613
-0.49378732 -0.9011486 -0.81047624 -0.22890428 0.6520859 -1.2167056 -0.36168107 1.0403454
0.3456672 -0.68697935 -0.6077362 0.51217455 0.605897 0.11180964 -0.14601369 1.1633813
1.1854591 -0.24319078 0.41349828 -0.5005363 -0.19165759 0.38417575 0.068349786 -0.047548216
0.42914474 -0.40564162 -1.5197293 -1.8135835 -0.57372797 -0.7942096 -0.5536738 -1.0760955
0.92040616 0.7312119 0.71219295 -0.36114785 -0.17425284 0.5864287 0.9306562 0.13681024
-0.6821953 0.42712548 -0.90070474 -0.16662773 -0.1526698 0.19189614 0.71036285 -0.4781523
-1.399417 -0.41957304 0.361825 -0.659141 -0.26027527 -0.2947292 -0.07871973 0.41002718
-0.45059523 -0.35006225 -1.5884141 0.011978597 0.8985106 -0.66881967 0.040400427 -0.3795114
0.18186496 -0.17639302 -1.3318045 0.3909552 -0.14656232 0.2923164 -2.0454578 -1.075275
-0.4580865 0.029197535 -0.7979826 -1.1682659 -0.67904866 0.22898549 -0.029436598 -0.20950475
0.60844344 0.06286209 -0.088439584 0.2435591 -0.34612936 0.5782376 -0.1701324 -0.41786614
-0.49445713 -0.3631645 -0.41714832 -0.067922965 0.6451359 0.99724215 0.70381796 0.23346643
-0.9990224 -0.27477053 -0.34449208 0.34067056 0.21874738 0.49000373 0.55004644 0.12893233
0.65283144 0.2249098 0.6155053 0.77543855 0.5313889 -1.3343174 -0.539635 0.83044875
-0.34607697 0.3097243 -0.46830145 0.6698583 0.97717 -0.605432 -0.38503695 -0.7564584
-1.0647894 -0.4840764 0.72591984 0.5930647 0.03292286 -0.30388474 -0.16535878 1.0420357

bias f4 [28]
00000000: 953f 02be 5174 05bf a0b2 d43e 1345 383c
00000010: 9603 4e3f f9a7 143e 5a15 153e 481b 41be
00000020: 62d6 00bf 6317 bf3d 6d88 58be cb44 4b3f
00000030: 353e 8a3e f05d e8be 5bce c23e f857 85bf
00000040: 3429 bc3e 97c6 cebe b2b8 f13b c08c b43f
00000050: 28d8 e33e 2201 103d 7f62 7d3e a84a e93f
00000060: 9bdb 0abf ef90 63be d972 e73e 6fcc 4d3f
-0.12719567 -0.5213061 0.4154253 0.011246937 0.8047422 0.14517201 0.14558926 -0.18858063
-0.5032712 0.093306325 -0.21145792 0.79401845 0.27000585 -0.4538417 0.38048062 -1.0417471
0.36750185 -0.40385887 0.0073767537 1.4105453 0.44500852 0.03515733 0.24744605 1.8225908
-0.5424134 -0.22223257 0.4520481 0.80390066

weight f4 [10, 28]
00000000: 3cf3 f93e db62 5fbe c186 35bf c714 17bf
00000010: 480f 3abf 75c6 84bf b4f2 44be 4725 9b3e
00000020: 772c b1bf ad2b acbe 5ae4 d4be 78bb 863e
00000030: f0c4 adbf ffff 52bd 80bc b6be 1708 e7bd
00000040: f304 b2bd 1cf7 09bd fdec 9cbf 8368 31be
00000050: 485d 69be 2fc5 f7be e086 1b3f 9c45 a8be
00000060: e58f a13e 2047 64be cc85 23bf 75ac 633e
00000070: d200 e7be 0616 87bd f951 27be 9b2a 2ebe
00000080: 79a2 203f 7992 90bd 4966 ddbd 06c4 4abf
00000090: 44ec c03b 8220 9dbe 845a 8abe c20f e9be
000000a0: b437 08be 1179 cabe dcfa 3cbf d6b7 94be
000000b0: 31dd 2abf 999b 4dbe 14a6 323f efcc 2b3f
000000c0: 1121 0cbf cba0 07be e7d5 afbe 2600 5e3f
000000d0: 309a e4bd 067e abbe 35cc 27be 9493 413e
000000e0: 693a 0abd cde4 7abd 6ad3 9abd eed0 4abe
000000f0: c26c 31be 8942 5b3c 85e3 113f 0483 a0be
00000100: fe65 ef3c bf64 ccbe abc6 d0bd b5ed 75bf
00000110: f215 b4be c60d ee3e c92a a3be 81cc 0f3f
00000120: ce2e 32bf e4af 133f 4301 d4be 3436 39bf
00000130: af40 f6be feb2 83be f611 4abf e4a5 43bf
00000140: bc7f e03e c075 0f38 efbe 1b3e 857b 44bf
00000150: ffab aabe d0e0 81bf 0a14 b9be 71da a3be
00000160: fc37 b7be 5612 9ebe da95 c8be dcb2 11bf
00000170: 45a6 c8be 5208 fabe 8ba7 033f f4d3 71bf
00000180: bf12 4dbf f693 c6be 5482 9ebe 781d 75bd
00000190: 7c46 d5be 5da8 78be 6d94 09bf 2ee5 c0be
000001a0: bd72 e3be 2d2e a3bd 52c4 30bf 8c25 11c0
000001b0: 3245 84be a67c 36bf 836c 2ebe 3d32 83bc
000001c0: ed61 e8be ddb9 083f e71f d7be 10ed 173f
000001d0: 4949 6ebe 0f48 3abe b3df 95bd fecd aabe
000001e0: d8be 39be fb8c 92be f0fc cfbe 516e ce3d
000001f0: c6c8 703e 0d9a 6f3c 2a55 99be aa29 cebe
00000200: 5541 0cbf 908d 21bd 2055 fcbe 0994 fdbe
00000210: 1e33 e0bc c98c 39bd b0fb 25bd b75f 4fbf
00000220: 9d72 34bf 0cee 56bf 6a48 03bf 94d6 72be
00000230: ce0f 733b 4bfd eebe f369 c8be f642 d2be
00000240: 8bdd ffbe 2c4b 0ebf f45c 1dbf 0c4a 333e
00000250: ec3d 1dbf 356a 793e 31e0 603e a485 f7be
00000260: 0298 13bf 09bd 173d dfad 14bf ebd2 89bf
00000270: 25a5 ec3e 5722 08bf d3e4 0cbf d0c8 29be
00000280: 4c37 b1bd b567 0f3f e400 8cbe 43b6 8fbe
00000290: 0de0 36be be6b e93e 7e35 12bf 3f7e 6e3d
000002a0: e8a9 f6bd ca5a 89be db80 33bf 343b f8bd
000002b0: 2771 aabe ed86 49bf 87b6 0cbf e942 11bd
000002c0: d285 4bbf 1cb2 ec3d b1ce 78be 6201 e63e
000002d0: d5fc 8ebf 29c8 7dbe a150 283f 7fec 38be
000002e0: bdbb b13e b2b1 8dbe 57cc 75be 75df da3d
000002f0: d8cc 3abf bf6d 63bd 0bcb 2bbd fb90 3fbf
00000300: f969 67bd 508e 44bf 609a 063f a8b9 63bf
00000310: 8e4d 43be f8cd 68bd 5a5d f13e 526e 8abe
00000320: 2f6a fe3c 45db 163f fdc2 863d 3492 bcbc
00000330: 1ce6 e63e b473 02bf 9660 dcbd 9d75 a4bf
00000340: 3581 c63d 4f34 44be b5f3 8abf 912f 39be
00000350: 4eb5 a0be 4cb4 30bf 6aa0 253e 3d12 11bf
00000360: 2e92 2ebe 2742 57bf ec02 32bf b39a b9be
00000370: 5ae5 37bf b0c8 1d3f 443f c0bd f014 9e3e
00000380: f535 02bf 3455 fcbe 81dd 9ebe 986f e2be
00000390: bec6 12bf 1549 60bf 4042 d4be 66ec eabe
000003a0: 76ea 02bf 194b ad3e 9152 2abf 59ac 31bf
000003b0: 5fda 2ebf 0de6 d6be 4c14 41be abb9 e0be
000003c0: 2cad 6ebe 15de 12bf ba69 9abf 364d 3bbf
000003d0: ae33 7cbe 766c fcbe f49d cabe a19c 02bf
000003e0: a5db 4a3e c9c5 d0be f02b 01bf 34bb 08be
000003f0: ceb2 d6be 7205 abbe 131f 3bbd 4c03 85be
0.48818386 -0.21815054 -0.70908743 -0.5901608 -0.7267957 -1.0373064 -0.19233209 0.30301878
-1.3841695 -0.33627072 -0.41580468 0.26314902 -1.3575726 -0.05151367 -0.3569069 -0.1128084
-0.0869235 -0.033682927 -1.2259823 -0.17325024 -0.2278949 -0.48392627 0.6075268 -0.32865608
0.31555095 -0.22292757 -0.6387603 0.22233756 -0.45117813 -0.065959975 -0.16339864 -0.1700844
0.62747914 -0.070591874 -0.10810525 -0.7920536 0.00588754 -0.30688864 -0.27022183 -0.45519835
-0.13302499 -0.3954549 -0.7382028 -0.29046506 -0.6674376 -0.20078887 0.69784665 0.6710958
-0.54737955 -0.13244931 -0.34342882 0.86718976 -0.111622214 -0.33494586 -0.16386493 0.18903953
-0.03374711 -0.061253358 -0.07559855 -0.19806263 -0.17326644 0.013382562 0.5698779 -0.31349957
0.029223438 -0.39920613 -0.10194143 -0.9606584 -0.35172993 0.46494883 -0.3186858 0.56171423
-0.6960267 0.5769026 -0.41407213 -0.7234833 -0.48096225 -0.25722498 -0.78933656 -0.76425004
0.43847454 3.420352e-05 0.15209554 -0.76750976 -0.33334348 -1.0146732 -0.361481 -0.32002595
-0.357849 -0.30873364 -0.39176828 -0.5691354 -0.39189354 -0.48834473 0.51427525 -0.9446404
-0.8010673 -0.3878476 -0.30958807 -0.059842557 -0.41655338 -0.24282975 -0.53742105 -0.3767485
-0.44423476 -0.07967792 -0.6904956 -2.2679167 -0.25834042 -0.7128395 -0.17033581 -0.016015166
-0.4538721 0.53408605 -0.42016527 0.59346104 -0.23270144 -0.1819155 -0.07318058 -0.33360285
-0.18139207 -0.28623185 -0.40622663 0.10079635 0.23514089 0.014624131 -0.29947788 -0.40266162
-0.5478719 -0.039441645 -0.49283695 -0.49527004 -0.027368125 -0.04530028 -0.04052323 -0.81005424
-0.70487386 -0.8395698 -0.5128237 -0.23714668 0.0037088278 -0.46677622 -0.39143333 -0.41066712
-0.4997371 -0.55583453 -0.6146996 0.17508715 -0.6142261 0.24356921 0.21960522 -0.48344147
-0.5765382 0.037045512 -0.58077806 -1.0767492 0.46219745 -0.531774 -0.5503666 -0.1658051
-0.08653125 0.5601762 -0.2734443 -0.28068742 -0.17858906 0.45590013 -0.5711287 0.058225866
-0.12044126 -0.2682708 -0.7011849 -0.12120667 -0.33289453 -0.78721505 -0.54966015 -0.0354642
-0.7950107 0.11557409 -0.24297597 0.4492293 -1.1170908 -0.24783386 0.6574803 -0.18058966
0.34713545 -0.27674633 -0.2400373 0.10687152 -0.72968817 -0.055524584 -0.041941684 -0.748306
-0.056497548 -0.7677965 0.5257931 -0.88955164 -0.19072554 -0.056837052 0.47141534 -0.27037293
0.031056492 0.5892833 0.0658016 -0.023018934 0.45097435 -0.509578 -0.1076061 -1.2848393
0.09692613 -0.19160579 -1.0855623 -0.18084551 -0.31388324 -0.6902511 0.16174474 -0.56668454
-0.1704795 -0.84085315 -0.6953571 -0.3625084 -0.7183434 0.6163435 -0.09387067 0.3087535
-0.5086358 -0.49283755 -0.3102837 -0.44225764 -0.57334507 -0.87611514 -0.41456795 -0.45883483
-0.5113901 0.33846357 -0.66532236 -0.69403607 -0.6830196 -0.4197239 -0.18855399 -0.43891653
-0.23308247 -0.5737012 -1.2063515 -0.7316469 -0.24629089 -0.493015 -0.39573634 -0.51020247
0.1981035 -0.40775898 -0.5045767 -0.13352662 -0.41933292 -0.33402592 -0.04568393 -0.25979078

bias f4 [10]
00000000: 7a08 28bf 9b26 c7be 49d7 7d3e 455c 983f
00000010: 6ea7 0fbf 967d 2ac0 2897 bbbf 12a9 f8be
00000020: f997 2c40 f04d d13d
-0.65637934 -0.3889664 0.24789156 1.1903158 -0.5611485 -2.6639152 -1.4655504 -0.4856649
2.6967757 0.102199435
