checkpoints/YourNet/pruning/2/epoch-33.pth (torch, 38031 bytes, 8 tensors)

weight f4 [3, 1, 3, 3]
0	0x3f0768df	0.52894396
1	0x3e412641	0.18862249
2	0xbeda220a	-0.42604095
3	0xbd0f310d	-0.034958888
4	0xbe1d3fd2	-0.15356377
5	0xbedf8cec	-0.43662202
6	0xbe98a558	-0.29813647
7	0xbecb9e6b	-0.397693
8	0x3da1c7c9	0.07899434
9	0x3d2e4ab4	0.04255171
10	0xbdce38a9	-0.10069401
11	0xbde2577a	-0.11051841
12	0x3e5a7cbf	0.2133665
13	0x3e2c5686	0.16829881
14	0xbd9a9f36	-0.07549898
15	0x3d3bfad5	0.04589351
16	0x3e97d1ee	0.2965235
17	0x3ceded1c	0.029043727
18	0x3e0102dd	0.12598749
19	0x3e2ef0ab	0.17083995
20	0x3e9680df	0.29395196
21	0xbeb9b3e9	-0.36270073
22	0x3e258ddd	0.16167398
23	0x3d8c109a	0.06839104
24	0xbf0b550c	-0.54426646
25	0xbf02a78d	-0.5103691
26	0xbf058f7b	-0.5217206

bias f4 [3]
0	0xbf331a50	-0.69962025
1	0x3dcf0451	0.10108245
2	0xbf06cfc6	-0.5266079

weight f4 [4, 3, 3, 3]
0	0xbe0b9328	-0.13630354
1	0xbe8b6455	-0.27224985
2	0xbf22ddc0	-0.63619614
3	0x3e21bc30	0.15794444
4	0xbe0ff5e0	-0.14058638
5	0xbe66ef2b	-0.22552173
6	0xbe000b93	-0.12504415
7	0xbf6fd925	-0.9369071
8	0x3e86bc88	0.26315713
9	0x3ceb49ad	0.028721655
10	0xbbae24fe	-0.0053144684
11	0x3f17dc5f	0.59320635
12	0xbee79ddd	-0.45237628
13	0xbe16b16c	-0.14716119
14	0x3f07722a	0.52908576
15	0xbf234b46	-0.63786733
16	0xbe5dec00	-0.21672058
17	0x3e8c3121	0.27381232
18	0x3eb63ea7	0.35594675
19	0x3e315342	0.17316917
20	0xbf4879d1	-0.7831088
21	0x3ed37aec	0.4130472
22	0xbe853e23	-0.2602397
23	0xbfb385cd	-1.4025208
24	0xbea4b542	-0.3216954
25	0xbe945d16	-0.2897727
26	0xbf58d8be	-0.8470572
27	0x3e1d3b9a	0.15354767
28	0x3e67fcbd	0.22655006
29	0xbea58f83	-0.32336053
30	0xbeb0f12c	-0.34559
31	0x3ce60c9c	0.028082184
32	0xbda4553e	-0.08024071
33	0xbe5082f8	-0.2036246
34	0xbd3bdcc8	-0.04586485
35	0x3f1fc8a7	0.62415546
36	0xbd18a73f	-0.037268873
37	0xbe1a8540	-0.15089893
38	0x3e42ff85	0.19042785
39	0x3e9d3d88	0.30711007
40	0x3e8f0327	0.27932093
41	0x3e3cd22b	0.18439548
42	0xbe07ac22	-0.13249257
43	0xbe577fe5	-0.21044882
44	0xbeeef0ea	-0.46668178
45	0xbf5d3526	-0.86409223
46	0xbe192fc8	-0.14959633
47	0xbecf29a9	-0.40461472
48	0xbda5c42b	-0.08094057
49	0xbe1cf77a	-0.1532878
50	0x3ead04fa	0.3379286
51	0x3e68b122	0.22723821
52	0x3f24d652	0.64389527
53	0x3de8a1c2	0.11358978
54	0xbdf07aa2	-0.1174214
55	0x3f536ec3	0.82590884
56	0x3efec10f	0.49756667
57	0xbf4ed93b	-0.8080022
58	0xbf35a302	-0.70951855
59	0x3ebc1b7e	0.36739725
60	0xbe46caad	-0.19413252
61	0xbf28d597	-0.6595091
62	0xbe9e31d0	-0.3089738
63	0x3e083f36	0.13305363
64	0x3ce0c263	0.02743644
65	0xbf0a0df6	-0.5392755
66	0x3e9f462a	0.31108218
67	0x3f122331	0.5708495
68	0xbe1896a9	-0.14901222
69	0xbec34891	-0.381413
70	0x3e21197b	0.15732376
71	0x3eb3069e	0.34965986
72	0xbf637698	-0.88852835
73	0xbeb51de2	-0.3537436
74	0x3e0d6d1c	0.13811153
75	0x3dda6eed	0.10665689
76	0xbc7edb26	-0.015555179
77	0x3dc7f06b	0.09762653
78	0x3e163c01	0.14671327
79	0x3d132b5c	0.035930023
80	0xbd84405b	-0.06457587
81	0xbf27764e	-0.65414894
82	0xbeb0919a	-0.34486085
83	0x3e13b247	0.14423476
84	0x3e3b404c	0.18286246
85	0xbfc8884b	-1.5666593
86	0xbf45dfd7	-0.7729468
87	0xbdd722c5	-0.10504679
88	0xbee83bee	-0.45358223
89	0xbeca7bcb	-0.39547572
90	0xbfcd35ff	-1.6032103
91	0xbfe84afc	-1.8147883
92	0x3e4195f5	0.1890486
93	0x3e5fce95	0.21856149
94	0xbe375c2c	-0.17906255
95	0xbf63c4a6	-0.88971937
96	0x3f07070f	0.52745146
97	0x3ecf36d0	0.40471506
98	0x3e95550a	0.29166442
99	0xbe8bc530	-0.2729888
100	0xbc16c3af	-0.009201928
101	0x3ea04b3f	0.31307408
102	0xbec98f55	-0.39367166
103	0x3e27bc20	0.16380358
104	0x3f4e3ba0	0.8055973
105	0xbc04f1bd	-0.0081142755
106	0x3ea2836e	0.31740898
107	0xbf243409	-0.641419

bias f4 [4]
0	0xbe3b3673	-0.1828249
1	0xbef43dc7	-0.47703382
2	0xbf193e2d	-0.598605
3	0xbdc735c5	-0.097270526

weight f4 [76, 100]
0	0xbf65f9bf	-0.8983421
1	0x3d166f92	0.036727495
2	0xbeb6eb21	-0.35726264
3	0x3ddf7cee	0.109125
4	0x3eb4b026	0.3529064
5	0xbe95f042	-0.29284865
6	0xbea94b65	-0.33065334
7	0xbd400e4c	-0.046888635
8	0x3edaf53d	0.42765227
9	0x3efd9ff7	0.49536106
10	0xbf2a7e17	-0.6659865
11	0x3e95932e	0.29213852
12	0x3f538fb5	0.82641155
13	0x3f105221	0.5637532
14	0x3da6ea67	0.081501774
15	0xbe21cdba	-0.15801135
16	0x3f638d10	0.8888712
17	0xbdd1dd98	-0.10247344
18	0x3f4ec23e	0.8076514
19	0xbe962ff2	-0.29333454
20	0x3ea49d60	0.32151318
21	0x3e832dd8	0.25620914
22	0xbe2ae3e2	-0.16688493
23	0x3efeefe8	0.4979241
24	0xbff342fc	-1.9004817
25	0xbf87cde8	-1.0609713
26	0xbf7aef35	-0.9802125
27	0x3e7bd6f1	0.24593712
28	0x3e6dbb5e	0.23216006
29	0x3ea3d69d	0.31999674
30	0x3dcf6ede	0.10128568
31	0xbf2f83aa	-0.6856028
32	0x3df14d65	0.1178234
33	0x3e34a717	0.17641865
34	0xbec94e01	-0.39317325
35	0xbefdec86	-0.49594516
36	0xbe2a6f17	-0.1664394
37	0xbfb6ee20	-1.429142
38	0xbf995228	-1.1978197
39	0xbeeaad81	-0.45835498
40	0xbf830493	-1.0235771
41	0xbf312b1c	-0.69206405
42	0xbffc717c	-1.9722133
43	0xbf125c52	-0.5717212
44	0xbfcd8fab	-1.6059469
45	0xbe1bda14	-0.15219909
46	0xbf4b1f2c	-0.7934444
47	0x3f4dbad6	0.80363214
48	0x3e46ef7f	0.19427298
49	0xbfbb0226	-1.4610031
50	0x3f30fe2a	0.69137824
51	0xbf5e40f0	-0.86817837
52	0xbd4a900d	-0.049453784
53	0x3dd4ab2c	0.10384211
54	0x3e3bf80a	0.18356338
55	0x3f4d8023	0.80273646
56	0xbe27ccb0	-0.16386676
57	0xbe015e9e	-0.1263375
58	0x3e626a99	0.22110976
59	0x3b960c60	0.004579112
60	0xbfcb74c1	-1.5895005
61	0x3ef0ade6	0.47007674
62	0x3eb10175	0.34571424
63	0xbdd28767	-0.10279732
64	0x3ef553ef	0.479156
65	0xbfb62220	-1.4229164
66	0xbf80a87c	-1.0051417
67	0xbeacc7d9	-0.33746222
68	0x3ee540f0	0.44776106
69	0x3d402f24	0.046919957
70	0x3d7667a2	0.060157426
71	0x3e3d23ef	0.18470739
72	0x3edbdd1e	0.42942137
73	0xbf46f478	-0.7771678
74	0xbf64af4b	-0.89329976
75	0x3f413854	0.75476575
76	0xbdb5e26a	-0.08881076
77	0xbd9f8cab	-0.07790502
78	0x3ebbea2a	0.3670209
79	0xbeaf7b52	-0.34273773
80	0x3eeba4a3	0.46024045
81	0xbecc67ce	-0.39922947
82	0xbe448840	-0.191926
83	0xbf928cee	-1.1449258
84	0xbe4b7036	-0.19867024
85	0x3da15311	0.07877172
86	0xbee105f7	-0.43949863
87	0xbfb3d45e	-1.4049184
88	0xbf57dc5c	-0.84320617
89	0x3f068a74	0.5255501
90	0xbf276def	-0.6540212
91	0xbd929c9f	-0.07158779
92	0xc060f09c	-3.5146856
93	0x3db06430	0.08612859
94	0xbeaad5f5	-0.3336636
95	0xbfe4d59e	-1.7877691
96	0xbfb76ec1	-1.4330674
97	0xbfe28bde	-1.7698934
98	0xbf820441	-1.0157548
99	0xbfafcea2	-1.3734934
100	0xbfacdeb0	-1.3505459
101	0x3ecfb960	0.40571117
102	0xbe94d65e	-0.290698
103	0xbfe3f63a	-1.7809517
104	0xbfda329e	-1.7046697
105	0xbf3d6914	-0.7398846
106	0x3b17d0ab	0.0023165147
107	0x3ef025b1	0.46903756
108	0xc017b268	-2.370264
109	0xbe27dd98	-0.16393125
110	0xbfa0d81b	-1.256595
111	0xbdee094d	-0.11622868
112	0x3f852d3d	1.0404431
113	0xbe646153	-0.22302751
114	0xbff2cb9a	-1.8968384
115	0xbf89b36f	-1.0757884
116	0xbf9ad81e	-1.2097204
117	0x3f2c0e7d	0.6720961
118	0xbea46559	-0.32108572
119	0x3f028239	0.50979954
120	0xbe391d00	-0.18077469
121	0xbfb31e2a	-1.399358
122	0xbeebf1b8	-0.46082854
123	0x3ed9ff40	0.42577553
124	0x3f3536b4	0.70786595
125	0xbf9ba1c7	-1.2158746
126	0xbf4ac20b	-0.79202336
127	0xbd4302e9	-0.047610197
128	0x3f7580c2	0.95899594
129	0x3f51875e	0.8184718
130	0xbe28d074	-0.16485769
131	0x3e3e37ff	0.18576048
132	0xbe9d7768	-0.30755162
133	0x3ddd4ac1	0.10805274
134	0x3f07b062	0.53003514
135	0xbf22a2fe	-0.63529956
136	0xbf89d87c	-1.0769191
137	0xbee4c617	-0.4468238
138	0xc07d9294	-3.9620714
139	0xc005f666	-2.093164
140	0xbf238eef	-0.63889974
141	0x3ec55738	0.38543105
142	0x3eaaa99b	0.33332524
143	0xbee201d9	-0.44142035
144	0x3f0e18ed	0.55506784
145	0x3e685113	0.22687177
146	0xbc0f6356	-0.008751711
147	0xbeefb1dc	-0.46815383
148	0xbf0cb532	-0.5496398
149	0xbfc21b6c	-1.5164618
150	0x3eccdcc3	0.40012178
151	0xbe8ac53c	-0.27103603
152	0x3e6f6936	0.23379979
153	0x3e0161d6	0.12634978
154	0xbdf1f66d	-0.1181458
155	0xbe1bd932	-0.15219572
156	0xbf8e906d	-1.1137825
157	0x3ef3cd26	0.47617453
158	0xbe810bd9	-0.25204352
159	0x3f1582c6	0.5840267
160	0x3e30ef1f	0.17278717
161	0x3f36f6ec	0.7147052
162	0x3ecda281	0.40163043
163	0xbeb2cca0	-0.3492174
164	0xc004fc7a	-2.07791
165	0xbd2d1756	-0.042258583
166	0x3dd935f4	0.10605994
167	0xbef93436	-0.48672646
168	0x3eec9e39	0.46214464
169	0xbf03e36a	-0.5151888
170	0xbf27b7e8	-0.65514994
171	0xbdd4cd80	-0.103907585
172	0xbea49c87	-0.3215067
173	0xbea09dbb	-0.3137034
174	0x3e1883b1	0.14893986
175	0xbf827ad9	-1.019374
176	0xbf803497	-1.0016049
177	0xbd80d360	-0.062903166
178	0x3eb6991f	0.35663697
179	0xbebfc68b	-0.37456164
180	0xbfb58a5d	-1.418285
181	0x3f1f7aaa	0.62296546
182	0xbe01556c	-0.12630242
183	0xbe721f8d	-0.23644848
184	0xbf836e0c	-1.0267959
185	0xbf068f43	-0.5256235
186	0xbf364446	-0.71197927
187	0xbf33f3b1	-0.7029372
188	0x3f1ff16a	0.62477744
189	0x3c40bdb3	0.011763978
190	0xbe881193	-0.26575908
191	0x3e80cffb	0.25158677
192	0x3eb8ab66	0.36068267
193	0x3e05bc77	0.13060175
194	0x3f4cba57	0.7997183
195	0x3ee2494b	0.44196543
196	0xbf0d99b1	-0.5531264
197	0x3f5fd79b	0.8743836
198	0xbfa7def1	-1.3114911
199	0x3e49c828	0.1970526
200	0xbd8407d2	-0.06446804
201	0xbc8b5612	-0.017008815
202	0xbea73160	-0.32654858
203	0xbef74a9c	-0.4829911
204	0x3f6a6f0f	0.9157571
205	0xbed9dbec	-0.425506
206	0x3f137f93	0.5761654
207	0x3eabf251	0.3358331
208	0xbda00df1	-0.07815159
209	0xbf2b74c8	-0.6697507
210	0x3d8b84df	0.068124525
211	0x3e5fb056	0.2184461
212	0xbf0c4096	-0.5478605
213	0x3e5b9a90	0.2144568
214	0x3f3b8443	0.7324869
215	0x3e334160	0.17505407
216	0xbf1897b5	-0.59606487
217	0xbe04e162	-0.12976602
218	0xbf2cdaf4	-0.67521596
219	0x3def5ab2	0.11687221
220	0xbf10792f	-0.5643491
221	0x3f133f60	0.5751858
222	0x3e94faa9	0.2909749
223	0x3e37fcd4	0.1796754
224	0x3f01e9e5	0.5074752
225	0xbf86bce9	-1.0526401
226	0xbf888e94	-1.0668511
227	0xbf9a03d9	-1.2032424
228	0xbf87e1e9	-1.0615817
229	0x3ee66378	0.44997764
230	0xbfc4f457	-1.5387067
231	0xbf3607cb	-0.7110564
232	0xbea7d085	-0.32776275
233	0xbf6a8c10	-0.9161997
234	0xbea6eb18	-0.32601237
235	0xbf63bedf	-0.8896312
236	0xbf80688f	-1.0031909
237	0xbf548f85	-0.83031493
238	0xbef9ed7a	-0.48813993
239	0xbf033b5f	-0.5126247
240	0x3ed354f9	0.41275766
241	0x3f0ae4fe	0.54255664
242	0x3f881bec	1.0633521
243	0x3e9dd2c7	0.30824873
244	0xbebc9565	-0.3683273
245	0xbec30d45	-0.3809606
246	0xbe0be5ff	-0.13661955
247	0x3e2493e3	0.1607204
248	0xbe237645	-0.15963085
249	0x3f348729	0.7051874
250	0xbf6fd8fe	-0.9369048
251	0xbf2fef89	-0.68724877
252	0xbf10374f	-0.56334394
253	0xbf7310a6	-0.9494728
254	0x3c408cce	0.01175232
255	0xbea9299e	-0.33039564

bias f4 [76]
0	0x3eb1c058	0.3471706
1	0xbf0a999d	-0.54140645
2	0x3d23199d	0.03981935
3	0xbd0011ae	-0.03126686
4	0xb9a2dff7	-0.00031065915
5	0xb8ecbefe	-0.00011288932
6	0xbef181f5	-0.47169462
7	0xbeff22b3	-0.4983116
8	0xbc564c73	-0.01307975
9	0x3f0db4c3	0.55353945
10	0xbefdbcd8	-0.4955814
11	0xbf0e8dc7	-0.55685085
12	0xbeadd420	-0.339509
13	0xbd8ea60d	-0.069652654
14	0xb89a212e	-7.3494724e-05
15	0xbefa04c1	-0.48831752
16	0x3e584ff7	0.21124254
17	0x3f01734b	0.5056655
18	0xbf1e6c96	-0.6188444
19	0xbf5759de	-0.841215
20	0xbf31889d	-0.6934908
21	0xbd2efbe3	-0.042720687
22	0xbee19252	-0.44056946
23	0x3f44218e	0.766137
24	0xbea0224d	-0.3127617
25	0x3eb6658b	0.35624346
26	0xbf00596d	-0.5013645
27	0xbf68e634	-0.9097626
28	0xbaa3b367	-0.0012489379
29	0xbf5f9770	-0.8734045
30	0xbeefc9ec	-0.46833742
31	0xb9081c88	-0.000129806
32	0xbf4106b4	-0.75400853
33	0xb9a9ee57	-0.0003241177
34	0x3e035888	0.1282674
35	0xbd369823	-0.044578683
36	0xbd3284d9	-0.043583725
37	0xbf051d9c	-0.51998305
38	0xbaad2597	-0.0013210055
39	0x3e50b74a	0.20382419
40	0xbf75a42f	-0.9595365
41	0xbf72fc79	-0.9491649
42	0xbf18b7bf	-0.59655374
43	0xbb0e15a7	-0.0021680386
44	0xbf10854c	-0.56453395
45	0xbf24f7e4	-0.6444075
46	0x3f35c4e7	0.71003574
47	0x3ec3aba5	0.38216892
48	0xbb3c8564	-0.002876603
49	0xbf290a5b	-0.66031426
50	0xbf24cc19	-0.6437393
51	0xbd9c9e8a	-0.076474264
52	0xbea834ad	-0.32852688
53	0x3e9ed52e	0.31022018
54	0xbecec35d	-0.40383425
55	0xbdb933af	-0.09043061
56	0xbe8e7a4e	-0.27827686
57	0xbf09fb96	-0.53899515
58	0x3f9e9e6c	1.2392097
59	0xbd76e4fc	-0.06027697
60	0x3f60775a	0.87682116
61	0xbf6e5ca2	-0.93110096
62	0x3ecd1441	0.40054515
63	0xbf870dea	-1.0551121
64	0xbf392ffb	-0.7233884
65	0x3d599e3d	0.053129423
66	0x3f159a44	0.58438516
67	0xbbdcedfd	-0.0067422376
68	0xb9b8fbfa	-0.00035282952
69	0x3e3a799d	0.18210454
70	0x3dbde905	0.092729606
71	0xbec6d9ae	-0.3883795
72	0xbf169f70	-0.5883703
73	0xba6af347	-0.0008962643
74	0xbd641a07	-0.055688884
75	0xbf3a2e7f	-0.727272

weight f4 [10, 76]
0	0x3f1cc14f	0.61232466
1	0xbe92a93f	-0.2864475
2	0x3dfd7cb7	0.12377303
3	0x3eaf35cd	0.34220734
4	0xb8039ba0	-3.137777e-05
5	0x388c178d	6.680107e-05
6	0xbf0fac8d	-0.56122667
7	0xbf898081	-1.0742341
8	0x3a572972	0.0008207775
9	0xbf23c1a9	-0.63967377
10	0x3d89d0eb	0.06729301
11	0xbf0eda6c	-0.55802035
12	0x3efd07d4	0.49420035
13	0xbe96a961	-0.294261
14	0x36facc6e	7.4743793e-06
15	0xbde78cb8	-0.11306137
16	0xbdf1e3eb	-0.1181105
17	0xbfb7d52f	-1.4361933
18	0xbf20cbf9	-0.6281124
19	0x3e1361e5	0.14392813
20	0x3c9f1b55	0.019422213
21	0xbe0b8046	-0.13623151
22	0xbf2368bb	-0.6383168
23	0xbf433dda	-0.76266253
24	0x3f346258	0.7046256
25	0xbee341a5	-0.4438602
26	0xbdc64d65	-0.096827306
27	0xbf914db8	-1.1351843
28	0x391f7922	0.00015208547
29	0xbeba8b0f	-0.36434218
30	0x3e3a7512	0.18208721
31	0xb69f7d36	-4.7531457e-06
32	0xbf8a411f	-1.0801123
33	0xba0b8a6a	-0.00053230545
34	0xbef2e4f1	-0.47440293
35	0xbf5205bd	-0.82040006
36	0x3eebc155	0.46045938
37	0xbe849a7d	-0.25899115
38	0x399d2b62	0.00029977696
39	0xbeca63ec	-0.3952936
40	0xbdc8f613	-0.0981256
41	0xbf08b5eb	-0.53402585
42	0xbf2e957a	-0.68196833
43	0xbb2df32a	-0.0026542642
44	0xbf8d61fd	-1.1045529
45	0xbea0e4d4	-0.31424582
46	0xbc600086	-0.013672
47	0x3f44568b	0.76694554
48	0xb5e360ed	-1.6941027e-06
49	0xbef493a7	-0.477689
50	0xbee232d9	-0.4417942
51	0xbf9cf50b	-1.2262281
52	0xbeff36d6	-0.49846524
53	0xbef22cbc	-0.47299755
54	0xbe655b53	-0.22398119
55	0xbf77433c	-0.96586967
56	0xbf677d41	-0.904255
57	0xbf1f7784	-0.6229174
58	0xbeb0fe8b	-0.345692
59	0xbe2e30d8	-0.1701082
60	0xbe953ebc	-0.29149425
61	0xbfa096ba	-1.2545998
62	0xbdaf3a59	-0.08556051
63	0xbdbc4a0c	-0.09193811
64	0xbefc0b4f	-0.49227378
65	0x3ec60405	0.38674942
66	0xbfbf99cc	-1.496881
67	0xbaefce55	-0.0018295745
68	0x3949aa55	0.00019232307
69	0xbf0c0d9f	-0.54708284
70	0xbde0ae8b	-0.109707914
71	0x3cee814a	0.029114384
72	0xbe2fa5ee	-0.17153141
73	0x36abc982	5.1196557e-06
74	0xbe7e6816	-0.24844393
75	0xbea42096	-0.3205611
76	0x3e2d393b	0.16916363
77	0x3ebdbe80	0.37059402
78	0xbf025f28	-0.50926447
79	0xbecd292d	-0.40070477
80	0x3806dae6	3.2151955e-05
81	0xb85b9849	-5.2355495e-05
82	0xbf1cc11c	-0.6123216
83	0xbe8b6ac9	-0.27229908
84	0x3a135fc6	0.00056218763
85	0xbe6780f1	-0.22607781
86	0xbe98d441	-0.29849437
87	0xbee176a0	-0.44035816
88	0xbf103f0c	-0.563462
89	0x3e37e490	0.17958283
90	0x3843f405	4.6718884e-05
91	0xbfc0a8e4	-1.5051541
92	0xbf41f3d9	-0.75762707
93	0xbe362eb3	-0.17791252
94	0xbeebb6c0	-0.46037865
95	0xbebd7e59	-0.37010458
96	0xbe74f99d	-0.23923345
97	0xbf2dfd84	-0.6796496
98	0xbe24fde3	-0.16112475
99	0x3f3c6d20	0.7360401
100	0xbe57f101	-0.2108803
101	0x3ec29625	0.38005176
102	0xbe64d7eb	-0.22347991
103	0xbeaa906e	-0.33313316
104	0x39f11796	0.00045984675
105	0xbfaf36fc	-1.3688655
106	0xbf969837	-1.1765202
107	0x3791cd58	1.7380968e-05
108	0xbf7bd743	-0.9837534
109	0x39ff7330	0.00048723212
110	0x3d3ab4c5	0.04558255
111	0xbee1fd7d	-0.4413871
112	0xbef53a68	-0.47896123
113	0xbf1b806e	-0.60742843
114	0xb991791a	-0.00027746783
115	0x3eb1cef4	0.34728205
116	0xbed04d34	-0.406839
117	0xbe42b2b6	-0.19013485
118	0xbe381710	-0.17977548
119	0xbac6b282	-0.0015159401
120	0xbe9a98c8	-0.30194688
121	0xbf01e86b	-0.50745267
122	0xbdba92a0	-0.09109998
123	0xbc4b785f	-0.012418835
124	0xb813f3f7	-3.527474e-05
125	0xbe6edc13	-0.23326139
126	0xbf286154	-0.6577351
127	0x3f127ee2	0.5722486
128	0xbe9fc706	-0.3120653
129	0xbef9b71e	-0.4877252
130	0xbe163811	-0.14669825
131	0xbf41b96c	-0.75673556
132	0x3f7246d2	0.94639313
133	0xbe984594	-0.29740584
134	0x3f4ccedf	0.8000316
135	0xbe00ecba	-0.12590304
136	0x3f378ee3	0.717024
137	0xbe458eda	-0.19292775
138	0xbee3041b	-0.4433907
139	0x3ca3ebb5	0.020009855
140	0xbe1aa52c	-0.1510207
141	0x3c467885	0.012113695
142	0x3ecaf93a	0.3964327
143	0xbb5a2488	-0.0033285934
144	0x3a125680	0.00055823475
145	0xbcec43ed	-0.028840983
146	0xbe17d37e	-0.14826772
147	0xbf58a9ee	-0.8463429
148	0xbefc8861	-0.493228
149	0x370e7d5a	8.493045e-06
150	0xbe1dea00	-0.15421295
151	0xbf847305	-1.0347601
152	0xbecdaccf	-0.40170905
153	0xbea95310	-0.33071184
154	0xbf55b20c	-0.834748
155	0x3ed1d7c0	0.40984917
156	0xb91a84c5	-0.00014736045
157	0xb92a0c91	-0.00016217145
158	0xbe69a184	-0.2281552
159	0xbf12dba0	-0.5736637
160	0x3c2bffa8	0.010497965
161	0xbc446d36	-0.011988929
162	0x3f2b826e	0.66995895
163	0xbdcf58a6	-0.1012433
164	0x3e89cbce	0.26913303
165	0x3d12ff09	0.03588775
166	0xb91d1f3d	-0.00014984324
167	0xbe9ab22e	-0.30214065
168	0xbf252531	-0.64509875
169	0xbf381322	-0.71904194
170	0x3e939827	0.2882702
171	0x3e846c70	0.2586398
172	0xbdd76daf	-0.10518967
173	0xbf6ffc3c	-0.93744254
174	0x3e80d6f8	0.25164008
175	0xbec90445	-0.3926107
176	0x3f2e23cd	0.6802338
177	0xbf26fa21	-0.65225416
178	0x3ec32bc0	0.38119316
179	0xbf18001a	-0.59375155
180	0xba1bf6bf	-0.0005949549
181	0xbdc14a09	-0.09437949
182	0xbf59b32b	-0.85039014
183	0xb8597081	-5.184161e-05
184	0xbea0c936	-0.31403512
185	0xb880545c	-6.119229e-05
186	0xbf3a9d7f	-0.7289657
187	0xbe57d90f	-0.21078895
188	0xbf0b2f96	-0.54369485
189	0xbf27749f	-0.65412325
190	0xba6aa3be	-0.0008950791
191	0x3e79449a	0.24342576
192	0xbf2c2269	-0.67240006
193	0xbed620af	-0.4182181
194	0xbe1e544e	-0.15461847
195	0xbb05e009	-0.0020427725
196	0x3dc99e23	0.09844615
197	0x3f0c1058	0.5471244
198	0xbef1548c	-0.47134817
199	0xbf61fbaa	-0.88274634
200	0xb82006e2	-3.8153383e-05
201	0x3f20d2f6	0.628219
202	0xbf15ecb9	-0.58564335
203	0xbe6055bb	-0.21907704
204	0x3e57b48f	0.21064971
205	0xbeacb975	-0.33735242
206	0xbe15dda2	-0.14635327
207	0x3d9dcf62	0.07705571
208	0xbf0e690b	-0.5562903
209	0xbe3cd9a3	-0.18442397
210	0xbf958809	-1.168214
211	0xbe15c697	-0.14626537
212	0xbee6830f	-0.45021865
213	0xbea83004	-0.32849133
214	0xbf436e20	-0.7633991
215	0x3e342626	0.17592677
216	0xbe07d8c1	-0.13266279
217	0xbd79529b	-0.060869794
218	0x3e4c0ca3	0.19926696
219	0xbb94aad0	-0.004536964
220	0x39fe11ec	0.00048460008
221	0xbe4cee4c	-0.20012778
222	0xbf4603f8	-0.77349806
223	0xbecf5062	-0.40491015
224	0xbe57c8a4	-0.21072632
225	0xba6073d5	-0.0008562182
226	0x3f099a58	0.53751135
227	0xbd469e8f	-0.048491057
228	0xbf567aaa	-0.8378092
229	0x3d84bd9a	0.06481476
230	0xbf4e3fc5	-0.80566055
231	0xbecb2855	-0.39679208
232	0x3946d3cf	0.00018961656
233	0xb8a0c834	-7.666685e-05
234	0x3db8e1c0	0.090274334
235	0xbea3d742	-0.32000166
236	0xbc00207a	-0.007820243
237	0xbe9b8504	-0.3037492
238	0xbea29cd0	-0.31760263
239	0x3e99c858	0.30035663
240	0xbd9a43fe	-0.075325
241	0xbf4d5246	-0.80203664
242	0x388937f5	6.543092e-05
243	0xbed05705	-0.4069139
244	0xbf89f1ed	-1.0776955
245	0xbf51cc69	-0.8195253
246	0xbea90a6e	-0.3301577
247	0x3e3edb10	0.18638253
248	0x3f0888e8	0.533339
249	0xbfa0b2f2	-1.255461
250	0x3daf8bf7	0.08571618
251	0xbf890159	-1.0703536
252	0xbec4d7f8	-0.3844602
253	0x3da95165	0.08267478
254	0xbe348dc5	-0.17632206
255	0x3eefa0e8	0.4680245

bias f4 [10]
0	0xbe064abb	-0.13114445
1	0x3cd984cb	0.026552578
2	0x3d28ebf1	0.041240636
3	0xbd052fdb	-0.03251634
4	0x3e86322d	0.26210156
5	0xbf67bdd7	-0.9052405
6	0xbefe0ede	-0.49620718
7	0xbde2f3df	-0.11081671
8	0x3f914eeb	1.1352209
9	0xbe519081	-0.2046528
