checkpoints/YourNet/pruning/2/epoch-14.pth (torch, 77063 bytes, 10 tensors)

weight f4 [3, 1, 3, 3]
000000 fe 4f 86 be 3f 54 18 3e 29 7b 92 3e b5 6d a8 3e
       -0.26232904 0.14875887 0.2860959 0.328962
000010 3f dc c3 3e 55 e9 83 bd c6 06 8b 3e b2 06 25 3f
       0.38253972 -0.06440989 0.27153605 0.6446334
000020 d5 db 64 be d6 cf 03 bf 32 19 31 bf d4 32 03 bf
       -0.22349484 -0.5148901 -0.6917907 -0.5124943
000030 b6 c4 17 3f 40 79 53 3b 41 71 c9 3d dc 43 95 3e
       0.5928453 0.0032268316 0.098360546 0.29153335
000040 f9 9e 97 3e 1c 5c c5 3e ea 80 fa 3e ee 9e b8 3e
       0.29613474 0.38546836 0.4892648 0.36058754
000050 32 52 3d 3e 15 40 12 be 50 7c b6 3e b9 21 cd 3e
       0.18488386 -0.14282258 0.35641718 0.4006479
000060 36 57 3d bf 30 ea 16 bf cb be d9 3e
       -0.739612 -0.5895109 0.42528376

bias f4 [3]
000000 a2 31 70 3d 3e ce 08 bf a6 4d 1f bf
       0.058641084 -0.534397 -0.6222786

weight f4 [4, 3, 3, 3]
000000 c7 18 dc 3e 07 3a 1f 3e 58 fe 0b 3f 2e cc 45 be
       0.42987654 0.1554948 0.5468497 -0.1931617
000010 a0 b1 8b 3e 32 60 2b 3e fd eb 2c bf 1f 3f 8b bf
       0.27283955 0.16735914 -0.6754759 -1.0878638
000020 1a 0c 37 bf 61 1b 33 bc fd a6 1e 3e 9f 03 93 3e
       -0.7150284 -0.010931821 0.15493388 0.287137
000030 1d bd d9 3c d2 be bd 3e 92 af dd be 86 8b bc 3e
       0.026579434 0.37059647 -0.43298012 0.36825198
000040 43 2d 3e 3f 40 3b 14 3e f9 66 f5 3c 84 e6 8a be
       0.74287814 0.14475727 0.029956328 -0.27128994
000050 05 77 73 bd d8 bf 10 3f 38 8c 0f 3f 8f 53 13 3e
       -0.059439678 0.5654273 0.5607333 0.14387344
000060 91 6b b5 be ce 48 75 be e1 9a 15 bf c5 6d 2b bf
       -0.3543363 -0.23953554 -0.5843945 -0.6696437
000070 0f b8 b6 bc d4 30 a8 3e 7a 21 0f bf b4 a3 ea 3e
       -0.022304563 0.32849753 -0.55910456 0.4582802
000080 df 54 84 3e 1c 76 40 3d f0 85 22 3f 8d fc 92 bc
       0.25846002 0.046987638 0.6348562 -0.017942691
000090 1f c4 47 be 99 18 b8 be 19 68 ac 3c df 90 03 bf
       -0.19508408 -0.35956267 0.021045731 -0.5139293
0000a0 35 9c 84 be 15 95 b6 be 1a 04 a9 be fb fe c6 be
       -0.25900427 -0.35660616 -0.33010942 -0.3886641
0000b0 79 d1 ce bb 5c b5 7f bd 90 e3 98 3e d1 4a a4 be
       -0.006311592 -0.062428817 0.29861116 -0.3208833
0000c0 c9 1d 98 3e bc f3 2a 3e 6b 2c c8 be 6e 5c 1b 3e
       0.29710224 0.1669454 -0.39096388 0.15171978
0000d0 54 10 3d 3e c0 8d ee be 6e 06 31 be 12 ae af 3c
       0.1846326 -0.46592522 -0.17287609 0.021445308
0000e0 8a c2 d3 3e c6 39 29 3e b2 6c 9d 3e af 87 d5 bc
       0.4135936 0.16525945 0.3074699 -0.026065676
0000f0 3d b0 9e 3e ee c4 3e be 84 2f 08 3e 72 36 8a 3d
       0.30993834 -0.1862981 0.13299376 0.06748666
000100 4e d9 b1 3e b9 a8 38 bf e5 e9 ce bd d3 9b 1a bf
       0.34736103 -0.7213245 -0.101032056 -0.6039402
000110 d6 e9 39 bf 78 c3 ee be 38 57 1e bf e3 00 7f be
       -0.7262243 -0.46633506 -0.61851835 -0.24902682
000120 8f 7e 13 be 06 d7 f3 bc d5 8f 4b 3d 70 90 fc be
       -0.14403747 -0.029765617 0.049697716 -0.49328947
000130 cb 97 57 be c7 d0 ce 3e 98 c7 7c 3e 6e 9c e8 3e
       -0.21053998 0.4039366 0.24685514 0.45431846
000140 19 78 63 3f 42 3c b7 bd 92 16 69 be 89 54 95 be
       0.8885513 -0.0894704 -0.22762516 -0.29166058
000150 7c 1e 2d 3d c7 90 01 3d 0b 44 b5 3c 74 26 fc 3c
       0.0422654 0.03163221 0.022127172 0.030780055
000160 e5 d9 1a be 17 ea 79 3d d0 e0 b2 3e 2b a8 2a be
       -0.15122183 0.06101426 0.34937143 -0.16665713
000170 d3 c4 c0 3d 46 60 8b 3e 91 79 94 3e e4 79 7a 3e
       0.09412541 0.27221888 0.28998998 0.2446056
000180 3a 8d b7 3e ef 22 43 3e fa f7 8c 3d 82 33 0b bf
       0.35849935 0.19056295 0.06883235 -0.5437547
000190 c8 cf 11 3e 74 41 74 3c b3 31 be 3e eb 9f 7c be
       0.14239419 0.014908183 0.37147292 -0.24670379
0001a0 59 97 2f 3e 46 a1 0e 3f fc e9 38 3f b6 67 32 bd
       0.17147578 0.55714834 0.7223203 -0.043555938

bias f4 [4]
000000 b0 c1 87 bd a8 19 82 bd c6 d3 54 bf 6d c0 b6 be
       -0.0662874 -0.0635255 -0.8313564 -0.35693684

weight f4 [100, 100]
000000 bf ab 1e 3e 41 e7 bf 3e 6a cd 39 3e ce 94 9f 3d
       0.15495203 0.3748112 0.18144765 0.07792054
000010 85 e8 49 be 61 8e 31 3d 15 2f d9 3d 4d e3 30 3e
       -0.19717605 0.043348674 0.10604683 0.17274208
000020 b6 50 80 bc f3 27 9c be 41 59 65 3d a8 72 e5 be
       -0.015663486 -0.3049923 0.055993322 -0.44814038
000030 83 78 ce be ad a1 36 be 8e e2 a8 3d 78 31 ea be
       -0.40326318 -0.17835112 0.08246337 -0.45740867
000040 f6 c6 d2 be a2 f9 e1 be e7 1e 80 be 96 47 ef bc
       -0.4116742 -0.44135767 -0.25023577 -0.02920894
000050 11 50 e2 bd 48 32 36 3d 39 7b 94 3e 95 80 f5 3d
       -0.11050428 0.044481546 0.2900026 0.11987416
000060 f5 0b 47 3e b5 c5 ed bd 74 98 1b 3f 50 04 2a 3e
       0.19438155 -0.11609975 0.607795 0.16603208
000070 db a4 83 be 36 0b a1 be e4 54 f6 3d f2 a2 6c 3e
       -0.25711712 -0.31453866 0.1202791 0.23109034
000080 0e 18 0a be d8 5d ff bd 2f 35 04 bf 43 de b1 3e
       -0.13485739 -0.12469071 -0.5164365 0.34739885
000090 2e 5c 8a bd 12 16 c0 be ca 1e da 3e e1 36 95 3e
       -0.06755863 -0.37516838 0.42601615 0.29143432
0000a0 c1 37 92 3d 9b 7b 8f 3d 51 c3 a6 3e 35 03 64 3e
       0.071395405 0.07005998 0.3257089 0.22266848
0000b0 f8 8a 3d 3e 75 c6 6d be a3 bc 89 3d 36 e1 f1 bd
       0.18510044 -0.23220237 0.06725433 -0.11810534
0000c0 05 62 18 bf 0e 24 00 bf 66 b9 0c be 3a 66 fa bd
       -0.59524566 -0.50055015 -0.13742599 -0.122265294
0000d0 93 fc 68 3e 6d db e6 bd 77 cf 33 bf 53 27 e2 3d
       0.227526 -0.11272321 -0.7023844 0.11042657
0000e0 a9 2f 8e bb de 55 2a be a0 7c 26 be 72 54 6e be
       -0.0043391776 -0.16634318 -0.16258478 -0.23274401
0000f0 3b 6b 1f 3e 1a 1d f1 be 53 9e 8e be 5c ba 77 bd
       0.15568249 -0.47092515 -0.27855167 -0.06048046
000100 d4 88 6d be c9 ba d4 3e 87 d7 38 3e 9d 7d 00 be
       -0.23196727 0.41548756 0.18050967 -0.12547918
000110 92 39 2e 3e ae ab ca 3e 60 a4 5b bd 3c 11 3c 3b
       0.17014149 0.39584106 -0.053623557 0.0028696796
000120 24 0f 4c 3a 2d 2f 22 3e 0f b8 95 3d cf 3d 8c bd
       0.00077842386 0.15838309 0.07310497 -0.068477266
000130 ac cc 22 3d bb 23 ca bb 14 03 34 3e 79 12 0d bf
       0.03974597 -0.00616881 0.17579299 -0.5510631
000140 cc f3 20 3e c8 13 e5 bd 12 01 7c be bc 7c 03 3c
       0.15718001 -0.111854136 -0.24609783 0.008025344
000150 af 1a 86 3e f6 d5 bc 3c 87 c7 d0 bd 39 c0 36 bd
       0.26192233 0.023051243 -0.10194307 -0.04461691
000160 4f a2 fe 3c a6 a7 4e bd 7e 49 41 be b7 e2 43 3d
       0.031083254 -0.05045285 -0.18875691 0.047823634
000170 b0 8e 23 3d f6 7b fc 3d 6e 29 b4 bd a2 ba 27 be
       0.039931 0.12328331 -0.087969646 -0.16379789
000180 b6 b9 27 be 42 bd 98 3c 72 a5 61 3e 0b f9 36 3e
       -0.16379437 0.018644933 0.22035769 0.1786844
000190 c2 e5 a1 3c 89 31 8c 3e e8 c4 d9 3e 51 14 6e 3e
       0.019762877 0.27381542 0.4253304 0.23249938
0001a0 44 93 5b 3e 8a 8e cb 3d 6d 99 52 3e 05 3e cc 3e
       0.21442896 0.099392965 0.2056634 0.39891067
0001b0 76 c5 52 3e e6 63 8a be 1d b6 c9 be 67 c5 2b be
       0.20583138 -0.2702934 -0.39396754 -0.16774522
0001c0 5b f1 ca be fa 0b 7a be e8 40 42 bf 03 5c 6b be
       -0.39637265 -0.24418631 -0.7588029 -0.22984318
0001d0 12 c9 06 be 06 f6 96 be 03 69 04 bf f2 94 51 bd
       -0.1316264 -0.29484576 -0.51722735 -0.051167436
0001e0 70 85 a1 be 48 87 c0 be e3 29 fb be 86 fd 6f bd
       -0.31547117 -0.3760321 -0.49055395 -0.05859139
0001f0 c3 79 73 3e 67 f9 be 3d 22 f4 14 3e 83 d3 65 ba
       0.23776917 0.093249135 0.14546254 -0.00087671744
000200 0e cf 93 be 8e c9 fb be 69 07 98 3e 98 b1 7f 3e
       -0.28868908 -0.49177212 0.29693154 0.2497009
000210 57 4c 4d be 5d 84 0b 3e 8b 42 b9 be d6 3b 6e 3e
       -0.20048653 0.13624711 -0.3618358 0.23265013
000220 3b 8e 79 3e 8e 7f 7e be 27 a0 a2 3d 4a 28 29 be
       0.24370663 -0.24853346 0.07940703 -0.16519275
000230 d1 72 97 bb 51 41 85 3e ce e9 f0 bc b6 2a 85 3e
       -0.0046218415 0.26026395 -0.029408362 0.26009148
000240 07 c3 15 3e c7 15 77 be 92 91 df 3b a2 29 73 bd
       0.14625178 -0.24129401 0.0068227733 -0.059365876
000250 50 40 3b 3e 0f 8f 8c be c6 f1 ca 3e 5c b5 16 3f
       0.18286252 -0.27452895 0.39637583 0.5887048
000260 42 eb 81 3d 1f f7 09 3e e4 4c 96 3e d4 d7 4f 3e
       0.063437 0.13473175 0.29355538 0.20297176
000270 d3 c1 1b be 1e 09 96 3e ca 32 85 bc 15 72 41 3d
       -0.15210657 0.2930383 -0.01625957 0.047227938
000280 8f 88 ac bd 7a ab 4d 3e 0a ef 8e bb c9 73 1e 3c
       -0.08424484 0.20084944 -0.004361992 0.00967116
000290 ac cc d0 be 09 bb b9 bd de 91 91 3d 22 92 24 bf
       -0.40781152 -0.09068877 0.071079 -0.6428548
0002a0 f7 e9 6a be 67 f5 52 3e a9 ce 29 3d 8f 35 d1 3e
       -0.22940813 0.20601426 0.041456852 0.40861174
0002b0 50 80 ab bd f6 8f 9a 3e 28 8b d5 3d 14 bd 95 3e
       -0.08374083 0.30187958 0.104269326 0.29245818
0002c0 3c 84 5f 3e 5d 46 70 3e d0 ac 34 3e e3 99 f8 3c
       0.21827787 0.23464341 0.17644048 0.030346816
0002d0 2d 27 ed 3d b3 53 ad 3d e9 a2 ff bd 1c e9 08 3d
       0.11579738 0.0846323 -0.124822445 0.033425435
0002e0 61 3d 32 bd e8 fa 04 be 8c ca bd be 96 36 56 be
       -0.043515567 -0.12986338 -0.37068594 -0.2091926
0002f0 a5 a0 46 be 1a d0 e0 3e 31 02 af be af af a6 be
       -0.19397219 0.4390877 -0.3418136 -0.3255591
000300 e1 53 2e be 57 6b 4a 3d fc 85 96 be 1c ec 9a bd
       -0.17024185 0.049418774 -0.29399097 -0.075645655
000310 fb d0 05 be 1a dc ab bd 44 df 05 3d 22 ec c1 be
       -0.13068001 -0.083915904 0.032683626 -0.37875468
000320 e7 58 01 be c2 f0 a0 3d 7c 89 39 3e 1f 64 8f bd
       -0.1263157 0.07858421 0.18118852 -0.070015185
000330 83 8b d8 3d 95 bf b5 3d 8d 73 7f bd 70 8b d6 3d
       0.10573485 0.08874432 -0.062366057 0.10475814
000340 0e f7 9f 3e c6 0d 8a bc 71 4d 5c be a9 62 5d be
       0.31243175 -0.01685227 -0.21513917 -0.21619667
000350 3a 9a 4c 3c 5e bc 15 be 18 50 46 3c 53 7a 30 3e
       0.012487942 -0.14622638 0.012104057 0.17234163
000360 dd 42 84 3d 1b bf 41 3e 60 0a 27 3e 3f 3e 4a 3e
       0.06458066 0.18920557 0.16312551 0.19750308
000370 4c 26 00 be 94 09 31 3d 54 bb 49 bd c0 ea de 3c
       -0.12514609 0.043222025 -0.049250916 0.027211547
000380 bc 6e 24 3e b3 02 05 bd d8 73 04 3d 4e a4 e0 3e
       0.16057867 -0.032473277 0.03233704 0.43875355
000390 89 b3 0d 3e c9 4d c2 3e 6f 55 0b be fb 6b 62 bd
       0.13838018 0.3794997 -0.13606809 -0.05527876
0003a0 1e 93 d9 3d 86 5b fa be 8e 5d 29 bf 9c 9a b8 3d
       0.106237635 -0.48897952 -0.6615838 0.090138644
0003b0 bd ec da 3d 32 2a 77 be 06 c5 cd be 41 8e 55 bf
       0.106896855 -0.2413719 -0.4018938 -0.8342019
0003c0 81 0d 3c 3d aa 29 81 bc ff e2 c4 be 8f 62 c6 3c
       0.045911316 -0.015766937 -0.38454434 0.024216918
0003d0 cd 27 aa 3d cb 3e 0c be 1e 24 d2 be ea 7c f7 bd
       0.08308373 -0.13695829 -0.4104318 -0.12084372
0003e0 be 94 19 3c 1b d6 36 3e c7 ea 9b 3e 32 72 d2 3d
       0.009373842 0.17855112 0.30452558 0.10275687
0003f0 bc e4 34 bd 9d 29 8b 3e b5 1c 91 3e eb 74 12 be
       -0.04416345 0.27180186 0.28342214 -0.14302413

bias f4 [100]
000000 8d 9b 85 3e 3a 74 91 bd e8 84 b0 bc 2a c6 61 bd
       0.26095238 -0.071022466 -0.02154775 -0.055120625
000010 89 4b 0e ba 31 28 bf bd 6c 33 40 be aa d5 19 3d
       -0.0005428126 -0.09333838 -0.18769616 0.03755728
000020 e2 eb 5c bd 40 28 7c 3e b9 08 77 3e 96 59 29 be
       -0.053935893 0.24624729 0.24124421 -0.1653808
000030 a7 ef 59 be 26 07 e7 bd 5c 6c 0d 3d 43 9b db 3b
       -0.21282826 -0.1128066 0.034527168 0.0067018582
000040 fa 7f 8f 3d 65 af 1e be ef 88 70 be 04 d8 5e be
       0.070068315 -0.15496595 -0.23489736 -0.21762091
000050 85 14 da bd 91 fb 8a bd ef 14 f9 bd fd e0 00 be
       -0.10648445 -0.06786264 -0.12162196 -0.12585826
000060 a5 62 8e bd 1c 5c 1c 3e ba d9 2d 3d 81 3e 9b bb
       -0.06952409 0.15269512 0.04244397 -0.0047376757
000070 88 c7 c7 3c fe d7 74 bd 1b e9 85 bd 5f 4b 8b 3a
       0.024387136 -0.0597763 -0.06538602 0.0010627321
000080 75 94 96 bd ed 52 ab bb b9 9b cc 3d 04 c8 02 bd
       -0.07352535 -0.0052283914 0.09990639 -0.03192903
000090 4c c0 c5 bd 19 00 00 3e a8 d1 6e 3c c2 26 12 3e
       -0.09655818 0.12500037 0.014576353 0.14272597
0000a0 37 ca 39 3e 49 02 85 be e8 44 0a 3d 70 03 7d be
       0.18143545 -0.25978306 0.03375712 -0.24708343
0000b0 4b 7d 85 3c 6a d0 8b be 87 ca 80 bd 79 d1 29 3e
       0.016295096 -0.27307445 -0.06288629 0.16583814
0000c0 8b 2b df 3c c9 bf cc be 52 34 f8 3c 22 ce 2d be
       0.027242443 -0.3999007 0.030298386 -0.16973165
0000d0 c5 ae 25 3e d5 62 66 3d c5 2e 8b be a1 79 54 3c
       0.1617995 0.056246597 -0.2718412 0.012968452
0000e0 ec 29 f3 bb 14 4b a0 3d 6e c7 3b be ac 4f 0d be
       -0.007420769 0.0782682 -0.18337795 -0.13799924
0000f0 68 6e 86 3e b4 81 92 3d 96 05 eb bd 9b 85 fd bb
       0.26256108 0.07153645 -0.11475675 -0.0077368743
000100 34 d4 21 bd d0 c4 a0 3d 72 fc 87 ba 04 4b 14 bc
       -0.039509013 0.07850039 -0.0010374917 -0.009051088
000110 f0 32 e3 3d e0 1d e9 3c 59 49 3b 3e c0 c0 03 bd
       0.110937 0.028456628 0.18289699 -0.032166243
000120 26 df 82 bd 64 8b 98 be a9 be 24 3e b4 59 cc bd
       -0.063902184 -0.29793847 0.16088356 -0.09978047
000130 d1 69 cf bd 06 94 0f be 40 76 bf bd 26 21 96 3d
       -0.10127605 -0.1402131 -0.09348726 0.07330541
000140 cf 19 8c 3d c7 75 b9 bd 99 28 5a 3c 10 76 fc bc
       0.0684086 -0.09055667 0.013315343 -0.030818015
000150 a7 20 91 bd eb dd 9a 3e 78 f4 b6 bd 31 5b f1 bd
       -0.07086306 0.30247435 -0.089333475 -0.117849715
000160 8a af 0e 3e 08 d9 0a be 0e 6d 20 bc 5a 97 fd bd
       0.1393415 -0.13559353 -0.009791626 -0.12382384
000170 c8 47 db bd 40 7f 8d bd 82 46 3c bd 32 78 f5 3c
       -0.107070506 -0.06909037 -0.04596568 0.02996454
000180 a3 1e 26 be 64 c5 d7 bd b9 64 6a bd a9 2a 2b be
       -0.16222624 -0.10535696 -0.057224963 -0.16715492

weight f4 [72, 100]
000000 56 7e d3 3d 80 c0 cd 3d 06 d6 0e 3e 59 c3 9e 3d
       0.10326831 0.10046482 0.13948831 0.07752103
000010 12 e6 17 3f ae 7a c2 bd ff 49 b7 bd 46 04 af 3e
       0.59335434 -0.094960555 -0.089496605 0.34182948
000020 04 27 d2 3d 10 27 26 3d 95 ea 6d be a4 40 d5 3d
       0.10261348 0.040564597 -0.23234017 0.1041272
000030 7b 67 5e 3e a9 b4 c0 bc 7e 7b 2e bd c5 e0 df bd
       0.21719162 -0.023523645 -0.04259824 -0.10931543
000040 eb a5 b8 be f3 6a dd be d6 6d 94 3e da 2a 76 3e
       -0.36064085 -0.43245658 0.28990048 0.24039784
000050 ea cb 83 bd d5 05 68 3e 4b e9 9f bd e3 60 89 3d
       -0.06435378 0.22658475 -0.07808169 0.06707933
000060 b4 99 67 be e4 34 77 be ee 38 24 bd 23 1a 29 bf
       -0.22617227 -0.2414127 -0.040093355 -0.66055506
000070 80 eb 7d be ab fe 99 be 26 e2 9d be df 7e 0f be
       -0.24796867 -0.3007711 -0.308366 -0.14013241
000080 0f 9a 16 be 56 1e 44 be 74 f4 40 bd e1 eb db bd
       -0.14707206 -0.19152197 -0.04710813 -0.1073835
000090 86 9f 13 be d6 8d f7 3d 6b d5 37 be fb f0 99 3e
       -0.14416322 0.120876 -0.17952506 0.30066666
0000a0 03 e9 9c 3e 2c 8b 5b 3e 91 e1 fe 3d f2 d7 71 3c
       0.30646524 0.21439809 0.12445367 0.014760958
0000b0 b3 e6 e2 3d 46 54 98 3e 22 a0 74 bc 60 d8 3b be
       0.11079159 0.29751796 -0.014930757 -0.1834426
0000c0 97 f9 39 3e 04 f1 eb 3d fd bf b8 bd 82 cd 89 3e
       0.18161617 0.115205795 -0.09020994 0.26914603
0000d0 b4 07 b0 3d 11 0e 47 3d 16 6d 0b be f0 2d e0 3e
       0.08595219 0.0485974 -0.13615832 0.43785048
0000e0 e9 83 79 be 26 1f 34 3e dd b0 92 bd 0d 12 a0 be
       -0.24366726 0.17590007 -0.0716264 -0.31263772
0000f0 c6 4d de bd 17 b8 dd 3d b7 44 8d bd 4d fb 9a be
       -0.10854678 0.10826128 -0.06897872 -0.30269852
000100 dd cc c1 bd 48 70 73 be f0 f0 1d bd 4d 94 92 be
       -0.09462903 -0.237733 -0.038559854 -0.2862877
000110 59 d2 36 3d 65 18 81 bd ee 37 8f bd a2 b9 f4 3a
       0.044634197 -0.06303481 -0.069930896 0.0018671046
000120 7e 1c 14 3e 65 7a 14 be 1b 33 09 bf bf e1 8e 3e
       0.14463994 -0.14499815 -0.53593606 0.27906606
000130 9e ad ec 3e aa 60 40 3d 3b 2e 8b be 44 65 23 3e
       0.4622621 0.046967186 -0.2718371 0.15956599
000140 58 a2 96 3e 6e 34 d0 bd 0a 2c 17 be 36 34 18 3c
       0.29420733 -0.1016625 -0.14762893 0.009289792
000150 27 34 f2 3d 50 28 cb 3c 9f fc 48 be a5 30 df 3d
       0.118263535 0.024799496 -0.19627617 0.1089795
000160 74 26 62 3e 9b 5d b9 be b4 92 a8 be 1c 27 1b be
       0.22084981 -0.36204228 -0.32924426 -0.15151638
000170 dd 74 d6 be fc 4c 12 be 9c 2d 35 3d 05 fa a1 3e
       -0.41886035 -0.1428718 0.04423295 0.31636062
000180 5e 67 b4 3d ed 67 13 bf 13 ca 05 3c 39 36 ab bd
       0.08808778 -0.57580453 0.008165854 -0.083599515
000190 85 f9 84 3b a4 e5 30 3e bb 58 24 3e d5 a5 e9 bd
       0.0040580654 0.17275101 0.16049473 -0.11408583
0001a0 be a1 17 bf 14 51 22 be 29 61 af be 13 0b bd be
       -0.59231174 -0.15851241 -0.34253815 -0.3692251
0001b0 92 a2 f8 3c 7d cf 28 be 4d 87 60 be 4c ff bf bd
       0.030350957 -0.164854 -0.21926613 -0.09374866
0001c0 d8 12 85 be d6 89 ca 3b 6b f5 93 3d d2 0e c3 bd
       -0.2599094 0.006180982 0.07224544 -0.09524311
0001d0 7c 7c 29 3e f7 f8 67 bd 8b 86 ed bd 02 7b 32 3d
       0.16551393 -0.056633916 -0.11597928 0.04357434
0001e0 78 09 5e be f5 c8 12 3e 55 5b 67 be 60 45 03 3e
       -0.216833 0.14334472 -0.22593434 0.12819433
0001f0 d8 7c 94 bd 6f 98 25 be 34 99 85 bd 67 c5 97 bd
       -0.072503746 -0.1617143 -0.06523362 -0.074106984
000200 4c a6 0e be fe 97 01 be 7d 2a a4 bb e8 fc 14 3e
       -0.13930625 -0.12655637 -0.005009948 0.14549601
000210 71 7c d3 3d d6 69 85 3c d2 ac 89 be 37 55 95 3d
       0.1032647 0.016285818 -0.26889664 0.07291644
000220 4e eb 65 3e 6a 79 b8 3e 8a 75 8a be f0 27 da 3e
       0.22453043 0.36030132 -0.270428 0.42608595
000230 63 5f c4 3e 83 99 05 3e 62 b2 c0 bd 84 f4 8b be
       0.38354024 0.13046841 -0.09409024 -0.27334988
000240 0b b1 e4 bd 5e 41 85 3c b6 ce d6 bd 0b de 11 be
       -0.11166581 0.016266521 -0.10488646 -0.14244859
000250 0c 46 ce 3d 31 4f 65 3e ca 0d f5 3c e0 cd f4 bd
       0.10071954 0.2239349 0.029913802 -0.1195333
000260 70 e6 ba be 27 db 9a 3e 07 29 e8 3d 13 09 e8 bd
       -0.36503935 0.30245325 0.1133595 -0.11329856
000270 cd 5f 1b be 2b 4f 1a 3d 40 b8 08 3d 8e a8 a4 3d
       -0.15173264 0.037673157 0.03337884 0.08039962
000280 80 17 fd bd 04 3f 9b bd 42 7c db 3d 9a 71 68 3d
       -0.12357998 -0.07580379 0.1071706 0.056748964
000290 65 53 2b be 98 b4 cd bd f0 6f 6f 3e c5 36 0d bf
       -0.16731031 -0.10044211 0.23382545 -0.55161697
0002a0 11 8e df 3d 34 dc bf be 0f 60 98 3e 13 6d d1 3d
       0.10915769 -0.3747269 0.29760787 0.102258824
0002b0 f5 8e a6 3c 44 6a cb 3b b6 4e b1 be d9 1a 30 bc
       0.02033184 0.006207736 -0.34630364 -0.0107485885
0002c0 6f 34 46 be 4e cf 05 3d d7 0a ee bd 7f b1 83 bd
       -0.1935594 0.032668404 -0.11623161 -0.06430339
0002d0 34 e3 cf 3d d3 9c ce bd be ea 95 3c ba 26 2a be
       0.101507574 -0.100885056 0.01830041 -0.16616336
0002e0 ee e7 f1 bd 71 36 ba be 9c b6 9d be fd 4d ec ba
       -0.11811815 -0.3636966 -0.30803382 -0.0018028613
0002f0 42 c2 eb bd 1a 83 06 3f 60 57 5b bd 96 9a 23 3e
       -0.11511661 0.52543795 -0.053550124 0.15976939
000300 b9 e8 a1 3e 16 39 c0 bb ed b3 4e 3d 63 f2 32 bd
       0.31622866 -0.00586618 0.05046456 -0.04368819
000310 ec eb 92 3c 87 a2 08 3f ab b5 92 3b 8e 27 6d 3d
       0.017934762 0.53373 0.004477223 0.05789905
000320 6d a6 85 bd ee 25 a4 be b3 2f 99 3d 5b 4c 80 3d
       -0.06525884 -0.32060188 0.07479801 0.06264564
000330 78 6c 82 3c 29 87 0d bc 3c f2 9a bd e1 66 a2 bd
       0.015920863 -0.008638182 -0.07565734 -0.07929779
000340 df d3 4b bd 2c 73 fa 3b 8c a8 d6 bc 5b 46 93 3d
       -0.049762603 0.007643124 -0.026203416 0.071911536
000350 36 ce 0a be ba b3 26 bd 66 0d ae 3c 00 85 02 3b
       -0.13555226 -0.040698744 0.021246623 0.00199157
000360 ca 04 35 be 8e 44 7a bd 97 52 8a 3c 71 d7 ea 3d
       -0.17677608 -0.061100535 0.016885085 0.114668734
000370 4b d7 56 bd 42 44 9a bd 12 82 f5 bc 8d d9 65 be
       -0.052451413 -0.075325504 -0.029969249 -0.2244627
000380 ef ab b2 bd 61 39 b6 be 1f d0 39 bd 60 17 b3 bd
       -0.087242 -0.35590652 -0.045364495 -0.08744693
000390 46 20 84 bc b2 39 70 be 1e 54 66 3d 62 4c 19 be
       -0.01612867 -0.23459509 0.056232564 -0.14970544
0003a0 58 59 69 bd a8 be 82 bc d7 f3 82 bd f5 dd ce 3c
       -0.05696997 -0.015960053 -0.06394165 0.025252322
0003b0 72 6c a5 3d 8b 6e 7a 3a ae 41 06 be ce 57 bb be
       0.08077325 0.00095532154 -0.13110992 -0.36590427
0003c0 63 12 46 bd bf a2 b8 3d 3a 1d 66 bd 87 6a 50 be
       -0.04835738 0.09015416 -0.056180216 -0.20353137
0003d0 97 69 93 bc be 84 e5 3d a9 57 5b bc f3 8d 17 3e
       -0.017994685 0.11206959 -0.013387599 0.14800243
0003e0 da c7 b4 3d 83 f6 9c 3d 5c 9a 01 be de 9b 50 be
       0.08827181 0.07664206 -0.1265654 -0.20371959
0003f0 f2 9f 14 3e a9 68 23 3c 4c 9f 90 3c 7c 10 3c bb
       0.1451414 0.009973683 0.017654084 -0.002869635

bias f4 [72]
000000 83 fa 72 be cf f8 a7 3d 15 97 84 be bd d4 44 be
       -0.23728375 0.08201753 -0.25896516 -0.19221778
000010 ed 59 8d be 83 61 ae 3e 25 3d 23 bf b6 41 78 be
       -0.2760767 0.3405877 -0.63765174 -0.24243817
000020 3b 03 71 be 13 de 5d be ed fd 86 be d0 cf c3 be
       -0.23536389 -0.21666746 -0.26365605 -0.38244486
000030 5e b6 0a bf 99 a6 ec 3d 3c 99 c2 be b5 d0 8b 3d
       -0.5418452 0.115552135 -0.38007534 0.06826917
000040 c3 55 aa be f9 bd a8 be 02 d1 14 be 10 79 a5 bd
       -0.33268556 -0.32957438 -0.14532855 -0.080797315
000050 a9 84 43 be 3a a8 0b bd 58 2d 31 be b3 42 ae 3c
       -0.19093575 -0.03409598 -0.17302454 0.021272039
000060 84 3f a8 be dd eb 5f be 1a ce cf be 0f dd 5b be
       -0.3286096 -0.21867318 -0.4058693 -0.21471046
000070 b0 05 89 3d cd 49 47 be 7a 0f fc 3d 6b c8 bf be
       0.06690538 -0.19461747 0.123076394 -0.37457594
000080 e6 a5 2d be 37 6b cf be 48 d4 8a bd 77 2b ef 3d
       -0.16957816 -0.40511486 -0.06778771 0.11678212
000090 e3 31 f5 3e 37 f9 00 be ec 40 88 be f9 ab 84 be
       0.47889623 -0.12595068 -0.2661203 -0.25912455
0000a0 ef 5c 01 be 68 e9 b4 be c2 46 32 3e 74 7e ba be
       -0.12633108 -0.35334325 0.17409804 -0.364246
0000b0 bd c0 04 3e 13 89 05 bf f0 8f f0 3d 62 a6 b4 be
       0.12964149 -0.52162284 0.11746204 -0.3528319
0000c0 61 b4 78 3e 0b e2 12 3d 66 c5 a2 bd 3d 35 66 be
       0.24287559 0.035860103 -0.07947807 -0.22481246
0000d0 21 48 06 3f c4 18 ef bd 9a 8a 2a be fe 47 53 be
       0.5245381 -0.116746455 -0.16654435 -0.20632932
0000e0 94 36 25 be 9a 9d 8d be 10 de 7b be 7e bc b2 be
       -0.16134101 -0.27659303 -0.24596429 -0.34909433
0000f0 76 8a d2 be 3d 3f 91 bd c4 a7 79 be 38 28 29 3e
       -0.41121262 -0.0709214 -0.24380404 0.16519248
000100 e3 54 5b 3e d2 be c7 be ad 7b 87 3e f1 aa c7 be
       0.214191 -0.39012772 0.26461545 -0.38997605
000110 c2 0b 89 3d 0f af 80 3e da dd 0e 3f f7 bf 20 3e
       0.06691696 0.2513356 0.5580727 0.15698229

weight f4 [10, 72]
000000 4b e2 ee bd f5 16 5c 3e 62 2f ec bd f6 87 89 be
       -0.11664256 0.21493132 -0.11532475 -0.26861542
000010 0b d2 8a be bb 53 2e bd 04 a1 9d be 7f ba 86 be
       -0.27113375 -0.04256032 -0.30786908 -0.2631416
000020 e9 2a 7a be 3f 22 9d be 9e ce f5 be 52 0f bb 3e
       -0.24430431 -0.3069019 -0.480092 0.36535126
000030 a7 60 04 bf c3 11 aa be 51 70 cb be 2e 19 09 3e
       -0.5170998 -0.33216676 -0.39734128 0.13388512
000040 06 e0 9c be f7 ea 6d be 4d 65 94 be 6c ac 29 bf
       -0.30639666 -0.23234163 -0.28983536 -0.6627872
000050 04 70 8e 3e 09 72 64 bd 81 62 a1 bc 1d bc e3 bd
       0.27819836 -0.055772815 -0.01970029 -0.11119864
000060 f1 e0 eb be 92 c3 8d 3e 06 07 c2 be 2b c9 c0 bc
       -0.46070054 0.2768827 -0.37895983 -0.023533424
000070 b1 5c ec be 24 ef 4a be 6c 6c 8d be 1b e6 26 be
       -0.46164468 -0.19817787 -0.27621782 -0.16298716
000080 f7 0a 93 3e 82 9f e4 3e c8 15 1f be eb dd 43 be
       0.28719303 0.44652945 -0.15535653 -0.19127624
000090 0f 0c 98 bd f5 7e 12 3e 7a b2 41 3e 2e 7a 43 3e
       -0.07424175 0.14306243 0.1891574 0.19089577
0000a0 e4 43 9d be 5c 19 1c 3e 63 6c 05 3e ca 1c c0 3d
       -0.3071586 0.15244049 0.13029628 0.09380491
0000b0 cf 10 ba 3e fa 62 ff 3d ff 7e 96 be d3 a2 6e 3d
       0.3634095 0.1247005 -0.29393765 0.05826075
0000c0 40 60 1d bf f2 47 38 3d c3 90 8e bd 57 3b e7 be
       -0.6147499 0.044990487 -0.06961205 -0.4516246
0000d0 ff ec b0 be d6 e2 c0 be b5 26 2e 3e 2a 5a 30 3e
       -0.34555814 -0.37673062 0.17006953 0.17221895
0000e0 cd c8 23 3d 11 ba 24 be a9 70 36 be 6d 90 66 3d
       0.03998642 -0.16086604 -0.17816414 0.05629008
0000f0 7d bd 58 3d 76 6d d9 be 7b fb c6 be cb 5b d4 bd
       0.052915085 -0.42466325 -0.3886374 -0.103690706
000100 59 5f 1b bf af f0 7c be 2a 6e 1d be 43 92 2c be
       -0.60692364 -0.24701189 -0.15374056 -0.1685267
000110 cc 49 b3 be 9a 4c 14 bf f9 da a9 be b7 21 16 bf
       -0.3501724 -0.57929385 -0.33174875 -0.58645195
000120 64 a0 a5 be c6 4a 3a bf 41 1e 56 be 53 bb ec be
       -0.3234893 -0.72770345 -0.20909978 -0.46236667
000130 9e 1e e9 bc 0e a0 3f bf b1 e7 88 3d 8f 4a bf 3e
       -0.028456982 -0.748536 0.06684817 0.3736157
000140 d8 b2 c6 be 37 e9 c1 be f2 00 82 ba 1b c9 fc be
       -0.38808322 -0.3787324 -0.0009918495 -0.4937218
000150 44 b0 3d 3e d5 f2 26 bd a9 b9 f7 3d 20 53 f9 be
       0.18524271 -0.040758926 0.12095959 -0.48696232
000160 f0 34 d5 3d 51 85 55 be 0e 59 da 3d 9a d2 db 3e
       0.10410488 -0.20851637 0.10661517 0.42934114
000170 51 71 ce bd 6c b7 11 bf 3d c3 c7 3d cc 9a e3 3d
       -0.10080207 -0.56920505 0.097540356 0.111135095
000180 71 a6 09 bc 3c 3d 14 bf ed bb 78 3d 3e 7a e5 bd
       -0.008401499 -0.57905936 0.060726095 -0.112049565
000190 3b 07 32 bf 2f 96 bc be 28 5a 41 3e ff 6c 50 be
       -0.6954228 -0.3683333 0.18882048 -0.20354079
0001a0 97 f8 d6 bd ad 6e 76 bf d3 b4 cb be a2 05 ff be
       -0.104966335 -0.9626263 -0.39786395 -0.49808985
0001b0 44 30 fc 3d 6e 70 c7 be 19 3f 4f bf ac 84 a2 be
       0.123138934 -0.38952965 -0.80955654 -0.31741846
0001c0 f6 69 52 3e a8 77 62 3e f4 04 48 be c8 2c af be
       0.20548233 0.22115958 -0.1953314 -0.34213853
0001d0 65 66 9d 3e fa c2 de bd 21 1e 37 bd 16 b8 1b be
       0.30742183 -0.108770326 -0.044706468 -0.15206942
0001e0 0a 9c 2d 3e 26 e4 e0 3c 80 43 40 3c 9d 20 46 be
       0.16954055 0.02745254 0.011734843 -0.19348378
0001f0 bd b0 d3 be 7e 34 12 3d b4 84 70 3d dd 13 4d 3d
       -0.41345778 0.03569459 0.058720306 0.05006777
000200 93 22 af 3d 40 35 51 be 36 16 25 3e a6 93 04 bf
       0.085515164 -0.2043047 0.16121754 -0.51787794
000210 9b d7 2e 3d f7 33 c0 be 0e 22 70 3e 98 e0 91 be
       0.042686086 -0.37539646 0.23450491 -0.28491664
000220 33 d2 9e be fd b8 85 be 1d 89 e2 be 91 f8 82 bf
       -0.31019744 -0.26117697 -0.44245234 -1.0232106
000230 b6 fa 2d bf b6 4c d2 3d cb 37 51 3d 06 f1 12 3e
       -0.6796068 0.10268538 0.0510786 0.14349756
000240 be 8a 02 bf 6d 7c b9 be b0 ab ac be 7a 3e df 3d
       -0.50992954 -0.36227742 -0.33724737 0.10900588
000250 0e 9d 3a 3e 59 32 2b ba e4 04 21 3d b2 d2 06 bf
       0.18223974 -0.0006530635 0.039311305 -0.52665246
000260 77 b1 9b bd 05 40 1f be 34 20 22 be b7 8b b4 3e
       -0.07602208 -0.15551765 -0.15832597 0.35262844
000270 02 9b d9 3d 69 1a 27 3e 91 e0 3b 3e 65 86 f8 be
       0.106252685 0.16318668 0.18347384 -0.48540035
000280 69 6b 55 3e fc ef 37 3e d0 f2 ec 3e 8f 80 f0 be
       0.20841755 0.1796264 0.46279 -0.46973082
000290 20 1c eb 3d e7 cc 2a bf c5 40 c0 be 4c 36 b3 3c
       0.11479974 -0.66718906 -0.37549415 0.021876477
0002a0 42 eb 0d bf 61 ec 39 3d ff 26 39 3e 99 a8 83 be
       -0.554371 0.045391444 0.18081282 -0.25714567
0002b0 59 b1 12 3e 5b a2 aa be 45 4b 37 be 43 20 41 bd
       0.14325465 -0.33326992 -0.17899807 -0.047149908
0002c0 5a bc 5c be 61 b3 dc be 11 40 c0 be 4e 0f f6 be
       -0.21556225 -0.43105605 -0.3754888 -0.48058552
0002d0 d6 d4 f4 3d 87 96 45 3d d7 7c f9 3d e8 8c 96 3e
       0.11954658 0.048239257 0.121820144 0.29404378
0002e0 74 23 8c be 7d 9d 33 3e 8d ed 69 be 64 36 ba bd
       -0.273708 0.17540546 -0.22844525 -0.090924054
0002f0 58 ca 2d bf 41 27 bf 3d fe ad 09 3e 3f ee c2 3c
       -0.6788688 0.09333659 0.13445279 0.023795245
000300 3e 6f 80 3e 8b e6 81 bd a1 81 09 be d4 a7 85 be
       0.2508487 -0.06342801 -0.13428356 -0.26104605
000310 17 e4 4c 3d 48 6e 0a bf 7e e9 e5 3d 54 56 3c 3e
       0.05002221 -0.54074526 0.11226176 0.18392307
000320 d4 0b db 3d f8 a8 a5 3e 44 8a 27 bf 4b d7 61 3d
       0.106956154 0.32355475 -0.6544535 0.05513696
000330 e2 a8 dd be 9e 8a 87 bd ea 51 ad be 68 71 11 bf
       -0.4329291 -0.06618236 -0.33851558 -0.5681367
000340 80 61 34 bf d7 ce e9 3a cf be cd 3d cc 2b 7e bd
       -0.70461273 0.0017838132 0.100461595 -0.062053487
000350 f4 f1 2a be 22 82 99 be c6 9c 25 bf 14 f7 1b 3d
       -0.1669386 -0.29982096 -0.6469234 0.03807743
000360 e2 53 21 bf 00 88 42 3e 24 a2 15 be 3d 44 dd 3d
       -0.6301862 0.18997192 -0.14612633 0.10804031
000370 36 42 2c 3d 17 ac 40 3c a1 6f 1f bf cb 3c e5 be
       0.04205533 0.011759779 -0.6227971 -0.44772944
000380 c2 db 07 bd b7 df 9f be f2 ab a9 be eb 3f be be
       -0.03316856 -0.31225368 -0.33138996 -0.3715814
000390 25 d4 1a 3e c7 7d d9 3b 6e af 9e be 11 4e 75 3e
       0.15119989 0.0066373083 -0.30993217 0.23955561
0003a0 f3 1d 33 bf 15 49 c8 be cd 49 2f be 11 dd 85 3d
       -0.69967574 -0.39118257 -0.17117997 0.06536306
0003b0 30 13 81 bd 4c f0 b8 be 11 89 36 bf c9 08 92 3e
       -0.06302488 -0.36120832 -0.71302897 0.28522328
0003c0 6f 03 bf bd ab 90 06 bb 57 5d d2 3c fa 91 43 bc
       -0.09326827 -0.0020533006 0.025679274 -0.011936659
0003d0 2b 0e 55 3e db e9 cc bd bf 08 f5 bd f9 30 b7 be
       0.20806186 -0.10005542 -0.11964559 -0.3577955
0003e0 67 56 e2 be 65 62 24 be f0 08 94 3e e4 d9 27 bf
       -0.44206545 -0.1605316 0.2891307 -0.6556685
0003f0 51 11 e5 bc dd 2d 1c bf c9 b6 04 bf fa 9f 0b bf
       -0.027962359 -0.6100748 -0.5184141 -0.5454098

bias f4 [10]
000000 65 ec 7e be 42 e8 35 3d cd aa 97 be 44 df 8e 3e
       -0.24894865 0.04441095 -0.29622498 0.27904713
000010 62 e8 09 be 7f b4 a4 be 34 28 86 be 29 ea b8 bd
       -0.13467553 -0.32168958 -0.26202548 -0.090290375
000020 3d e2 01 3f 0e 97 ec 3e
       0.5073584 0.46208996
