checkpoints/YourNet/pruning/2/epoch-4.pth (torch, 37903 bytes, 8 tensors)

weight f4 [3, 1, 3, 3]
0	0x3ee45fd4	0.4460436
1	0x3e24b27d	0.16083713
2	0xbe55e17d	-0.20886798
3	0x3e08784e	0.13327143
4	0xbdebae2c	-0.1150783
5	0xbeed3b72	-0.46334416
6	0xbea40956	-0.32038373
7	0xbea839e5	-0.3285667
8	0x3d794185	0.0608535
9	0x3dc51ed4	0.096250206
10	0xbdec6358	-0.11542386
11	0xbe510729	-0.20412888
12	0x3e0c7b2a	0.13718858
13	0x3dd1f5e3	0.10251977
14	0xbcbe2a9a	-0.023213673
15	0x3d0d615a	0.03451667
16	0x3e87c32a	0.26516086
17	0x3e189398	0.14900053
18	0x3e07047e	0.13185307
19	0x3da9119b	0.08255311
20	0x3ee6ed1c	0.45102775
21	0xbe85f7ab	-0.26165518
22	0x3dcf17c4	0.10111955
23	0xbcfe9206	-0.031075489
24	0xbeeb1a6d	-0.459186
25	0xbef85b0a	-0.48506957
26	0xbf3648a1	-0.7120457

bias f4 [3]
0	0xbf380bd3	-0.7189304
1	0x3e0519a9	0.1299807
2	0xbf0ebd81	-0.5575791

weight f4 [4, 3, 3, 3]
0	0xbdd4537c	-0.10367486
1	0xbeeb5207	-0.4596102
2	0xbe4b7b8a	-0.19871345
3	0xbe0d1e9d	-0.1378121
4	0xbd76bd7b	-0.060239296
5	0xbf04e2f1	-0.51908785
6	0x3e9b657c	0.30350864
7	0xbf2be833	-0.6715118
8	0x3dc553e5	0.09635142
9	0x3d715523	0.058919083
10	0x3cb53db5	0.02212415
11	0x3f0c810f	0.5488443
12	0xbed8650c	-0.42264593
13	0xbec79577	-0.3898122
14	0x3f1c13ad	0.6096752
15	0xbf05aa2b	-0.5221278
16	0xbec33122	-0.38123423
17	0x3e746751	0.23867537
18	0x3d3a9bf7	0.045558896
19	0x3ed7d408	0.42153955
20	0xbf5296fe	-0.82261646
21	0x3ee281b2	0.44239575
22	0x3d5160be	0.05111765
23	0xbf8d15b1	-1.1022245
24	0x3e3c79db	0.18405859
25	0xbf3cb780	-0.737175
26	0xbf702aad	-0.9381512
27	0x3b996ecb	0.004682397
28	0x3e2cec7d	0.16887088
29	0xbe830dae	-0.25596374
30	0xbe84bea9	-0.25926712
31	0x3c192b62	0.009348722
32	0xbbd203d1	-0.0064091464
33	0xbe71a0e6	-0.23596534
34	0xbd9ade17	-0.075618915
35	0x3f02721d	0.50955373
36	0xb9a21cf0	-0.00030920608
37	0xbe60055f	-0.21877049
38	0x3e80d726	0.25164145
39	0x3e96bc4a	0.29440528
40	0x3e833e81	0.25633624
41	0x3e17af02	0.14812854
42	0xbde610db	-0.11233684
43	0xbe0d98f2	-0.13827875
44	0xbecfdcc7	-0.40598127
45	0xbec50061	-0.38476852
46	0xbe49a099	-0.1969017
47	0xbdaf37dd	-0.08555577
48	0xbe33ac7b	-0.17546265
49	0xbe4e43f2	-0.20143107
50	0x3e8e7be8	0.27828908
51	0x3e5f58a1	0.21811153
52	0x3f15a41e	0.5845355
53	0x3e579ea8	0.21056616
54	0x3d9655eb	0.07340606
55	0x3f7e48e3	0.99329966
56	0x3eb4cd17	0.3531272
57	0xbf2cabaf	-0.6744947
58	0xbf2b8532	-0.67000115
59	0x3eb02796	0.34405202
60	0xbc4720a6	-0.01215378
61	0xbeef07e9	-0.46685722
62	0xbea77b73	-0.32711372
63	0x3d580aff	0.05274486
64	0xbd3dba90	-0.046320498
65	0xbf1584ea	-0.58405936
66	0x3eedd6b6	0.46452874
67	0x3f1baac5	0.6080745
68	0xbcda9772	-0.026683543
69	0xbe71fbba	-0.23631182
70	0x3cf5c2b2	0.030000065
71	0x3ee24fac	0.4420141
72	0xbf4098ae	-0.7523297
73	0xbed50035	-0.4160172
74	0x3e3ac43b	0.18238918
75	0x3e4f3883	0.20236401
76	0xbed3647e	-0.41287607
77	0x3ec9e5eb	0.39433226
78	0x3da49bc7	0.08037525
79	0x3e76657e	0.24062154
80	0x3d6418f2	0.055687852
81	0xbf9a2609	-1.2042857
82	0xbdd64ad6	-0.104634926
83	0x3e8e3411	0.277741
84	0xbe917c2b	-0.28415045
85	0xc008b421	-2.1359942
86	0xbf37a886	-0.7174152
87	0x3a91e753	0.0011131562
88	0xbe8cebb5	-0.2752358
89	0xbf369775	-0.71324855
90	0xbfca8b2f	-1.5823725
91	0xbf942311	-1.1573201
92	0x3dee6f57	0.1164233
93	0x3e053dc6	0.13011846
94	0xbef40fae	-0.47668213
95	0xbf2009cd	-0.62514955
96	0x3ee83116	0.4534995
97	0x3eb44184	0.35206234
98	0x3e8dd623	0.27702436
99	0x3d757ba1	0.059932355
100	0xbe5026a2	-0.20327237
101	0x3ed40bc0	0.41415215
102	0xbf788892	-0.9708339
103	0x3eb70c88	0.35751748
104	0x3f4b49ad	0.79409295
105	0x3e7de2a5	0.2479349
106	0x3d3817e6	0.044944666
107	0xbed5804e	-0.4169945

bias f4 [4]
0	0xbd10eb85	-0.03538086
1	0xbf1839d9	-0.5946327
2	0xbf15fc31	-0.5858794
3	0xbd0e9312	-0.034808226

weight f4 [76, 100]
0	0xb8cc7e24	-9.7509735e-05
1	0xb9cc2bf8	-0.0003894267
2	0xb79e6364	-1.888135e-05
3	0xb887436b	-6.449859e-05
4	0xb95125d2	-0.00019945882
5	0xb98ac830	-0.00026470562
6	0xb954fd12	-0.00020312172
7	0xb944d16d	-0.00018770034
8	0x388957c3	6.549016e-05
9	0xb993196b	-0.00028056963
10	0x382b9783	4.0910683e-05
11	0xb94bb905	-0.00019428514
12	0xb8868fc2	-6.416395e-05
13	0xb90529d1	-0.00012699446
14	0xb961b368	-0.00021524506
15	0xb8d42e3f	-0.00010117562
16	0xb91ac16b	-0.00014758638
17	0x389e95e8	7.561949e-05
18	0xb9cbf5ca	-0.00038902304
19	0xb99acdae	-0.00029526412
20	0xb8ba8a7f	-8.894968e-05
21	0xb91e4f6c	-0.00015097641
22	0xb8356422	-4.324702e-05
23	0xb7f22b02	-2.8868675e-05
24	0xb920b98b	-0.00015327909
25	0xb94ccfc1	-0.0001953235
26	0xb9bcddfa	-0.0003602354
27	0x389e808b	7.55797e-05
28	0xb90e32b5	-0.00013561065
29	0x37de626c	2.6510294e-05
30	0xb95375a2	-0.0002016635
31	0x3814497e	3.5354395e-05
32	0xb9afe17b	-0.00033546597
33	0xb9aab746	-0.00032561476
34	0xb9630ea0	-0.00021653855
35	0xb90edc5a	-0.00013624263
36	0xb93beb33	-0.00017921328
37	0xb9baaa2b	-0.0003560347
38	0x383ef87c	4.553095e-05
39	0xb9ac75b5	-0.00032894095
40	0x38c967a1	9.603729e-05
41	0xb7b0be94	-2.106958e-05
42	0x380a570f	3.2982844e-05
43	0xb9a57c1e	-0.00031563727
44	0xb9d41901	-0.0004045442
45	0x3962508c	0.00021583046
46	0xb994003c	-0.00028228934
47	0xb913b1b4	-0.00014085212
48	0xb7230dec	-9.7187985e-06
49	0xb92ea180	-0.00016654097
50	0x397ae66a	0.00023927694
51	0xb9d05cf7	-0.00039742116
52	0xb9be91de	-0.00036348304
53	0x388228d6	6.206489e-05
54	0xb9a110cb	-0.00030720825
55	0x38e9c012	0.00011146082
56	0xb905d516	-0.00012763249
57	0x3764784a	1.3617866e-05
58	0x38689eb0	5.54609e-05
59	0xb9517405	-0.00019975014
60	0x3913d60a	0.00014098748
61	0x384627de	4.7244008e-05
62	0xb928709c	-0.00016063679
63	0xb97bc627	-0.00024011043
64	0x399ea49a	0.00030258746
65	0xb9049210	-0.00012642913
66	0xb9b0a818	-0.00033694576
67	0xb99b4710	-0.0002961685
68	0xb962c8e3	-0.00021627876
69	0xb957c0a7	-0.00020575766
70	0x39321273	0.00016982276
71	0xb8a6e854	-7.958771e-05
72	0xb9951b9e	-0.0002844007
73	0xb87bc008	-6.0021906e-05
74	0x399127bd	0.00027686163
75	0xb9771978	-0.00023565243
76	0xb92ad9cf	-0.00016293603
77	0x38c8d342	9.576093e-05
78	0xb91c5817	-0.00014910135
79	0xb95150a4	-0.00019961834
80	0xb9049a5d	-0.00012646006
81	0xb9628e71	-0.00021606103
82	0xb916a394	-0.00014366052
83	0xb6efb980	-7.14435e-06
84	0xb9917d2f	-0.00027749824
85	0xb959ec96	-0.00020782868
86	0xb924afef	-0.00015705799
87	0xb99d45f3	-0.0002999749
88	0xb985a9ce	-0.0002549425
89	0xb7e91b97	-2.7788612e-05
90	0xb77e13e6	-1.5144213e-05
91	0xb9cd5e22	-0.0003917078
92	0xb944cd36	-0.00018768464
93	0xb9102184	-0.00013745396
94	0xb956aba0	-0.00020472566
95	0x3900196d	0.00012216503
96	0xb9aafe0c	-0.00032614206
97	0xb8e8e7a2	-0.00011105767
98	0xb8882dbd	-6.493505e-05
99	0xb9d15219	-0.00039924754
100	0x3d7c511b	0.061600786
101	0xbe52852b	-0.20558612
102	0x3d8a0251	0.06738723
103	0x3ea2c346	0.31789607
104	0x3f31ae21	0.69406325
105	0xbc9bf466	-0.019037437
106	0x3edbdf74	0.4294392
107	0x3d9e95bf	0.077434056
108	0x3e5c5ac2	0.21518996
109	0x3efe6f29	0.49694183
110	0x3f07491b	0.52845925
111	0x3f0f94c2	0.5608636
112	0x3e367568	0.17818224
113	0x3f16c2ea	0.58891165
114	0x3cdb041f	0.026735364
115	0x3f20fb72	0.62883675
116	0x3ee6a20e	0.45045513
117	0xbed978f9	-0.42475107
118	0x3d9bf000	0.07614136
119	0x3f23f7db	0.6405007
120	0x3e38a669	0.1803223
121	0x3ef7aa8b	0.483723
122	0xbde6608f	-0.11248886
123	0xbf7e025a	-0.9922234
124	0xbf3db511	-0.7410441
125	0xbf95e9ed	-1.1712013
126	0xbf98b8ae	-1.193136
127	0xbefc8992	-0.49323708
128	0x3e9a037d	0.30080786
129	0x3f648223	0.8926107
130	0xbea128a2	-0.31476313
131	0xbe727b9a	-0.23679963
132	0x3e5c394a	0.21506229
133	0xbf33e187	-0.70266
134	0xbee78dfc	-0.45225513
135	0xbe397076	-0.18109307
136	0xbef6abed	-0.48178044
137	0xbfca536b	-1.5806707
138	0xbfdb5796	-1.7136104
139	0x3f029b2f	0.5101804
140	0xbee3196f	-0.44355342
141	0xbfbd31a0	-1.4780769
142	0xbf61d471	-0.88214785
143	0xbea7fc2d	-0.32809582
144	0xbf3abe13	-0.7294628
145	0x3d87f6c4	0.06638864
146	0xbc6680ba	-0.014068777
147	0x3e9b872e	0.3037657
148	0x3e3bbff7	0.18334948
149	0xbf3f807e	-0.7480544
150	0x3ec4b1a9	0.38416794
151	0xbf3a5389	-0.72783715
152	0x3eb8ef7a	0.36120206
153	0x3f6ef062	0.93335545
154	0x3d8662af	0.06561791
155	0xbe0bbf29	-0.1364714
156	0x3f04c46a	0.51862204
157	0xbf9fa734	-1.2472901
158	0xbeba0524	-0.36332047
159	0xbe120e0f	-0.14263175
160	0x3f1952d8	0.59892035
161	0xbeed0d35	-0.4629914
162	0xbf1a890a	-0.60365355
163	0xbf8cacd5	-1.0990244
164	0xbf210286	-0.62894475
165	0x3f1061e7	0.5639939
166	0x3da25db5	0.079280294
167	0x3cbb4b08	0.022862926
168	0xc004bed9	-2.0741484
169	0xbeb3f5dc	-0.35148513
170	0x3f514548	0.8174634
171	0x3e2ab44c	0.1667034
172	0x3ebefd41	0.37302592
173	0xc0014b2b	-2.020213
174	0xbf8d3c76	-1.1034076
175	0x3e8e81c5	0.2783338
176	0xbefc1f9f	-0.49242875
177	0x3df9ce1e	0.12197517
178	0xbe0fdc2b	-0.14048831
179	0xbeacacba	-0.3372553
180	0xbf1354dd	-0.57551366
181	0xbf5967f0	-0.8492422
182	0x3eb2cbfa	0.34921247
183	0xbf5d59fd	-0.86465436
184	0xbecf7be4	-0.4052421
185	0xbd0486b1	-0.032355014
186	0xbd8fe9ca	-0.070270136
187	0xbfd58dbf	-1.6683882
188	0x3fc51232	1.5396178
189	0xbfd680a5	-1.6758009
190	0xbe712d41	-0.23552419
191	0xbf73e177	-0.9526591
192	0x3eb8b998	0.36079097
193	0x3e07c6e2	0.13259462
194	0xc04b1499	-3.1731322
195	0xbf4d7517	-0.8025679
196	0xbd8c0556	-0.06836955
197	0x3f71d3c4	0.94463754
198	0x3f722e7f	0.946022
199	0xbfb4580c	-1.408937
200	0xbe3aa14c	-0.18225592
201	0x3e758d16	0.23979601
202	0x3f1d2a17	0.6139235
203	0xbebdc9df	-0.37068078
204	0xbfec636f	-1.8467845
205	0x3dbb2045	0.09137014
206	0x3ed22ab8	0.41048217
207	0x3f212aa6	0.629557
208	0xbf79e995	-0.9762204
209	0xbf6800e5	-0.90626365
210	0xbe1a6846	-0.1507884
211	0xbeaf4436	-0.34231728
212	0xbe3f136a	-0.1865975
213	0x3f1a4f63	0.60277385
214	0x3e9f2b3d	0.31087676
215	0xbe17e68e	-0.14834043
216	0xbee29134	-0.44251406
217	0x3d3161af	0.04330605
218	0x3de8142c	0.113319725
219	0xbdbc8dfa	-0.092067674
220	0x3f0e4d77	0.5558695
221	0xbea2f1b5	-0.31825033
222	0xbf8df6ef	-1.1090983
223	0xbfa3a2e6	-1.2784088
224	0xbcead53a	-0.028666127
225	0xbe840df3	-0.25791892
226	0xbfbbe079	-1.4677879
227	0xbfb5f1e5	-1.4214445
228	0x3f1e3212	0.6179515
229	0x3fc180c1	1.5117418
230	0xbddd4139	-0.10803456
231	0xbfd540e9	-1.6660434
232	0xbf572486	-0.84040105
233	0x3e9c9bb8	0.30587554
234	0x40010f6f	2.016567
235	0x3e8c257d	0.2737235
236	0xbd83258c	-0.06403646
237	0x3ccbb23c	0.024865262
238	0xbf52ec4a	-0.823918
239	0xbf96901b	-1.1762727
240	0xbe19168e	-0.1495001
241	0x3e1b871f	0.15188263
242	0xbf0ad981	-0.54238135
243	0xbeea7a63	-0.457965
244	0xbf458c98	-0.77167654
245	0xbe6ea80c	-0.23306292
246	0xbe4da3e1	-0.20082046
247	0xbea60aee	-0.32430214
248	0x3e29cad7	0.16581284
249	0xbf4c2b0a	-0.7975317
250	0x3e2034f7	0.15645204
251	0xbf4a6872	-0.7906562
252	0xbf1e8499	-0.6192108
253	0x3e39c3bb	0.18141071
254	0x3ee849ed	0.453689
255	0xbf4cdc4c	-0.80023646

bias f4 [76]
0	0x389966a8	7.31473e-05
1	0x3eba6183	0.3640252
2	0xbf4aefab	-0.79271954
3	0x3c7e268d	0.015512121
4	0x3d924ec2	0.07143928
5	0xbb33b9a4	-0.0027423883
6	0xb9848a8d	-0.0002528023
7	0x3e7f6cf6	0.24943909
8	0xbf03640a	-0.5132452
9	0xb9c64f88	-0.00037824758
10	0x3eced519	0.40396956
11	0xbf10edf6	-0.566131
12	0xbf5fa7e6	-0.8736557
13	0xbf00f98b	-0.5038077
14	0xbc686f16	-0.014186641
15	0xb9308e0e	-0.00016837587
16	0xbf3be65f	-0.73398393
17	0x3ed45eb1	0.41478494
18	0x3e0199b0	0.12656283
19	0x3e839833	0.25702056
20	0xbed62cd2	-0.4183107
21	0xbf51652f	-0.8179502
22	0xbe3a26a9	-0.1817881
23	0xbefbdba0	-0.49190998
24	0xbf25caf2	-0.64762795
25	0xbf03ff0f	-0.51561064
26	0xbea28255	-0.3174006
27	0xbf1847d5	-0.59484607
28	0xbf8087bc	-1.0041423
29	0xbbd1283f	-0.0063829715
30	0xbef6d19c	-0.48206794
31	0xbf11ea84	-0.5699847
32	0xba18a49f	-0.00058228703
33	0xbe8cb28b	-0.27479967
34	0xbbc8def3	-0.0061300932
35	0xbbb0b272	-0.005392366
36	0xbe24b95d	-0.16086335
37	0xbf14cee7	-0.5812821
38	0x3f0bb85e	0.54578197
39	0x3f165a06	0.58731115
40	0xbaba76b4	-0.001422605
41	0xbe94d32b	-0.29067358
42	0x3e0fd43b	0.14045803
43	0x3f29a4e9	0.6626726
44	0xbeb3a118	-0.35083842
45	0xbbdcfa9a	-0.006743741
46	0xbf1ef17f	-0.62087244
47	0xbf5cfb48	-0.86320925
48	0x3d313937	0.043267455
49	0x3d5cef38	0.053939074
50	0xbda406d9	-0.080091186
51	0xbf1fad19	-0.623735
52	0xbf605f8b	-0.87645787
53	0xbf5d93a5	-0.8655341
54	0xbf593255	-0.84842426
55	0xbebc3c00	-0.36764526
56	0xbf30f9a2	-0.6913091
57	0xbec13f27	-0.37743494
58	0xbd531dc3	-0.051542055
59	0xbf8d8ed7	-1.1059216
60	0x3fc2b2c6	1.5210807
61	0x3de1b92c	0.11021647
62	0x3f7a9999	0.9789062
63	0xbc83bd5c	-0.016081505
64	0x3dbb9b27	0.09160452
65	0xbeb08342	-0.34475142
66	0xbf2e2804	-0.6802981
67	0x3f306ba9	0.68914276
68	0x3f9c8d03	1.2230533
69	0xba55da19	-0.0008157804
70	0xbf14cf22	-0.5812856
71	0xbef2d8ca	-0.47431022
72	0xbd99f1bb	-0.075168096
73	0x3eee69bd	0.46565047
74	0x3f2f929f	0.685831
75	0xbeaf2622	-0.3420878

weight f4 [10, 76]
0	0xb9a054f9	-0.00030580888
1	0x3f0eaffb	0.55737275
2	0xbf1185ce	-0.56844795
3	0xbdace029	-0.08441193
4	0xbf86af4f	-1.052225
5	0x3b47cac6	0.0030485853
6	0x388a17c2	6.584778e-05
7	0xbe8be9bb	-0.2732676
8	0xbfa66ff6	-1.3002918
9	0xb742633c	-1.1586406e-05
10	0xbf377d58	-0.71675634
11	0xbec77327	-0.38955042
12	0xbf5de5d6	-0.86678827
13	0xbe21e908	-0.1581155
14	0xbc49d2c6	-0.012318319
15	0xb889e4bf	-6.575276e-05
16	0xbf737bb4	-0.9511063
17	0xbfa8fe1c	-1.3202548
18	0xbeea3348	-0.4574225
19	0x3e9186d4	0.28423178
20	0x3d846a7a	0.06465621
21	0xbf200035	-0.62500316
22	0x3f3d57ef	0.739623
23	0xc0044240	-2.0665436
24	0xbfb0cd2d	-1.3812615
25	0xbb4f963d	-0.0031675242
26	0xbed89fff	-0.42309567
27	0xbe820d06	-0.2540056
28	0xbf5d4eaa	-0.86448157
29	0xb92e3368	-0.00016613083
30	0xbd1b723d	-0.037950743
31	0xbdf5cb28	-0.120016396
32	0xb9e9e216	-0.0004460967
33	0xbd3fd13a	-0.046830393
34	0xbb949b95	-0.0045351484
35	0xbb7a8afa	-0.003822981
36	0xbf30cd28	-0.69063044
37	0xbf5db928	-0.8661065
38	0x3e112be2	0.14176896
39	0xbf920c64	-1.1410031
40	0x3a4bc4a0	0.0007773135
41	0x3dd95b92	0.10613169
42	0xbfa393c4	-1.277947
43	0xbf8a5949	-1.0808498
44	0xbd8a7435	-0.06760446
45	0xbbf3e5c1	-0.0074431603
46	0x3e89f6e0	0.26946163
47	0xbe213988	-0.15744603
48	0xbe3cbc2c	-0.18431157
49	0x3f0ab4e6	0.5418228
50	0xbc58a5a4	-0.013223086
51	0xbf10b8e3	-0.56532115
52	0xbedb8959	-0.42878225
53	0xbf8dd7e9	-1.1081516
54	0xbe98dd56	-0.29856366
55	0xbf3c93c5	-0.7366298
56	0xbe369d54	-0.17833453
57	0xbe62a8f5	-0.22134764
58	0xbf6c3d87	-0.92281383
59	0xbf71a4de	-0.9439219
60	0xbe56d545	-0.20979793
61	0xbff50e43	-1.9144977
62	0xbf3893de	-0.7210063
63	0x39f6cc50	0.00047073
64	0xbf57d8d0	-0.84315205
65	0xbf4b2c6a	-0.79364645
66	0xbe1cd558	-0.15315759
67	0x3ece573c	0.4030093
68	0xbf1e239c	-0.61773086
69	0xb9c40d16	-0.00037393783
70	0xbefbb388	-0.4916041
71	0x3efa3ce7	0.4887459
72	0xbe20b4b2	-0.1569393
73	0xbf564b9e	-0.8370913
74	0xbe3fce85	-0.18731125
75	0xbe8977bb	-0.2684916
76	0xb82705fc	-3.9821476e-05
77	0x3da09457	0.078407936
78	0xbf78b24c	-0.9714706
79	0xbf06e931	-0.5269957
80	0x3ed35688	0.41276956
81	0xba692019	-0.00088930276
82	0x38c4dbb9	9.386935e-05
83	0xbe982b23	-0.2972041
84	0xbd0d5716	-0.03450688
85	0xb92b20e5	-0.00016320085
86	0xbdddb997	-0.10826414
87	0xbfaeb330	-1.3648434
88	0xbf2990f7	-0.66236824
89	0xbeae5d74	-0.34055674
90	0xbc7ff874	-0.015623201
91	0xb9d7fd27	-0.0004119661
92	0xbec6adde	-0.38804525
93	0x3f0e35e0	0.55550957
94	0xbf137fd1	-0.5761691
95	0xbe8efb8a	-0.27926284
96	0xbf5aa55d	-0.85408574
97	0xbe46f83d	-0.19430633
98	0xbf40503c	-0.7512243
99	0xbd9fa5b1	-0.07795275
100	0xbe76bece	-0.24096224
101	0xbf5ac811	-0.8546153
102	0xbeb30186	-0.349621
103	0xbd80e2c4	-0.06293252
104	0xbf42a5f8	-0.760345
105	0x3b62ee08	0.003462674
106	0xbe4e9ef1	-0.20177819
107	0xbfc2e56c	-1.5226264
108	0xba7baab1	-0.0009600325
109	0xbe4b5ea4	-0.19860321
110	0xbb5cd9ce	-0.0033699158
111	0xba95c2fe	-0.001142591
112	0xbdc9f97c	-0.098620385
113	0xbf490693	-0.78525656
114	0xbe316d1b	-0.17326777
115	0xbf1a9a05	-0.60391265
116	0xba3fbb52	-0.00073139847
117	0x3d2638e0	0.040581584
118	0x3d66981c	0.056297407
119	0x3f61dc9f	0.88227266
120	0xbda8637f	-0.082221024
121	0xbbbe109d	-0.0058003203
122	0x3e86cc9e	0.26327986
123	0xbf6a7a8b	-0.91593236
124	0xbf233e91	-0.63767344
125	0xbd191095	-0.03736933
126	0x3d87aefe	0.06625174
127	0xbee03445	-0.43789878
128	0xbe557724	-0.2084623
129	0xbe10a79e	-0.14126441
130	0xbe92aa34	-0.2864548
131	0x3ea06045	0.31323448
132	0xbed184ea	-0.40921718
133	0xbf029418	-0.51007223
134	0x3f1da160	0.61574364
135	0xbec7498c	-0.389233
136	0x3f2e414d	0.6806839
137	0xbeaaa21b	-0.33326802
138	0x3ea4e474	0.32205546
139	0x3c4423f0	0.011971459
140	0xbd83b431	-0.06430853
141	0xbe52ee77	-0.2059878
142	0xbfa4c6a8	-1.2873125
143	0xbe25f75f	-0.16207646
144	0x3ed6f06b	0.419803
145	0xba827da9	-0.0009955663
146	0xbe6ba532	-0.23012236
147	0xbff6b7cb	-1.9274839
148	0xbf239fe2	-0.63915837
149	0xbdda663b	-0.1066403
150	0x3e31f048	0.17376816
151	0xbed5d86e	-0.41766685
152	0xb959eb48	-0.00020782382
153	0xbf60ebf0	-0.8786001
154	0xbf46cf9a	-0.77660525
155	0xbf741169	-0.95339066
156	0xbd01339f	-0.03154337
157	0x3ad325fd	0.0016109344
158	0xb9c431a9	-0.00037421033
159	0xbef2bafb	-0.4740828
160	0xbf1cc537	-0.61238426
161	0xb88a4fc4	-6.59521e-05
162	0x3d8bf178	0.06833166
163	0xbee0a123	-0.43872938
164	0xbefc37d4	-0.49261343
165	0x3eef7a7b	0.46773133
166	0xbc75327d	-0.014965651
167	0x3936a28d	0.00017417427
168	0xbedd966b	-0.43278822
169	0x3e393de1	0.18090011
170	0xbe260b95	-0.16215356
171	0x3ed8b3a1	0.42324546
172	0x3d3afcc1	0.0456512
173	0x3e7a3b84	0.24436766
174	0xbe084ec9	-0.13311304
175	0x3e21d10c	0.15802401
176	0xbf0a6004	-0.5405276
177	0xbf427294	-0.7595608
178	0x3f14271d	0.5787218
179	0x3ecd41aa	0.4008916
180	0xbec6b104	-0.38806927
181	0xb83a8e28	-4.447825e-05
182	0xbeb1c23e	-0.34718508
183	0xbf1f1c03	-0.6215212
184	0x399f0a8a	0.00030334695
185	0xbeced716	-0.40398473
186	0xbb28eff9	-0.00257778
187	0xba4380d9	-0.00074578595
188	0xbf118fa3	-0.568598
189	0xbf2b776e	-0.6697911
190	0xbfa74725	-1.3068587
191	0xbf36965f	-0.713232
192	0x3b112333	0.0022146225
193	0x3ea7be4c	0.32762372
194	0xbfa0f19e	-1.2573736
195	0xbf908e06	-1.1293342
196	0x3e83158f	0.25602385
197	0x3b9552b6	0.004556979
198	0x3f05258f	0.52010435
199	0x3f08e415	0.53473026
200	0xbed28113	-0.411141
201	0xbf016439	-0.5054355
202	0xbc57e846	-0.013177937
203	0x3f278c21	0.65448195
204	0xbf0c9fe9	-0.54931504
205	0xbf20536f	-0.6262731
206	0x3dada39b	0.08478471
207	0xbe830443	-0.2558919
208	0xbe8c8c33	-0.27450714
209	0x3f0de112	0.55421555
210	0xbef3901f	-0.47570893
211	0xbe0249b0	-0.12723422
212	0xbf728492	-0.94733536
213	0xbf178241	-0.59183127
214	0xbf2a9d4b	-0.6664626
215	0xbb6f83fb	-0.0036547172
216	0xbee2f908	-0.4433062
217	0x3eaebfc9	0.34130695
218	0xbf0f2762	-0.5591947
219	0xbeebf161	-0.46082595
220	0xbea7bbb1	-0.32760385
221	0xb9cc9b2a	-0.00039025518
222	0xbee34e89	-0.44395855
223	0xbd865e76	-0.06560986
224	0xbed833cc	-0.42227018
225	0xbd5043e5	-0.050846
226	0xbf5f3391	-0.8718806
227	0x3d231400	0.039813995
228	0x38a4badf	7.854937e-05
229	0xbf4a655f	-0.7906093
230	0xbf21023f	-0.6289405
231	0xbf69eca9	-0.9137674
232	0xbf84f553	-1.0387367
233	0x3b56a9b6	0.0032754964
234	0xb960ed24	-0.00021450646
235	0x3d57e0f3	0.052704763
236	0xbe867576	-0.2626149
237	0x38d81549	0.00010303647
238	0xbf28ed44	-0.6598704
239	0x3e37f15d	0.17963167
240	0x3f3b2926	0.7310966
241	0xbdc22e88	-0.094815314
242	0xbc3170bf	-0.010830103
243	0xb91c51c1	-0.00014907775
244	0xbf3884ce	-0.72077644
245	0xbf1b504f	-0.60669416
246	0xbfa1abfa	-1.2630608
247	0xbf491d7a	-0.785606
248	0x3db1535c	0.08658478
249	0x3ea86027	0.32885858
250	0xbf0406e0	-0.5157299
251	0xbf29beaf	-0.66306585
252	0xbf257874	-0.6463692
253	0xbdf54d31	-0.11977614
254	0xbf12def4	-0.5737145
255	0xbe53acbe	-0.20671365

bias f4 [10]
0	0xbea297d4	-0.3175646
1	0xbe6ff640	-0.2343378
2	0x3de00ea5	0.10940293
3	0xbd440d43	-0.04786421
4	0xbd3ed61b	-0.046590906
5	0xbf23b424	-0.6394675
6	0x3d89cbb7	0.06728309
7	0xbe89bf5d	-0.2690381
8	0x3f93cdc6	1.1547172
9	0xbe202294	-0.1563819
