checkpoints/YourNet/pruned/7/epoch-11.pth (torch, 33991 bytes, 10 tensors)

weight f4 [3, 1, 3, 3]
00000000: 08f8 143f d8bd 9a3e 5e84 99bf 7ca0 84be
00000010: 31d7 a9bf bddd b2be f1eb 1abf a443 3e3e
00000020: 97e0 ce3e df11 003d 7fa4 2f3e 8ab4 013e
00000030: f1ed 013e 672e 763e 430b b03d d5b6 833d
00000040: eae4 103e fddc fe3c cd12 aa3d 57a5 943e
00000050: a2e9 333f ea7a a5be f700 963e 6e19 93be
00000060: 44a2 86bf 88ac 1ebf 490d 7abf
0.58190966 0.30222964 -1.199352 -0.2590369 -1.3268796 -0.34934798 -0.6051627 0.1858049
0.40405723 0.031267043 0.17152594 0.12666526 0.12688424 0.24041139 0.08595898 0.06431357
0.14149824 0.031111235 0.08304367 0.29032394 0.7027837 -0.32320338 0.2929761 -0.2873034
-1.051827 -0.6198201 -0.9767652

bias f4 [3]
00000000: 0758 98bf 1bfb b23e 3a26 b3bf
-1.1901864 0.34957203 -1.3996041

weight f4 [5, 3, 3, 3]
00000000: e6ab 96be 58aa 2bbf 477b 58c0 6ab2 7f3e
00000010: ab11 80be a90e fbbf d345 3d3f 5ff4 003e
00000020: ea0e d63e bc34 a53e 314d 893e 6032 cd3e
00000030: 2465 c0be dc9b 08bf 7e38 3d3f 35bf 8abf
00000040: 5c0f 983e 8128 6d3e 23d0 123e 3a16 223f
00000050: 37c9 b2bf ffdf 2c3f 207f f63e bb01 14c0
00000060: da23 46be d55b 2ebf 8b30 17bf a649 013f
00000070: 7fd2 5d3f c691 403f 63e1 20c0 0f3a 703e
00000080: 7b89 653f 80ef 6cc0 bda9 34c0 d3d3 c03e
00000090: 8e85 6d3f 89b6 213e 95f8 b0bb 7a39 883f
000000a0: bcfa 09c0 3871 08bf 58ca e7be b369 9d3f
000000b0: ce54 2c3f 0c8b 01c0 87db 18bf 1846 d23e
000000c0: 10ad b7be 00c7 36bf e489 053f 8f0a 613f
000000d0: fdb9 f03e 6f4d df3e 7d3b 213e 7956 09bd
000000e0: 2912 78be 67be 57bf eb1f 9bbf f6d5 6cbf
000000f0: a39d 993d 4adf e2bf 3887 cabe cd51 943e
00000100: 421b 94be 8888 cabf 427e 9ebd 07c0 fd3f
00000110: 1a51 5cbf bcd4 9ebf e7e2 6b3f dbe8 683e
00000120: 85eb b4be bbff 74be 3605 183e 57a4 683e
00000130: f85b ec3e f6a5 c2bf cec2 613d d6f5 3fbe
00000140: 8171 86bf a847 04bf 0d03 15bf 4ae7 6c3e
00000150: 0a03 05bd 24c4 293e 7c11 f73e 727e ea3e
00000160: 2fae 7dbd c4f4 f3be 2763 d63e 18ab 57bf
00000170: 6fd1 74bf 2cf2 6f3f 8d5c d4be 3230 2e3f
00000180: 4315 68be c41d e1bf fb4b 603f c80c 00bf
00000190: 0a21 17c0 3d7a b7bf 02da 86bf 6e86 7fc0
000001a0: 0a09 68bf 2f6b 7bbf b8e2 aabf e12c cfbf
000001b0: 7db4 0fbf e7d8 19bf e01f dbbe 9c44 28be
000001c0: 2711 68be c846 e2be 9289 183f 5aa1 2d3d
000001d0: 04ab 4a3e 4b75 29c0 9d8d 9bbf 9c50 693f
000001e0: 1efd b73e e12e 4dbf 2626 04c0 56a7 153f
000001f0: 6c5f 7b3f 8193 7a3f 75e4 86bd f5b0 513e
00000200: 8caa 5a3f faeb 86bf 79d7 883f 11ef f13c
00000210: 3917 a73d 48ca bd3e ecb0 e93d
-0.29428023 -0.670568 -3.3825243 0.24970403 -0.2501348 -1.9613849 0.7393467 0.1259322
0.41808254 0.32266796 0.26816705 0.40077496 -0.37577164 -0.5336282 0.73914325 -1.0839602
0.29699218 0.23159982 0.1433721 0.63315165 -1.3967656 0.6752929 0.48143864 -2.3126056
-0.19349614 -0.68108875 -0.59058446 0.50503004 0.86649317 0.7522243 -2.5137565 0.23459648
0.89662904 -3.702118 -2.82286 0.3766161 0.92781913 0.15792288 -0.005400727 1.064254
-2.1559286 -0.5329776 -0.45271564 1.2297882 0.673169 -2.0241117 -0.5970997 0.41069102
-0.35874224 -0.713974 0.5216353 0.87906736 0.47016898 0.43613765 0.15745349 -0.033529732
-0.24225678 -0.84274906 -1.2119116 -0.9251398 0.0750077 -1.7724392 -0.3955629 0.2896866
-0.28927046 -1.5822916 -0.077389255 1.9824227 -0.8606125 -1.2408671 0.921431 0.22745077
-0.35335937 -0.23925678 0.14845738 0.2271894 0.46163917 -1.5206897 0.05511742 -0.18746123
-1.0503389 -0.5167184 -0.5820778 0.23135105 -0.0324736 0.16578728 0.48255527 0.45799595
-0.061933693 -0.4764768 0.41872522 -0.84245443 -0.9563207 0.937289 -0.4147686 0.6804229
-0.2266436 -1.7587209 0.87615937 -0.500195 -2.3613915 -1.4334179 -1.0535281 -3.99258
-0.9063879 -0.98210424 -1.3350439 -1.6185571 -0.5613478 -0.6009659 -0.42797756 -0.16432422
-0.22662793 -0.44194627 0.59584916 0.042390205 0.197918 -2.647784 -1.2152592 0.91138625
0.359353 -0.80149657 -2.0648284 0.5845846 0.9819248 0.97881323 -0.065865435 0.2047766
0.85416484 -1.0540764 1.0690757 0.029532941 0.08158726 0.3706839 0.11410698

bias f4 [5]
00000000: 181a a4bf 94bf 1dc0 5b8d 8abe dbde 1e3f
00000010: c94e d6bc
-1.2820463 -2.464818 -0.2706097 0.620588 -0.026160615

weight f4 [40, 125]
00000000: 2729 febf 3ef9 f7bf d024 32bf 27cf 0cbe
00000010: eb47 7bc0 9654 913f 4697 5c3f 8f7c c03e
00000020: 7d0a 1d40 1920 a3bf c7a1 513f 65c0 abbf
00000030: 8ec5 993e 06e8 2640 6fc3 85be aa9c bebf
00000040: a382 c3c0 8bbd 70bf 8f65 f3bf bb7d 96bf
00000050: 57a0 46be 4fea e23f 1b8e 2a40 2d5d 5b3e
00000060: 133a 12c0 a9ef ad3f 5a7d bb3f d084 5f3f
00000070: 0f19 77bf a03d 67bf dd66 803f 87ae ba3e
00000080: c7ee bdbf 37e0 ba3f b1d9 1ebf 319b f9bf
00000090: 8a36 7bc0 46c2 8ac0 b68a 7dbc f589 05be
000000a0: a7b0 4c3f 623f 98c0 8a68 adc0 c016 c3bf
000000b0: ca8b e3be 2707 1ec0 e86e c3c0 f5c0 a5c0
000000c0: ae1d 01c0 95c6 1c40 c7a5 04c0 3e9d 983f
000000d0: c58d 23c0 d55b 72c0 832b 61c0 4a64 3040
000000e0: 72af 6a40 f2bb b63d 318d cb3e fb82 913f
000000f0: 7556 53bf 357c 643f 46b0 59c0 0766 20bf
00000100: fd6e b4be 72a3 70c0 53d7 2abe 872e dabf
00000110: 8d5d 16c0 e7e1 13c0 b347 58c0 df33 6bc0
00000120: 58c1 cdbf 8d53 eb3e 159a 9f3f d5a9 d63f
00000130: b664 ce3f 8cdd 3ac0 4f57 db3e 8399 0dc0
00000140: dfeb 273f ce64 a33f c178 17c0 2da6 1fc0
00000150: 2307 a03f 547f 54bf 0a99 523f acf4 3540
00000160: 3967 eabd 0eee 983e d6bd 54c0 f2d7 2abd
00000170: 92e9 f43e 3529 0ebf 9df2 ccbd bbc5 2140
00000180: 02c0 c23f 61aa a83f 9451 b93f 7c8c f53b
00000190: efe5 d63f 0e11 ea3f 7037 173f 8965 b9be
000001a0: 9be0 ba3f 0502 9a3f 5bab 9d3f f3f0 0040
000001b0: ef7d c53f d600 243f 4d97 0640 69e6 233f
000001c0: dd21 0040 37cd 9bbf ae79 18be da65 a03f
000001d0: 8470 cfbf a05f eebf cc3e b6be 24da 1d3f
000001e0: a98f fd3f b445 e9bd b036 07c0 7c59 dbbe
000001f0: e2f5 0fc1 277e 4ec0 ff46 acbe 8b89 33c0
00000200: 9579 06bf 1297 c13f 4eaa 44bf f042 433e
00000210: d510 87bf 46dd 5dbe 9a65 2ec0 f48f 4fbf
00000220: bdbc 1e3f 5d10 0f3f 7faa d7bf 1e76 73c0
00000230: 63b3 2ec0 ceac a73f b4ba 1840 9d3b 8fbe
00000240: d5fc 23c0 a7cc be3e 001e fcbc 3ab5 e13f
00000250: ea7b d43f 2e31 d4bf 33af aec0 8b2c aabf
00000260: 5ff6 0240 abcb 4ac0 e854 08c0 e835 ddbf
00000270: 11a4 16c0 fea9 743f d9f4 ab3e c7e2 283f
00000280: cf06 da3f a32e bbbe af12 323f 1734 8c3e
00000290: c529 fa3f 1bee e7bf d2a9 993c 8e3b 77be
000002a0: 351f 18c0 3bb2 0240 28c3 e63e 9207 90bf
000002b0: fd7e f2bd c856 00c0 6fce f23f e552 82bf
000002c0: cf14 71be 63cf 1440 0f2d 1d3e 5038 8abd
000002d0: 1257 62c0 6943 0ec0 b5a4 913f 54ab d4bd
000002e0: 22fb acbf f174 cdbf fafc 473f f5c6 483f
000002f0: fb0e 35bf 3c2b f6bd f9a1 8cc0 c57a 75bf
00000300: b4da 3fbe 1286 c6c0 0198 41c0 1feb 72c0
00000310: 951f 3dbf 7c19 71c0 a4d6 63bf fe60 f1bf
00000320: 3a72 a8c0 15fe f23e 46aa 683c 342b 4740
00000330: 9089 0040 6dad c4be cd32 96bd f083 7bbe
00000340: 06c9 6b40 0a4d 423f b901 083e 4d6b 4abb
00000350: 8a9d 4fbf 4b4c 01c0 bd6e 2bbd b4e6 3dc0
00000360: 022b 49bf 17c2 5bc0 556d fabf 3306 50c0
00000370: 12db 383f 1a17 833f 5f86 ba3f 15d7 9abf
00000380: 4dae 85c0 5602 5bc0 77e1 d9bf 8ab2 013f
00000390: 0117 fdbf 71aa ab3d bf2a bb3f 335a f1bf
000003a0: 6a37 c23d e126 fe3e 01ce d5bd 3d72 e33f
000003b0: 5fd9 eabe 7ccb 11c0 aa37 45c0 5f71 9a3f
000003c0: afa4 f73f 822e 863f cbda 1bc0 1c80 95bf
000003d0: 16a3 bcbe cbff 613f 4e36 d4be 7f1d 2e40
000003e0: ea55 afbf 7038 15be aca2 fcbd 89cf 6fc0
000003f0: 7ad9 28c0 11ee 4f3f ad38 4ec0 a094 3dc0
-1.9856309 -1.9372938 -0.6958742 -0.13750897 -3.9262645 1.1353939 0.86168325 0.3759503
2.4537652 -1.274417 0.8188748 -1.3418089 0.30033535 2.6079116 -0.26125666 -1.489156
-6.109697 -0.9403922 -1.9015368 -1.175712 -0.19397102 1.7727755 2.6649234 0.21422262
-2.2847946 1.3588763 1.4647629 0.8731203 -0.9652261 -0.9032841 1.0031391 0.3646128
-1.4838494 1.4599675 -0.6205092 -1.9500486 -3.9252038 -4.336215 -0.015474966 -0.13040908
0.7995705 -4.757737 -5.419011 -1.5241318 -0.44442588 -2.4691865 -6.1072884 -5.1798043
-2.0174365 2.4496205 -2.0726182 1.1922987 -2.555528 -3.786855 -3.5182807 2.7561212
3.6669583 0.089225665 0.39756158 1.1368097 -0.825538 0.89252025 -3.4013839 -0.6265568
-0.35240927 -3.759976 -0.16683702 -1.7045449 -2.34946 -2.310663 -3.3793762 -3.675041
-1.6074629 0.45962182 1.2468897 1.6770579 1.6124485 -2.9197721 0.4284005 -2.2124946
0.65594286 1.2765138 -2.3667452 -2.4945176 1.2502178 -0.8300679 0.8226477 2.8430586
-0.114454694 0.2986912 -3.3240867 -0.041709848 0.4783445 -0.55531627 -0.10007212 2.5276935
1.5214846 1.3176996 1.4478021 0.0074935537 1.678892 1.8286455 0.59068966 -0.36210278
1.4599794 1.2031866 1.2317919 2.0147064 1.5429057 0.64063776 2.1029847 0.64023453
2.0020669 -1.2172002 -0.14890167 1.2531083 -1.6206212 -1.8622932 -0.35594785 0.6166098
1.9809467 -0.11390248 -2.1127129 -0.4284171 -8.99753 -3.2264497 -0.33647916 -2.80527
-0.5252927 1.5124228 -0.76822364 0.19068503 -1.0552012 -0.2166644 -2.7249513 -0.8107903
0.6200674 0.55884343 -1.6848906 -3.8040843 -2.729699 1.3099611 2.3863955 -0.2797517
-2.5623066 0.37265512 -0.030776024 1.7633431 1.6600316 -1.6577508 -5.4588866 -1.3294843
2.0462873 -3.168681 -2.1301823 -1.7282076 -2.3537638 0.9557189 0.3358524 0.65971035
1.7033328 -0.36559018 0.6955976 0.2738349 1.9543997 -1.8119539 0.018757734 -0.24143812
-2.3769047 2.0421283 0.45070767 -1.125231 -0.11840627 -2.0052967 1.8969249 -1.0181547
-0.23543094 2.3251579 0.1534922 -0.06749022 -3.5365644 -2.2228644 1.137839 -0.10384241
-1.351414 -1.6051313 0.78120387 0.78428584 -0.70725983 -0.12019965 -4.394772 -0.95890456
-0.18735772 -6.203866 -3.0249026 -3.7956007 -0.73876315 -3.7671804 -0.8899939 -1.8857725
-5.2639437 0.47459474 0.014200753 3.112012 2.0083961 -0.38413563 -0.07333908 -0.24562049
3.6841445 0.758988 0.13281907 -0.003088671 -0.8109976 -2.0202816 -0.041853655 -2.967206
-0.7858125 -3.4337213 -1.9564615 -3.2503784 0.72209275 1.0241425 1.4572257 -1.2096888
-4.177527 -3.4220176 -1.7021931 0.50663054 -1.9772645 0.083821185 1.462242 -1.8855652
0.09483226 0.49639037 -0.10439683 1.7769238 -0.45868966 -2.2780447 -3.0815225 1.2065848
1.9347132 1.0482943 -2.435229 -1.1679721 -0.36843175 0.88280934 -0.4144768 2.7205503
-1.3698094 -0.1457231 -0.12335715 -3.747042 -2.6382737 0.81222636 -3.2222092 -2.9621964

bias f4 [40]
00000000: 472a 9f3f c941 22c0 5b49 c5bf 4870 87c0
00000010: 249a ffbf 7d72 0ec0 3f35 c3bf 2db5 1bc0
00000020: 1bc9 69bf 2980 d13d 3ac3 ebbc 7025 b640
00000030: c779 88bf 68f4 08c0 2290 72c0 2511 f3bf
00000040: 4344 10c0 11d4 20c0 f3df 0dc0 3181 2cbf
00000050: 7937 febf 5382 e93e 21d0 94be 6a14 3cc0
00000060: ffff 5a3f c80c c33f 1c21 0fc0 4703 333f
00000070: 7172 eabf ab30 13c0 c5ba 743d 8526 0840
00000080: 81e6 79bf 12fe b1bf 93ee af3f d781 fabf
00000090: 1316 46c0 4c24 14c0 66f1 45c0 6639 03bf
1.2434777 -2.5352652 -1.5413011 -4.232456 -1.9968915 -2.2257378 -1.5250624 -2.432933
-0.9132249 0.10229523 -0.028779615 5.69207 -1.0662163 -2.1399174 -3.7900472 -1.8989607
-2.2541664 -2.5129435 -2.2167938 -0.6738463 -1.9860679 0.45607242 -0.2906504 -2.938746
0.8554687 1.5238276 -2.2363958 0.69926876 -1.8316175 -2.2998455 0.05974843 2.127351
-0.97617346 -1.3905661 1.3744682 -1.9570874 -3.0950973 -2.3147154 -3.0928588 -0.5125946

weight f4 [44, 40]
00000000: 369b 8ebf d23e 333e d703 99bd 714f 883f
00000010: 86d5 1d3f 2946 b33e 2744 453e 71b2 5bbf
00000020: b5a8 89bf 488b a2bf 8e39 b23e f716 a2bf
00000030: 9a08 ee3d a5ed d23d 2df9 b03f 2b20 58bf
00000040: c305 99be fa55 2bbf 9a4b 1d3e 1c10 29be
00000050: 1c84 acbf 31ed 3cbf 7d89 86bf d275 73bf
00000060: d9ae 8ebe deba 11bf 5f69 8e3f 0a83 3ebf
00000070: c612 fabe 3b6a 8ebf d4c2 91bf 41b5 89bf
00000080: e0ac 6bbf 2eb6 52bf 3634 8b3d a025 6ebe
00000090: e5c5 98be ff71 86bf 75c5 a1be e0d8 8fbe
000000a0: 738d 04bf 9205 5a3f 82d7 e4bf b2ca 443f
000000b0: 6ec0 23be 48be 753f f0b8 14bf d9ab 543f
000000c0: e59e a5bf 8641 4ebf 23d0 413e 1459 b9bf
000000d0: 8e95 af3e 67a9 013e c611 4fbf 1f7a bdbe
000000e0: 8746 af3d f292 55bf 1b2e ca3e 9d54 38bf
000000f0: a4a9 163f 5067 81bf 4402 aa3e e4e7 363f
00000100: 307e 82be e9fd 8fbf df5e 263f 3bab cfbf
00000110: 1ab4 49bf 5f92 293f 5aaa d9bf 361f ffbf
00000120: 41f7 adbf f78e 393f 79f3 3abf 14df d73c
00000130: d117 dc3d 4f20 883f a8fc cebe e45c e83e
00000140: 99c9 26be 41a0 c7bf fac5 b2bf dfe0 af3f
00000150: 314c 60bf bee3 36be 0d06 96be dfad b0bf
00000160: e5ea 093f 13a7 3fbf 44a0 603f bf4c ff3d
00000170: 45d6 98bf 0cd4 933f cf05 b23f e572 53be
00000180: 3828 00c0 c7e1 f9be 8b03 493f fc47 07bf
00000190: 337c f1be 28eb 9ebf 3e57 c2bd 1890 eebf
000001a0: 1f6e 0cbf 968b 3cbf 91df 6cbf 6e9d 85bf
000001b0: 382b 243e e759 47bf b14a 3d3f 0040 18bf
000001c0: 175c a4bf 9296 50bf 6917 f5bd 200d 2b3e
000001d0: 03e6 873e dd59 f0be ecb9 5ebe 42e9 01bf
000001e0: 77cd 5f3f efa4 be3e e033 a8bf 0ea2 7dbf
000001f0: 17ae 2dbf 22e2 a0bf 1789 2e3e 3f3e 963f
00000200: 4569 0b3d b40c 17bf cc90 8e3e a1d1 22be
00000210: 6c57 0ec0 2b24 e5be a00c 00bf 407f a5bf
00000220: 3b21 6dbd 51fa 883c 55ab b2bd 3b5f 07be
00000230: a486 18bf 62b6 81bf e237 06c0 cb05 78bd
00000240: 77ca 0bbf 8ed1 f0bf f9df ce3f 6ffa 8a3f
00000250: e3ec 98be a257 75bf 887d 3dbf 5508 b43e
00000260: 3222 273e bb21 b33f e920 5d3e c996 a8be
00000270: d399 febf 3395 7cbf 01a0 67bf b505 0c3f
00000280: ac1d 0a3d 0fb8 ce3f 3efd 69bf e11f c1be
00000290: 132f 80bf 3784 383f 1fb5 87bf ba01 1c40
000002a0: 0922 f7be c2b2 ac3e 8e6d 153e 3efa 9cbf
000002b0: df88 f3bf bd7d 753e 6f09 60bf 92de 9abe
000002c0: c5a2 49be d2ee 1ebf 3794 513e 12f1 cdbe
000002d0: c969 44bf 7496 533f 89f2 9e3f dc56 a0bf
000002e0: de99 02c0 1a24 55bf 086d 2540 b903 19bf
000002f0: a765 9dbf f01e 42bf 03c1 7cbf 8543 813e
00000300: 89d9 063f a5a0 e23d 4aa8 1bbf 83c0 873e
00000310: 641f 96bf 0cbe cabd 03ee 623f 5d35 873f
00000320: 066c 79bf ca39 45bf a5d5 c73e a006 85bf
00000330: cbce cebf d8dd 2ebe a0e8 32bf ac67 4a3f
00000340: ac48 6bbf a252 fabf cb88 0fbf 4fdc eebf
00000350: d2f1 24bf 9d5e 24bf 00cb 97bf beb5 1bbf
00000360: a226 a8bd dd3f e7be 916a 653f a615 9a3f
00000370: 2e16 dbbf a953 51ba face b3bf e513 afbd
00000380: 0e81 2a3f 8202 82bf 16c3 9dbf 5b10 54be
00000390: eb19 133d 50ba bf3e c96f 09bf 9537 0ec0
000003a0: ff70 033d 2293 7fbe 1a00 adbf ad27 aebe
000003b0: 9377 2b3d 30d6 553e a40c debe 2e22 883d
000003c0: 02eb c6bf fc2e 273f a627 093f 8ab2 3abf
000003d0: 7124 503f ece2 c0bf 7d57 a23f 2bb5 763e
000003e0: fa62 4e3e cd94 1e3f 5a48 f9bd cf49 ebbf
000003f0: e584 eabe 070a 07bf 514a 59bc 9e3a 1bba
-1.1141117 0.17504433 -0.074714355 1.0649244 0.61653936 0.35014465 0.1926428 -0.85819155
-1.075461 -1.2698755 0.34809536 -1.2663258 0.11622734 0.10299233 1.3826042 -0.84424084
-0.29887208 -0.66928065 0.15360871 -0.16510051 -1.3477817 -0.73799425 -1.0510708 -0.95101655
-0.27867773 -0.5692576 1.1125907 -0.744187 -0.48842448 -1.1126169 -1.1387582 -1.0758439
-0.9206066 -0.82309234 0.06797068 -0.2325654 -0.29838482 -1.0503539 -0.3159596 -0.2809515
-0.51778334 0.8516475 -1.7878268 0.7687179 -0.15991375 0.9599347 -0.5809469 0.8307472
-1.2939116 -0.8056873 0.18927054 -1.448031 0.3429379 0.12662278 -0.80886495 -0.37007234
0.08558374 -0.83427346 0.394883 -0.7200411 0.588526 -1.0109653 0.33204854 0.71447587
-0.25486898 -1.1249362 0.6498851 -1.622413 -0.7879044 0.6623897 -1.7005112 -1.99314
-1.3591081 0.7248377 -0.7302776 0.02635149 0.1074673 1.063486 -0.40427136 0.4538337
-0.16287841 -1.5595781 -1.3966668 1.37405 -0.8761626 -0.17860314 -0.2930149 -1.3803061
0.53874046 -0.7486431 0.87744546 0.1246581 -1.194039 1.1549087 1.3908023 -0.20649298
-2.0024548 -0.48805067 0.7852103 -0.52844214 -0.4716507 -1.2415514 -0.094892964 -1.8637724
-0.5485553 -0.7365049 -0.92528635 -1.0438669 0.16032112 -0.77871555 0.73942095 -0.59472656
-1.2840604 -0.8147975 -0.11967356 0.16704226 0.26542673 -0.4694356 -0.21750611 -0.5074655
0.8742289 0.3723521 -1.3140831 -0.990754 -0.67843765 -1.256901 0.17044483 1.1737746
0.03403594 -0.5900376 0.27844846 -0.1590028 -2.2240858 -0.44754156 -0.50019264 -1.2929459
-0.05789302 0.016720923 -0.08724085 -0.13219921 -0.59580445 -1.0133784 -2.0971608 -0.0605524
-0.5460581 -1.8813951 1.6162101 1.0857676 -0.2986823 -0.9583684 -0.7401967 0.35162607
0.16321638 1.3994669 0.21594585 -0.3292754 -1.9890693 -0.9866516 -0.9047852 0.5469621
0.033719704 1.614992 -0.9140204 -0.37719634 -1.0014366 0.72076744 -1.0602149 2.4376054
-0.48268154 0.3373013 0.14592573 -1.2263868 -1.9026145 0.23973747 -0.87514395 -0.30247933
-0.19690998 -0.6208316 0.20466696 -0.40222985 -0.76723915 0.8265145 1.2417766 -1.2526507
-2.0406413 -0.8325821 2.5847797 -0.59771305 -1.2296647 -0.75828457 -0.9873201 0.25246826
0.5267568 0.11065797 -0.60803664 0.26514062 -1.172833 -0.0989953 0.8864443 1.056316
-0.97430456 -0.77041304 0.39030185 -1.0392647 -1.6156858 -0.17076814 -0.6988621 0.7906444
-0.91907763 -1.9556468 -0.56068105 -1.8660983 -0.6443149 -0.6420687 -1.1858826 -0.6082419
-0.082104936 -0.4516591 0.8961573 1.2037857 -1.7116144 -0.00079851836 -1.4047539 -0.085487165
0.6660317 -1.0157015 -1.232516 -0.20709364 0.03591339 0.37446833 -0.53686196 -2.2221425
0.032090183 -0.2495847 -1.3515656 -0.34014645 0.04186208 0.20882487 -0.4336902 0.06647144
-1.5540469 0.6530607 0.53576124 -0.7292868 0.81305605 -1.5069251 1.2682949 0.24092548
0.20154944 0.619458 -0.12172003 -1.83819 -0.45804515 -0.52749676 -0.013262347 -0.00059215154

bias f4 [44]
00000000: a24f 67c0 409a 8fc0 b9ba 01c0 6747 12c0
00000010: f85a c1c0 f5ad c2c0 6624 e9c0 7547 f1bf
00000020: 9340 56c0 8007 4ac0 e697 afc0 afab 643f
00000030: e8b1 5ac0 8a9b 8dc0 d0ad 96c0 f030 053f
00000040: 4c5a 63c0 4092 64c0 7b24 afc0 dc38 99c0
00000050: 37f7 92c0 e550 02c1 eed8 adc0 d516 b3c0
00000060: 9d0a 3a3f 2104 9bc0 4668 c7bd 942b 76c0
00000070: 94ba dbc0 16d5 e9bf cf3c b1c0 0201 a5c0
00000080: b2ec 8b40 e5ce 6a41 652a 48c0 7a23 1ac0
00000090: a16a c7c0 f31d 44c0 5123 89c0 455d b5c0
000000a0: 2276 9bc0 c15f 5cc0 30a8 a8bf 2c99 2abf
-3.6142354 -4.4875793 -2.0270216 -2.285608 -6.0423546 -6.083735 -7.285693 -1.8849932
-3.3476913 -3.1567078 -5.4872923 0.8932447 -3.4171085 -4.4252367 -4.7087173 0.520278
-3.5523863 -3.5714264 -5.473203 -4.788191 -4.5926776 -8.14475 -5.4327307 -5.596537
0.72672445 -4.844254 -0.097366855 -3.8464098 -6.8665257 -1.8268154 -5.538673 -5.156373
4.3726435 14.675511 -3.1275876 -2.4084153 -6.231766 -3.064328 -4.285561 -5.6676354
-4.8581705 -3.4433444 -1.3176327 -0.6663997

weight f4 [10, 44]
00000000: a2cb 94bf 4097 f5bf 13e5 f6be bcd1 12c0
00000010: b09e 1bc0 4588 0ac0 cd0f 07c0 3205 113e
00000020: b18a 78c0 7b78 50bf c54b adbf 202d 12bf
00000030: 4b99 31bf 6daa febe 306a cdbf 4f49 1ebf
00000040: 3004 16c0 4351 aebf b915 a3bf d2f3 a7bf
00000050: 06fd 36bf a69d 96bf 91b6 6bc0 dadf 27c0
00000060: 119e 16bf 07d9 69bf 54a0 39bf 66c9 5dbf
00000070: 71f6 b8bf cad3 afbe 8123 7ac0 296c 33bf
00000080: 8126 92bf 01ff f6be 3a4f 55bf f2fc eabe
00000090: 8237 d3bf e9b4 5fbe 8bb7 0dc0 a07d 3ac0
000000a0: 34bd 8ac0 76a3 90bf b64c ed3e d932 6abf
000000b0: e689 0cc0 8dbb a5c0 adeb 3cbf 8be0 a4bf
000000c0: afb9 09c0 9c47 8cc0 0472 6dc0 d8f4 5bc0
000000d0: 30b7 ffbf 3ca5 55c0 6dd0 cdbf 9850 43bf
000000e0: 921f 1bc0 b067 34c0 ba15 48c0 7ebf 53bf
000000f0: 503e 3dc0 331d 01c0 c89f 13c0 2ac3 22c0
00000100: ada3 9cbf 6a37 49c0 77a3 8bbf ec2b fcbf
00000110: 5532 23bf 5576 debf 1d3a e8c0 79d5 2dc0
00000120: 68ef 13bf 225a a6c0 5a0d ffbf ad8d 22bf
00000130: ac12 72bf 81f4 d8bf e368 00c0 cc19 a1be
00000140: a255 8cbf 98cf 76bf 2305 4dc0 3754 f9bf
00000150: 1f38 ccbf effc aec0 2b56 02c0 26ae 42bf
00000160: 100d cbbf f4d8 efbf 9851 1bbf bda4 9dbf
00000170: 78b1 08c0 5e35 67c0 3335 dbbf 2a31 d3bf
00000180: 99eb 56c0 0daa 1bc0 c9df 6bc0 afa1 1bbf
00000190: a322 4dbf cf5d b0bf 662f 27c0 59ec 3abf
000001a0: 9b2d 70bd 6af4 f4bf 8eec 1cc0 bc97 95bf
000001b0: 3dce e7bf 2a75 d1bf 0779 1dc0 2d16 73c0
000001c0: 0afe 2cbf 4f65 bebf 8e81 e0c0 1315 13c0
000001d0: 0c8a 4ac0 c745 93c0 fb7c 2dc0 41b6 abbe
000001e0: 078a 8bbf 54e0 b0bf 1103 a9bf 3e37 e1bf
000001f0: f643 68bf 62ef dcbf 3d6b 04c0 49df fabf
00000200: 18b5 5dc0 51d6 b1bf 9b07 a2bf 9f32 6bbf
00000210: a166 68bf 758d 13c0 d765 a0be 9eb4 95bf
00000220: 53ce 2ec0 c9f3 a5c0 f1e3 68c0 0cd1 1fbf
00000230: b507 28c0 c4e1 62bf 02c5 0ec0 08a2 04bf
00000240: 7996 a6be 646d 5cc0 6f15 65c0 bbb6 debf
00000250: 908d 2ac0 8c0d 04c0 43ce 99c0 d289 0bc0
00000260: d368 cfbf 4913 bbbf 9ed3 bcbf 5667 55c0
00000270: ceb9 0cbf 73b8 98bf a444 74c0 0fc5 b4bf
00000280: 7b0e 21c0 60f5 53c0 4453 50c0 85fc d6be
00000290: c83f 93bf 17fc b6bf d45c ddbf 8479 8ebf
000002a0: 3ae7 96bf ec13 9abf 1e4d 84c0 bf8a 06c0
000002b0: 3ab4 38c0 9b2e febf 37ed 19c0 2a53 0cbf
000002c0: 4255 8abf 75eb e7bf c0da 27bf a362 a5bf
000002d0: 823e 91bf 71a5 85c0 9318 9dc0 c881 70c0
000002e0: de95 f2bf 5de7 24c0 5dc8 2cc0 8f78 2cbf
000002f0: 278a 68bf c434 b0bf 5980 33c0 a5ba 26bf
00000300: d7ed eebf 893b eabf 3dde e2bf c249 72c0
00000310: c83c 22c0 38cf 8fbf f77a efbf eb5d 20c0
00000320: fb97 88be 21ee c4be 7f78 bcc0 dddf 26c0
00000330: 1b99 dbbf aa68 29c0 7729 29c0 7701 19bf
00000340: ec40 8dbf 059b c5bf 2755 77bf a87b 15c0
00000350: f026 43c0 426b 3cc0 45fb 3cc0 35ea 39c0
00000360: c4c5 27c0 7e7c 61bf 1109 a2bf 3563 10bf
00000370: 7b7c f1be 288b 0bc0 686b 62be 992f 1bc0
00000380: 98ee 2cc0 28c4 25c0 85d1 f6c0 8089 bbbf
00000390: 4ce3 3bc0 fa2d babf ee7e b4bf 525f 0cbf
000003a0: 652a c4bf a860 76c0 c989 03c0 38e1 17bf
000003b0: 0afb c6c0 160a d1bf 2b4c 6cc0 b834 2dbf
000003c0: 34b4 dabf 99bb 33c0 0e98 1ec0 7123 68c0
000003d0: 5f3b 18bf db99 06c0 8765 0cc1 68a4 8ebf
000003e0: d305 5ac0 ebd1 34c0 bb9b 65c0 8370 46bf
000003f0: 37b3 8ebf d819 afbf e1b2 e6be d069 95be
-1.1624644 -1.9186783 -0.48221645 -2.2940512 -2.4315605 -2.1645672 -2.1103394 0.14162138
-3.883465 -0.8143384 -1.3538748 -0.57100105 -0.6937453 -0.497394 -1.6048031 -0.6183061
-2.3440056 -1.3618549 -1.2741004 -1.3121283 -0.71479833 -1.176686 -3.683018 -2.6230378
-0.5883494 -0.9134678 -0.72510266 -0.86635435 -1.4450208 -0.3434127 -3.908417 -0.70086914
-1.1418 -0.48241428 -0.83324015 -0.45896107 -1.6501315 -0.21846355 -2.2143276 -2.9139175
-4.335596 -1.1299884 0.46347588 -0.9148384 -2.1959167 -5.1791444 -0.7379711 -1.2881025
-2.1519582 -4.3837414 -3.710084 -3.436819 -1.9977779 -3.33821 -1.6079232 -0.7629485
-2.423802 -2.8188286 -3.126326 -0.8271407 -2.9569283 -2.0174072 -2.3066273 -2.5431619
-1.223745 -3.1440072 -1.090926 -1.9700904 -0.63748676 -1.7379862 -7.257094 -2.7161543
-0.5778718 -5.1985025 -1.992595 -0.6349743 -0.9455974 -1.6949617 -2.0064018 -0.31464994
-1.0963633 -0.9641051 -3.2034385 -1.9478825 -1.5954627 -5.4683757 -2.0365093 -0.7604698
-1.5863361 -1.8738084 -0.6067138 -1.2315899 -2.1358318 -3.6126323 -1.712561 -1.6499379
-3.3581297 -2.432254 -3.6855338 -0.60793585 -0.80130976 -1.3778628 -2.612268 -0.7301689
-0.058637243 -1.9137089 -2.4519382 -1.1686931 -1.8109814 -1.6363881 -2.460512 -3.7982285
-0.6757513 -1.4874667 -7.015815 -2.2981613 -3.1646757 -4.6022677 -2.7107532 -0.33537486
-1.0901498 -1.381846 -1.3204061 -1.7594984 -0.907287 -1.7260554 -2.0690453 -1.9599391
-3.464178 -1.3893529 -1.2658571 -0.91874117 -0.907816 -2.3055089 -0.31327698 -1.1695745
-2.731343 -5.186009 -3.6389124 -0.62428355 -2.6254704 -0.8862574 -2.2307744 -0.5180974
-0.32536677 -3.4441767 -3.5794332 -1.7399515 -2.6648903 -2.0633268 -4.8064284 -2.180287
-1.6203865 -1.461526 -1.475208 -3.3344321 -0.54971015 -1.193129 -3.8166895 -1.4122638
-2.5165088 -3.3118515 -3.2550821 -0.41989532 -1.150384 -1.4295682 -1.7293954 -1.1130834
-1.1789315 -1.203733 -4.1344137 -2.1022184 -2.8860002 -1.9857973 -2.4051034 -0.548144
-1.0807269 -1.8118731 -0.6556816 -1.2920727 -1.1347201 -4.1764455 -4.90925 -3.7579212
-1.8951986 -2.5766213 -2.6997292 -0.6737146 -0.90835804 -1.3766103 -2.8047087 -0.65128547
-1.8666333 -1.8299419 -1.7724072 -3.7857518 -2.5349598 -1.1235113 -1.8709401 -2.5057323
-0.26678452 -0.38462928 -5.889709 -2.6074135 -1.7156099 -2.6470132 -2.6431558 -0.5976786
-1.1035438 -1.5437933 -0.9661431 -2.3356724 -3.0492516 -2.9440465 -2.9528363 -2.9049199
-2.6214457 -0.88080585 -1.2659017 -0.5640138 -0.47165284 -2.1803684 -0.22111285 -2.4247801
-2.7020626 -2.5900974 -7.713076 -1.4651337 -2.935748 -1.4545281 -1.4101236 -0.5483295
-1.5325438 -3.8496494 -2.0552847 -0.5932803 -6.2181444 -1.6331203 -3.692149 -0.6765857
-1.7086244 -2.808325 -2.4780307 -3.6271632 -0.59465593 -2.1031406 -8.774787 -1.1143923
-3.4066055 -2.8253124 -3.58763 -0.7751543 -1.1148442 -1.3679762 -0.4505835 -0.2918229

bias f4 [10]
00000000: 91a8 b8bf 68a1 52be be0c 9ebf b5c7 1fc0
00000010: 4290 35bf fc99 3dbf c581 66bf 4658 9c3f
00000020: 5abc 5bbf e41e cabe
-1.4426442 -0.20569384 -1.2347639 -2.4965641 -0.70923245 -0.74063087 -0.9004176 1.2214439
-0.85834277 -0.39476693
