checkpoints/YourNet/pruning/15/epoch-31.pth (torch, 17615 bytes, 8 tensors)

weight f4 [3, 1, 3, 3]
000000 ab a1 bc 3e 9e 21 c5 3e 4d 77 2d bd 8c a2 b4 3e
       0.36842093 0.3850221 -0.042350102 0.35280263
000010 ae ff bc 3d f2 61 18 bf 6d a6 dc be b3 bb 06 bf
       0.092284545 -0.5952445 -0.43095723 -0.52630156
000020 53 a8 af be cb 51 14 3e fb 66 a9 3d 47 33 f3 be
       -0.3430811 0.14484327 0.08271595 -0.4750006
000030 72 48 af 3e 39 15 f5 bd 94 0e a9 be 23 7b a1 3e
       0.3423496 -0.119669385 -0.33018935 0.31539258
000040 b4 25 0e 3e 50 3d 3a 3e 86 b3 00 3e ab 58 27 3e
       0.1388157 0.18187451 0.12568483 0.16342418
000050 e3 de ca 3e f7 6f c0 be 8a 41 06 3e f7 67 81 3e
       0.39623174 -0.37585422 0.13110939 0.2527463
000060 24 9a 0e bf 05 61 4c bf 48 46 e7 be
       -0.5570395 -0.7983554 -0.45170808

bias f4 [3]
000000 bc ef ca be ad 91 36 3c 2a 42 fb be
       -0.39636028 0.01114313 -0.49073917

weight f4 [4, 3, 3, 3]
000000 45 3b a0 bd 68 b8 c2 be 90 84 9c be 63 18 f4 3e
       -0.07823805 -0.38031316 -0.30569887 0.47674856
000010 f8 9c 5c be 71 06 d2 bd ac 65 33 bf 04 c7 51 3c
       -0.21544254 -0.10255135 -0.70077014 0.012803797
000020 e4 5c 88 3e 4b e3 3e be 4d 6d 45 be 0d f8 c9 3e
       0.2663337 -0.18641393 -0.19279976 0.3944706
000030 3c 90 57 bf b8 66 86 be 0c a9 e5 3e 73 89 51 bf
       -0.8420446 -0.26250243 0.44855535 -0.81850356
000040 53 08 7c be 25 3d 28 3f af 8c de 3e 75 1c 07 3f
       -0.2461255 0.657183 0.43466708 0.52777797
000050 22 4e 4a bf de 90 fa 3e 49 04 c1 be e7 93 3d bf
       -0.7902547 0.4893865 -0.37698582 -0.74053806
000060 fc 64 b4 be 05 64 28 be b9 e8 1c bf 29 f8 ce 3c
       -0.35233295 -0.16444404 -0.61292607 0.025264816
000070 b7 eb 93 3e 50 40 7e be 73 ba 0c bf 45 1c 27 3e
       0.28890774 -0.24829221 -0.54972 0.16319378
000080 14 0c 09 3d de 45 43 be ca 34 ba 3d 0f 98 40 3f
       0.033458784 -0.19069621 0.090921 0.75232023
000090 95 7d 05 3e 2d a2 93 bd 68 d0 55 3e 98 28 10 3f
       0.13036187 -0.07208667 0.20880282 0.5631194
0000a0 d8 83 0d 3d 90 33 19 be f6 f4 88 be a7 16 87 be
       0.034549564 -0.14961076 -0.2674939 -0.2638447
0000b0 90 43 a5 be 77 3b d0 be 66 e9 a8 be d3 25 0c bf
       -0.3227811 -0.40670368 -0.3299057 -0.54745215
0000c0 82 30 ed 3d 08 f3 a5 3d 19 3b a7 3e c2 22 9b 3e
       0.11581518 0.08102995 0.32662275 0.30299956
0000d0 60 89 26 3f 91 05 b6 3b 93 ee c7 be da d6 45 3f
       0.6505337 0.005554863 -0.39049205 0.7728096
0000e0 ec b4 43 3f 8a 99 05 bf 9b 53 54 bf 90 11 62 3c
       0.7644794 -0.52187407 -0.8294007 0.013798133
0000f0 60 8c 3a 3e 64 c3 f5 be 7d 04 44 bf 63 19 8b 3e
       0.18217611 -0.48000634 -0.7656935 0.27167806
000100 09 b0 95 3e 5b b7 14 bf d7 26 91 3d 6c a8 37 3e
       0.29235867 -0.5809228 0.07087486 0.17935342
000110 5d af ce 3e 1d 91 d7 be 8d 52 b1 3d f8 d6 f7 3e
       0.40368167 -0.421029 0.086583234 0.48406196
000120 a1 b9 35 bf 04 92 91 bf 63 db ed bd f0 9a 79 3d
       -0.7098637 -1.1372685 -0.1161411 0.060938776
000130 ef ce 74 3e 70 8b 04 be 15 59 b5 3d 00 c9 e0 3e
       0.23907064 -0.12943816 0.08854882 0.4390335
000140 9a eb 9c 3e 8f f3 9a bf 32 82 82 be 00 69 9d 3e
       0.306485 -1.2105578 -0.25489956 0.3074417
000150 35 29 f4 bd 29 09 48 c0 87 0b 45 bf d2 a0 0c be
       -0.11921922 -3.125559 -0.76970714 -0.13733223
000160 be 4b b4 bd 04 0b d6 be ab 92 52 bf 74 57 06 c0
       -0.08803509 -0.4180528 -0.8225505 -2.0990877
000170 85 fe 60 bf 22 da c8 3e 72 b8 02 3e 9a cb ea be
       -0.87888366 0.39228922 0.12765673 -0.4585846
000180 c6 16 f2 3e 5f 33 15 3f 04 13 2a 3e c4 5a 2d 3e
       0.47283 0.5828151 0.16608816 0.16929156
000190 49 21 8a be c0 05 d9 3e 22 e5 c0 bf 45 58 c8 3d
       -0.2697852 0.423872 -1.5069926 0.09782461
0001a0 91 e4 86 3f ab e0 83 3e 8a 3c 25 be 1d 88 35 bf
       1.0538503 0.25757346 -0.16136375 -0.7091082

bias f4 [4]
000000 f0 d4 0e bf 3a 28 49 bf 82 8f 38 bf b0 2c c2 bc
       -0.55793667 -0.78577006 -0.72093976 -0.02370295

weight f4 [30, 100]
000000 8b 2a 04 bf 34 72 17 be fd 26 18 3f 44 c3 1a 3f
       -0.51627415 -0.14789659 0.5943449 0.604542
000010 93 1d 98 bf 93 6e 6a bf 2f f9 51 bf d4 1e 2e 3f
       -1.1884025 -0.9157497 -0.8202085 0.6801579
000020 d3 f8 83 3e 26 71 b3 be f9 8b fd 3d 54 0d 10 3f
       0.25775775 -0.35047263 0.12380213 0.5627034
000030 09 fc 98 3e 87 39 2a bf ca 5a 61 3e fc 75 95 bf
       0.29879788 -0.6649403 0.2200729 -1.1676631
000040 b5 60 bb bf ff 23 81 3e 1c ba 68 be ef ab 8e 3e
       -1.4638888 0.25222775 -0.22727245 0.2786555
000050 aa 28 2b bf e5 75 d3 bf 96 83 2f 3f 07 02 27 3f
       -0.66858923 -1.6520354 0.6856016 0.6523747
000060 43 45 88 bf a8 5d e0 bf 82 74 ec bf e9 6c 23 bf
       -1.0646137 -1.7528582 -1.8473055 -0.6383806
000070 b1 81 25 3f a2 1f 99 3d b3 af 08 c0 01 48 d1 be
       0.6465102 0.074767366 -2.1357238 -0.40875247
000080 12 39 3a bf d2 6e 5a bf 8f a3 b4 bd 3c 19 8d be
       -0.7274333 -0.8532535 -0.08820259 -0.27558315
000090 99 cf af bd a2 d4 38 bf 1d 5e b7 bf a4 39 c4 3e
       -0.08584518 -0.7219945 -1.4325596 0.38325226
0000a0 9e af 6d bf a4 56 59 bf 1b 2f 7a bf 68 17 46 bf
       -0.92846096 -0.8489783 -0.9772813 -0.77379465
0000b0 5d 45 1d bf 1a d2 04 bf 8d 0c c9 3d 52 e4 23 3f
       -0.61433965 -0.5188309 0.09816847 0.64020264
0000c0 3f cc d5 3d 39 a6 61 be 1b ae ce bf 20 f2 1c 3c
       0.104393475 -0.22036065 -1.6146883 0.0095792115
0000d0 c6 21 27 3e 27 07 15 be 8d c8 0e c0 6e 5c 34 bf
       0.16321477 -0.1455351 -2.2309906 -0.70453537
0000e0 13 70 ee bf a6 a4 47 bf c7 16 6c 3e 5d 30 dd bf
       -1.8627952 -0.7798561 0.23055564 -1.7280384
0000f0 3d 47 41 3f 85 b6 a7 bf de e1 f0 be 08 8c bd 3c
       0.75499326 -1.3102576 -0.47047323 0.023138061
000100 60 88 2c bf 3c 6f 6d bf a3 b7 04 be d2 a5 dc bd
       -0.6739559 -0.92747855 -0.12960677 -0.10773815
000110 e0 0b 1b 3d 04 9c af bf 3a 60 c4 bf b9 a2 0e bf
       0.03785312 -1.3719487 -1.5341866 -0.55717045
000120 55 b6 e6 3c 04 78 05 3e 50 42 74 be 5b 99 7f bf
       0.028163115 0.13034064 -0.23853421 -0.99843377
000130 83 3e e3 bf 5b c1 d2 be 81 aa 3d 3f 7c b4 06 bf
       -1.7753452 -0.41163144 0.74088293 -0.5261915
000140 a2 ea 11 c0 bb 3f a5 3e ed bf e3 3d de 20 bc 3e
       -2.2799459 0.32275185 0.11120591 0.36743826
000150 41 3b a8 bf 74 f3 5f be dc 94 2a 3e d2 65 cb 3c
       -1.3143083 -0.21870214 0.16658348 0.024828825
000160 f3 80 ae be a8 4f ab bf 23 9f b3 3d 4d 50 60 be
       -0.34082755 -1.3383684 0.08770587 -0.21905632
000170 76 c2 86 be 03 76 20 bf 03 7b 40 bf ac 4b f5 3e
       -0.26320237 -0.6268007 -0.751877 0.47909296
000180 39 9f 32 be 68 00 14 3f 64 72 b5 3d f8 d2 15 3f
       -0.17443551 0.5781312 0.08859709 0.5852504
000190 fd 47 1a bf d4 09 fc bf 63 7f 89 bf 1a 2e a2 bf
       -0.60266095 -1.9690499 -1.0742 -1.2670319
0001a0 cd 19 1c c0 36 e2 0d 3f da ec 3e 3e 34 f4 b2 bb
       -2.4390748 0.55423295 0.18645039 -0.00546124
0001b0 e6 26 50 be 84 18 09 be aa 73 0b 3f ca 07 b5 3e
       -0.20327339 -0.13388258 0.54473364 0.35357505
0001c0 07 62 b4 be b6 96 ac 3d 9a 9a 2a 3e 29 3c 02 be
       -0.3523104 0.08427183 0.16660538 -0.12718262
0001d0 61 40 7b bf d7 97 b2 3e e2 fe bd 3e 33 38 71 3e
       -0.9814511 0.3488147 0.37108523 0.23556595
0001e0 45 6d 89 be ed 85 6e 3e 6f c5 42 3f db f1 93 3f
       -0.2684118 0.23293276 0.7608251 1.1558183
0001f0 d6 45 42 3f 5e 01 ac be 39 03 fb 3e b0 da 1e 3e
       0.7588781 -0.33594793 0.49025896 0.1551311
000200 19 6f 32 3e 59 11 e4 be 57 45 c9 be dd 29 b4 be
       0.17425193 -0.44544485 -0.39310715 -0.3518819
000210 72 1e 42 be 66 bf 53 bf a2 32 bb bf 40 87 5c 3c
       -0.18956926 -0.82713926 -1.4624827 0.0134599805
000220 ba 48 3a 3d 3c 0e 36 3f c8 11 a4 be 65 d3 2d bf
       0.045479514 0.7111547 -0.32044816 -0.6790069
000230 8a 9f 89 be 2f d7 27 3f 49 0e 51 3f 26 1f 3b bf
       -0.2687953 0.6556272 0.8166242 -0.73094404
000240 d3 48 81 bf b3 d8 03 3f 75 2a 1a 3f 22 53 2a bf
       -1.0100349 0.5150253 0.60221034 -0.665331
000250 a2 02 cf be 5a 48 cb be e6 c8 c5 be c7 76 8e bf
       -0.40431696 -0.39703637 -0.38629836 -1.1129998
000260 a7 78 da 3e 65 ad a6 3e 73 d2 08 3f ff 66 02 3f
       0.42670175 0.32554165 0.5344612 0.5093841
000270 17 1a 43 3f 96 43 57 3f df 46 ec 3e 56 84 47 be
       0.76211685 0.840875 0.4614782 -0.19484076
000280 9d 5e 1e 3f 67 8c 5e 3f 6b 57 8c 3d 38 08 8d be
       0.6186312 0.86932987 0.06852611 -0.27545333
000290 ad 81 62 bf e2 00 68 3e 55 14 3b 3e 49 95 b6 be
       -0.8847912 0.22656587 0.18269475 -0.3566077
0002a0 06 af 9d bf 04 3b 1d 3e c5 80 fb bd 05 f4 31 bf
       -1.2319038 0.15354544 -0.1228042 -0.6951297
0002b0 66 5f 5d bf 7f d3 05 be 71 f3 f6 3f c5 51 18 bf
       -0.8647369 -0.1306896 1.9293042 -0.5949977
0002c0 b8 26 41 bf f6 c1 0f 3e 8b 75 d2 3e 85 d4 26 3f
       -0.75449705 0.14038834 0.41105303 0.6516803
0002d0 a2 e3 90 bf f2 32 f9 bf 1f f2 a5 bf af f5 27 3f
       -1.1319468 -1.9468672 -1.2964514 0.6560926
0002e0 5d cc 1c 3e c8 14 27 bf a4 1b 0f bf 1b 0c da be
       0.15312333 -0.65266085 -0.5590155 -0.4258736
0002f0 c2 72 f1 be d3 e1 45 bf 6e 69 8e 3c db 2b 1d 3f
       -0.47157866 -0.77297705 0.017384257 0.61395043
000300 ae 45 bd 39 7e 1e f2 be 2c 5e 4d bf 66 8e 1d 3e
       0.00036100805 -0.4728889 -0.8022182 0.15386352
000310 9c 9d c4 3e d8 3c 50 3d 59 f2 30 3f 94 1a b5 bb
       0.38401496 0.050839275 0.69119793 -0.00552685
000320 9a c3 37 3f 82 4f b9 3f 5b 2b e8 3f 31 ad b2 3f
       0.7178284 1.4477389 1.8138231 1.3959104
000330 55 ac f2 3f 47 ce 83 3d 98 52 f0 3e 0c 34 2b 3f
       1.8958842 0.06435829 0.46938014 0.6687629
000340 1e 4e 50 3e c5 26 91 3e 84 fc 1f be 0b b8 95 3e
       0.203423 0.2834989 -0.15623671 0.29241976
000350 f9 8b 29 be 36 e8 93 be 3a c6 55 bf bf 31 c2 3d
       -0.16557302 -0.288881 -0.83505595 0.094821446
000360 03 94 db be c8 2d 8f bc 86 4a 9a 3e 03 ae b4 be
       -0.4288636 -0.017477885 0.30134982 -0.3528901
000370 3a 24 2d 3e 9c 81 e2 3e 60 fc 4d 3e 9e 50 08 3f
       0.1690835 0.4423951 0.20115805 0.5324801
000380 d7 d8 2b 3f fa d0 a1 bf a5 6f 19 c0 13 15 00 c0
       0.67127746 -1.26419 -2.3974392 -2.0012863
000390 2d c8 10 c0 f8 19 f8 3e 31 1c c3 bf 64 73 50 bf
       -2.2622178 0.48457313 -1.5242978 -0.8142607
0003a0 e3 a0 a2 bf 0d 79 c8 bf 06 68 04 bf 6c 66 2e 3f
       -1.2705349 -1.5661942 -0.5172123 0.68125033
0003b0 f6 1d 8a 3e ac d2 14 3e d1 5b ec 3e bf bc 4d 3f
       0.26975983 0.1453349 0.461638 0.8036613
0003c0 62 f5 96 3f fd a0 0e 3f c9 e5 fe 3e 5a 49 62 3f
       1.1793635 0.557144 0.49784687 0.88393176
0003d0 ec 0d a4 3f c9 75 e5 bd 5c 5d d3 bd 00 3e 93 be
       1.2816749 -0.11204106 -0.10320541 -0.2875824
0003e0 0f c4 a9 bc 54 d2 06 3f 18 17 3c 3f 8d 2d b7 3e
       -0.02072337 0.52664685 0.7347274 0.3577694
0003f0 44 e2 03 bf e1 1a 1c bf 5c be 58 bf 83 cb a9 3e
       -0.5151713 -0.60978514 -0.84665465 0.3316308

bias f4 [30]
000000 41 05 97 3f 18 3c 98 be 35 8c 68 3e 8e 65 0a bf
       1.1798478 -0.29733348 0.22709735 -0.5406121
000010 dc 24 d2 be b4 c9 42 bf 37 5d a8 3f 7f 36 50 bd
       -0.41043746 -0.76089025 1.3153447 -0.05083322
000020 53 f2 d8 be e7 e9 29 bf e1 f7 1b 3f db b4 04 be
       -0.4237238 -0.6637253 0.6092511 -0.12959616
000030 af e7 27 be 94 f3 92 bf 47 ec 4d bf 30 4f db 3c
       -0.16396974 -1.1480584 -0.80438656 0.026771158
000040 ea c6 53 bf d7 b6 6a 3f ed b6 0d 3e fb 86 d2 bd
       -0.82725394 0.9168524 0.13839312 -0.10279652
000050 e0 f5 e8 3e b6 9e c9 3e 7f 50 9c be 4b 8e 0d 40
       0.45500088 0.393789 -0.30530164 2.2118099
000060 98 30 26 3e f7 eb 20 bf 31 e6 82 be 38 d5 a1 be
       0.16229475 -0.62860054 -0.25566247 -0.31607985
000070 65 39 ae be b2 52 07 3d
       -0.34028164 0.03303785

weight f4 [10, 30]
000000 ce 73 f8 be e1 c0 c2 be e8 1e bb be 18 14 14 be
       -0.48525852 -0.3803778 -0.36547017 -0.1446079
000010 d4 60 07 3f 44 05 16 be c7 62 b4 be d4 e1 df c0
       0.52882123 -0.14650446 -0.3523161 -6.996317
000020 6b 98 78 bd 1c 6f 3f bf 22 d6 6d bd d3 51 ca 3d
       -0.060692232 -0.74778914 -0.05806554 0.09878888
000030 ff 1d 01 be 1d 2c 0e bf b9 01 0a 3f 91 91 ca bf
       -0.12609099 -0.5553606 0.5390888 -1.5825673
000040 10 61 bc bd 63 88 1f 3e 9e 21 0f 3f c6 5c c9 3d
       -0.09198201 0.15579371 0.5591067 0.09832148
000050 61 31 40 bf e0 83 48 be 72 7d ff bf 5d 58 cb be
       -0.75075346 -0.19581556 -1.9960158 -0.39715853
000060 c9 49 0a be e8 b9 0d bf ec 1f 4e bf 4c c9 0a bf
       -0.1350471 -0.55361795 -0.8051746 -0.54213405
000070 fd 35 90 bf fe e8 8e be c5 72 1d 3f 65 94 22 bf
       -1.1266476 -0.27912134 0.6150325 -0.6350768
000080 dc c3 5e be 93 26 a1 be 72 aa 1b be 8a 07 95 bf
       -0.21754402 -0.31474742 -0.15201738 -1.1642926
000090 17 b2 c2 bd 26 63 f1 bd 98 e4 a8 bf 1a d3 2b be
       -0.09506624 -0.11786489 -1.3194761 -0.16779748
0000a0 2a 05 91 3e d8 c2 32 3d 3c 3e 7b be ea 04 3b bf
       0.28324252 0.04364285 -0.2453546 -0.73054373
0000b0 8a 5f 9e bf d1 b1 f5 bc c7 f2 a8 be f9 ea ca be
       -1.2372906 -0.029992016 -0.32997724 -0.39632395
0000c0 c3 54 ef be 7c c8 52 be a0 5f 0b 3f 65 ce 9a be
       -0.46744356 -0.20584291 0.5444279 -0.30235592
0000d0 cb 84 35 3f be 65 56 3f c2 bd eb be 61 de d4 be
       0.7090575 0.83748996 -0.4604321 -0.41575912
0000e0 15 12 e3 bd d0 0a 06 bf 27 cf ed be c9 15 c7 bd
       -0.11087433 -0.5236025 -0.46447107 -0.09720952
0000f0 af 81 60 bd c0 82 e5 be 8e 54 33 be d6 bb 19 3f
       -0.054811176 -0.44826317 -0.17512724 0.6005224
000100 90 ac 04 be 05 19 f8 be dc 6e 6b bd 17 d0 30 bf
       -0.12956452 -0.48456588 -0.05747877 -0.6906752
000110 2f 97 6a be 9d f3 44 bd 98 0c 19 bf fe a4 00 3f
       -0.22909234 -0.04808389 -0.5978484 0.5025176
000120 d1 d6 0a be b4 2e a2 bf ae 92 05 bf 97 e3 da bd
       -0.13558508 -1.2670503 -0.5217694 -0.106879406
000130 eb 2f 0d 3f ed b0 20 bf 33 b1 44 bf d3 56 03 3f
       0.5515124 -0.6276997 -0.76832885 0.5130436
000140 4d d4 0d 3d 85 f5 58 be 00 c7 00 bf 8c b2 2b bf
       0.034626294 -0.21187408 -0.5030365 -0.67069316
000150 5b 93 14 3e 69 ba 93 bf 53 8c 2e bf 20 cc 4e be
       0.14509337 -1.1541263 -0.6818287 -0.20195055
000160 78 cd a2 3e 0b 26 e9 3e b2 32 15 bf 50 b9 97 be
       0.31797385 0.45536837 -0.5828048 -0.2963357
000170 ef 75 c3 be a4 00 a7 be 57 af cc be 15 87 26 be
       -0.38175914 -0.32617676 -0.39977524 -0.16262467
000180 fa 9f 6b be 5b 48 5d bf bf 99 07 bf f8 13 da 3e
       -0.23010245 -0.8643853 -0.5296897 0.4259336
000190 ba eb e7 be d1 bb 68 be bf e0 65 be b9 f1 1f be
       -0.45297033 -0.22727896 -0.22449015 -0.15619554
0001a0 9e 11 76 be 24 c2 a2 be 64 b0 b7 be 02 37 85 bf
       -0.24030158 -0.31788743 -0.35876763 -1.0407412
0001b0 ae 45 08 bf 34 4e ca ba 3c 1e 7a bd fa 3f 96 be
       -0.5323132 -0.0015434683 -0.06106399 -0.29345685
0001c0 6c 3e 2e bf ef db b8 bf 4d 0b 5f be c1 d7 a4 be
       -0.68064 -1.4442118 -0.21781655 -0.32195857
0001d0 15 e0 2b be 41 4d 40 be ce c0 04 bf 4b ff 88 be
       -0.167847 -0.1877947 -0.51856697 -0.26757273
0001e0 8c ee a7 be 68 9a ef bd 88 2f 3a 3f fc 7f 21 bc
       -0.32799184 -0.116993725 0.72728777 -0.009857174
0001f0 70 c7 31 bf c9 4c 9b be a6 48 99 be 87 fe ab 3e
       -0.6944494 -0.3033202 -0.2993824 0.33592626
000200 98 02 42 bf 6b a1 fd be 77 13 b9 be 76 1a 78 be
       -0.7578521 -0.49537215 -0.36147663 -0.24228844
000210 9a a7 83 be d3 90 cd be 19 36 1c be 6a b0 86 be
       -0.25713807 -0.40149555 -0.15255012 -0.26306468
000220 5a 22 34 3d a3 59 b0 bc 4f ba a3 be b0 3e 52 bf
       0.043978073 -0.021527117 -0.3197808 -0.82126904
000230 c7 01 3d 3e 88 cc 4f bf f5 9e 38 bf e0 30 27 bf
       0.18457709 -0.81171465 -0.7211755 -0.6530895
000240 28 01 ba be 10 6f 0d bf 27 51 60 3d 6b a2 42 be
       -0.36329007 -0.5524759 0.054764893 -0.1900727
000250 48 b4 4b bf f5 c5 bc be e7 e5 ff be ff 2f b5 be
       -0.7957196 -0.3686978 -0.4998009 -0.3538818
000260 f5 6e e1 be 04 c1 4a bf de f3 68 ba 09 92 f3 3e
       -0.44029966 -0.7920077 -0.00088864367 0.47572353
000270 52 32 f4 be 2b 5e 16 bf a2 db 76 bd 8b 02 5d bd
       -0.4769464 -0.5873744 -0.060268052 -0.053957503
000280 d5 fb 72 3c 0a 59 8f bf 57 93 d9 bd 8d 06 f5 3e
       0.014830549 -1.1199048 -0.10623806 0.4785656
000290 90 ce 04 be 76 cf d8 be 8f c7 8b be 70 51 ff be
       -0.12969422 -0.4234578 -0.2730069 -0.4986682
0002a0 84 31 d8 be 34 bf 62 bd 53 95 4f bf 94 94 84 3e
       -0.42225277 -0.055358127 -0.81087226 0.25894606
0002b0 bb 7f 8a be f5 6e 55 be c0 6e b1 be 65 29 26 3f
       -0.27050576 -0.20843108 -0.34654808 0.64906913
0002c0 81 79 8b be ea d3 ca be 54 37 21 3d 25 17 0b bf
       -0.27241138 -0.39614803 0.039359406 -0.5433219
0002d0 72 64 99 be c7 7b 6d bf 88 a4 e7 bd ff dd 05 bf
       -0.29959446 -0.92766994 -0.11310679 -0.52291864
0002e0 2a 16 25 be 53 25 e2 bd 6d 69 02 3f 55 40 f1 bf
       -0.16121736 -0.11042275 0.50942117 -1.8847758
0002f0 26 f8 86 bf 06 ea 86 be ff a5 82 bf 18 b8 d7 be
       -1.0544479 -0.2635042 -1.0206908 -0.4213264
000300 25 bc b3 bc bc 3c d7 be b7 bc cf be 25 47 fa be
       -0.0219403 -0.42038524 -0.40573665 -0.48882404
000310 b0 17 97 be 93 76 cd 3e 78 04 28 bd c9 8b 04 be
       -0.2951026 0.40129527 -0.041019887 -0.12943949
000320 da 52 83 be 5b f1 17 3f e2 78 a1 be 92 ab 76 bf
       -0.25649148 0.59352654 -0.3153754 -0.96355546
000330 8e 5d 93 bf d9 06 46 3e d2 55 8e bf ea cd 13 bf
       -1.1512926 0.1933855 -1.111994 -0.57736075
000340 df 71 ba be a1 09 91 be b7 78 a5 be 24 a4 fb bd
       -0.36415002 -0.2832766 -0.3231866 -0.12287167
000350 26 2a ae be 78 df 61 be 93 39 4f be e8 95 aa be
       -0.34016532 -0.22057903 -0.20236807 -0.33317494
000360 d6 ef 08 c0 be 05 2d bd bc be 0c 3f 4c 08 d6 bd
       -2.1396384 -0.042241804 0.5497854 -0.10450801
000370 94 ef 16 3f 1e 6f 22 3d 6f 72 d7 be cb 1b 13 bf
       0.5895932 0.03965675 -0.42079493 -0.57464284
000380 1c f7 81 be 1f 55 07 3f 23 ab 32 bd a2 5e 4d bf
       -0.25383842 0.5286426 -0.04362024 -0.80222523
000390 83 5a b1 be 6d 55 e8 be a2 ea 83 bd 0f 4d a1 bf
       -0.34639367 -0.45377675 -0.06441237 -1.2601641
0003a0 d6 43 10 3e 44 f7 04 bf 89 b8 d6 3e 5b 1f 4a bf
       0.14088377 -0.519398 0.41937664 -0.78954095
0003b0 ae 5f 2c bf 7c 03 8e bc 6a f4 2f 3f 4e 36 56 bb
       -0.67333496 -0.017335646 0.6873232 -0.0032686177
0003c0 f3 e1 1c bf bb 5c 02 be b7 d1 ff be 72 54 ed be
       -0.6128227 -0.12730686 -0.49964687 -0.4635349
0003d0 d8 0d d4 be 1b f9 cb be 6d 0f de be 91 ea 1b bf
       -0.41416812 -0.3983849 -0.43371144 -0.60904795
0003e0 32 8f 8f be 51 dc a6 be d3 72 e7 bd 8a a6 17 bf
       -0.28038937 -0.32589963 -0.11301198 -0.59238493
0003f0 83 21 e2 3e 92 07 0f be f9 79 84 be d7 68 d4 be
       0.44166192 -0.13967732 -0.25874308 -0.41486236

bias f4 [10]
000000 0f 4e ea be cc 14 dc be 63 90 ec be 76 52 ec 3e
       -0.4576268 -0.42984617 -0.46203908 0.46156663
000010 05 b3 b5 be ca 83 70 be 78 9f 6b bf e1 2b aa be
       -0.35488144 -0.23487774 -0.92040205 -0.33236602
000020 2e 65 d2 3f 48 ff bf be
       1.6437128 -0.37499452
