checkpoints/YourNet/pruning/11/epoch-7.pth (torch, 21519 bytes, 8 tensors)

weight f4 [3, 1, 3, 3]
0.49374208 0.19370809 -0.20899071 0.2159871 0.16006121 -0.62098074 -0.4176129 -0.5443682
-0.23868205 0.17743431 0.012379802 -0.43073043 0.38476154 -0.08167513 -0.26450178 0.28522182
0.17276028 0.1976705 0.16602236 0.13259526 0.44473556 -0.31563884 0.06466811 0.115452856
-0.43746477 -0.5443244 -0.46401286
00000000: c3cb fc3e 6a5b 463e a901 56be b92b 5d3e
00000010: 16e7 233e 98f8 1ebf 5cd1 d5be b75b 0bbf
00000020: 1169 74be 57b1 353e a7d4 4a3c b388 dcbe
00000030: 77ff c43e 4a45 a7bd c76c 87be 9808 923e
00000040: 12e8 303e 236a 4a3e c401 2a3e 0dc7 073e
00000050: 61b4 e33e 6a9b a1be b770 843d 8c72 ec3d
00000060: 62fb dfbe d858 0bbf 1893 edbe

bias f4 [3]
-0.51404846 -0.040424168 -0.41855147
00000000: ae98 03bf d093 25bd 614c d6be

weight f4 [4, 3, 3, 3]
-0.025477866 -0.2711378 -0.44084904 0.35640615 -0.29380023 -0.0719011 -0.27812162 -0.027424958
0.31755266 -0.19261715 -0.23410298 0.4364529 -0.5852859 -0.19593245 0.40639466 -1.0664346
-0.23606989 0.56724805 0.35621053 0.28340548 -0.48041582 0.3508897 -0.36649904 -0.72908545
-0.30195746 -0.084994055 -0.5883356 0.035381872 0.19019425 -0.06044258 -0.3916293 0.11015071
0.10872046 -0.32625175 0.16251665 0.6903168 -0.05150827 -0.06329291 0.0028125453 0.6163253
-0.030351985 -0.10784125 -0.2747112 -0.34582135 -0.32105312 -0.4585649 -0.14553313 -0.2942949
-0.14637809 -0.09123233 0.12074128 0.2664223 0.49887118 0.20847979 -0.11813873 0.8144769
0.6550257 -0.78991526 -0.6503146 0.24824703 -0.21081868 -0.5524507 -0.42063853 0.16414922
-0.022897743 -0.63184637 0.1919311 0.42459336 -0.05326012 -0.4092134 0.10006231 0.48201838
-0.7244695 -0.6301259 -0.015635747 0.3191853 -0.11725564 0.06467542 0.22951312 0.28612614
0.10293122 -0.70035434 -0.2323692 0.059203587 -0.22557424 -2.4811966 -1.0614867 -0.014398364
-0.03208139 -0.39590913 -0.7338551 -2.5679557 -0.69311905 0.24663007 0.044524096 -0.41520336
0.59200746 0.54163677 0.018921722 0.10636152 -0.30757433 0.33674645 -0.77675426 0.25245962
1.0403478 0.26059392 0.15192162 -0.80127054
00000000: f5b6 d0bc 93d2 8abe f7b6 e1be de7a b63e
00000010: fc6c 96be e240 93bd f565 8ebe 4eaa e0bc
00000020: 4396 a23e 6e3d 45be b1b8 6fbe c176 df3e
00000030: 4cd5 15bf 84a2 48be f612 d03e ee80 88bf
00000040: 4ebc 71be 2b37 113f 3a61 b63e 861a 913e
00000050: 10f9 f5be d1a7 b33e c3a5 bbbe 58a5 3abf
00000060: 2b9a 9abe 5d11 aebd 299d 16bf 95ec 103d
00000070: 48c2 423e a492 77bd a383 c8be b296 e13d
00000080: d5a8 de3d 780a a7be c46a 263e 9ab8 303f
00000090: 56fa 52bd b79f 81bd ae52 383b 7fc7 1d3f
000000a0: baa4 f8bc e0db dcbd f2a6 8cbe 7f0f b1be
000000b0: 1361 a4be 05c9 eabe a306 15be d2ad 96be
000000c0: 23e4 15be 04d8 babd 3447 f73d 8168 883e
000000d0: 0b6c ff3e ba7b 553e b8f2 f1bd 8f81 503f
000000e0: c4af 273f e337 4abf 057b 26bf 7834 7e3e
000000f0: dae0 57be 696d 0dbf ef5d d7be bc16 283e
00000100: 0c94 bbbc afc0 21bf 9689 443e 4d64 d93e
00000110: 4927 5abd 6b84 d1be 78ed cc3d 1dcb f63e
00000120: d576 39bf ee4f 21bf 8a16 80bc 416c a33e
00000130: ba23 f0bd 8c74 843d 7d05 6b3e 207f 923e
00000140: 9acd d23d 6c4a 33bf 31f2 6dbe 767f 723d
00000150: effc 66be edcb 1ec0 ccde 87bf 1ee7 6bbc
00000160: c767 03bd 9ab4 cabe eedd 3bbf 6359 24c0
00000170: 4070 31bf 988c 7c3e e65e 363d 8995 d4be
00000180: cd8d 173f b5a8 0a3f ba01 9b3c 12d4 d93d
00000190: 627a 9dbe 086a ac3e 5ed9 46bf 6342 813e
000001a0: 1e2a 853f 916c 853e 5791 1b3e 1120 4dbf

bias f4 [4]
-0.40973482 -0.57937384 -0.6687919 -0.014550169
00000000: c3c8 d1be d851 14bf f235 2bbf d563 6ebc

weight f4 [39, 100]
-0.7362022 0.050904017 -0.25076306 -0.6382708 -0.5165706 0.018448694 0.056319043 -0.11604439
0.113094255 0.11162221 0.4516168 1.1301327 0.5418501 0.5510689 0.23140115 0.5928263
0.8839545 -0.24533539 0.3690794 0.052517734 0.6643332 0.23468615 0.0123814745 -0.7175884
-0.3376918 -2.1317718 -1.2902273 -0.0438891 -0.09587165 -0.5079656 0.10596334 0.2547388
-0.34244302 -0.5720645 -0.7080517 -0.71722347 0.03450375 -1.6248498 -0.99844784 -0.06319843
0.2686995 -0.55622375 -2.0763648 -0.36611083 -0.3773166 0.40900627 -0.44712996 0.30942306
0.5036188 -0.56698084 0.7029816 -0.20541437 -0.24765202 1.0288603 0.30520394 -0.53042144
-0.56873626 -0.91294175 0.07461458 0.52420276 -0.1026686 -0.044654213 -0.114506856 -0.82919735
-0.4987003 -0.044103783 0.09417 0.0972438 -2.2881775 -1.2603519 -0.12705918 -0.03723111
0.07820284 -1.4869076 -1.5705937 -1.4148515 0.18018346 -0.14773668 0.12265942 0.0043023964
-0.29407 -0.5090402 -0.1513903 -0.74001175 -0.27969098 -0.5168517 -0.60672486 -1.3916839
0.25166836 -0.64311814 -0.25542408 -0.56917274 0.12064023 0.27064782 -2.0833914 -0.6729679
0.1902505 0.6405327 0.23451221 -1.7795122 -0.20995782 0.32985592 -0.23834376 0.19906707
-0.6679521 0.6134891 0.14054808 0.23657618 -1.9279478 -2.8564188 -0.4579012 0.06214968
-0.02632156 -0.17155088 -0.30926615 -0.27939513 -0.1551415 -0.19533524 0.42721796 0.47074613
0.22110993 -0.6248276 -0.5618894 -0.33558503 -0.20188543 -2.2180526 -1.8897067 0.18252818
1.7196645 1.2000871 -1.1971399 -0.6545415 0.047981456 1.0879301 1.3824853 0.09045243
0.37780088 0.17638773 -0.6505448 -0.46473598 0.07143807 0.5105759 -0.043755803 -0.15797202
-0.6952557 -0.2567451 0.15662885 0.16597061 -0.16580875 -0.4276542 -0.52799004 0.45369482
-0.2954498 -0.5863897 -0.028544325 -0.17621481 0.3005812 0.21087255 0.031113852 -0.10655163
-0.6469416 -0.08276229 0.031634755 0.13312943 0.75013757 -0.3536538 -0.067226455 0.21796183
0.27509907 0.11643097 -0.3661016 -0.017309105 0.021705821 -1.1650825 -0.58217806 -1.6708765
-0.58382475 -0.25732338 -0.3711428 0.3823899 -1.2009966 -1.005101 -0.61538035 -0.4385612
-0.6511202 0.15624397 -0.030937484 0.09333906 1.5289812 0.81400764 0.18706843 0.56650096
0.4350451 0.5671529 0.5954736 0.67759657 0.081216656 0.39007533 -0.34556013 -0.310906
-0.7754724 -2.558308 0.28488857 0.47412223 1.015399 -1.4286227 -1.4649144 0.24867779
-0.50693387 0.46273714 -0.30528933 -0.4249959 -0.56663424 -0.32824883 -0.31131756 -0.384511
-0.2234707 0.09504567 -0.05933457 -0.4440224 -1.2440311 -0.19535108 0.2794737 0.62670755
0.21670833 -0.7711135 -0.84072363 -0.42897978 -0.47102582 -0.49146307 -0.8451051 -0.31331703
0.4905561 -0.5424511 -0.042256188 0.5219626 0.5195116 -0.542947 -0.33158037 0.62919414
-0.025519533 -0.39067665 -0.48915976 0.6397053 1.133515 0.039836824 -0.13143541 -0.22388831
0.097867526 -0.1300393 0.6546983 -0.88266486 -0.005531984 0.058973882 -1.2056357 -1.0241523
00000000: bf77 3cbf bb80 503d 0464 80be b765 23bf
00000010: f93d 04bf b721 973c ccae 663d aea8 edbd
00000020: f69d e73d 2f9a e43d 513a e73e 30a8 903f
00000030: b0b6 0a3f da12 0d3f 6cf4 6c3e 77c3 173f
00000040: d84a 623f 3339 7bbe faf7 bc3e d61c 573d
00000050: be11 2a3f 9151 703e abdb 4a3c e0b3 37bf
00000060: f1e5 acbe f36e 08c0 2b26 a5bf 0fc5 33bd
00000070: 5b58 c4bd 090a 02bf 4f03 d93d 206d 823e
00000080: b154 afbe d272 12bf e042 35bf f59b 37bf
00000090: ce53 0d3d 14fb cfbf 479a 7fbf 2e6e 81bd
000000a0: fb92 893e ae64 0ebf 29e3 04c0 e172 bbbe
000000b0: a42f c1be 4569 d13e 38ee e4be b36c 9e3e
000000c0: 29ed 003f a825 11bf 9af6 333f 2558 52be
000000d0: 7e98 7dbe b2b1 833f b143 9c3e b3c9 07bf
000000e0: b398 11bf 8db6 69bf 87cf 983d 2732 063f
000000f0: ea43 d2bd 56e7 36bd 9282 eabd 4746 54bf
00000100: a555 ffbe 2ba6 34bd 33dc c03d c227 c73d
00000110: 8071 12c0 3653 a1bf cd1b 02be a67f 18bd
00000120: d028 a03d fd52 bebf 3709 c9bf db19 b5bf
00000130: 0382 383e 4948 17be dd34 fb3d 1efb 8c3b
00000140: 5890 96be 7550 02bf 0f06 1bbe 6971 3dbf
00000150: a833 8fbe 6550 04bf 5252 1bbf b322 b2bf
00000160: adda 803e 64a3 24bf f2c6 82be 4eb5 11bf
00000170: 3a12 f73d 5a92 8a3e 4956 05c0 a047 2cbf
00000180: 07d1 423e f3f9 233f f823 703e 0ec7 e3bf
00000190: 2fff 56be e0e2 a83e 6310 74be 3dd8 4b3e
000001a0: e9fe 2abf 9f0d 1d3f d6eb 0f3e 0741 723e
000001b0: fec6 f6bf 91cf 36c0 0772 eabe aa90 7e3d
000001c0: 50a0 d7bc 09ab 2fbe 2258 9ebe e10c 8fbe
000001d0: 6add 1ebe f605 48be 50bc da3e a305 f13e
000001e0: a46a 623e b4f4 1fbf fcd7 0fbf cdd1 abbe
000001f0: 0ebb 4ebe 93f4 0dc0 e9e1 f1bf abe8 3a3e
00000200: f71d dc3f 749c 993f e13b 99bf 0890 27bf
00000210: 3488 443d 4b41 8b3f 47f5 b03f 203f b93d
00000220: 1e6f c13e fc9e 343e 1b8a 26bf e0f1 edbe
00000230: 1f4e 923d 1ab5 023f 4939 33bd 6bc3 21be
00000240: 47fc 31bf 1874 83be 5063 203e 33f4 293e
00000250: c5c9 29be 7ef5 dabe 5b2a 07bf b04a e83e
00000260: 3245 97be a31d 16bf cad5 e9bc a871 34be
00000270: c7e5 993e f9ee 573e 7ae2 fe3c be37 dabd
00000280: f79d 25bf 477f a9bd 7293 013d 1553 083e
00000290: 0409 403f 1c12 b5be 06ae 89bd 6331 5f3e
000002a0: c9d9 8c3e 5c73 ee3d ab71 bbbe d3cb 8dbc
000002b0: 68d0 b13c 6c21 95bf 9f09 15bf 48df d5bf
000002c0: 8a75 15bf e4bf 83be 6e06 bebe 9cc8 c33e
000002d0: 42ba 99bf 26a7 80bf 9189 1dbf 188b e0be
000002e0: d0af 26bf 6bfe 1f3e 9b70 fdbc 8d28 bf3d
000002f0: a8b5 c33f ce62 503f de8e 3f3e 3506 113f
00000300: 3bbe de3e ef30 113f f570 183f f876 2d3f
00000310: eb54 a63d f4b7 c73e 42ed b0be 122f 9fbe
00000320: 5c85 46bf 51bb 23c0 eadc 913e 26c0 f23e
00000330: 98f8 813f 1cdd b6bf 5182 bbbf 64a5 7e3e
00000340: 6bc6 01bf e2eb ec3e e24e 9cbe 1099 d9be
00000350: f10e 11bf 3b10 a8be 0465 9fbe a0de c4be
00000360: 81d5 64be 4ea7 c23d ce08 73bd e756 e3be
00000370: 693c 9fbf 1d0a 48be 2d17 8f3e e86f 203f
00000380: cae8 5d3e b267 45bf aa39 57bf 3da3 dbbe
00000390: 4c2a f1be 0ca1 fbbe cf58 58bf 176b a0be
000003a0: 2b2a fb3e 13de 0abf d314 2dbd 579f 053f
000003b0: b6fe 043f 93fe 0abf e7c4 a9be de12 213f
000003c0: 570e d1bc c506 c8be 2673 fabe bac3 233f
000003d0: 0517 913f f02b 233d 0197 06be fa42 65be
000003e0: c56e c83d 0629 05be 4f9a 273f 53f6 61bf
000003f0: a545 b5bb 998e 713d 4552 9abf 6c17 83bf

bias f4 [39]
-0.29227322 -0.3052556 -0.6842664 -0.16925415 -0.2394873 0.070606835 -0.8761933 -0.5130129
0.42809165 -0.2823477 0.005730825 -0.59124863 -0.9599487 0.0058550136 -0.6000118 -0.77889204
0.60162055 -0.2821312 -0.56826854 -0.7639635 -0.21572275 -0.57106394 0.23590192 -0.6844263
-0.4229383 -0.03715154 -0.44688547 -0.24710742 1.040866 0.015513698 -0.5811105 -0.18494618
0.71326184 1.3866682 -0.48467702 -0.49451682 0.52989274 0.7165488 -1.0241501
00000000: d6a4 95be 764a 9cbe 152c 2fbf f650 2dbe
00000010: 293c 75be 519a 903d 344e 60bf d054 03bf
00000020: d42e db3e e18f 90be a5c9 bb3b 125c 17bf
00000030: 33bf 75bf 6adb bf3b 609a 19bf 7865 47bf
00000040: ce03 1a3f 8073 90be 0c7a 11bf 1d93 43bf
00000050: 6de6 5cbe 3f31 12bf 4690 713e 9036 2fbf
00000060: 5e8b d8be 372c 18bd 2cce e4be ba09 7dbe
00000070: 193b 853f 2a2d 7e3c a8c3 14bf 8862 3dbe
00000080: 5498 363f 587e b13f 9627 f8be 4f31 fdbe
00000090: 0da7 073f be6f 373f 5a17 83bf

weight f4 [10, 39]
0.5046402 -0.37906352 -0.4025157 -0.51099813 -0.7036843 -0.6340616 -1.1652808 -0.5591537
-2.190164 -0.42668828 -0.19103977 0.48918748 -0.6739935 -1.5193685 -0.851458 -0.24097826
0.23656264 -2.637627 0.021022033 -0.7523945 0.18740372 -0.462866 -0.32409057 -0.11909144
-0.14948697 -0.74005145 -0.047094814 -1.3588248 -0.084807955 -0.49389854 -0.46815798 -0.5396471
0.5037325 -0.6840573 0.530968 -0.20853218 -0.6557909 -0.47583726 0.03884635 -0.28032133
-0.7154251 -0.28803003 -0.7030783 -0.3626387 -0.25268227 -0.6285196 -0.04469383 0.6110049
-0.6100412 -0.43182632 -1.2644477 -0.243049 0.023960738 -0.08963004 -2.5593474 -0.61516434
-0.47508594 -0.35279316 -0.21515231 0.10424602 -0.19929789 -0.65992975 -0.31320846 -0.2167754
0.31135035 -0.27687144 0.5669221 0.8270166 -0.65469086 -1.0103064 -0.7487124 0.017780723
0.72678375 -1.1110302 -1.7878032 -0.091800325 0.21299136 -0.5537455 -0.41731745 -0.7228634
-0.2832681 -0.5386379 -0.09181349 -0.25511307 -0.38236043 0.57886523 -0.09517445 -0.017519597
0.33054444 -0.01556539 0.1171581 -0.34821013 -1.6586672 -0.28191948 -0.7720249 -0.6556859
0.5484629 -0.17255989 0.3857348 -0.06031729 -0.44169372 0.5656006 -0.19900319 -0.52231246
0.56036156 -0.36487323 -0.6055596 -0.47189903 -0.22831519 -0.3485509 -0.3592 -0.7134373
-0.57300407 -0.18890928 0.010190237 -0.70838505 -0.4773278 -0.6566727 -0.23221877 -1.1716774
-0.2089048 -0.32528368 -0.398548 0.5886026 -0.50116694 -0.32561982 -0.27387646 -0.36362937
-0.38627252 -0.4687562 -0.27000275 -0.03592913 -0.37946427 -0.69805825 -1.9795504 -0.34508905
0.38775668 -0.41425663 0.50997084 -1.2582939 -0.3293316 -0.32250944 0.0019109355 -0.51258636
-0.8367025 -0.76492345 -0.2639106 -0.26045537 -0.53617334 -0.8131777 -2.8174055 -0.08927604
-0.50214535 -0.7995353 -0.3421332 -0.30966488 -0.6112715 -0.8948184 0.5423149 -0.1796131
-0.58999467 0.7017913 -1.2605842 -0.21755518 -0.3134124 -0.34247634 -0.3312187 -0.47662905
-0.25131017 -0.34462464 -0.24192096 -0.062386148 0.016550753 0.49070838 0.011935713 -0.38923272
-0.9925047 -0.7777919 -0.58330333 -0.23280737 -0.25019622 -0.017323958 -0.121903144 -0.79560834
-0.32100132 -0.035761267 -0.2973166 -0.3428153 -0.47853875 -0.9193941 -0.44367987 -0.93611455
-0.29780704 -0.44982246 -0.059208013 0.14309989 0.49479446 -0.3406992 -0.32661372 -0.6186963
-0.6482276 0.03421341 -0.6048483 -0.65632236 -0.19670549 -0.67709076 -0.25856164 -0.72048485
-0.32841685 0.5206986 0.42014232 -0.6446213 -0.6123184 -0.64758056 0.05501283 -0.07674331
-0.1534827 -0.4272336 -1.3269854 -0.1830994 0.43175447 -0.28647307 -0.76444536 -0.6837335
-0.59403515 0.7366483 0.1910153 -0.7175277 -0.37830096 -0.2549123 0.2738219 -0.3387391
-0.25743508 -0.41682294 -0.1971638 0.003187939 -0.1677532 -1.1452154 -0.57876986 -0.26007205
-1.7912086 -0.61674875 -0.16872685 -0.67940855 -0.8247934 -0.15572602 -0.8456327 -0.9983351
0.00521262 -0.29674456 0.43445766 -1.0088978 -0.44963673 -0.71105605 -0.028757848 -0.1963702
00000000: 1a30 013f 9d14 c2be 8a16 cebe c6d0 02bf
00000010: a724 34bf dc51 22bf ec27 95bf b224 0fbf
00000020: a62b 0cc0 e376 dabe ee9f 43be c876 fa3e
00000030: d78a 2cbf ab7a c2bf 27f9 59bf 01c3 76be
00000040: 7a3d 723e e1ce 28c0 6636 ac3c ed9c 40bf
00000050: c3e6 3f3e c6fc ecbe 33ef a5be 37e6 f3bd
00000060: 1d13 19be 0374 3dbf 7ee6 40bd f9ed adbf
00000070: cbaf adbd 45e0 fcbe 67b2 efbe 5026 0abf
00000080: 9df4 003f 611e 2fbf 85ed 073f 7689 55be
00000090: eae1 27bf f1a0 f3be 5a1d 1f3d 4786 8fbe
000000a0: 1926 37bf ac78 93be f1fc 33bf c8ab b9be
000000b0: 925f 81be a9e6 20bf e110 37bd d16a 1c3f
000000c0: a92b 1cbf 5718 ddbe 6cd9 a1bf d6e1 78be
000000d0: 4f49 c43c f48f b7bd 59cc 23c0 697b 1dbf
000000e0: 773e f3be 4ea1 b4be e350 5cbe f07e d53d
000000f0: bf14 4cbe 28f1 28bf dc5c a0be 5ffa 5dbe
00000100: 5069 9f3e 18c2 8dbe cf21 113f 5cb7 533f
00000110: d299 27bf b851 81bf 9eab 3fbf e1a8 913c
00000120: 800e 3a3f 3d36 8ebf bcd6 e4bf cf01 bcbd
00000130: 681a 5a3e 44c2 0dbf a2aa d5be 930d 39bf
00000140: 8408 91be 2ce4 09bf b608 bcbd 2e9e 82be
00000150: bfc4 c3be 8330 143f d2ea c2bd 4285 8fbc
00000160: 1f3d a93e fa05 7fbc 96f0 ef3d 9948 b2be
00000170: 354f d4bf c057 90be 6da3 45bf 08db 27bf
00000180: 1168 0c3f 8ab3 30be 087f c53e 430f 77bd
00000190: ae25 e2be 33cb 103f 7ec7 4bbe 45b6 05bf
000001a0: db73 0f3f aad0 babe f405 1bbf c09c f1be
000001b0: 75cb 69be 4375 b2be 10e9 b7be d4a3 36bf
000001c0: 65b0 12bf 6f71 41be f4f4 263c b958 35bf
000001d0: 4f64 f4be b41b 28bf c2ca 6dbe 86f9 95bf
000001e0: 24eb 55be 958b a6be 7c0e ccbe a9ae 163f
000001f0: 7a4c 00bf a4b7 a6be 8939 8cbe a12d babe
00000200: 83c5 c5be d000 f0be cd3d 8abe 6c2a 13bd
00000210: 2449 c2be f2b3 32bf e861 fdbf 83af b0be
00000220: 0b88 c63e 7219 d4be 738d 023f c60f a1bf
00000230: 279e a8be f51f a5be 5b78 fa3a dc38 03bf
00000240: 2332 56bf 06d2 43bf 4a1f 87be 685a 85be
00000250: a842 09bf 6a2c 50bf 5f50 34c0 5bd6 b6bd
00000260: 998c 00bf 58ae 4cbf 152c afbe 658c 9ebe
00000270: 4a7c 1cbf d212 65bf 26d5 0a3f 7fec 37be
00000280: e409 17bf 98a8 333f d35a a1bf c9c6 5ebe
00000290: 9777 a0be 0f59 afbe 7f95 a9be b908 f4be
000002a0: baab 80be a472 b0be 21ba 77be 9e88 7fbd
000002b0: 7295 873c 213e fb3e 028e 433c 8349 c7be
000002c0: ca14 7ebf 5f1d 47bf 5e53 15bf 0e65 6ebe
000002d0: b819 80be f9ea 8dbc 5ba8 f9bd fdac 4bbf
000002e0: 495a a4be 687a 12bd e239 98be 7d85 afbe
000002f0: 0803 f5be 695d 6bbf 022a e3be 34a5 6fbf
00000300: 2a7a 98be 214f e6be 1a84 72bd c788 123e
00000310: b355 fd3e 2070 aebe ea39 a7be e162 1ebf
00000320: 3ef2 25bf 5c23 0c3d 57d7 1abf be04 28bf
00000330: 2a6d 49be d255 2dbf 3162 84be b271 38bf
00000340: 4126 a8be 814c 053f e51c d73e e705 25bf
00000350: e6c0 1cbf d7c7 25bf 2255 613d 992b 9dbd
00000360: 922a 1dbe 5dbe dabe a8da a9bf 697e 3bbe
00000370: ec0e dd3e 99ac 92be b1b2 43bf 2909 2fbf
00000380: b012 18bf fc94 3c3f 8499 433e e5af 37bf
00000390: aab0 c1be dd83 82be 6232 8c3e 366f adbe
000003a0: 88ce 83be d169 d5be 4fe5 49be beec 503b
000003b0: 7fc7 2bbe 6b96 92bf 432a 14bf 2a28 85be
000003c0: 5346 e5bf 3fe3 1dbf bbc6 2cbe b8ed 2dbf
000003d0: a925 53bf a476 1fbe 627b 58bf e492 7fbf
000003e0: a0ce aa3b e7ee 97be 3c71 de3e 9023 81bf
000003f0: c936 e6be c507 36bf 9495 ebbc 4515 49be

bias f4 [10]
-0.61807793 -0.6002938 -0.63354677 0.024207154 -0.54183453 -1.1530108 -1.1726685 -0.5731635
2.0261488 0.09386226
00000000: 5b3a 1ebf dbac 19bf 1f30 22bf 154e c63c
00000010: abb5 0abf dc95 93bf 001a 96bf d8ba 12bf
00000020: 6cac 0140 db3a c03d
