checkpoints/YourNet/pruned/0/epoch-7.pth (torch, 84231 bytes, 10 tensors)

weight f4 [3, 1, 3, 3]
000000 8a fe d6 bd f6 f3 f4 3d 86 e2 09 bd fe ff 07 bd
       -0.10497768 0.11960594 -0.033663295 -0.033203118
000010 43 12 60 3e ba f4 b6 bb 3b 16 15 3e 05 29 30 3e
       0.21881966 -0.005583373 0.14559262 0.17203148
000020 eb 4d 95 3e 30 d6 5d bd c4 d1 a9 bc c2 03 90 be
       0.2916101 -0.054159343 -0.020729907 -0.28127867
000030 c5 9e 89 3e c7 b6 60 be 30 26 6a bf 03 55 ca 3e
       0.26878944 -0.21944724 -0.9146452 0.39517984
000040 72 30 71 3e 68 18 45 3e 40 f7 a1 be f4 12 bd be
       0.23553637 0.19247591 -0.3163395 -0.36928523
000050 08 dc 3a bf 92 73 81 be 9b 40 5f be 32 b6 b2 3d
       -0.7299199 -0.25283486 -0.21801989 0.08726157
000060 87 49 10 3e 15 9c d8 3e 9a 1f 60 3e
       0.14090548 0.4230658 0.21887055

bias f4 [3]
000000 ee be 36 be 1b 8a 2f bf 32 ca 29 bf
       -0.17846271 -0.6857011 -0.6632415

weight f4 [5, 3, 3, 3]
000000 df 78 dd bd c1 12 0a 3a 09 f0 17 3e bc a3 b4 bf
       -0.1081407 0.0005267077 0.1483766 -1.4112468
000010 bc 66 39 3e 53 bf 16 3f 77 55 4c be 53 09 a2 3e
       0.18105596 0.5888569 -0.19954477 0.3164774
000020 b2 e5 1f 3f 99 df d5 3e 00 a0 c2 bf 13 a6 a5 be
       0.6245986 0.41772154 -1.5205078 -0.32353267
000030 48 85 d8 3d 19 59 57 c0 5c 66 3e 3e c8 70 e0 bd
       0.105722964 -3.364813 0.18593735 -0.10959011
000040 c1 5c 8b be a7 41 08 3f d7 b9 33 be 41 e5 aa be
       -0.27219203 0.5322518 -0.17551361 -0.33378032
000050 a7 ae 2d bf cd 58 3b be 45 6d fd be 49 68 39 c0
       -0.67844623 -0.18295594 -0.4949743 -2.89699
000060 f4 40 42 3e d0 e5 c5 bf 08 0c 95 bf b2 1f c9 3e
       0.1897009 -1.5460758 -1.1644297 0.39281994
000070 20 e3 57 3e bb 74 d6 bf 3c 9e 87 3f 50 5d 00 bd
       0.21082735 -1.6754373 1.0595164 -0.03133899
000080 93 a1 28 bf 85 c5 f6 be 2a 1d 55 bf c0 68 96 3e
       -0.6587154 -0.4819757 -0.83247626 0.29376793
000090 b7 52 a7 3c 95 c3 18 3f cc 0b b6 3e b5 7a 02 3e
       0.020425184 0.59673434 0.35555875 0.12742122
0000a0 90 35 54 be 35 21 8c bf 5a f1 3c be ed 86 2f bf
       -0.20723557 -1.0947634 -0.18451443 -0.68565255
0000b0 7b 31 58 bf 81 23 96 bc 63 b9 67 be 26 7f a4 bf
       -0.844505 -0.018327476 -0.22629313 -1.2851303
0000c0 47 b5 13 3f 1c 84 aa bf c3 1f 4f be f5 24 56 bf
       0.5769848 -1.3321567 -0.2022696 -0.8365014
0000d0 c1 03 4c 3e 69 be 45 3f a3 1c ab be a4 ac 95 be
       0.19923307 0.7724367 -0.33420286 -0.29233277
0000e0 6f 6b 21 bf af 86 fd 3e 6b f3 73 3f d0 6c 1b 3f
       -0.63054556 0.49516818 0.952933 0.6071291
0000f0 64 f2 75 be f2 17 02 bf c9 ec 5d be e2 86 00 3f
       -0.24018246 -0.5081779 -0.21672358 0.50205815
000100 79 83 8b bd e8 d5 f5 3e b4 4d a5 bd 9c 94 7b 3e
       -0.06812186 0.4801476 -0.08071461 0.24568409
000110 3e 43 bf bd d2 eb 87 be 2b 41 b5 bf 02 05 b4 bf
       -0.09338997 -0.26547104 -1.4160513 -1.4064028
000120 d8 28 85 bc 44 c1 df 3d a2 78 85 be 21 bf 20 3e
       -0.016254827 0.10925534 -0.26068598 0.1569791
000130 ca 43 a2 3e 89 00 ae 3e d3 14 f3 3d a0 14 b3 be
       0.31692344 0.33984783 0.11869206 -0.34976673
000140 be 36 03 bf fa 2a b3 bd cb 06 1c 3f 87 7b 3c 3f
       -0.51255405 -0.087484315 0.60947865 0.7362599
000150 ee 22 13 c0 b4 a1 21 be d8 bb 0e 3f b4 99 b7 3d
       -2.299007 -0.15784341 0.55755377 0.089648634
000160 f0 21 e7 bf 05 b4 95 bf e7 7a cb bd 31 04 3b 3b
       -1.8057232 -1.1695563 -0.09935551 0.0028536434
000170 65 63 87 bd 16 12 b1 bf 79 3f b9 bf 7a 12 16 bf
       -0.06610755 -1.3833644 -1.4472495 -0.58621943
000180 91 a8 4f 3f 57 ff a5 3e c6 ce 81 bf e0 3d 36 bf
       0.81116587 0.3242137 -1.0141227 -0.71188164
000190 50 9c 45 bd c0 93 ad 3e 8c 4c a1 bf 28 50 59 bf
       -0.048244774 0.33901787 -1.2601485 -0.84887934
0001a0 de 8d 67 3f 90 e4 7b 3e b4 02 08 bf 5b 62 17 3d
       0.9045085 0.24598908 -0.53129125 0.036959033
0001b0 c5 e8 c5 3e 8c ca 1f 3e ba bf 06 bf 73 ed d4 be
       0.38654152 0.15604609 -0.526363 -0.4158741
0001c0 89 1e 08 3f 7f f9 47 be 28 db 02 bf 50 0d 17 3e
       0.5317159 -0.19528769 -0.51115656 0.14751172
0001d0 1b 0f 35 3f 90 fb 85 be 6e fc fb 3e a7 36 59 3e
       0.70726174 -0.2616849 0.49216026 0.21212254
0001e0 f6 38 0f bf e2 24 48 be da 0c 7f 3f 82 28 4f bf
       -0.5594629 -0.1954532 0.99628985 -0.80921185
0001f0 b4 af 25 bf 97 f2 d1 bb 95 61 bb bd a2 74 7f be
       -0.64721227 -0.006407093 -0.09149472 -0.24946836
000200 b7 9a 69 3e 99 29 b8 bf 74 78 38 bf 1b fa da bd
       0.22812925 -1.4387695 -0.72058797 -0.10692235
000210 d0 47 3a 3f 67 e0 8e bf 04 86 66 be
       0.7276583 -1.1162232 -0.2251206

bias f4 [5]
000000 f1 bb 10 be 61 1f 0e 3a 9e db 1b bf 81 ed 9e 3c
       -0.14134194 0.0005421546 -0.60881984 0.01940036
000010 a6 4e 83 bf
       -1.0258377

weight f4 [90, 125]
000000 bc 06 17 3f 7a 77 6d 3f 0a 78 6d bf 05 b2 82 bf
       0.5899465 0.9276043 -0.9276129 -1.0210577
000010 90 40 e2 3e 79 5b ad bf e8 f0 ec bf 37 b2 8a be
       0.44189882 -1.354354 -1.8511019 -0.27089092
000020 c8 f9 d8 be fb ff d0 3c 55 80 37 bf 9f b0 93 bf
       -0.42378068 0.025512686 -0.71680194 -1.1538275
000030 cf 36 01 c0 7d f0 c8 3e b1 5c 2d 3f 6e 24 46 3f
       -2.0189703 0.39245978 0.6771956 0.7739934
000040 f8 d2 a9 be 94 f6 8f bf 5d e8 84 bf 7b d0 be be
       -0.3316877 -1.1247125 -1.0383412 -0.37268433
000050 e1 b7 ca 3f 7b 0d 8d bf 58 00 ad bf a0 9b e1 bf
       1.5837365 -1.1019739 -1.351573 -1.7625618
000060 de ff d8 be b3 ca 88 bf c9 b2 ce bf e7 33 ff 3e
       -0.4238271 -1.0686859 -1.6148311 0.49844286
000070 01 d5 14 3e 75 51 06 c0 8f d5 01 be ce d2 d8 3f
       0.1453438 -2.0987217 -0.12679122 1.6939332
000080 1b 07 22 bf cf f5 ba be 39 d1 96 bf 22 05 8c 3f
       -0.6329209 -0.36515662 -1.17826 1.0939066
000090 5e 8d 93 bd 4c 73 26 3f 1a 7d d4 3e 50 6c f5 3e
       -0.07204698 0.6501968 0.41501695 0.47934198
0000a0 a0 67 24 bf 28 64 ec 3d 84 fe f4 3e 1e 27 a8 3d
       -0.6422062 0.11542541 0.4785043 0.08210586
0000b0 55 67 ae 3f 23 eb 14 c0 61 ec 1c c0 ad 81 23 be
       1.3625284 -2.3268516 -2.4519274 -0.15967436
0000c0 1d 4f a4 be c5 a1 03 c0 de d7 f6 3e a7 3c a4 3d
       -0.3209161 -2.0567486 0.4821157 0.08019381
0000d0 4f c1 f4 be d5 e0 ea be cb b8 d5 3e e1 f3 f0 3e
       -0.47803733 -0.45874658 0.41742548 0.47061065
0000e0 d6 df 8a be 2c ff 59 3d 58 57 c2 3e 01 b3 64 be
       -0.27123898 0.053221866 0.37957263 -0.2233391
0000f0 47 95 b6 3f 83 62 8e 3e f1 53 a7 bf 5e 8d 85 bf
       1.4264306 0.27809533 -1.3072492 -1.0433767
000100 0a 6b e4 3e e4 b1 14 bf b0 39 3e be e5 62 8e 3f
       0.44612914 -0.5808394 -0.18576694 1.112393
000110 47 43 a5 3f bb e6 4e bf 58 0f e9 bd ec 4b 11 3f
       1.2911156 -0.80820817 -0.1137988 0.5675647
000120 6b 22 6f 3e 1e 1b a7 bf c5 bb f3 bf ee e2 7c be
       0.23352973 -1.305515 -1.9041678 -0.24695942
000130 a5 ae 08 3f 63 58 2e 3f 90 3c 38 c0 15 f3 85 be
       0.53391486 0.6810362 -2.8786964 -0.2616202
000140 74 f7 23 c0 d4 38 0a c0 49 fb 17 bf b4 69 ab bf
       -2.5619783 -2.1597185 -0.59367806 -1.3391633
000150 ff 6f a1 3e 2f a5 55 c0 dd 80 28 c0 61 5e 9f bf
       0.3153076 -3.338207 -2.6328652 -1.2450677
000160 2f 16 3f 3f d3 fc 11 3e d0 30 99 be a9 0b 80 be
       0.74643224 0.14256601 -0.29920053 -0.25008896
000170 69 00 95 be 2c d7 f1 bf 7b cd 19 c0 4c ec 60 3f
       -0.29101875 -1.889379 -2.4031665 0.8786056
000180 92 1a a6 bf 10 e8 93 bf 0b 0b 3f bf dc f6 a7 bd
       -1.2976859 -1.1555195 -0.74626225 -0.082013816
000190 ad 55 2d 3e 69 4e ce bd a5 b3 0f bf 88 e5 c5 bf
       0.16927214 -0.10073549 -0.5613349 -1.5460672
0001a0 34 78 e2 3e 65 b4 bd be 84 99 c4 bf a8 cb c8 bf
       0.44232333 -0.37051693 -1.5359349 -1.5687151
0001b0 0c c5 60 bf 12 b2 d2 3e 05 8c 8d bf 09 75 35 c0
       -0.8780067 0.41151482 -1.1058356 -2.8352683
0001c0 96 5a ac bf 16 2f 3d bf 25 b8 9d 3f 07 57 b4 3e
       -1.3465145 -0.7389997 1.2321821 0.35222647
0001d0 ab 3c 94 bf f8 14 b6 be 0c ef 2f bf b8 e7 81 bf
       -1.1581014 -0.35562873 -0.6872413 -1.014884
0001e0 f4 0e f6 3e 29 bd 1c be 99 ca 58 3c ff a5 12 c0
       0.48058283 -0.15306534 0.013231897 -2.2913816
0001f0 ca 00 8f bf e8 fe 64 be 0f eb 3e bf b3 bf 93 3e
       -1.1172116 -0.22362864 -0.7457742 0.28857192
000200 b2 26 60 3e 41 59 0a 3f 5c a7 fa 3e 6f 7a 69 bf
       0.21889761 0.5404244 0.4895581 -0.91202444
000210 fd 67 e9 3e b7 96 07 c0 56 8c 55 bf 0b 6f ac 3d
       0.4558715 -2.118574 -0.8341726 0.08419617
000220 30 f2 43 3d 4f 12 62 3e 5c 59 00 bf 75 a6 84 be
       0.04783839 0.22077297 -0.5013635 -0.25908247
000230 e6 7f f2 bf 48 bf 3a bf 0b 60 85 bf ea 13 7d be
       -1.8945282 -0.7294812 -1.0419935 -0.24714628
000240 9d 5c 81 3f 63 14 7b bf e9 af 7d bf 81 b5 f1 bf
       1.0106388 -0.9807798 -0.9909654 -1.8883516
000250 ee 30 7d be 82 e2 03 bf ab e3 ad bf 82 5c ac bf
       -0.24725696 -0.515175 -1.3585104 -1.3465731
000260 6e b4 9b 3d a4 d1 bb 3d 1d ab 98 3f 6e 32 91 3e
       0.076027736 0.09170845 1.192722 0.28358787
000270 d8 a8 eb 3f 52 4b 04 3f d2 9a 08 c0 0c 52 4e bf
       1.8410902 0.5167743 -2.1344495 -0.80593944
000280 93 cc 62 be d9 a5 5e bf 25 4f c5 3d ed 8d d9 be
       -0.22148351 -0.86971813 0.09634236 -0.42491093
000290 65 54 f6 bf f2 42 7e 3e 6b 79 93 bf 9a 94 73 bf
       -1.9244505 0.24830225 -1.1521429 -0.95148623
0002a0 83 31 1c 3f 03 16 bd 3d da 83 bb 3f 80 12 36 bf
       0.6101305 0.09232714 1.4649613 -0.7112198
0002b0 9b dc 80 bf 91 f8 00 3f dc 1f 21 3d 78 1c 3c 3e
       -1.0067323 0.5037928 0.039337024 0.18370235
0002c0 24 a7 05 c0 17 8c 1a c0 c8 df 08 c0 2e 2f 09 bf
       -2.0883265 -2.4148004 -2.1386585 -0.53587615
0002d0 75 5e 19 bf c7 26 90 bf b7 ce 3b bf 9f 04 6f 3f
       -0.59909755 -1.1261834 -0.73362297 0.93366426
0002e0 f7 cc 9c 3f 93 ae d5 bf c0 75 8d bf 25 49 8b 3e
       1.225005 -1.6693901 -1.105156 0.27204242
0002f0 bc 57 f2 3e f0 ac f7 bf 25 db ea 3e 1a 3c 25 3f
       0.4733256 -1.9349651 0.4587032 0.6454483
000300 43 51 01 3f 76 91 e8 be f3 01 1b bf ce 55 93 3f
       0.5051462 -0.45423478 -0.6054985 1.151056
000310 4c e6 a1 3e 34 2f 11 bf 5e d5 89 bf 7f 06 8d bf
       0.31621015 -0.5671265 -1.076824 -1.1017607
000320 2b 50 84 bf 7a c0 88 bf e8 21 96 3e 8e ca 10 bf
       -1.0336965 -1.0683739 0.29322743 -0.56559074
000330 43 5c 32 c0 e5 9d d0 bf fe e2 0b c0 19 40 d5 bf
       -2.7868812 -1.6298186 -2.1857295 -1.6660186
000340 a4 b3 ca 3e f9 c0 b0 3e 80 0f 5f be bc 9d 68 3f
       0.3959018 0.34522226 -0.21783257 0.90865684
000350 ce 9b 25 3e b6 c2 73 3f e0 87 82 3f 4b f8 4c 3f
       0.16172716 0.9521898 1.0197716 0.80066365
000360 6e de 6c 3f aa df f3 3e a7 b3 a2 bf 90 0e ea bd
       0.925269 0.4763158 -1.2711076 -0.11428559
000370 11 05 e2 3e b8 28 b1 3e e9 d3 28 bf 9a 3a fa be
       0.4414449 0.34601378 -0.6594835 -0.48872834
000380 f2 f0 fa 3c 73 d9 23 3f a0 21 7c 3f 5e 5e 6c bf
       0.03063247 0.64003676 0.9848881 -0.9233149
000390 28 01 31 bf dc c8 8d bf 2d 0b cf 3f b9 8b 9f 3e
       -0.6914239 -1.1076922 1.6175286 0.31161287
0003a0 c4 a3 22 bf 33 59 68 bf 3d 1a b3 bf 58 0a 69 be
       -0.63531137 -0.9076111 -1.3992382 -0.22757852
0003b0 8c b2 a6 bf f9 11 34 be 3f cb 86 3f 2b 1c ab 3e
       -1.3023238 -0.17584981 1.0530776 0.33419928
0003c0 64 d5 e9 be 6b cd 74 bd aa 20 7b bf a1 11 25 3f
       -0.45670617 -0.059766214 -0.98096716 0.64480025
0003d0 be 05 90 be 3e 6e 1c bf ef 7e 1f be 53 ad fd bf
       -0.2812938 -0.61105716 -0.15575765 -1.9818519
0003e0 3a a0 8f bf cb 77 0c be ae e7 39 be 10 a6 15 3f
       -1.1220772 -0.13717572 -0.18154785 0.58456516
0003f0 5c a8 5f bf c1 90 e9 be be 75 e7 be ee dc a3 bf
       -0.8736627 -0.4561825 -0.45207018 -1.2801797

bias f4 [90]
000000 f3 92 db be f7 2e 96 bf c3 db f6 be 3b a2 91 3e
       -0.4288555 -1.1733083 -0.4821454 0.28444085
000010 da e5 c9 be 3c 0c c8 bf 34 a8 1c 3e 9a 18 1b be
       -0.39433175 -1.5628734 0.1529854 -0.15146104
000020 60 4d e2 be 92 33 42 bf a6 61 75 be 9e 84 22 3f
       -0.44199657 -0.7585994 -0.23963031 0.6348361
000030 66 b6 d2 3e 33 39 d1 3e 0e 25 99 bf 06 f1 d8 3e
       0.41154784 0.40863952 -1.1964433 0.42371386
000040 d3 4d 34 bf c8 5f 04 bf 3b ca c2 3e df 77 a5 bd
       -0.7043125 -0.5170865 0.38044915 -0.08079504
000050 e1 31 8b 3e 19 42 99 bf 4c 88 ae bf 07 73 dd be
       0.27186492 -1.1973296 -1.3635345 -0.4325182
000060 09 ba 46 bf a0 a0 aa be c6 41 1c bf 98 26 6a bf
       -0.7762762 -0.33325672 -0.6103786 -0.9146514
000070 4a 4c d4 3d 8a f4 35 bf 5a 85 5b bf 6e 12 a3 3d
       0.103661135 -0.7107626 -0.85750353 0.079624996
000080 f7 9d e0 3e 96 ba 86 3e b2 2b d6 bd 03 85 b5 bf
       0.43870518 0.2631423 -0.10457553 -1.4181217
000090 22 42 eb 3e d4 cd 69 bf b7 84 d7 be e6 0a a6 be
       0.45948893 -0.91329694 -0.4209344 -0.3243019
0000a0 2b 2c 1d bf 02 b1 4a bf 5e 60 84 bf e7 1d 2c bf
       -0.6139552 -0.7917634 -1.0341909 -0.6723313
0000b0 cc ee 6d bf 88 15 24 3f 45 37 bb be b9 c7 4e bf
       -0.929425 0.64095354 -0.36565605 -0.807735
0000c0 36 da c2 bf 60 55 1e be a4 8f 26 bf 2c 2c 25 3f
       -1.5222843 -0.15462255 -0.6506293 0.64520526
0000d0 c4 bd d0 bd 05 4f a9 be 1b eb 02 3e 37 d7 6f bf
       -0.10192445 -0.330681 0.12784998 -0.93687767
0000e0 7c 37 3f 3e 1d 9a 33 bf 54 33 84 bf dc d8 ac bf
       0.1867351 -0.70157033 -1.0328164 -1.350368
0000f0 e6 c7 1c bf 1c fb ea 3e 45 f4 76 3d be e3 6f bf
       -0.6124252 0.45894706 0.060291547 -0.9370688
000100 66 73 b3 be 40 8b 68 be 25 22 06 bf 2d 6a a8 bd
       -0.3504898 -0.2270937 -0.5239585 -0.082233764
000110 25 74 79 bf 5b 0c 30 bf c9 2c b6 bf 4e 89 cb be
       -0.9744285 -0.6876885 -1.4232417 -0.39753193
000120 1d 11 b1 3c 7a d1 36 be 87 8c 76 bf 3a cb a0 be
       0.021614606 -0.17853346 -0.9630818 -0.3140505
000130 f3 25 11 bf e9 76 31 bf 54 a3 8a 3e a1 62 6a bf
       -0.5669853 -0.6932207 0.27077734 -0.91556746
000140 d0 b1 b6 bf 28 a6 4c bf d6 b2 5a 3d 88 c5 d6 be
       -1.4273014 -0.79941034 0.053393207 -0.4194758
000150 7c 24 0a bf 52 29 db bd 77 89 cb be 40 ff 2c bf
       -0.5396192 -0.107012406 -0.39753315 -0.6757698
000160 86 f9 b1 be f1 85 a3 bf
       -0.34760684 -1.2775251

weight f4 [84, 90]
000000 67 af 45 3d 08 c3 0f be bd c1 53 bf ba ff 11 bf
       0.04826298 -0.14039242 -0.82717496 -0.5703083
000010 32 6a 96 bc b6 d5 80 be 50 7d b7 bd 67 16 23 be
       -0.018361185 -0.25163049 -0.08959448 -0.15926515
000020 6b 1f 87 be db 10 cd be fa 32 90 be fb 54 06 be
       -0.26391158 -0.40051922 -0.28163892 -0.13118355
000030 1e 01 fe be 9c 3d 1d be 12 41 2c 3e 07 5e 3c be
       -0.49610227 -0.15355533 0.16821697 -0.18395244
000040 9e 68 af bd a6 71 9e be 55 7b 9f be 94 6b be be
       -0.08564876 -0.30946082 -0.31148782 -0.3719145
000050 f5 4c 4a bf 7a fb ff bd 26 40 9f bc b8 eb 1c 3e
       -0.7902368 -0.12499137 -0.019439768 0.15324295
000060 5f 6e 82 be c0 38 ea bd 31 a7 a1 be 5c 2b 06 be
       -0.2547483 -0.114366055 -0.3157287 -0.13102478
000070 ce 7f 6e be df 9a 6b be 6f 0d 2c bf 1c 82 8d be
       -0.23290941 -0.23008297 -0.67208 -0.27638328
000080 75 72 11 be 04 59 de be 55 4e a6 bd 0e 9a 96 be
       -0.14203818 -0.4342729 -0.081204094 -0.2941441
000090 ff 57 ef be 58 bd 44 bf 9d 1a 8e 3d ab 93 01 be
       -0.46746823 -0.76851416 0.0693867 -0.12653987
0000a0 da aa 8d bd 37 f6 cf 3d 25 80 05 bf 04 d2 e1 be
       -0.06917353 0.10154384 -0.5214866 -0.44105542
0000b0 43 90 02 bf 80 5b eb bc 24 de 0c bd c9 34 82 be
       -0.51001376 -0.028730154 -0.034391537 -0.25430897
0000c0 f0 e9 f8 be c9 4d 22 be 27 6f 35 be ae 4b c4 3c
       -0.4861598 -0.15849985 -0.17718183 0.023961868
0000d0 aa 57 a8 be c7 79 70 be f8 bb fa be 1b a9 df 3c
       -0.32879382 -0.23483954 -0.48971534 0.027302315
0000e0 09 10 07 bf 62 be 1b bf 4a 48 ae bc b0 d1 fa be
       -0.5275884 -0.60837376 -0.021274704 -0.48988104
0000f0 80 2d 94 be 3d b3 e4 be f0 fd c8 be 80 f4 b8 bd
       -0.28940964 -0.44667998 -0.3925624 -0.0903101
000100 d8 53 cd be 4f 7d 37 bc 64 4c 18 3e 23 2b 1f 3e
       -0.4010303 -0.0111993095 0.1487289 0.15543799
000110 32 d5 e9 be f0 04 b1 bd f3 58 c1 be 8e 25 fb be
       -0.45670468 -0.0864352 -0.37763175 -0.4905209
000120 b2 2a ba be 4d bd e3 be ca 21 2e bf 61 43 5d bd
       -0.363607 -0.44480363 -0.6802031 -0.054019336
000130 02 cb d7 3c 5e 3b 0c bf 76 62 69 bd 90 3e e0 3c
       0.026341919 -0.5477809 -0.056978665 0.027373582
000140 a4 e5 44 bd e8 44 f1 be de 70 dc bd 68 52 69 bd
       -0.048070565 -0.47122884 -0.10763715 -0.056963354
000150 d6 3c 16 bf b3 9f 52 bf 9e f4 05 bf d5 cc cf be
       -0.5868658 -0.8227493 -0.5232638 -0.40585962
000160 1f 99 5b 3e 7f 83 ff be b0 37 e6 3e e3 d7 44 3e
       0.2144513 -0.4990501 0.4496436 0.19222979
000170 e9 fb 24 bf e9 0f 40 be 9d f6 39 3e 88 6e 8d 3e
       -0.64446884 -0.18756069 0.18160482 0.2762339
000180 00 6a 9b be 7f e1 86 3d b1 75 8c bf c0 ec 9c 3e
       -0.3035431 0.06585979 -1.0973417 0.30649376
000190 8f 3a cd be 8b b7 78 be 3e 2e 69 3f 09 3e 6e be
       -0.4008374 -0.24288766 0.91086185 -0.23265852
0001a0 a2 fd 06 3f 2f 60 90 bf 65 9d dc bd 76 8c 99 bd
       0.5273076 -1.1279353 -0.10772208 -0.07497494
0001b0 85 74 93 bf aa f4 9b be cd 7a 3c 3f 09 c1 0e be
       -1.1519934 -0.304601 0.7362488 -0.13940825
0001c0 54 01 5e be bd 14 ce be 35 91 b2 3e d4 d7 6d be
       -0.21680194 -0.40250197 0.3487641 -0.23226863
0001d0 a6 2b 60 be a5 5c 34 bd 06 9a 40 bf 2b 1d c9 3e
       -0.2189165 -0.044033665 -0.7523502 0.39280066
0001e0 f0 4f 9d 3f 58 93 36 bf 27 02 d9 be dc f7 9a bf
       1.229002 -0.7131858 -0.42384455 -1.2106891
0001f0 b8 52 52 bf b6 83 42 3f 73 70 18 bf e3 b5 d3 3e
       -0.8215747 0.75982225 -0.59546584 0.41349706
000200 36 55 84 be 24 54 c6 bf c4 50 72 bd b6 c3 7b be
       -0.2584626 -1.5494428 -0.059159055 -0.24586377
000210 92 d2 1d 3f 51 f2 b5 3e 5f 9f 6a bf 28 0b 16 3d
       0.6164943 0.35536435 -0.9164943 0.036631733
000220 f3 76 9a bd 33 cc e8 be 7a 9c d8 be fd 45 58 bf
       -0.07542219 -0.45468292 -0.42306882 -0.84481794
000230 97 85 15 bf 12 00 98 bf e8 8a 35 bf 75 1e 89 3e
       -0.58406967 -1.1875021 -0.7091508 0.2678105
000240 8c 09 5a bf fd de cc 3d 0e d3 49 3f 87 a3 4e be
       -0.8517082 0.10003469 0.7883767 -0.20179568
000250 2d 93 87 3c 90 af 20 bf d8 e3 f0 bd 8c 10 b2 bf
       0.016549671 -0.6276789 -0.11762208 -1.39113
000260 87 f2 3f bf 23 00 71 bf 11 79 01 bf 27 96 20 bd
       -0.7497944 -0.94140834 -0.5057536 -0.039205696
000270 56 6e bd 3e 9f 05 a6 3f 3b 1c 03 bf 98 5a 6f 3e
       0.36998242 1.2970465 -0.5121495 0.23374403
000280 f5 af e5 3d 57 df 17 be 39 77 95 3f 0d 43 27 bf
       0.11215202 -0.14831291 1.1677009 -0.65336686
000290 a3 ff 49 be c6 a2 6c 3d dc b8 0e bf 03 59 38 3f
       -0.19726424 0.05777242 -0.55750823 0.7201082
0002a0 a3 7a 53 bf 46 f3 73 be f6 83 ae be 73 40 66 3f
       -0.82609004 -0.2382327 -0.34085053 0.8994209
0002b0 80 cf f9 bd a7 fa 0b 3f 18 b5 5b bf 54 cc 20 bf
       -0.121977806 0.5467934 -0.858232 -0.6281178
0002c0 23 7b 85 bf b1 06 0d 3f 99 83 bb 3e c5 bb 57 3f
       -1.0428203 0.55088335 0.3662384 0.8427089
0002d0 fc 67 41 bf 32 96 8c 3f bd 23 85 be 68 6e a3 be
       -0.7554929 1.0983336 -0.2600383 -0.3192017
0002e0 c0 7f bf bd f5 27 eb 3e 59 14 e8 be 00 4b 8a bd
       -0.09350538 0.45928922 -0.45328024 -0.06752586
0002f0 39 6a 88 bf e8 53 99 3d a6 4c 5c bf 24 fe 60 bf
       -1.0657417 0.07486707 -0.86054456 -0.8788779
000300 b7 76 03 bf 6e 52 ef be bb 14 2b 3f 78 dc 55 bf
       -0.5135302 -0.46742576 0.6682851 -0.83539534
000310 0a f0 f4 be 70 01 9b bd e9 72 42 be a5 10 b0 3d
       -0.47839385 -0.075686336 -0.18989147 0.08596925
000320 78 32 8c bf 8a 0f 70 be 0c 62 2e bd f5 2f 4d be
       -1.0952902 -0.23443428 -0.042573974 -0.20037825
000330 2f c6 d7 3e 09 1b 40 3d 87 db 80 bd 6c 9e 42 be
       0.4214339 0.046900783 -0.062918715 -0.19005746
000340 1b 0d 3d bf 5a fc 6c bf e8 0b 1d 3f 63 8f 89 bf
       -0.7384812 -0.9257256 0.6134629 -1.0746883
000350 71 fd b9 bf ee e8 23 3e 9a 16 15 bf 51 5a e2 be
       -1.4530469 0.16006824 -0.5823761 -0.4420953
000360 94 fd 33 be bc f3 dc bd c3 32 1a be ad 2a 3b bf
       -0.17577201 -0.10788676 -0.15058427 -0.73111993
000370 cb 8a 33 3e 74 31 5c be a7 d4 93 be 9f 4b 3f 3f
       0.17533414 -0.2150324 -0.28873178 0.74724764
000380 23 df a9 bd cc 3c 90 be 75 3e b5 bd 37 dd d4 bf
       -0.08294513 -0.28171384 -0.08849803 -1.663001
000390 fc 14 c2 be 4c fb d2 be 8e a1 b5 bf 5c 4c 62 bf
       -0.37906635 -0.4120735 -1.4189928 -0.88397765
0003a0 6d 7b 2c bf 7b 82 cb 3e 50 20 4e bf 3c 9e 23 3f
       -0.6737583 0.39747986 -0.80518055 0.6391332
0003b0 6c 03 0d 3f 7a 62 a6 bf 44 40 27 bf 30 71 f7 be
       0.55083346 -1.2998803 -0.65332437 -0.48328543
0003c0 3b ef 9d 3f 4b b0 50 bf ad b2 11 bf 21 52 37 bf
       1.2338632 -0.81519 -0.5691326 -0.71609694
0003d0 08 7b c9 be ec b6 9f 3c 90 b3 c3 be 55 cd ff 3e
       -0.39351678 0.019496404 -0.38222933 0.49961343
0003e0 c1 40 28 3d 26 6c 1e be d3 5f 63 3e 1b 36 f1 bd
       0.04107738 -0.15470943 0.22204523 -0.11777898
0003f0 e6 63 e3 bf d5 f4 b2 be b9 ac 20 3f 9a 48 28 3c
       -1.7764862 -0.34952417 0.62763554 0.010271216

bias f4 [84]
000000 cf 85 42 bf 16 04 d2 bf 9f b9 3c 3e 8a 5e c4 bf
       -0.75985426 -1.6407497 0.18430184 -1.5341351
000010 8e df c5 bf 3c 86 87 bf 57 3f e1 bf a6 2e 8f bf
       -1.5458848 -1.058784 -1.7597455 -1.1186111
000020 90 a6 89 bf 6f 3e 98 bf 21 09 1e c0 08 b6 91 bf
       -1.0753956 -1.1894053 -2.4693072 -1.1383677
000030 d2 30 32 bf c7 72 44 c0 6b 5c 8c bf be d4 ab bf
       -0.69605744 -3.0695055 -1.0965704 -1.3424299
000040 00 d3 07 3f dd 52 6b c0 2f 8a 20 c0 e8 55 8e bf
       0.53056335 -3.6769326 -2.508434 -1.1119967
000050 24 f4 05 bf 6b 57 cd bf 68 b3 09 c0 68 c1 aa 3e
       -0.52325654 -1.6042303 -2.151575 0.33350682
000060 87 9a 38 bf 53 9a f9 be 22 c6 0a c0 d3 44 65 bf
       -0.7211079 -0.48750553 -2.168343 -0.8955814
000070 50 18 fa bf 68 eb f6 be 96 83 53 c0 23 a0 25 3f
       -1.953867 -0.48226476 -3.3049064 0.64697474
000080 c4 cb 5a c0 0a 38 89 3f 49 88 e1 3f 6b 2f db bf
       -3.4186869 1.0720227 1.7619716 -1.7123846
000090 fc 80 c9 bf 58 8f ef bf bd bd a9 bf b1 2c 44 bf
       -1.5742488 -1.871562 -1.3261029 -0.76630694
0000a0 b5 b4 8c bf 48 af 62 bf b1 6f 95 bf 19 39 1b bf
       -1.0992647 -0.8854871 -1.167471 -0.60634
0000b0 ae a0 a9 bf 21 1b 62 bf 9d 2e 39 c0 60 82 20 c0
       -1.325216 -0.88322645 -2.89347 -2.5079575
0000c0 1d 87 5c bf f9 63 bd 3c 18 7c 90 be d1 e1 f9 bf
       -0.86143667 0.02311896 -0.28219676 -1.9522039
0000d0 33 eb a5 bf be b6 55 c0 0e 5d 92 bd 24 e6 24 c0
       -1.2962402 -3.3392787 -0.07146655 -2.5765467
0000e0 72 49 cb be ca 28 dc bf 30 8f 3d 40 52 ef bc bf
       -0.39704472 -1.7199948 2.9618645 -1.4760535
0000f0 4f a8 8a bf ea 5b 19 c0 e9 49 63 bf d2 ba 0c bf
       -1.0832614 -2.396235 -0.8878465 -0.54972565
000100 ef eb f7 bf 0f ff d4 bf cb b5 75 bf ef 36 f6 bf
       -1.9368876 -1.6640338 -0.9598052 -1.9235514
000110 a6 ee ff 3e a5 7d c9 3e 3b f4 9d bf 19 fa 9b bf
       0.49986762 0.39353672 -1.2340158 -1.2185699
000120 52 bb ba bf ee 7f e9 bf 6f 21 f5 bf ee 02 e7 3e
       -1.4588416 -1.8242166 -1.9150828 0.45119423
000130 3a dd 1c c0 a7 c0 69 bf 1a 25 b7 bf 37 00 62 bf
       -2.4510026 -0.9130959 -1.4308197 -0.8828158
000140 5b b1 30 bf 82 fb 2f bb e5 2d 62 bf 79 c9 57 bf
       -0.6902062 -0.0026852791 -0.8835128 -0.842918

weight f4 [10, 84]
000000 d3 fa 61 3e 72 05 df be 26 30 e1 be 8e df e4 be
       0.22068338 -0.43558842 -0.43982047 -0.4470181
000010 18 58 01 c0 d4 01 ae bf 5c 87 2b bf a2 be 94 bf
       -2.0210018 -1.3594308 -0.67003417 -1.1620677
000020 18 aa 5d bc 41 7e 8d be 53 bc 7c bd 96 9b a3 bf
       -0.013529323 -0.27635387 -0.061703037 -1.2781856
000030 00 b3 54 bf a3 6b 19 c0 8b 7d 1c be 1e 21 29 3d
       -0.8308563 -2.3971946 -0.15282266 0.04129135
000040 01 d2 85 bd aa 2a 95 bf fe dc 32 c0 d4 f0 15 be
       -0.06534196 -1.1653645 -2.7947383 -0.1464265
000050 a4 7e 61 bf 9a be d8 bc 78 4d c7 bf ee 88 7a be
       -0.88083863 -0.026458073 -1.5570517 -0.24466297
000060 49 19 ee bd 8f 9c 29 bd 7e 16 88 bf 42 80 89 bf
       -0.116259165 -0.04140907 -1.0631864 -1.0742266
000070 f1 c2 4c bf 3a 48 bf be 64 98 1d bf 49 a9 70 be
       -0.79984957 -0.37359792 -0.61560655 -0.23502077
000080 93 79 80 bf a0 9f 88 bf 9b cc 71 be 91 81 ae bf
       -1.0037102 -1.0673714 -0.23613207 -1.363329
000090 25 48 c6 be 4a ea f4 be 5a 8b 96 be 95 a2 e5 3c
       -0.38726917 -0.47834998 -0.29403192 0.028031627
0000a0 06 31 06 3d c3 e4 59 3d 3f 10 2f 3e ed ef 70 be
       0.032761596 0.05319668 0.17096041 -0.23529024
0000b0 91 0a 99 3d 51 33 fd be 4a ae 61 bf f6 1b a3 bb
       0.074727185 -0.49453214 -0.8815657 -0.0049776984
0000c0 f3 e7 45 bd 71 ce 12 bf ab d1 09 3e fc 85 90 bf
       -0.048316907 -0.57346255 0.13458888 -1.1290889
0000d0 dd 69 cf be 17 80 6f bf 9e d4 ee bd 7e 1d de be
       -0.40510455 -0.93554825 -0.11661647 -0.43381876
0000e0 2a 2f 5c be 3f 30 be bf 0b 8a f9 bd d3 f9 85 bf
       -0.21502367 -1.4858474 -0.12184533 -1.0466865
0000f0 86 b2 e3 be 78 66 99 3d 82 2d 61 3c 4a 3c 8a be
       -0.4447214 0.074902475 0.01374376 -0.26999122
000100 0a 03 d3 3d b9 c4 85 be 4f ee d3 3e f6 c0 aa be
       0.10303314 -0.2612665 0.41392753 -0.33350343
000110 b5 5f 54 be 13 8f 5f 3e 42 5f 0e bc 13 ab 05 be
       -0.20739634 0.21831922 -0.008689703 -0.13053541
000120 79 2a 85 bf b0 cd 7e 3d f7 be 04 bf 81 a6 10 bf
       -1.0403587 0.062207878 -0.5185389 -0.56504065
000130 3e 3b 56 3c ee ce 98 bf e5 1c bb bf 94 c5 f6 3c
       0.013075648 -1.193815 -1.4618193 0.03012351
000140 5c 80 b5 3d 44 19 f7 3d 32 41 1d bf 43 83 35 bf
       0.08862373 0.12065366 -0.61427605 -0.70903414
000150 cd 38 83 bc b9 99 0c c0 89 72 49 be b8 d3 ff bd
       -0.016018296 -2.1968825 -0.19672598 -0.12491554
000160 f4 a5 a6 bf 88 de 85 bf b5 17 52 3d fc 5c 7e bf
       -1.3019395 -1.0458536 0.05129214 -0.9936063
000170 45 b3 13 bf 3a 54 ff be 24 b5 b8 be ad 88 81 bd
       -0.5769542 -0.49868947 -0.360757 -0.06324897
000180 79 52 33 bf fb 84 88 be 18 e6 df be 7f 04 a9 bd
       -0.7004772 -0.26663956 -0.43730235 -0.08252811
000190 bf f1 ac be 7f 7a 0b bf 82 45 aa bf 02 74 86 bf
       -0.33778188 -0.5448379 -1.3302462 -1.0504153
0001a0 ae 08 0f bf 50 10 9f be ab 8d b4 bf b5 08 88 bd
       -0.5587262 -0.31067133 -1.4105734 -0.06642286
0001b0 5f 32 17 be ce d1 16 3e 52 d6 83 bf ec 15 45 bf
       -0.14765309 0.14728472 -1.029978 -0.76986575
0001c0 0e da a8 bf 10 b3 10 c0 b8 62 08 3e c8 15 75 be
       -1.3191545 -2.260929 0.13318908 -0.2393409
0001d0 f3 4d d8 be 5f 89 ac 3d c7 1c 84 3e d7 c4 46 be
       -0.4224697 0.08424639 0.25803205 -0.19411026
0001e0 1d e1 b8 bf 16 ca 3e bf 6d b8 0d bc 74 a8 1d 3e
       -1.4443699 -0.7452711 -0.008649928 0.15396291
0001f0 11 1c cb 3e d6 72 19 be b4 8a 05 bf f6 90 db bd
       0.3966985 -0.14985213 -0.5216477 -0.107210085
000200 da e9 76 be ee 0d 1c bf 99 55 c0 be 4e 35 5a bf
       -0.24112645 -0.60958755 -0.37565306 -0.85237586
000210 90 f5 6d be 3e 5b d5 be 32 b4 2a 3d 89 9f af be
       -0.23238206 -0.41671175 0.041675754 -0.34301403
000220 86 3f 4d bf ed 59 dd 3e 18 ed df bd bd 18 e8 be
       -0.80175054 0.4323267 -0.10933894 -0.45331374
000230 90 c2 15 be c8 ff 78 bd b2 6d 6e be 30 48 fb be
       -0.14625001 -0.060790807 -0.23284033 -0.49078512
000240 bb 4e 97 be ab 9c 82 bd 1c 77 39 be b1 59 30 c0
       -0.29552254 -0.06377538 -0.18111843 -2.7554743
000250 6f af 15 bf 46 d3 ba be 54 da 75 bd a4 a5 fc be
       -0.58470815 -0.36489314 -0.060022667 -0.49345124
000260 83 0c 41 be c5 14 55 be 1d a7 c0 3e 57 34 dd be
       -0.18852429 -0.20808704 0.37627497 -0.43203995
000270 f7 e8 77 bd 63 27 75 bf 44 4b b7 bd ad 7f 8a be
       -0.060524907 -0.95763224 -0.08949903 -0.27050534
000280 b1 07 9f bf aa 00 c5 bf f7 7b c2 bf 92 f3 7c be
       -1.2424222 -1.5390828 -1.5194081 -0.2470229
000290 b3 f6 61 be b1 1e 36 c0 11 92 4d bf f4 34 5a bf
       -0.22066765 -2.8456233 -0.80301005 -0.8523705
0002a0 07 d0 83 bd 36 0e b0 bf 05 f6 94 bf c7 fc 23 be
       -0.064361624 -1.3754337 -1.1637579 -0.16014396
0002b0 6a df 97 be 38 96 57 3d dd 18 96 bd fa 24 2d be
       -0.2966264 0.052633494 -0.07328961 -0.16908637
0002c0 c7 78 a0 3d 53 3a 8f be 6f ad c2 bf f8 5d 1c bf
       0.078355365 -0.27974185 -1.5209178 -0.61080885
0002d0 47 2b 80 bf 3c c9 02 c0 f7 c4 90 bf 33 6e bf 3e
       -1.0013207 -2.0435324 -1.1310109 0.37388763
0002e0 4b 08 7f bd e9 49 0e bf 53 9d 86 be 9e 78 07 bf
       -0.06226377 -0.5558153 -0.26291904 -0.5291842
0002f0 3f 1f 20 be 26 ac 69 be ca 18 3b bf 63 a8 09 3e
       -0.1563692 -0.22819576 -0.730847 0.1344314
000300 05 02 94 39 0a 12 d4 3d 33 6f ba be 71 26 93 bf
       0.00028230264 0.10355003 -0.36412963 -1.1496106
000310 e9 dd f2 bd 09 a0 e9 be 9f 27 6d bf 83 92 69 be
       -0.11858732 -0.4562991 -0.9263858 -0.22809796
000320 f9 49 2c bf 2d cf 62 be 8b 56 3c bd 40 55 73 bf
       -0.67300373 -0.22149344 -0.04598097 -0.95051956
000330 38 62 17 bd 5a 11 b3 be 88 96 36 be 03 42 13 3e
       -0.036958903 -0.34974176 -0.1783086 0.1438065
000340 76 9d cd be 74 e4 ad 3c ea 1c 4a 3e 0e 39 73 be
       -0.40159196 0.021227099 0.19737592 -0.23752233
000350 c8 fa 4f 3d a3 f7 cf bd 57 8b 1a be 56 6c 39 bf
       0.050776273 -0.10154655 -0.15092216 -0.7243093
000360 73 f6 4f 3f 09 6b 4c 3c 9b 4a 85 be 03 16 56 3d
       0.81235427 0.012476691 -0.26033482 0.052267086
000370 c6 35 07 c0 95 31 60 bf c4 23 8a bd fb 10 61 bd
       -2.112657 -0.87575656 -0.06745103 -0.054947834
000380 97 89 91 be e4 3f 0e bf f6 c3 6f bd 8f 96 2a bf
       -0.28425285 -0.5556624 -0.058536492 -0.66635984
000390 87 72 a6 be 4c 98 05 bf 76 b5 5d 3c d2 3e 30 3b
       -0.32509252 -0.5218551 0.013532033 0.0026892913
0003a0 aa c7 51 be f0 9f c5 bd 82 8f 2f be 5a d7 1f 3e
       -0.20486322 -0.09649646 -0.17144588 0.15609494
0003b0 6a cb 50 3e 50 59 92 be 43 bb b7 3d 59 c6 c1 be
       0.20390096 -0.28583765 0.08971264 -0.3784664
0003c0 5f 08 55 bf 90 ea 2a be 8a a9 4f be 24 bc 43 be
       -0.832159 -0.16691041 -0.20279518 -0.19114739
0003d0 4d 73 25 be a6 c7 22 be d5 fa db be 63 c2 75 be
       -0.16157265 -0.15896472 -0.42964807 -0.23999934
0003e0 00 d3 52 be c8 19 e4 3d 90 48 0a bd 28 c8 d8 be
       -0.20588303 0.1113773 -0.033760607 -0.42340207
0003f0 c9 c2 84 bd cc 22 34 bf 0c c1 8a bd 9d f0 99 be
       -0.06482465 -0.70365596 -0.06775102 -0.30066386

bias f4 [10]
000000 53 4b cf 3e 76 62 83 be ef f5 3b 3e e3 70 86 be
       0.40487155 -0.25661057 0.18355535 -0.26258
000010 86 e5 25 3d 87 0f 02 bf bc 79 52 bd f3 b8 9f 3d
       0.040502094 -0.5080494 -0.051385626 0.07798948
000020 36 3e ce 3e 0d 47 2a be
       0.40281838 -0.16628666
