checkpoints/YourNet/pruning/12/epoch-15.pth (torch, 20175 bytes, 8 tensors)

weight f4 [3, 1, 3, 3]
00000000: ffaa da3e fbc0 713e 4592 00be 7278 6b3e
00000010: 5615 223e b1c9 23bf 4eb9 a9be 2d7e 04bf
00000020: 4ea3 c9be f10c f33d 4b57 0abd c8ff c6be
00000030: 8c86 9f3e 8644 36be 4619 85be 679a 873e
00000040: 430f 4e3e 3047 0a3e 1727 103d b517 143e
00000050: 609e 023f 2a2d 77be 974c b13d 94dc b83d
00000060: 61c9 fabe 0b97 19bf 56bc d4be
0.42708585 0.23608772 -0.12555797 0.22995165 0.15828452 -0.6397963 -0.3314919 -0.5175503
-0.39382404 0.11867703 -0.033774655 -0.3886702 0.3115734 -0.17799577 -0.25995845 0.26484987
0.2012301 0.13503718 0.03519353 0.14462169 0.5102291 -0.24138322 0.086571865 0.09026447
-0.48981765 -0.599961 -0.4154994

bias f4 [3]
00000000: bf47 17bf 4c93 cdbd 9de8 c8be
-0.5909385 -0.1003786 -0.3923997

weight f4 [4, 3, 3, 3]
00000000: a5b6 44be a643 75be 4144 c6be e4a3 bb3e
00000010: 814b 57be 275c adbd e340 fabe 32ef dc3c
00000020: 0169 b53e 2411 52bd 558b 7fbe e216 fe3e
00000030: 2c9b 20bf ca0a f2bd 0679 ca3e eb4c 89bf
00000040: d032 1ebe bff0 f83e f164 9a3e b633 0c3f
00000050: 0130 debe 8677 143f c0b9 37bf e075 4abf
00000060: 49a3 0dbf b0e5 953d 13e2 32bf 80e3 043e
00000070: fbd1 a13e 85c3 4abe 5140 a9be 9926 54be
00000080: 36bd b0bd 9acd 8cbe 16cf 143e 5d87 2f3f
00000090: e2ce 223c d54a a2bc e5f6 ce3d 7d97 043f
000000a0: 0720 8ebd fe8f 713d ea01 2cbe fdb2 e0be
000000b0: e732 c1bd f906 afbe 0a0b 95bd f781 12bf
000000c0: e82b 1f3d 5794 a23d f2ed e53c c411 b33e
000000d0: 482d 113f 20bc 033e c4cb b7bd d5b4 693f
000000e0: a2d5 273f dc0a 32bf acf5 16bf adbd b83e
000000f0: db50 99bd 205a 18bf 0082 23bf 3d8f 243e
00000100: 9e0d b5bd 7435 16bf 7078 5d3e 0c2f b93e
00000110: 7982 13bd 9f51 fdbe 4db0 4e3e 254e 123f
00000120: 7fd9 15bf db39 1fbf d470 573c 1a8e fd3d
00000130: 0d00 bbbe 4d0d c33d 663d 233e 7b91 813e
00000140: 007a 2b3d 12dc 49bf ee5f 8dbd c9d4 803e
00000150: 0b7c 31bf 3ada 30c0 1916 94bf 9217 de3d
00000160: adf4 86be 7ee9 46bf 3146 86bf dd11 44c0
00000170: 11ea 58bf 5298 073d 50bc e8bc 5202 05bf
00000180: 2538 fe3e abcf 2f3f 04d4 c63c 80fb 4abc
00000190: 3508 5cbe dc4b dd3e 5480 67bf 0221 70bd
000001a0: f9f0 763f e09b 773e 6290 2b3e 0efe cebe
-0.19210298 -0.23951587 -0.3872395 0.36648476 -0.21024896 -0.08464842 -0.4887763 0.026969526
0.35431674 -0.051285878 -0.24955495 0.49626833 -0.62736773 -0.11818464 0.3954546 -1.0726599
-0.15449071 0.48621175 0.30155137 0.54766405 -0.43396 0.5799488 -0.71767807 -0.7908611
-0.5532728 0.073192 -0.6987621 0.1297741 0.31605515 -0.19801147 -0.33056882 -0.20717849
-0.08629839 -0.27500612 0.14532122 0.6856592 0.00993702 -0.019811073 0.10105685 0.5179365
-0.069397025 0.058975212 -0.16797605 -0.43886557 -0.09433537 -0.34185007 -0.07277496 -0.5722956
0.03886023 0.0793845 0.028067563 0.34974492 0.5670972 0.12864733 -0.08974412 0.9129155
0.6556035 -0.6954782 -0.58968616 0.3608221 -0.07486125 -0.5951252 -0.6387024 0.16070266
-0.08840488 -0.58675313 0.21627975 0.36168706 -0.0360131 -0.49476334 0.20184441 0.5715049
-0.58535 -0.62197655 0.013149459 0.12380619 -0.36523476 0.09524021 0.1594139 0.25306305
0.041864395 -0.78851426 -0.06903063 0.25162342 -0.693299 -2.7633195 -1.1569244 0.108443394
-0.26358548 -0.7770003 -1.0490171 -3.0635903 -0.84732157 0.03310425 -0.028410107 -0.51956666
0.4965221 0.6867625 0.024271019 -0.012389064 -0.21487506 0.4322194 -0.9043019 -0.05862523
0.96461445 0.24180555 0.16754296 -0.40428203

bias f4 [4]
00000000: 805d 96be 29d2 3dbf 6a46 32bf 1d89 c1bd
-0.2936821 -0.74148804 -0.69638693 -0.094499804

weight f4 [36, 100]
00000000: 56f6 aabf 237c 23bf 35fa cdbe bf6e 0abf
00000010: 4e15 adbe 5f59 bfbe 80ae f1bd 2301 42be
00000020: 0491 9dbd 1279 86be a947 35bc 6699 ba3f
00000030: d3fa eb3e eedc 3a3f f3f5 4c3e 5c9c 363e
00000040: 58af 7c3f 6cd8 babd 6589 d63e 2ae2 543e
00000050: 6787 933f 2eb2 493e d605 82bd 9292 28bf
00000060: 5bdf 84bd 4ce7 febf 61d9 acbf 0563 363e
00000070: 245f cf3d b32b 06bf 2f1d 0fbd ba25 443e
00000080: 9b37 9dbe b506 7dbf d50b 6dbf 4498 98bf
00000090: 8608 51bc 7400 dabf 3863 98bf 0036 793e
000000a0: d966 00bf b3e4 aabf a86f bebf a0fd 7cbe
000000b0: 4c00 abbe 40f0 693c c6c1 c2be 96b4 0c3f
000000c0: d991 373f c03a 11bf 6837 123f b635 aebe
000000d0: 7c2b 1abe 1625 843f d62d 073f 6547 23bf
000000e0: 7faa 52bf 010e f9be bb70 6e3e 53f2 0d3f
000000f0: a0c7 5e3d 5571 fe3d 7eab 553e 4252 62bf
00000100: cd6d 1dbf f37e a5bf cf0c 953d adbd bebb
00000110: bcc1 04c0 fabd 7ebf 96ff 62be 6527 8bbe
00000120: 2f11 5c3e de6d e8bf 3f4a 22c0 2269 5fbf
00000130: f72b e63e 4c83 eb3b 7382 9c3d 2d45 09be
00000140: cd2e d13e 147c 17bf 369c 07bf cd30 b0be
00000150: f557 7ebe 5d2b 15bf cf70 33bf 9633 80bf
00000160: 47a5 973e f779 37bf 92d0 90be d023 8cbf
00000170: e61e 01be cc6d 49bd 2f57 2dc0 d713 2bbf
00000180: 93a3 c03e 9098 653f 04bb 323e fede 25c0
00000190: f55a c7bf ce4d 15c0 b388 443f ab33 e33d
000001a0: be85 a93f 2b92 0dc0 ec87 d9bf fc40 a33e
000001b0: a890 aabe aacf 4a3e 6463 27bf 9842 1abe
000001c0: 1768 91bd 6cac 96be 9572 cabe f36f 32bf
000001d0: fb7b b1be 6cd2 693e a753 1bbe 2b0d 1cbe
000001e0: a631 8abf 556b d73d ea84 e13e 2a5f 293f
000001f0: 9fa7 08bf 7d08 91bf 8516 acbf f607 49be
00000200: 81f2 7dbe abd2 6ebf bc4a a5bf ac48 1cbf
00000210: 6c7a 853f a707 66bf 3e82 80be 4120 733f
00000220: f43a 833e 501b 28bf 54c6 6bbe 1c2a 463f
00000230: 2b81 ae3e 9ff9 1ebe 1cff 8abe 53f1 8e3f
00000240: 7e2f 513f d578 93be 670f eebc 1cc8 51be
00000250: 3a59 1bbe ef01 be3e 0e7d 29bf ea57 0fbf
00000260: aa0f 81be 6d00 48be 7873 b6bf 2dc6 dcbf
00000270: 8d81 d9be d6a6 febe a595 0ebf 335c 89bf
00000280: d9ba f93e 6dbd a83e 59c7 323f 968d 80be
00000290: e055 adbc d9aa dc3e 3477 5d3f da1a a13e
000002a0: 54ec 03bf a924 bb3d 6a79 9abf 7486 24be
000002b0: 9a12 dbbe b9c5 423f 5866 0a3f 22aa 0fbd
000002c0: 00a0 3fbf 880e 31bf f302 933e b0d1 48bf
000002d0: 0dcf 02be 1768 4dbf cc9e 39be 7b37 853e
000002e0: ee6c 82bf c32b 0ac0 0351 cfbf 1dbd 4bbe
000002f0: 7adb 633c 053a a8bf 1b38 e63e b545 15bf
00000300: 8e22 0bbe 6870 17bf b166 b5bf 568c 9d3e
00000310: a9d9 143e f1b4 fb3e 52d8 9abf 60c3 39bf
00000320: 9dfe d2be d330 14bf 0731 bcbe 02ee 0dbf
00000330: 974f ab3e 6d69 e03d b4af 8ebe e9c0 15bf
00000340: 3c3d cbbd b1c9 143f a07e 94be 41d1 2a3e
00000350: b973 123f 2576 3dbf 5018 2bbf 108c f0be
00000360: e8e6 313f 8cc8 973e bf3a c8be 372e 2b3b
00000370: cf37 b43e 8b00 323e 4235 4cbe a1ab 433e
00000380: 9e9c fd3e a826 e7be ef9a 0dbe 7e30 113e
00000390: 0383 3d3d f1b2 e9bc 520c 9a3d 7458 42bf
000003a0: 2087 02bf a36f c23e 5325 143f 8a5e 013d
000003b0: 6f28 56bf c662 00bf 145a 873f 3ced cf3e
000003c0: d308 dabd 1489 15bf 1d82 ecbe 24c6 8fbd
000003d0: 3dc2 c0bf 8cf0 073e e29b 063e 4920 013f
000003e0: 0a17 033e 0be4 413e 47a3 133e 08ed 70bf
000003f0: a9c3 30bd 2c48 b93d f589 9cbe 4fa5 8d3f
-1.3356426 -0.6386129 -0.40229955 -0.54075235 -0.33805317 -0.37372872 -0.11800861 -0.18945746
-0.07693675 -0.26264244 -0.011064448 1.4578063 0.460898 0.7299336 0.20015697 0.17833084
0.98705053 -0.091233104 0.419017 0.207894 1.1525697 0.19696876 -0.06348769 -0.6584865
-0.06487914 -1.9914336 -1.3503839 0.1781121 0.101255685 -0.5241043 -0.03493994 0.19155017
-0.30706486 -0.9883836 -0.9259618 -1.1921468 -0.01275838 -1.7031388 -1.1905279 0.24337006
-0.50156933 -1.3351043 -1.4877825 -0.24706125 -0.33398664 0.0142784715 -0.38038462 0.5496305
0.7170692 -0.5673027 0.57115793 -0.34025353 -0.1505565 1.0323818 0.52804315 -0.63780814
-0.82291406 -0.48643497 0.23285191 0.5544788 0.054389596 0.1242396 0.208662 -0.88406765
-0.6149567 -1.2929367 0.07277834 -0.005820951 -2.0743246 -0.9950863 -0.22167811 -0.27178493
0.2149093 -1.8158529 -2.5357816 -0.87269795 0.44955418 0.0071872827 0.07642069 -0.13405295
0.4085602 -0.59173703 -0.52972734 -0.34412232 -0.2483824 -0.5826929 -0.7009401 -1.0015743
0.29618284 -0.7167048 -0.28284127 -1.0948429 -0.12609443 -0.049176976 -2.7084463 -0.6682715
0.37624797 0.89685917 0.17454153 -2.5917354 -1.5574633 -2.3328738 0.76771086 0.11093839
1.324394 -2.2120464 -1.6994605 0.31885517 -0.3331349 0.1980578 -0.65386033 -0.15064466
-0.07099932 -0.29428422 -0.39540544 -0.6970207 -0.34664902 0.22834176 -0.1516863 -0.15239398
-1.0796402 0.10518519 0.44046718 0.66160834 -0.5338077 -1.1330715 -1.3444372 -0.19631943
-0.24799539 -0.93290204 -1.2913432 -0.6104839 1.0427985 -0.89855427 -0.25099367 0.9497109
0.25630915 -0.65666676 -0.23024875 0.77408004 0.34082922 -0.1552491 -0.27147758 1.1167396
0.8171309 -0.28803125 -0.029060079 -0.20486492 -0.15170756 0.3711085 -0.66206443 -0.5599352
-0.25207263 -0.19531412 -1.4253988 -1.7247978 -0.42481652 -0.4973666 -0.5569709 -1.0731262
0.48775366 0.3295702 0.6983543 -0.25108021 -0.021159112 0.43099096 0.86510015 0.314658
-0.51532483 0.09137852 -1.2068303 -0.16066915 -0.4278763 0.7608295 0.54062414 -0.03507436
-0.74853516 -0.691628 0.28713188 -0.7844496 -0.12774296 -0.80236953 -0.18126982 0.2601889
-1.0189493 -2.158921 -1.6196598 -0.1989636 0.013907308 -1.3142706 0.4496468 -0.5830949
-0.135874 -0.59155893 -1.4171964 0.3077113 0.14536156 0.49161485 -1.2097266 -0.72563744
-0.4120988 -0.57887 -0.36756155 -0.55441296 0.3345916 0.10957608 -0.27868426 -0.5849748
-0.09923789 0.58120257 -0.29002857 0.16681387 0.5720783 -0.740084 -0.6683397 -0.4698186
0.6949296 0.29645193 -0.3910732 0.0026120075 0.3519883 0.1738302 -0.19942191 0.1910844
0.49533552 -0.4514668 -0.13828634 0.14178655 0.04626752 -0.028527709 0.07521881 -0.7591622
-0.50987434 0.37975797 0.5786945 0.0315843 -0.83655447 -0.50150716 1.0574365 0.40610683
-0.10646214 -0.5841229 -0.4619302 -0.07020214 -1.5059277 0.13275355 0.13145402 0.5043989
0.12801757 0.18934648 0.14417754 -0.9411168 -0.043155346 0.09046969 -0.30574003 1.1066073

bias f4 [36]
00000000: 0250 c5be bd13 07bf c725 54bd 714f 89be
00000010: 9bad 9fbc 768c 3ebf 2c43 1cbf a4aa e03e
00000020: 8677 99be 7689 a33e d339 31bf 8026 93bf
00000030: 6459 2abe 3f3b 31bf 2fb3 2abf 9a6d fa3e
00000040: 640c 10bf 2f71 e4be 0949 51bf 306a 36bc
00000050: 954f 88bf 7c50 ae3e 400f ecbe fc86 acbe
00000060: 9a61 a5bd 0e29 36be 8d8b 953f b44c b73e
00000070: 887f 07bf 635a 503f 01e0 c83f 00d0 04bf
00000080: 0b6a 08bf 14e9 2f3e cb89 3d3f 2b1c 71bf
-0.38537604 -0.52764493 -0.05179384 -0.2681842 -0.019491961 -0.74433076 -0.61039996 0.43880188
-0.29974002 0.31940812 -0.6922886 -1.1496124 -0.16635662 -0.6923103 -0.6667966 0.48911744
-0.56268907 -0.44617602 -0.8175207 -0.0111337155 -1.0649287 0.3404578 -0.46105385 -0.33696735
-0.08075257 -0.17789099 1.1683213 0.35800707 -0.5292897 0.8138792 1.569336 -0.5187988
-0.5328681 0.17178756 0.7403838 -0.94183606

weight f4 [10, 36]
00000000: 2f4e 203f b9db ffbe 5dd3 85bd a71f 03bf
00000010: b717 19bf e07d 31c0 0bbb 59be 255a cebf
00000020: 9dc3 6abe fd01 a8be f5cc 203f ac33 26bf
00000030: d6ee 1cc0 236e 62bf 3f0e adbe c998 ae3e
00000040: 0951 09c0 3b16 bfbd 747f 79bf cafd ca3d
00000050: 5d1f e6be 6ba4 cfbe 4367 bbbe 5006 c9be
00000060: 7847 3fbd ba2c c7bf 35b7 b7be 775d 47be
00000070: ae27 64be 42b3 413f 6fcf 96bf e05b 023f
00000080: db7b 2f3e 831e 48bf f9c5 bcbe f66d d33d
00000090: ea80 26be 7550 5ebe b29e bdbe fee6 b5be
000000a0: 6cda 96be 5c84 d0be 9e2e 82be 2c4f 203f
000000b0: 8aa1 0dbf 3d45 e6bd 4c1f 3cc0 6064 a3be
000000c0: 3889 87bc a056 35bf b3c6 59bf 5887 13bf
000000d0: a0b7 06bf 6ffe 93be a94d bdbe 7046 15be
000000e0: ad5d 61be f402 46bf de10 20be 45f1 86bd
000000f0: fd1a 5b3d af67 1a3f 56e0 3c3f d0bb 17bf
00000100: e486 bbbe 0a1a 7bbd e497 553f 337d 96bf
00000110: 1db8 30bf 80cc 17be 96a3 cb3e 9d33 f5be
00000120: 44b7 8abe 0aae 833c 4a32 23be fe9a c13d
00000130: 6a77 99be ec75 8bbe 74a0 2d3f 5b71 e8bd
00000140: e785 503b 126a af3e 19c6 8dbe 8832 083d
00000150: 7d81 bcbe 77ec e7bf f4d5 c0be 177f 54bf
00000160: 5bf1 38bf 8fc8 fd3e 8c9c 4abe 95bf e83e
00000170: 6dbe 103e ded5 adbe 2d1b 143f 1931 c4be
00000180: 33a5 d03e 84bd aabe 8200 1abf e0ed a9be
00000190: 3f7d 82be 0477 f6be 9558 f8be edb1 b9be
000001a0: dc3c 5dbe 3edf 653e 1190 09bf e37a ddbd
000001b0: 2452 1abf 0180 80bf 929f 82be 6acd 9ebe
000001c0: 0ce5 18bf 45aa 223f dd2a c0be 2fa1 efbe
000001d0: 7c7c b2be 6dda aabe 6da5 b8be 79ec 30be
000001e0: 97c2 7ebe bc75 d9bd 0291 c4be 404d 7abf
000001f0: 14b1 54bf 7145 9dbe 9e2f c23e fbe2 3fbe
00000200: 1bad e03e 7c26 11bf 52c1 10be 5bed a13d
00000210: 2794 0abf 708e 11bf 9e4e 43bf 3e47 50be
00000220: bd9f d8be fabc 61bf 428c 07c0 d75f 183e
00000230: 157a 11bf 3de0 02be d139 b2be a62f 92be
00000240: 749b 48bf 5728 1a3f 4504 9abe 8a5b bfbe
00000250: dcea 283f 8e1e acbf b3de 0ebf 8333 b0be
00000260: 4138 97be 1b78 9bbe 93ed f6be e80f 15be
00000270: f847 30be 65b2 16bf 6aaf cfbe 5e71 41be
00000280: 2350 583e d7ef 703e 86f9 86be 3f79 4bbf
00000290: a01a 42bf b5f7 e6be 601c f1be f903 3cbf
000002a0: 050c 123e 6b82 f1be 01ad 9abe 49aa 34be
000002b0: c54c 1fbe 6183 28be dd11 0abf 4671 d6be
000002c0: e9af 71bf 3728 ddbe 9966 b8be a2e6 8ebc
000002d0: d546 0dbe e51b 01be b1c8 67be 8668 edbe
000002e0: 6e91 cbbe 6144 4a3d 9075 5dbe 0896 26bf
000002f0: 2304 9bbe 905c 2fbf 49c0 43be a777 1cbf
00000300: 0087 ffbe 1258 0b3f a1f3 153f c269 cfbe
00000310: 41e1 c7be 250a 02bf 90ea 763d 61d5 c23c
00000320: cf81 92be cc61 22be 2574 02bf c097 fe3e
00000330: 8de5 4fbf e15e e1be f531 c8be 8090 b4be
00000340: b7b8 9d3e 5e82 45bf 0a15 2dbf 29e1 06bf
00000350: 0f89 0b3f 7209 17bf f0d7 13bf 3e2e c2be
00000360: 3490 f1bd f21a e1bd 4ecd 8dbd 2373 25bf
00000370: 482d 8cbe 2857 d7bf c7ce 1abf b689 9fbd
00000380: e3ce 61bf cdbb 8abe 79fd 32be ee21 fabe
00000390: 7eaf c3bf a43e 483d 3e3f 3abd 4f70 d63e
000003a0: 2180 4ebf 2355 75be b3d4 02bf aa8b a1bc
000003b0: f311 a7be b400 1d3f febd 1abf a3ab 7a3e
000003c0: d39a 07be 7875 ffbe 9d5d 8ebd 55d7 98bf
000003d0: 537a 543d d57f c5bd e187 83bf 474a 3cbe
000003e0: 2ca0 43bf 552d 023f 7b78 7ebf e1dd b6be
000003f0: 4cf0 8fbe ab34 51be 221c 2abf cfbf da3e
0.626193 -0.49972323 -0.06534455 -0.5122017 -0.5980181 -2.7733078 -0.21262757 -1.612126
-0.22926183 -0.32814017 0.6281274 -0.64922595 -2.4520774 -0.88449305 -0.3379993 0.3410094
-2.145571 -0.09330412 -0.97460103 0.09911688 -0.44945803 -0.40555128 -0.3660222 -0.3926263
-0.046699017 -1.5560524 -0.35881963 -0.19469248 -0.22280762 0.7566415 -1.1782054 0.5092144
0.17137091 -0.7817156 -0.3686979 0.10323708 -0.16260114 -0.2171038 -0.37035137 -0.35527796
-0.29463518 -0.40725982 -0.2542619 0.62620807 -0.55324614 -0.11243675 -2.9394102 -0.31912518
-0.016544923 -0.70835304 -0.85068816 -0.57628393 -0.5262394 -0.28905055 -0.36973312 -0.14577651
-0.2200839 -0.77348256 -0.15631434 -0.06588987 0.053492535 0.6031446 0.7377981 -0.59270954
-0.3662635 -0.06130413 0.8343489 -1.1756958 -0.69030935 -0.14824104 0.39773244 -0.4789094
-0.27092946 0.0160742 -0.15937153 0.094533905 -0.29973918 -0.27238405 0.6782296 -0.11349746
0.0031818093 0.34260613 -0.276902 0.033251315 -0.36817542 -1.8119038 -0.37663233 -0.83006424
-0.7224328 0.49567077 -0.1978628 0.45458665 0.14135142 -0.3395223 0.57853967 -0.3831871
0.40751037 -0.33347714 -0.60157025 -0.33189297 -0.2548618 -0.48137677 -0.48505083 -0.3626856
-0.21605247 0.22448441 -0.5373545 -0.108144544 -0.60281587 -1.0039064 -0.25512367 -0.31016093
-0.597245 0.6354106 -0.37532702 -0.4680266 -0.348606 -0.3336977 -0.3606371 -0.17277707
-0.24878918 -0.10618159 -0.38391882 -0.97774124 -0.830827 -0.30717042 0.37926954 -0.1873893
0.4388207 -0.5669935 -0.14136246 0.079066 -0.5413231 -0.5685797 -0.76291835 -0.20339677
-0.4230937 -0.8817898 -2.1179357 0.1488031 -0.5682691 -0.12780853 -0.34809735 -0.28551978
-0.783622 0.60217804 -0.30081382 -0.37374526 0.65983367 -1.3446825 -0.5580856 -0.344143
-0.29535106 -0.3036507 -0.4822813 -0.14556849 -0.17214954 -0.5886596 -0.40563518 -0.18890902
0.2112432 0.23528992 -0.26362246 -0.7948188 -0.75821877 -0.4511086 -0.4709196 -0.7344356
0.14262398 -0.47169814 -0.30210117 -0.17643084 -0.15556629 -0.16456367 -0.5393351 -0.41883296
-0.9440904 -0.43194744 -0.36015776 -0.017443959 -0.13796552 -0.12608297 -0.22635151 -0.46368808
-0.39759392 0.049381617 -0.21626878 -0.6507268 -0.30276594 -0.68500614 -0.1911632 -0.61120075
-0.49907684 0.5443126 0.58574873 -0.40510374 -0.39039043 -0.5079673 0.06028229 0.023783388
-0.2861466 -0.15857619 -0.5095847 0.4972515 -0.8120964 -0.440177 -0.39100614 -0.35266495
0.3080499 -0.7715205 -0.6761023 -0.5268732 0.5450601 -0.5899879 -0.5775137 -0.37925905
-0.11795083 -0.109914675 -0.069239244 -0.6462881 -0.27378297 -1.6823473 -0.6047177 -0.07789938
-0.8820631 -0.27096406 -0.17479505 -0.4885401 -1.5287931 0.048887864 -0.04547047 0.4188256
-0.8066426 -0.23958258 -0.51105803 -0.019719917 -0.32630882 0.613292 -0.60446155 0.24479537
-0.13242655 -0.4989431 -0.06951449 -1.1940714 0.05187447 -0.09643523 -1.0275842 -0.1838771
-0.7641628 0.5085042 -0.9940259 -0.35716155 -0.2811302 -0.20430247 -0.6644918 0.42724463

bias f4 [10]
00000000: 6a6d bdbe b3b5 8cbe f29d c5be 2647 a93d
00000010: af67 cbbe d57c cabe b5ca 6abf 63e0 cbbe
00000020: ff1a a23f ad77 76bc
-0.3699754 -0.27482376 -0.38597065 0.082655236 -0.39727542 -0.39548364 -0.91715556 -0.3981963
1.2664489 -0.015043181
