checkpoints/YourNet/pruning/4/epoch-30.pth (torch, 33231 bytes, 8 tensors)

weight f4 [3, 1, 3, 3]
0	0x3efbbcb9	0.4916742
1	0x3de2bcf7	0.110711984
2	0xbec91982	-0.39277273
3	0x3d3d3e76	0.046202146
4	0xbddf06b6	-0.10889952
5	0xbf0c6488	-0.548409
6	0xbeafb641	-0.34318736
7	0xbf3f704c	-0.74780726
8	0x3d0cdae0	0.034388423
9	0x3d840001	0.06445313
10	0xbc8bef33	-0.017081833
11	0xbe976b32	-0.2957397
12	0x3e9762c6	0.29567546
13	0x3da2f74d	0.07957325
14	0xbdd805d0	-0.10547984
15	0x3deeb1ea	0.11655028
16	0x3e8d4bb0	0.27596807
17	0x3b42a41f	0.0029699875
18	0x3e348069	0.1762711
19	0x3e206685	0.15664108
20	0x3ec3590f	0.38153884
21	0xbe6fa59a	-0.23403016
22	0x3e0c53b6	0.13703808
23	0x3d9e17ec	0.077194065
24	0xbedc8cf7	-0.43076298
25	0xbee8060e	-0.4531712
26	0xbef094c5	-0.46988502

bias f4 [3]
0	0xbf377828	-0.7166772
1	0x3dbeac07	0.09310155
2	0xbed9d8a6	-0.42548102

weight f4 [4, 3, 3, 3]
0	0xbd63932e	-0.055560283
1	0xbf1c8a5a	-0.6114861
2	0xbee7cbfe	-0.4527282
3	0x3e2cdd40	0.16881275
4	0xbecb883c	-0.39752376
5	0xbe90657a	-0.2820242
6	0xbc8c6d44	-0.017141946
7	0xbe94ae7b	-0.29039368
8	0x3ec52e1f	0.3851175
9	0x3d0581ac	0.032594368
10	0x3e05aea5	0.13054903
11	0x3ecf482d	0.40484753
12	0xbef6e684	-0.48222744
13	0xbe3f144e	-0.1866009
14	0x3ecd2474	0.40066874
15	0xbf705520	-0.9387989
16	0xbe017871	-0.12643601
17	0x3ee2dcd8	0.44309115
18	0x3e937c95	0.28805986
19	0x3e9d5df2	0.30735737
20	0xbf3f356d	-0.74690896
21	0x3ee2e0ed	0.4431223
22	0xbed112ba	-0.408346
23	0xbf53ed39	-0.8278385
24	0xbedaa9eb	-0.42707762
25	0xbe9ff61b	-0.3124245
26	0xbed2bf6e	-0.41161674
27	0x3d8bcc19	0.06826038
28	0x3e6a4cfb	0.22880928
29	0xbe6be439	-0.23036279
30	0xbf0908fc	-0.53529334
31	0x3c8fbf22	0.017547194
32	0xbdac1290	-0.08401978
33	0xbe28a6be	-0.16469857
34	0xbe060fa6	-0.13091907
35	0x3f276953	0.65395087
36	0x3de57f66	0.1120594
37	0xbd9e673d	-0.07734535
38	0x3d77f76a	0.060538687
39	0x3ee7da8e	0.45283931
40	0x3d9c60ff	0.07635688
41	0x3dbfc6dc	0.09364101
42	0xbea29e70	-0.31761503
43	0xbe608a62	-0.21927789
44	0xbeafc8f2	-0.34332997
45	0xbe684775	-0.22683509
46	0xbd73f1ed	-0.05955689
47	0xbe93279c	-0.28741157
48	0xbe18a9c3	-0.14908509
49	0xbe2eea66	-0.17081603
50	0x3eab9e46	0.3351919
51	0x3e0dad42	0.13835624
52	0x3f17bf10	0.59275913
53	0x3ddddcb4	0.108331114
54	0xbe92832e	-0.28615707
55	0x3f576ef4	0.84153676
56	0x3f0fdac0	0.5619316
57	0xbf52b4fc	-0.8230741
58	0xbf3b253c	-0.7310369
59	0x3e9668c7	0.29376814
60	0xbe9fc11e	-0.31202024
61	0xbf40c7c0	-0.75304794
62	0xbe7410d6	-0.23834547
63	0x3e1cf13c	0.15326399
64	0xbaae0470	-0.0013276469
65	0xbedf82ea	-0.43654567
66	0x3e8447e0	0.25836086
67	0x3f04dec7	0.5190243
68	0xbe632ccb	-0.22185056
69	0xbeb63c25	-0.35592762
70	0x3e41c5de	0.18923137
71	0x3ea759ce	0.32685703
72	0xbf2195c8	-0.63119173
73	0xbed41a7d	-0.4142646
74	0x3e534b18	0.20634115
75	0x3e0da533	0.1383255
76	0xbea7ab63	-0.32747945
77	0x3e7e7f69	0.2485329
78	0x3e9d7972	0.30756718
79	0x3d1115cb	0.035421174
80	0xbd926a1e	-0.071491465
81	0xbf2b7da5	-0.66988593
82	0xbe3426e1	-0.17592956
83	0x3e700440	0.23439121
84	0xbf69a825	-0.91272193
85	0xc00d3f3c	-2.2069845
86	0xbf27f035	-0.656009
87	0x3d582057	0.052765217
88	0xbf029f1c	-0.5102403
89	0xbf5e5ba5	-0.8685859
90	0xbf97d17e	-1.1860807
91	0xc0508cb9	-3.258589
92	0xbdf54c03	-0.11977389
93	0x3e6233c2	0.22090057
94	0xbd2cb4d4	-0.04216464
95	0xbf27298e	-0.6529778
96	0x3f0a56b2	0.54038537
97	0x3ef7d930	0.48407888
98	0x3dfd6b16	0.12373941
99	0xbef21346	-0.4728033
100	0x3cf29a1f	0.029614506
101	0x3ea1e5ae	0.31620544
102	0xbed53ede	-0.41649526
103	0x3e039af2	0.12852076
104	0x3f5a1266	0.85184324
105	0xbd4107d5	-0.04712661
106	0x3e32f57f	0.17476462
107	0xbf02cd18	-0.510942

bias f4 [4]
0	0xbe968850	-0.29400873
1	0xbee62b00	-0.4495468
2	0xbf2545fc	-0.6455991
3	0xbd1c989a	-0.03823147

weight f4 [65, 100]
0	0xbe577889	-0.21042074
1	0xbe1994ad	-0.14998122
2	0xbe936794	-0.2878996
3	0xbeaff93d	-0.3436984
4	0x3e396533	0.1810501
5	0xbf485be2	-0.782652
6	0xbce9d62f	-0.028544514
7	0xbee3fbe9	-0.4452813
8	0xbc2b079e	-0.010438828
9	0x3f0830c6	0.5319942
10	0xbf5eb9fa	-0.8700253
11	0x3f132528	0.5747857
12	0x3efcf8d4	0.4940859
13	0x3eadedde	0.3397054
14	0x3ea40cd6	0.32041043
15	0xbe7035f6	-0.23458084
16	0x3f4c44de	0.79792583
17	0xbd38774f	-0.045035657
18	0x3ec8577d	0.39129248
19	0xbd910a1a	-0.07082005
20	0x3db2aa4d	0.087238885
21	0x3e8da650	0.2766595
22	0x3e87ac79	0.26498774
23	0xbee6146f	-0.44937465
24	0xbf88bb45	-1.068215
25	0xbeec2f98	-0.4613006
26	0xbfcdb1c7	-1.6069878
27	0xbe1fb1db	-0.1559519
28	0x3e2b8bb3	0.1675251
29	0x3e916af6	0.28401917
30	0x3f45c9bc	0.7726095
31	0xbf9aa1c7	-1.208062
32	0xbef25bda	-0.47335702
33	0x3e798663	0.2436767
34	0xbe8ad7b2	-0.27117687
35	0xbd019019	-0.031631563
36	0xbf896258	-1.0733137
37	0xbf8cacba	-1.0990212
38	0xbee9936d	-0.4562029
39	0xbeb9d998	-0.36298823
40	0xbf55f2a6	-0.8357338
41	0xbf1d06f8	-0.6133876
42	0xbfd3eb02	-1.6556094
43	0x3c613ed2	0.013747888
44	0xbfac8ffc	-1.348144
45	0x3f00869a	0.50205386
46	0xbd9d68c9	-0.07686002
47	0x3f725c92	0.946725
48	0x3e266542	0.16249564
49	0xbfa0c3e9	-1.2559787
50	0xbe563111	-0.20917155
51	0xbf0eb1f2	-0.55740273
52	0xbe5749f6	-0.21024308
53	0x3eb5898d	0.35456505
54	0xbe03873b	-0.12844555
55	0xbf8fff44	-1.1249776
56	0xbe220ac6	-0.15824422
57	0x3b86ce59	0.004113954
58	0x3e915e3f	0.28392217
59	0x3e7c5103	0.24640279
60	0xbf41f3d6	-0.7576269
61	0x3d0e9eb3	0.034819316
62	0x3f1f51c7	0.6223416
63	0x3ee82f64	0.45348656
64	0x3e9c6495	0.30545488
65	0xbefd0970	-0.49421263
66	0xbf2a0ce7	-0.6642594
67	0xbd290e0c	-0.04127316
68	0x3e0e3dd9	0.1389078
69	0xbe5de8a7	-0.21670781
70	0x3f022e45	0.5085185
71	0x3cf48dae	0.029852714
72	0x3eed8012	0.46386772
73	0xbf262e46	-0.6491436
74	0xbf853dd8	-1.0409498
75	0xbdfbeedc	-0.12301418
76	0xbd6cbd19	-0.057797525
77	0xbd1ea393	-0.038730215
78	0x3e548617	0.20754276
79	0xbd9d74df	-0.07688307
80	0x3f03a708	0.51426744
81	0xbf09966d	-0.53745157
82	0x3d13585e	0.035972945
83	0xbfb44a40	-1.4085159
84	0x3effbf21	0.49950507
85	0x3f01108f	0.5041589
86	0xbf563722	-0.83677876
87	0xbfa88832	-1.3166564
88	0xbfa2c2eb	-1.2715734
89	0x3d9baf28	0.07601768
90	0xbf77fe8e	-0.96872795
91	0xbf61d1d2	-0.88210785
92	0xc020b2f8	-2.5109234
93	0xbea39429	-0.31948975
94	0x3c990ae0	0.018681943
95	0xbf934e52	-1.1508276
96	0xbf9a8b80	-1.2073822
97	0xbfdc3f04	-1.7206731
98	0xbf997f60	-1.1991997
99	0xbf599ca3	-0.85004634
100	0x3f86e0e3	1.053738
101	0x3ed41635	0.41423193
102	0xbd5924de	-0.053013675
103	0xbfe842f7	-1.8145436
104	0xbd1cfc12	-0.03832633
105	0xbe5919fc	-0.21201319
106	0x3f07136c	0.5276401
107	0x3ea0fbf6	0.3144223
108	0xbf81966a	-1.0124028
109	0xbe9b4643	-0.30327043
110	0xbf63de75	-0.8901132
111	0xbee5402a	-0.44775516
112	0x3f408977	0.75209755
113	0xbf5cdda4	-0.86275697
114	0xbfc06885	-1.5031897
115	0xbe429e8c	-0.19005793
116	0xbf57e2a6	-0.84330213
117	0x3f0167a9	0.505488
118	0x3f02238a	0.5083548
119	0xbd894e6b	-0.0670441
120	0x3d8a578d	0.0675498
121	0xbf2424f3	-0.6411888
122	0xbf2594f2	-0.646804
123	0x3e71ee54	0.23626071
124	0x3ea90caa	0.33017474
125	0x3ead3337	0.33828136
126	0xbf82c99e	-1.0217779
127	0xbf05e474	-0.52301717
128	0x3f89b1a3	1.0757335
129	0x3f77083f	0.9649696
130	0xbf0cced1	-0.55003077
131	0xbe2b3959	-0.16721095
132	0xbf3c7807	-0.7362065
133	0x3f3a093d	0.72670346
134	0x3e3b50e0	0.1829257
135	0xbf07efa9	-0.5310007
136	0xbf91dd1f	-1.1395606
137	0xbe8e6c18	-0.27816844
138	0xc064d04a	-3.575213
139	0xc0336885	-2.8032544
140	0xbeda20c1	-0.42603114
141	0x3ed1c1d8	0.40968204
142	0x3d066cb5	0.032818515
143	0xba9afa62	-0.0011823887
144	0x3e0d10c8	0.13775933
145	0x3e792b74	0.24332982
146	0x3e1b6c6c	0.15178078
147	0xbe413bb8	-0.18870437
148	0xbf4fa600	-0.8111267
149	0xbe8dba72	-0.2768131
150	0x3fee357f	1.8610076
151	0x3f6b67dd	0.9195536
152	0x3f00f6ea	0.5037676
153	0xbf3a6381	-0.7280808
154	0xbec5d91d	-0.38642207
155	0xbf81d0b8	-1.0141821
156	0xbe4d286a	-0.20034948
157	0x3ba5a0f0	0.0050545856
158	0xbee47f36	-0.44628304
159	0xbde41e8f	-0.11138641
160	0x3f2b4723	0.6690542
161	0xbef2328a	-0.47304183
162	0x3ea44eb6	0.32091302
163	0xbe031ec0	-0.12804699
164	0xbf7359ef	-0.950591
165	0x3f0803ef	0.53131
166	0x3d9ac1a3	0.075564645
167	0xbf03c894	-0.5147793
168	0x3beaa90f	0.0071612666
169	0xbd84b729	-0.064802475
170	0xbe97b552	-0.29630524
171	0x3e8e0f18	0.2774589
172	0xbee145a7	-0.43998453
173	0xbe9c8cde	-0.30576223
174	0x3e3a7082	0.18206981
175	0xbf3bbf25	-0.7333854
176	0x3d3a0626	0.04541602
177	0x3ec09980	0.3761711
178	0xbe48041b	-0.19532816
179	0xbed0fd35	-0.40818182
180	0xbf45d489	-0.7727743
181	0xbdad6279	-0.08466048
182	0x3efe267f	0.49638745
183	0x3d8786e5	0.06617526
184	0xbfe62ded	-1.7982765
185	0x3e0a9fa9	0.13537468
186	0x3e160f8d	0.1465437
187	0xbf64c3e5	-0.8936141
188	0x3f0b02be	0.5430106
189	0x3f09cdf5	0.5382989
190	0xbe79bbed	-0.24388094
191	0x3f76cfb8	0.96410704
192	0x3f89fab0	1.0779629
193	0x3f62b91e	0.88563716
194	0x3ed3c0c4	0.41358006
195	0x3ee1705b	0.44031033
196	0xbf31d644	-0.6946757
197	0x3f9e341f	1.2359656
198	0xbef66ef4	-0.48131526
199	0xbdeae57d	-0.11469553
200	0x3df4ba62	0.11949612
201	0x3efb1985	0.49042907
202	0xbe85f479	-0.2616308
203	0xbef888b1	-0.48541787
204	0x3f7f8c7f	0.99823755
205	0xbefac183	-0.48975763
206	0x3f0c841b	0.54889077
207	0xbc341777	-0.010991923
208	0x3d18b264	0.0372795
209	0xbe89e3f3	-0.26931724
210	0xbd6bb86f	-0.057548936
211	0x3ede5c0b	0.43429598
212	0xbf6ba584	-0.9204943
213	0x3f2a4450	0.66510487
214	0x3ecbe0e3	0.39820012
215	0x3f20f0cb	0.6286742
216	0xbe912b1c	-0.28353202
217	0xbe664d96	-0.22490534
218	0xbf18ff27	-0.5976433
219	0xbe35b946	-0.17746457
220	0xbfe6aad2	-1.802088
221	0x3d8e938e	0.069617376
222	0x3f18f43b	0.59747666
223	0x3eee25fb	0.46513352
224	0x3eb3c271	0.35109285
225	0xbf6d46b6	-0.9268602
226	0xbe9d025f	-0.30665872
227	0xbf2d6747	-0.67735714
228	0xbf78b481	-0.9715043
229	0xbd803e1f	-0.06261849
230	0xbfb7eba5	-1.4368788
231	0xbf0e8aac	-0.55680346
232	0xbc97891c	-0.018497996
233	0xbf3f2b91	-0.7467585
234	0xbf0990bb	-0.53736466
235	0xbf79a6f2	-0.97520363
236	0xbf559822	-0.8343526
237	0xbf4d6303	-0.80229205
238	0xbf63d883	-0.89002246
239	0xbe9df7e1	-0.3085318
240	0x3e91e268	0.28493047
241	0x3f7f2f2c	0.99681354
242	0x3f8ffe65	1.124951
243	0x3de07d90	0.10961449
244	0x3d5754ff	0.052571293
245	0xbe3c1169	-0.18366016
246	0x3dfba42e	0.12287174
247	0x3e35b3cb	0.17744367
248	0x3d1d20d3	0.03836138
249	0x3f1ecff7	0.6203608
250	0xbefc2a34	-0.49250948
251	0xbe431034	-0.1904915
252	0x3db5d37e	0.088782296
253	0xbf854759	-1.0412399
254	0xbf14b048	-0.58081484
255	0xbe49ea37	-0.19718252

bias f4 [65]
0	0x3ed99fac	0.42504632
1	0xbf81d854	-1.0144143
2	0xbd62df37	-0.055388656
3	0xbd1c2516	-0.038121305
4	0xbe5f81cb	-0.21826856
5	0xbe5488c4	-0.20755297
6	0xb9a10013	-0.00030708368
7	0x3ed40eb3	0.41417465
8	0xbf0473f3	-0.51739424
9	0xbe9614cd	-0.29312745
10	0xbf10e787	-0.5660328
11	0xbea438f1	-0.32074693
12	0xbebdae6a	-0.3704713
13	0x3f85a256	1.0440166
14	0x3e26a901	0.16275407
15	0xbe2a60b1	-0.16638447
16	0xbf8dc172	-1.107466
17	0xbf52757c	-0.82210517
18	0xbe83f2c2	-0.25771147
19	0xbe996c65	-0.2996551
20	0x3f651ce6	0.8949722
21	0xbdb42442	-0.08795978
22	0x3ec928c0	0.39288902
23	0xbf1813cd	-0.59405214
24	0xbf88abf1	-1.0677472
25	0xbf176a74	-0.5914681
26	0xbf2345fc	-0.6377866
27	0xbf167ded	-0.587859
28	0xbec61330	-0.38686514
29	0xbe9d81ee	-0.3076319
30	0x3e0e69eb	0.13907592
31	0xbf284cd9	-0.6574226
32	0x3ebe4830	0.3716445
33	0xbf844571	-1.0333692
34	0xbf78cbf5	-0.97186214
35	0xbf3e6c15	-0.7438367
36	0xbf6b9154	-0.9201863
37	0xbf424779	-0.7589031
38	0x3f226048	0.63428164
39	0x3eb3b07c	0.35095584
40	0xbf38aeb8	-0.721416
41	0xbf0d85c7	-0.55282253
42	0x3f105591	0.56380564
43	0xbf054ba6	-0.52068555
44	0x3e9569f4	0.29182398
45	0xbc1b56e2	-0.009481164
46	0xbed1ef53	-0.41002902
47	0xbe7b96f1	-0.24569298
48	0xbf30894e	-0.6895951
49	0x3f8a3499	1.0797302
50	0xbde4bbaf	-0.1116861
51	0x3f4673af	0.7752027
52	0xbf9455de	-1.1588705
53	0xbe418917	-0.18899952
54	0xbf3ba24d	-0.73294526
55	0xbf2e110b	-0.67994756
56	0xbe9753fd	-0.29556265
57	0x3e850f2b	0.25988135
58	0xb925fb75	-0.00015829301
59	0x3e869b46	0.2629034
60	0x3d179666	0.037008666
61	0xbea53864	-0.32269585
62	0xbf1c8fc4	-0.6115687
63	0xbef23e74	-0.47313273
64	0xbf0885f9	-0.53329426

weight f4 [10, 65]
0	0x3ecc893c	0.39948452
1	0xbfa4ad38	-1.2865362
2	0xbe3d86c7	-0.18508445
3	0x3da8223c	0.08209655
4	0xbeb33b58	-0.35006213
5	0xbf71d85a	-0.9447075
6	0x37a1a63b	1.9270103e-05
7	0xbf5ddfe5	-0.8666976
8	0xbd8899ce	-0.06669961
9	0xbf226cb3	-0.6344711
10	0x3f2804ee	0.6563252
11	0xbed5238a	-0.41628677
12	0x3e1daeb0	0.15398669
13	0xbe33aecb	-0.17547147
14	0xbf82b480	-1.0211334
15	0xbd186b98	-0.037211984
16	0xbe3747e3	-0.17898516
17	0xbcc2047f	-0.023683785
18	0xbe8672a7	-0.26259348
19	0xbef29210	-0.47377062
20	0xbefb4655	-0.49077097
21	0x3f260e3b	0.64865464
22	0xbe67d703	-0.22640614
23	0x3e21222c	0.15735692
24	0xbf52d0de	-0.82349956
25	0xbe4ebc21	-0.20188953
26	0x3e5d2c30	0.21598887
27	0xbee2f263	-0.4432555
28	0xbecfb08f	-0.4056439
29	0xbf2e090a	-0.6798254
30	0x3ebe315b	0.3714703
31	0xbf0685d2	-0.52547944
32	0xbe94a5c0	-0.29032707
33	0xbf19b770	-0.6004553
34	0xbf3e735d	-0.7439478
35	0xbf12adc0	-0.5729637
36	0xbe5df925	-0.21677072
37	0xbe3d0e28	-0.18462431
38	0x3e052e14	0.13005859
39	0x3f43329c	0.762491
40	0xbe0402bd	-0.1289167
41	0xbf2606f0	-0.64854336
42	0xbede4927	-0.43415186
43	0xbedfb02c	-0.43689096
44	0xbe2a44d4	-0.16627818
45	0xbbac5051	-0.005258598
46	0xbf2e825d	-0.6816767
47	0xbe4702c2	-0.19434646
48	0xbf610e31	-0.8791228
49	0xbf164abe	-0.587078
50	0xbec6c574	-0.3882252
51	0xbf8ccde9	-1.1000339
52	0xbf40cd27	-0.7531304
53	0xbcf99f42	-0.030471448
54	0xbedb4b85	-0.42831054
55	0xbf0bb0ad	-0.5456646
56	0x3e538cd6	0.20659193
57	0xbfc09695	-1.5045954
58	0xb83429ef	-4.2954398e-05
59	0xbf7c024b	-0.98441
60	0xbedf6b55	-0.43636575
61	0xbe91f0a9	-0.28503922
62	0xbe6249a3	-0.22098403
63	0xbf25bd48	-0.64741945
64	0xbf68874d	-0.9083145
65	0x3c9e2d34	0.019308664
66	0x3ec887a6	0.39165992
67	0xbf26f76e	-0.652213
68	0xbed50ddf	-0.41612145
69	0xbf34995d	-0.70546514
70	0xbeac73ae	-0.33682007
71	0x375d70d3	1.3198895e-05
72	0xbe1a7478	-0.15083492
73	0xbd9438b7	-0.0723738
74	0xbe949b20	-0.290246
75	0xbf2b7256	-0.6697134
76	0x3e83be29	0.25731018
77	0xbfbc8f2e	-1.4731195
78	0xbe965396	-0.29360646
79	0xbd9a5137	-0.07535022
80	0xbd889fe8	-0.06671125
81	0xbe42a900	-0.19009781
82	0xbe738f2a	-0.23785082
83	0xbf039246	-0.5139507
84	0xbefacd8e	-0.4898495
85	0x3f85f7e1	1.0466272
86	0xbd4cbb7c	-0.049983487
87	0x3e8b2fa8	0.27184796
88	0xbf03391e	-0.5125903
89	0xbe6f583b	-0.23373501
90	0xbf8841f7	-1.0645131
91	0xbfdb749e	-1.7144964
92	0xbf91d85d	-1.1394154
93	0xbf01ea6a	-0.5074831
94	0xbf2fd3fb	-0.6868283
95	0xbf80276c	-1.0012031
96	0xbed75e02	-0.4206391
97	0x3d574e4c	0.052564904
98	0xbee34979	-0.44391993
99	0xbd23d50f	-0.03999811
100	0xbe1f2168	-0.15540087
101	0xbde57ded	-0.11205659
102	0xbe6479f6	-0.2231215
103	0xbdd323dd	-0.10309575
104	0xbd51f5fa	-0.051259972
105	0xbec38aeb	-0.38191923
106	0xbf2af32f	-0.6677732
107	0x3f1f4adc	0.622236
108	0xbd21f8fc	-0.03954409
109	0xbdabf7eb	-0.08396896
110	0xbb61b751	-0.003444154
111	0xbf85c6b1	-1.0451261
112	0x3f15a907	0.5846104
113	0xbe92c8b6	-0.28668755
114	0x3f60e8ae	0.8785504
115	0xbeb9104b	-0.36145243
116	0x3ed34e28	0.41270566
117	0xbf20ba1c	-0.6278398
118	0xbf0f8e5f	-0.56076616
119	0xbe5c6c97	-0.21525799
120	0xbe3a8349	-0.18214144
121	0xbe759cae	-0.2398555
122	0x3e9fa1e8	0.31178212
123	0xb8a3e389	-7.8148274e-05
124	0x3dcd52a9	0.10025532
125	0xbe5b39df	-0.21408795
126	0xbf6376ca	-0.8885313
127	0xbee16737	-0.4402406
128	0xbed30d48	-0.4122107
129	0xbe95ddf6	-0.29270905
130	0xbf1022dd	-0.563032
131	0xbe827403	-0.25479135
132	0xbf349da5	-0.70553046
133	0x3ed2ce26	0.41172904
134	0xbe92228c	-0.28541982
135	0xbebd8c5a	-0.37021142
136	0x39813899	0.00024646966
137	0x3c04141a	0.008061433
138	0x3f1d2883	0.6138994
139	0xbe3c763f	-0.18404482
140	0x3e211b23	0.15733008
141	0xbe5b0b9c	-0.21391147
142	0xbf16582b	-0.58728284
143	0x3e0d0c0c	0.13774127
144	0xbf148277	-0.58011574
145	0xbd282d20	-0.04105866
146	0x3de8b6a0	0.11362958
147	0x3c561598	0.013066672
148	0xbfbed4c5	-1.4908682
149	0x3eaf9101	0.34290317
150	0xbf46aa3b	-0.776035
151	0x3f22b9a1	0.635645
152	0xbef58b9c	-0.47958076
153	0x3ede2de6	0.43394393
154	0xbec21dd4	-0.37913382
155	0xbee5f3c7	-0.4491255
156	0xbf5bf4b4	-0.8592026
157	0xbd5a30b4	-0.053269103
158	0xbf849d78	-1.0360556
159	0xbed3eaef	-0.41390178
160	0xbf820662	-1.0158198
161	0xbec87201	-0.39149478
162	0x3f071f09	0.5278173
163	0xbf140792	-0.5782405
164	0xbe5e14cf	-0.21687625
165	0xbf1773a9	-0.5916086
166	0xbdd133c6	-0.10214953
167	0x3f257253	0.6462757
168	0xbf799101	-0.97486883
169	0xbf68bf89	-0.9091726
170	0x3f1a2f2a	0.60228217
171	0xbf29d7fe	-0.663452
172	0x3e1e8d89	0.15483679
173	0x3e54c41d	0.20777936
174	0xbf976c16	-1.182986
175	0xbb612f92	-0.003436063
176	0xbf061327	-0.52372974
177	0xbee3f5c0	-0.4452343
178	0xbe8bf0a2	-0.27332026
179	0xbf266f93	-0.65014
180	0x3b69d97b	0.0035682607
181	0xbf4e1b85	-0.8051074
182	0xbf2e74e4	-0.6814711
183	0xbeba2cd8	-0.36362338
184	0x3e9e4822	0.30914408
185	0xbed862a2	-0.4226275
186	0xbe7d4b9b	-0.24735872
187	0x3e0fd558	0.14046228
188	0xb8df6263	-0.000106517946
189	0xbf25fc4b	-0.64838094
190	0xbdb2b9f6	-0.087268755
191	0xbe99c1a2	-0.30030543
192	0xbda9523b	-0.08267637
193	0x3efa94be	0.48941606
194	0xbe5cb642	-0.21553901
195	0xbee07c7e	-0.4384498
196	0x3df3963a	0.11893888
197	0xbf535b74	-0.8256142
198	0xbdeda6e2	-0.11604096
199	0x3e46879e	0.19387671
200	0xbcb2c8d6	-0.021824282
201	0xb9408552	-0.00018360213
202	0xbe2a50a6	-0.16632327
203	0xbe5ac684	-0.2136479
204	0x3bde6b67	0.0067877057
205	0xbec35aa4	-0.3815509
206	0xbea62448	-0.32449555
207	0xbeb90f07	-0.36144277
208	0xbedc6d89	-0.4305232
209	0xbf272089	-0.6528402
210	0xbad2c9de	-0.001608189
211	0x3ebee438	0.37283492
212	0x3edfafdc	0.43688858
213	0xbf6aa153	-0.9165241
214	0xbe30f927	-0.17282544
215	0xbfe0bc90	-1.7557545
216	0xbf36cc5b	-0.7140557
217	0xbd68226c	-0.056673452
218	0xbf28549c	-0.65754104
219	0x3ebc65d1	0.3679643
220	0xbe2874f1	-0.1645086
221	0xbdd1a1b9	-0.10235924
222	0xbf7901d1	-0.97268397
223	0xbf6f224f	-0.93411726
224	0xbece3b6a	-0.40279704
225	0xbeca7f81	-0.39550403
226	0x3ef1c84e	0.47223133
227	0xbebf9ae0	-0.37422848
228	0xbd98925e	-0.07449792
229	0x3f020797	0.5079283
230	0xbdae8e87	-0.08523279
231	0xbf337d94	-0.7011349
232	0xbe7b469b	-0.24538653
233	0xbf09f08f	-0.5388269
234	0xbf6c8b7c	-0.92400336
235	0xbd6e20c1	-0.058136705
236	0x3ea30a41	0.3184376
237	0xbf2b246a	-0.6685244
238	0xbe424137	-0.1897019
239	0xbeed34e5	-0.46329418
240	0x3b2f9d27	0.002679655
241	0xbe882b9d	-0.26595774
242	0xbece9efe	-0.40355676
243	0x3ebf7b80	0.3739891
244	0xbf64a846	-0.89319265
245	0xbf356fc6	-0.7087368
246	0xbf1f3433	-0.62189025
247	0x3f490857	0.7852835
248	0xbf207e84	-0.6269305
249	0xbe473fdc	-0.19457954
250	0xbe8d82bb	-0.27638802
251	0xbf39516e	-0.72389877
252	0xbf1e8611	-0.6192332
253	0xb8c71439	-9.492826e-05
254	0xbee425bd	-0.44560042
255	0xbeca1f55	-0.3947703

bias f4 [10]
0	0xbd2b15be	-0.04176878
1	0xbc2ac567	-0.010423041
2	0x3e0a4de3	0.13506274
3	0x3e2b0b06	0.16703424
4	0x3de34f78	0.11099142
5	0xbf60a278	-0.8774791
6	0xbf69db0e	-0.91349876
7	0x3d3a8282	0.04553462
8	0x3f82eac9	1.0227901
9	0xbdb0e5cc	-0.0863758
