checkpoints/YourNet/pruning/3/epoch-22.pth (torch, 35407 bytes, 8 tensors)

weight f4 [3, 1, 3, 3]
000000 bc c2 f5 3e 09 73 d9 3d c6 f7 be be 51 3e 8e 3d
       0.48000133 0.10617644 -0.3729841 0.0694548
000010 35 77 09 be 9f cd f7 be a9 2f c2 be bf f3 0a bf
       -0.1342438 -0.48399064 -0.37926987 -0.5427818
000020 8f 34 6c 3d da 6e e8 3c 6d 7e fd bd 7f be 26 be
       0.05766731 0.02837317 -0.123776294 -0.16283606
000030 94 65 8b 3e f3 08 ce 3c 6a 69 83 bd ec 18 93 3d
       0.27225935 0.025150752 -0.064165905 0.07182488
000040 e9 3d a9 3e c4 30 3d bd 14 2b e4 3d 70 dc 33 3e
       0.33055046 -0.046189085 0.11141029 0.17564559
000050 88 03 b8 3e e6 e7 97 be 8d cb cc 3d 41 8a b6 3d
       0.35940194 -0.29669112 0.09999762 0.089130886
000060 1d 92 04 bf ff cf 0b bf 3c ca ef be
       -0.5178545 -0.5461425 -0.4683398

bias f4 [3]
000000 ee 73 3a bf 9a a6 6f 3d 38 72 0b bf
       -0.72833145 0.058508493 -0.5447116

weight f4 [4, 3, 3, 3]
000000 aa 92 44 bd a7 b8 bb be 5e 66 d6 be ad 69 aa 3e
       -0.047991432 -0.36664316 -0.41874975 0.3328375
000010 55 26 c6 be 77 a1 f5 3c 58 09 82 be 98 38 8d bd
       -0.3870112 0.029984219 -0.25397754 -0.0689556
000020 33 1d ca 3e 3d 69 54 3d 4a 44 97 bb 65 9b fa 3e
       0.39475402 0.051858176 -0.004616295 0.48946682
000030 d3 a6 39 bf 35 26 9c bd e1 a7 fa 3e fb ee 6c bf
       -0.7252018 -0.07624475 0.48956206 -0.92552155
000040 1b 8f 86 be 6e 1f c0 3e 63 b9 68 3e 08 8a 64 3e
       -0.26281056 0.3752398 0.2272697 0.2231828
000050 be e1 75 bf e0 f7 d0 3e 27 7a b2 be 6e a2 6a bf
       -0.9604758 0.40814114 -0.3485882 -0.916541
000060 6b b4 6a be fc 86 d6 be 44 6b 0f bf 01 1d 1e 3e
       -0.22920386 -0.4189986 -0.5602305 0.15440752
000070 f0 01 58 3e 7b ef a3 be 32 ea c8 be 88 5e b0 bd
       0.21094489 -0.32018647 -0.39241177 -0.086117804
000080 db 95 ab 3d f7 e5 ff bd 28 06 8f bd eb 35 17 3f
       0.08378192 -0.12495034 -0.06983596 0.5906665
000090 e9 ae 3c bd 19 8f 71 be 82 65 29 3e c7 2e cf 3e
       -0.046065245 -0.23589744 0.16542628 0.40465376
0000a0 82 01 4e 3e 1c 3d 43 3e 50 af 57 be 86 89 ea bd
       0.20117763 0.1906628 -0.2106297 -0.11452012
0000b0 67 39 f5 be 3c 22 40 bf d6 df bc be 41 0e 9d be
       -0.47895357 -0.7505224 -0.36889523 -0.30674937
0000c0 1f 65 35 be 59 89 86 be e0 44 d2 3e ba 8e 46 3e
       -0.17714356 -0.26276663 0.41068172 0.19390383
0000d0 07 10 1f 3f a2 aa 32 3e 8b 6c fd bd e1 62 58 3f
       0.6213383 0.17447904 -0.123742186 0.8452588
0000e0 83 fb ff 3e c3 40 75 bf 70 17 61 bf 8d 51 86 3e
       0.49996576 -0.95801944 -0.8792639 0.26234093
0000f0 cc 88 1b be 27 85 52 bf 56 c2 2e be 8f 32 24 3e
       -0.15188903 -0.82234424 -0.17066321 0.16034912
000100 5a 7b 04 3d 49 ec 1d bf f8 7d 83 3e 72 8d fb 3e
       0.0323442 -0.6168867 0.25682044 0.49131352
000110 ab 09 0e be 02 e8 92 be ee 1c 11 3e c6 ab cc 3e
       -0.13870876 -0.28692633 0.14171192 0.39974803
000120 d9 11 41 bf 11 59 af be 93 1c 53 3e aa 6a 27 3e
       -0.7541786 -0.3424764 0.20616369 0.16349283
000130 c7 4a 76 be 5a 2c 54 3e a6 5d 71 3e e5 3a 24 bc
       -0.24051963 0.20720044 0.2357088 -0.010023807
000140 d1 bc 47 3b 5e a6 0f bf 1b c9 ae be cf 21 d8 3c
       0.0030477534 -0.5611323 -0.34137806 0.026383309
000150 ed a1 e7 3d 58 c0 c9 bf 29 67 3c bf ec 12 a9 3d
       0.11310182 -1.5761824 -0.7359491 0.08255562
000160 db 12 ec be 32 8e 38 bf 8e 48 b5 bf ea b1 0e c0
       -0.46108136 -0.7209197 -1.4162767 -2.229609
000170 0b 86 91 bd 41 92 24 3e 58 b1 0b be fb 2e 46 bf
       -0.07105645 0.16071416 -0.1364187 -0.77415437
000180 f5 d0 e6 3e 5b 21 e9 3e ae da 81 3e 29 e6 83 be
       0.45081297 0.4553326 0.25362152 -0.25761536
000190 33 ab 52 bd 5b 19 94 3e 5e 30 60 bf 46 aa 80 3d
       -0.0514328 0.28925595 -0.875738 0.06282477
0001a0 62 b4 44 3f a0 ee 42 3c 82 9e a4 3e ba 94 1a bf
       0.7683774 0.011897713 0.32152182 -0.6038319

bias f4 [4]
000000 51 2c 92 be 57 5d 0d bf 0e 4d 29 bf 12 a1 1f bd
       -0.28549436 -0.5522055 -0.661332 -0.038971968

weight f4 [70, 100]
000000 3b e1 95 be c9 88 b5 3e b0 13 26 3d f5 a0 bb be
       -0.292734 0.3545592 0.04054612 -0.36646238
000010 0c fd 8a 3e 9e 88 f2 3d 4a f6 c1 bd 1a ea dc be
       0.27146184 0.11842464 -0.09470804 -0.43147355
000020 be 9e 12 be 94 87 34 3f f8 97 fb be 44 a9 f3 3e
       -0.14318368 0.70519376 -0.4913938 0.47590077
000030 73 bd 08 3f 19 3a 8b 3e 26 dc 73 bd dc e6 a0 3e
       0.53414077 0.27192762 -0.05953612 0.31426132
000040 a4 30 8f 3f 0c 95 d7 3d 46 68 2b 3f 30 5e fe 3c
       1.1186719 0.10526475 0.66955984 0.031050771
000050 f1 b9 ef bc ee 66 86 3e 5e cb a1 3e f6 36 04 bd
       -0.029263468 0.26250404 0.3160047 -0.032278977
000060 26 c1 8b bf c7 84 74 bf 90 62 c2 bf b2 b6 0a 3e
       -1.0918319 -0.955151 -1.5186329 0.13546255
000070 46 ff 0a 3e ab ff 69 be 53 6a 0d be 09 6b b1 bf
       0.13573942 -0.22851436 -0.1381009 -1.386079
000080 85 b5 ca be 82 c9 63 3e 22 c2 e7 be 4a 26 2c bf
       -0.39591613 0.22244838 -0.452653 -0.67245924
000090 ff 33 91 bf c1 0f a0 bf 16 a6 59 bf f4 84 50 3d
       -1.1343993 -1.2504808 -0.8501905 0.050908044
0000a0 a8 f0 85 bf 7e 6f 67 bf c1 08 e4 bf f9 43 49 3d
       -1.0464067 -0.904045 -1.7815171 0.04913709
0000b0 df fb dd bf ec bb 3e 3f c9 43 8b be 39 32 4f 3f
       -1.734249 0.74505496 -0.27200153 0.8093601
0000c0 a4 1c 2d 3e 92 8e ee bf e1 1f 02 bf 1e 0c a6 bf
       0.16905457 -1.8637259 -0.50829893 -1.2972448
0000d0 4d 20 cc 3e 86 72 c2 3d dd 73 19 bd 3f e6 ba 3c
       0.39868394 0.094945 -0.03746401 0.022814868
0000e0 f2 76 aa be db c1 67 3e b2 d7 32 3d 61 93 33 3e
       -0.33293873 0.22632544 0.043662734 0.1753669
0000f0 49 93 aa be d9 e4 15 3f a9 20 09 3f ce 41 81 3e
       -0.33315495 0.5855232 0.5356546 0.25245517
000100 d0 2c 29 bd 4c 1e 1c bf 3e af 8e bf 41 97 81 be
       -0.041302502 -0.6098373 -1.114723 -0.2531071
000110 79 34 d6 3e 71 e2 8d 3c 7a 35 21 3f b0 8f dd 3e
       0.41836908 0.01731989 0.62972224 0.43273687
000120 db 62 03 3f 15 a5 2c bf e5 51 30 bf d4 82 2c 3c
       0.51322716 -0.67439395 -0.6887496 0.010529239
000130 11 52 ad bd d5 05 ae 3e 79 2a a0 3e c2 68 53 3d
       -0.084629185 0.33988824 0.31282404 0.051613577
000140 c3 8c a8 3e 0d 46 63 be e6 de 73 bd 16 1e 49 bf
       0.32919893 -0.22194691 -0.059538744 -0.7856153
000150 2d ef 99 bd 95 aa 05 3f bf c4 d9 be e5 6d 33 be
       -0.07516322 0.5221341 -0.42532918 -0.1752239
000160 f4 05 18 bf 29 f8 3b 3e 69 3a 18 bf 99 6e 6f bf
       -0.59384084 0.18356384 -0.59464127 -0.93528134
000170 51 be 0b c0 96 f3 6e be e6 6c 07 bf e4 69 ca bf
       -2.183491 -0.23335108 -0.5290054 -1.5813565
000180 bd ee 8e bf 5c 21 20 c0 26 15 0e bf aa 8c 5e bf
       -1.1166607 -2.502036 -0.5550102 -0.86933386
000190 2b cc 7a be 88 69 fe 3e 68 de ae bd b0 34 a3 bf
       -0.24491946 0.4968989 -0.085385144 -1.2750454
0001a0 98 9c b8 bf 14 74 27 bf 09 99 cb bb 8c 16 25 3f
       -1.4422789 -0.65411496 -0.0062133116 0.6448753
0001b0 60 73 ca bf 33 c5 95 be 02 60 08 bf 3c 9d 70 bf
       -1.581646 -0.29252014 -0.53271496 -0.9398992
0001c0 f4 91 8c 3f 35 39 72 be c8 ea d1 bf c8 7b e3 bd
       1.0982041 -0.23654635 -1.6399775 -0.11107594
0001d0 6e 99 94 bf ac a5 13 3f 4d 0d 0b be 3b ec a0 be
       -1.1609323 0.5767467 -0.13579293 -0.3143023
0001e0 cf 94 05 bf 7c 58 ab bf ac c2 02 bf 37 d1 0d 3f
       -0.5218019 -1.3386378 -0.51078296 0.5539736
0001f0 b1 e7 40 3f ff 3b 39 bf c8 1f e7 be 0e 3f 2b 3e
       0.75353533 -0.7235717 -0.45141435 0.16723272
000200 67 b7 8c 3f ee 25 26 3f 16 9a cd be aa 2d 8d 3e
       1.099347 0.64901626 -0.4015662 0.275739
000210 ec eb fc 3e c3 5d 14 3f 10 86 43 3f 0d 32 7a bf
       0.49398744 0.5795557 0.7637644 -0.9773262
000220 f8 0a 5b bf c7 39 9e 3d d2 5b 3d c0 63 25 45 c0
       -0.8556361 0.07725864 -2.9587293 -3.080407
000230 80 71 b2 bc 1a 5f 01 3f 96 b6 16 3c 89 cd 2a be
       -0.021782637 0.5053574 0.009198805 -0.16679968
000240 f5 aa 17 bd 79 29 16 be ce 6b 90 3e fd ce 9c be
       -0.03702827 -0.14664258 0.28207248 -0.3062667
000250 18 ae dc be 65 17 28 bf 39 12 2b 3f 70 40 59 3e
       -0.43101573 -0.656607 0.6682468 0.21215987
000260 a0 8e f3 3e 2f a5 c4 be a7 5a e5 be ba 8c 26 3f
       0.47569752 -0.38407275 -0.44795725 0.6505848
000270 3b e0 b6 bd cc 11 29 3e 3c 26 9b be c5 44 1a 3e
       -0.08929487 0.16510695 -0.30302608 0.15065296
000280 0f 30 b3 3e bc 9a 3a 3f ee 0c 62 3e 96 28 92 be
       0.34997603 0.72892356 0.22075245 -0.2854659
000290 2d eb 9f bf dc be 02 be ee ce 78 3c 51 5c 3d be
       -1.2493645 -0.1276812 0.015186055 -0.18492247
0002a0 d0 51 84 3e e3 60 ca bd 4e 98 8f bf d9 3f b4 be
       0.25843668 -0.09881761 -1.1218355 -0.35204962
0002b0 e9 1b 2d bf f7 3c 3c bf 58 bf 64 3e 3a 26 82 bf
       -0.6762071 -0.73530525 0.22338617 -1.0167916
0002c0 e4 92 af bf 54 33 65 3d 85 bb 32 3d 31 1f 48 bf
       -1.3716702 0.055957153 0.043635864 -0.78172594
0002d0 71 83 6f bf 5b c7 24 3f 61 ad ca 3d 75 7b bf be
       -0.9355994 0.6436669 0.09896351 -0.37398878
0002e0 56 a9 85 bf 39 11 5b be 14 87 dc 3e af 21 d6 be
       -1.0442302 -0.21393289 0.43071806 -0.41822574
0002f0 60 4f 9f 3f eb bb 36 3f a3 56 61 bf aa a1 88 3e
       1.2446098 0.7138049 -0.8802282 0.2668584
000300 88 11 9a 3f 3b ca a2 3e 3e b6 26 3f 59 a5 3e 3f
       1.20366 0.31794915 0.6512183 0.7447105
000310 15 e0 cd be 68 0a 31 3f a6 4c 22 bf 71 34 d9 be
       -0.40210024 0.69156504 -0.63398206 -0.42422822
000320 90 a5 58 bd eb b8 8b bd f6 87 c5 3d b7 bf e9 be
       -0.052892268 -0.0682238 0.09645073 -0.4565408
000330 b5 3e 6f 3f 65 48 02 bf aa 5e 9e 3e ef 13 9a 3e
       0.9345506 -0.50891715 0.30931598 0.30093333
000340 1c d6 16 3d 3c 1b 4c be 33 ca a9 3d 7b 2f 98 3d
       0.036825284 -0.19932264 0.082905196 0.07430931
000350 c3 7f 9e be 61 66 9f 3d 1d ad a9 3e 79 25 e6 3d
       -0.3095685 0.07783199 0.33139887 0.11237616
000360 9b 27 35 bf 2e 34 0f be 0f d3 41 bf f7 29 69 3e
       -0.7076356 -0.13984749 -0.75712675 0.22769915
000370 32 4b 8c bf ba 3d 9a 3e 0e 87 9e 3e 38 7d a5 3c
       -1.0960448 0.3012522 0.30962414 0.02020131
000380 ee 92 37 3f b0 8e aa bf 2e 6c 01 3c 4f 7e 68 bf
       0.7170857 -1.3324795 0.007899327 -0.9081773
000390 1f d8 a2 bf 55 1d 31 bf 2e a1 ac bf 2a 2b 12 bf
       -1.2722205 -0.6918538 -1.3486688 -0.57097113
0003a0 e6 73 ce be 99 cc 74 bf 58 a9 4e bf 31 74 98 be
       -0.40322798 -0.9562469 -0.8072715 -0.29776147
0003b0 80 ca c6 be 66 7f bd bf 58 6f 5e bf 11 bd d5 3e
       -0.3882637 -1.4804504 -0.8688865 0.4174581
0003c0 a1 21 c8 3d ba 1f 2b 3f 62 54 96 3f bb 15 ce 3e
       0.09772039 0.66845286 1.1744502 0.40250954
0003d0 6f 2e 94 3c 7d e7 ca 3e f9 e9 1d be 23 87 20 3e
       0.018088548 0.39629737 -0.15421285 0.1567655
0003e0 6c 34 ec 3e f9 14 24 3f c6 c3 fe be 5c df b8 be
       0.46133745 0.640945 -0.49758738 -0.3610791
0003f0 01 3d 25 be 5b 58 21 bf 10 fe a8 be e7 f2 10 bf
       -0.16136552 -0.63025445 -0.33006334 -0.5662064

bias f4 [70]
000000 ba 42 90 3e 82 84 66 bf 5b 71 91 3d a7 d1 eb bd
       0.28175908 -0.9004594 0.07101699 -0.115145974
000010 ee 8c 98 be e8 bb b7 be e9 57 03 bb e3 cd e4 3e
       -0.2979502 -0.3588555 -0.0020041412 0.4468833
000020 04 1d 81 be ab 3e ef be 62 a0 ea be 75 d1 5f be
       -0.2521745 -0.467275 -0.45825487 -0.21857245
000030 fb 35 de be 47 de 6e 3e 03 f8 93 3e 6f c2 9f be
       -0.4340056 0.2332698 0.28900155 -0.3120303
000040 8a cc 61 bf d2 c0 24 bf af f4 dd be 4a ad 6e be
       -0.88202727 -0.6435672 -0.4335074 -0.23308292
000050 2f 9c 5c 3f ec fb 90 be 8d 77 94 3e 25 12 fc be
       0.8617582 -0.283172 0.2899746 -0.49232593
000060 3d 14 54 bf 01 aa 48 b9 4f f0 1d bf 26 a7 26 bf
       -0.8284338 -0.00019136818 -0.61694807 -0.650988
000070 79 9b f8 be 2d 8a e1 bd 28 7f 8a be d5 77 91 3d
       -0.48556116 -0.11012683 -0.27050138 0.07102934
000080 3d 02 21 bf 51 3e 54 b9 b2 7b c9 3e 69 34 99 bf
       -0.6289404 -0.0002024111 0.39352185 -1.1969119
000090 0e 3c 75 bf 6f 8b 35 bf c6 2a ae b9 f9 7f 40 bf
       -0.9579476 -0.70915884 -0.00033219735 -0.7519527
0000a0 36 b8 23 bf e0 52 6c 3f a9 86 d1 3e b3 16 e7 b9
       -0.6395296 0.9231396 0.4092305 -0.00044076666
0000b0 75 f6 22 bf 57 07 3e bf 8a e1 73 3e 59 9b de be
       -0.63657314 -0.7422995 0.23816505 -0.43477896
0000c0 cb be 7b bb 3b 73 7d bd d1 1a b7 be 42 8f 6d bc
       -0.0038413282 -0.06187747 -0.35762647 -0.014499487
0000d0 ac c4 b9 be 35 f6 76 3f 75 8c b9 3d 16 94 30 3f
       -0.3628286 0.9646943 0.09059993 0.6897596
0000e0 ae ad 40 bf 55 9d ea 3c 25 9c 5c bf 34 35 80 bf
       -0.75265014 0.028639475 -0.8617576 -1.0016236
0000f0 f4 74 2f be bc cb fc 3e 5a 68 87 ba d4 c0 62 b8
       -0.17134458 0.49374187 -0.0010330782 -5.4062184e-05
000100 bc 58 c7 3e c5 b5 60 3e 1d 48 86 be 45 95 f1 be
       0.38934886 0.2194434 -0.26226893 -0.47184196
000110 ff 32 f7 3d 75 d5 cf be
       0.120702736 -0.40592542

weight f4 [10, 70]
000000 58 04 22 3f 61 5f 17 3d a9 20 66 3c 99 9a 5e 3e
       0.6328788 0.036956195 0.014045873 0.21738662
000010 89 88 ef be 0c 67 0f bf 5e df 03 39 37 d2 f3 be
       -0.46783856 -0.5601661 0.00012576344 -0.4762132
000020 e9 21 2c 3e 9f c6 0a bf eb d7 24 3f 41 b2 2d bf
       0.1680981 -0.5420932 0.64391965 -0.6785012
000030 cd 06 8a bd bd 9a 2c be 5a 8e a8 bf e7 fc 9e bd
       -0.067395784 -0.16855903 -1.3168442 -0.07763081
000040 a8 f8 03 be f4 89 8e 3c 64 c4 03 be 5c 7f 67 bf
       -0.12887824 0.017399766 -0.12867886 -0.9042871
000050 5b 7a fe be 05 70 f9 3e b9 3a ea bd 95 c8 92 be
       -0.49702725 0.48718277 -0.11436982 -0.28668657
000060 9b 1b 85 bf 55 7b c3 37 74 53 a4 be 43 dd 0c 3e
       -1.039905 2.3303242e-05 -0.3209492 0.1375628
000070 4e 45 c6 be 25 d9 06 bf 42 e1 26 bf 8f 72 b8 3e
       -0.3872475 -0.52675086 -0.65187466 0.360249
000080 c8 45 fc be 6f a8 40 38 b8 1a 03 bf 44 1d 1c be
       -0.4927199 4.5933233e-05 -0.51212645 -0.15245539
000090 c9 86 14 bf 96 11 a3 bf 2b 3a d5 b9 2a ad bb be
       -0.58018166 -1.2739742 -0.00040669864 -0.3665555
0000a0 29 15 cc bd a8 13 5b 3e 7c 54 4f 3f 30 5c 8b b4
       -0.099649735 0.21394217 0.8098829 -2.5957843e-07
0000b0 3d 08 72 3a 43 c1 d0 be d7 f7 c2 be 24 56 cf be
       0.0009232795 -0.40772447 -0.38079712 -0.40495408
0000c0 ae fe 05 bf 9a 92 0c bd d6 b9 79 bf 60 48 e0 be
       -0.52341735 -0.034319498 -0.9754919 -0.43805218
0000d0 3d d0 81 bf 59 93 b9 be 95 9f c2 be 88 44 18 bf
       -1.0141674 -0.3624523 -0.38012376 -0.5947957
0000e0 52 dc 6b bf 87 6c 61 3d 0a dc 90 bd eb 1a 03 bf
       -0.9213306 0.05503514 -0.07073219 -0.5121295
0000f0 6c 3d 8d 3e 74 8b c0 bf 09 fa 92 b9 82 33 f7 37
       0.27585924 -1.5042558 -0.0002803358 2.946868e-05
000100 ca 47 4f bf c8 ac 2b bf 87 12 c4 bc 82 12 92 be
       -0.80968916 -0.6706052 -0.023934616 -0.28529745
000110 b0 84 07 bf 40 26 33 bf 53 3a 28 bc 3e d9 d3 3e
       -0.5293684 -0.6998024 -0.010267812 0.4137668
000120 88 43 4a bf f7 5a 99 be 34 45 ce be 41 b5 15 bc
       -0.79009295 -0.29952213 -0.40287173 -0.009137453
000130 8c a6 b4 38 ef 8a fa 3b a1 0c 9e ba 34 ad 0c bf
       8.6140906e-05 0.0076459567 -0.0012058207 -0.54951787
000140 e7 8d 3c bf 1a e6 a3 3d 11 b8 77 bf e6 00 35 bf
       -0.73654026 0.08002873 -0.9676524 -0.70704496
000150 13 a6 74 be 61 07 cd be e6 a9 97 bd d1 2b 0b be
       -0.23891477 -0.40044692 -0.074054524 -0.13590933
000160 d4 c9 c6 be 9b 3c 01 bf cd 9c 50 3f 7b 08 ba 3d
       -0.38825858 -0.504831 0.8148926 0.09083649
000170 9b d1 79 3e db 96 85 be ab c6 1d bd da c3 93 38
       0.24396364 -0.26091656 -0.038519543 7.0459864e-05
000180 60 4d 8e bf 26 67 8a bf cf b1 34 bf 01 1b 94 be
       -1.1117363 -1.0812728 -0.70583814 -0.28926852
000190 15 ad 14 bf 33 5b 1b bf f3 af 94 be 18 52 32 b8
       -0.580766 -0.60686034 -0.2904049 -4.2514963e-05
0001a0 2b bf c7 bb a0 2f 4c bf 90 6f 48 be aa bc b2 be
       -0.006095787 -0.7976017 -0.19573808 -0.34909564
0001b0 0f 90 73 b9 b5 4a be bd 42 7e f1 bd 8d 06 23 be
       -0.00023227952 -0.09291593 -0.1179166 -0.15920468
0001c0 f3 89 24 bc 3c 5c b5 b6 f1 ad f5 be 2d 7a 03 bf
       -0.010042655 -5.404958e-06 -0.4798427 -0.513583
0001d0 ea dc 0d 3f 89 73 5b be 72 92 9f bf 64 23 b8 bc
       0.55415213 -0.21430792 -1.2466567 -0.022477813
0001e0 74 40 9a bf c6 1b 53 3f 46 6e a6 be b1 60 48 3f
       -1.205092 0.82464254 -0.32506007 0.7827254
0001f0 b8 b3 0e bf 61 70 2a 3f 2a a9 5b bf f5 40 18 bf
       -0.5574298 0.66577727 -0.85805 -0.59474117
000200 b8 11 25 3e f1 de 0b be c7 34 87 be 14 1f bd 3e
       0.1612004 -0.13659264 -0.26407453 0.36937773
000210 16 b3 05 ba 81 61 b3 38 91 aa d8 bc 98 01 4c 3e
       -0.0005100233 8.553547e-05 -0.02644852 0.19922483
000220 8f 92 8a bd cf 3e 4b bf 54 6b c0 be 9a 7d e4 be
       -0.06766235 -0.79392713 -0.37581885 -0.44627076
000230 76 97 4f bf 4a df 4d be 71 27 52 bf 17 24 fb 3e
       -0.81090486 -0.2010471 -0.8209143 0.49050972
000240 ab 05 80 be a9 a3 92 be df d5 d2 3a 33 d7 99 bd
       -0.25004324 -0.28640488 0.0016085467 -0.07511749
000250 96 b0 23 3f 84 4d 1b be 1a 5d 94 3d f6 4d ec bd
       0.63941324 -0.15166289 0.0724432 -0.11538307
000260 16 7d 1c bf 03 5e bf bd ab c9 1e bf a0 de b7 3e
       -0.61128366 -0.09344103 -0.6202647 0.35912037
000270 b8 cd 7f 3e aa 6e 05 3e 76 d9 45 bf e0 c9 a2 3e
       0.24980819 0.13030496 -0.77284944 0.31794643
000280 b9 88 0a bf e7 ac 32 3f c3 3c f1 be 16 a1 cc 3e
       -0.5411487 0.6979508 -0.4711667 0.3996665
000290 41 ab e2 be 1b 2e bf b8 0b 73 00 bf 28 b3 39 bf
       -0.4427128 -9.1161775e-05 -0.5017554 -0.72538996
0002a0 b4 b9 f8 be ed 4b 50 bf c6 95 83 be ca 40 7c bf
       -0.4857918 -0.81365854 -0.25700206 -0.9853636
0002b0 1a b1 16 bf 7c cf 0f b9 4e 87 a9 3e b3 f0 6d bf
       -0.58863986 -0.00013714837 0.33111042 -0.929454
0002c0 bf 89 58 be 90 db 60 be 9c 1a a4 b9 00 d8 32 be
       -0.21146296 -0.21958756 -0.00031300343 -0.1746521
0002d0 99 26 3d 3f b8 36 35 bf 9c 14 14 bf 3a 29 c4 b6
       0.7388702 -0.7078662 -0.5784395 -5.8460546e-06
0002e0 90 f4 1c 3f ac b4 3c bf 42 02 59 3c 64 28 9b 3d
       0.6131067 -0.73713183 0.013245167 0.07576063
0002f0 85 0a 87 bf 81 b4 b7 bc 52 b7 fa be 83 95 03 bf
       -1.0550085 -0.022424938 -0.48967987 -0.5140001
000300 1a 0c a1 be 21 03 44 bf eb a3 ef 3d c1 9a 8a bf
       -0.31454545 -0.76567274 0.11701187 -1.0828477
000310 ad c5 ca be 34 7c db be 4b cf 00 3e a1 40 6f be
       -0.3960394 -0.42868197 0.12579076 -0.23364498
000320 ca 84 42 be a0 22 66 3e 6b 3c 36 ba 14 b8 9b 38
       -0.18995968 0.22474146 -0.0006951752 7.425263e-05
000330 36 51 1b bf 7b ba 94 bd ab ee 51 bf 48 b9 86 be
       -0.60670793 -0.07262131 -0.82004803 -0.26313233
000340 bf f3 06 3f 0d ab ed bd a6 10 47 bf cd ce 7a be
       0.5271568 -0.11604891 -0.7775978 -0.2449295
000350 7d 7e 25 bf c9 3b f0 be ca f9 8a 3d 40 00 fe bd
       -0.6464613 -0.46920612 0.06785925 -0.124023914
000360 b8 0e 9d ba ae 6e 05 bf 14 90 7c be a1 ed 67 3d
       -0.0011982536 -0.5212201 -0.24664336 0.056623105
000370 ab b2 37 3b 0b 37 45 bf 08 cb e7 be 79 a3 8a bf
       0.0028030078 -0.77037114 -0.45272088 -1.0831138
000380 94 c6 3f bf 56 68 89 be 97 65 8d 3e a5 cd fb 3e
       -0.7491238 -0.26837415 0.2761657 0.49180332
000390 f5 ad 62 bf 13 d9 a2 bb 55 ab da bf d4 ae c2 be
       -0.8854669 -0.004969725 -1.7083536 -0.38024008
0003a0 6b ec 8b be ae 0e 87 be 82 84 d3 3e 7f 8a 9d 38
       -0.2732881 -0.26378387 0.41312033 7.51214e-05
0003b0 62 26 85 be 04 46 90 be 3c c8 88 bf 90 af 7e bf
       -0.26005846 -0.28178418 -1.0686107 -0.9948664
0003c0 12 16 98 be aa c9 1e bf 34 ed e2 3e e1 0d 9a b9
       -0.29704338 -0.62026465 0.44321597 -0.0002938351
0003d0 19 29 99 be 98 b2 8b bd c0 e5 0d 3f 09 4f 98 be
       -0.29914168 -0.068211734 0.55428696 -0.297478
0003e0 a6 d1 e0 b9 e9 67 c2 be 47 d7 a1 be 47 3e f2 be
       -0.0004288081 -0.37969902 -0.31609556 -0.4731314
0003f0 38 d7 5a bf ce b6 11 b7 c9 a7 e7 bc b3 fd b7 3e
       -0.8548465 -8.685236e-06 -0.028278248 0.35935745

bias f4 [10]
000000 32 7d f5 3d ae 8a d7 bd 01 49 42 bd 2f 9c 3a 3e
       0.1198677 -0.10524498 -0.047432903 0.18223642
000010 7a 21 2a 3d 37 0c 31 bf a6 72 1c bf 93 e0 c8 bb
       0.041535832 -0.69159263 -0.6111244 -0.006130287
000020 75 e9 76 3f 29 29 3e be
       0.9644998 -0.18570389
