checkpoints/YourNet/pruning/3/epoch-18.pth (torch, 35279 bytes, 8 tensors)

weight f4 [3, 1, 3, 3]
00000000: 1b51 043f 0a6d 683e 668e bdbe 0b12 23bd
00000010: 9fd2 2abe 87c9 0cbf 66dc 3abe 7ad9 07bf
00000020: 58d8 a03d ae32 933d f9b3 9fbd 9b80 31be
00000030: 13f0 613e a043 163e ddbe 9abd eeef fe3c
00000040: 79fe a43e ac2f 793d b426 d63d 4b54 0c3e
00000050: c9db c23e 69dd 26be e0eb 7a3d d991 183d
00000060: ee68 15bf 6d8d 1cbf 7df9 10bf
0.5168626 0.22697845 -0.37022704 -0.03981213 -0.16681908 -0.54995006 -0.18248138 -0.5306622
0.07853764 0.07187401 -0.07797999 -0.17334215 0.22064237 0.14674234 -0.075559355 0.031120267
0.32225397 0.06083648 0.10456601 0.1370403 0.38058308 -0.16295399 0.061260104 0.037248466
-0.58363235 -0.611533 -0.5663069

bias f4 [3]
00000000: b6f1 47bf 1e48 783d ec0f 0bbf
-0.78103197 0.06061565 -0.5432117

weight f4 [4, 3, 3, 3]
00000000: ab23 8cbe f209 dcbe 73a0 11bf 944d 833e
00000010: 1f0d 3dbe 0a11 563d 63ed ae3c 9ab9 0fbf
00000020: 2e6b 7d3e d681 6b3a b7f9 cfbd 790f 113f
00000030: de3d 5cbf 1564 80bd 5e9b ec3e 838f 21bf
00000040: 45bb 49be 7938 9e3e cabe 473e 5e08 a33e
00000050: cbbe a8bf e3f0 e63e 9f5b 36be fdd8 a3bf
00000060: b36c d5bd 2565 9abe 7811 4bbf 2f12 b53d
00000070: ac1b ca3d aa9b 11be f697 bdbe edc0 ccbd
00000080: e886 6ebd 6c5c a5bd 2694 44be d8db 263f
00000090: b47b 15be 0eb2 1fbe a4ca ee3d 1554 ba3e
000000a0: 431a 8b3e 0a27 473d f28a 35bd ea7e 35be
000000b0: 6fa0 11bf 4d9d debe b582 c5bd 196f 67be
000000c0: 585f 3b3d 7b3a 37bd 2901 5f3e 2daf 683e
000000d0: f744 e73e 9a7e 743e f42c 85bc b702 4b3f
000000e0: 30ed 183f 91e9 55bf 10af 80bf 23c7 d43e
000000f0: bc44 4d3e a2c0 02bf 9550 f3be 59a0 163e
00000100: 4fb1 893c 37d8 22bf 7f6a b23e 6b58 153f
00000110: 3b67 3cbd 413e 90be 9c60 00bc c1f6 cd3e
00000120: ab12 36bf 7290 eebe 8f51 b13d ca98 0a3e
00000130: 083d f5be 21b8 7e3e ad9b 2e3e d622 3c3e
00000140: 849f 0abe ac8b 40bf dbcf 073e fa9a a83e
00000150: 90ca 7cbd 79a5 babf 4aeb 72bf 24cf 653e
00000160: e1ee 99bd 7ff5 10bf ec34 debf 8af4 20c0
00000170: 9349 4bbd 429d d83d fd7e 05be 0ae3 29bf
00000180: 7220 043f 1e45 d33e 13c0 8e3e aa6c 7fbd
00000190: abda 03be 4037 ef3e 7362 04bf a9dc 623e
000001a0: a4fb 5a3f 32f5 a93e 00c5 ae3d 3aec 11bf
-0.27370963 -0.42976338 -0.5688545 0.25645125 -0.18462037 0.052262343 0.02135343 -0.5614258
0.24747917 0.00089838856 -0.10155051 0.56664234 -0.860319 -0.06269089 0.46212286 -0.63109607
-0.19700344 0.3090246 0.19506374 0.3184232 -1.3183225 0.45105657 -0.17808388 -1.2800595
-0.10421123 -0.30155292 -0.7932353 0.08841359 0.09868559 -0.14219537 -0.3703 -0.09997735
-0.058234125 -0.08074269 -0.19197139 0.65179205 -0.1459797 -0.15595266 0.116597444 0.36392274
0.27168474 0.048621215 -0.04432196 -0.17724195 -0.5688543 -0.43479386 -0.09644071 -0.22600974
0.045745224 -0.044733506 0.21777786 0.22723074 0.45169804 0.2387642 -0.016256787 0.7930102
0.5973692 -0.8355952 -1.0053425 0.4155818 0.20045751 -0.51075184 -0.47522417 0.14709605
0.01680818 -0.6361117 0.34846875 0.5833804 -0.045996886 -0.28172496 -0.0078355335 0.4022732
-0.71122235 -0.46594578 0.08658134 0.13534847 -0.47898126 0.24874927 0.17051573 0.18372664
-0.13537413 -0.7521312 0.13262884 0.32930738 -0.061716616 -1.4581748 -0.9489027 0.22442299
-0.07516266 -0.566246 -1.73599 -2.5149255 -0.049630713 0.105768695 -0.13036723 -0.6636206
0.5161201 0.4126367 0.27880916 -0.06235949 -0.12876384 0.4672184 -0.5171272 0.22154488
0.85540223 0.33194882 0.085336685 -0.5700108

bias f4 [4]
00000000: 2e1e 3ebe 5f6c 25bf 036e 13bf 4980 12bb
-0.185662 -0.64618486 -0.5758974 -0.0022354296

weight f4 [70, 100]
00000000: 75a3 87be 3163 a53e 07b1 6c3e 31c7 bb3d
00000010: fb25 37bf e077 a2be dd76 283e 5553 3e3d
00000020: a2b5 db3d 3704 083f 0e34 0f3f 551f 4a3f
00000030: ae26 f3be d6d6 963e 6545 f4bd 15e5 443f
00000040: 1084 d83e 67b1 8cbe 695c 53be 0367 ac3e
00000050: 3468 5b3e 154b f93e f5dc d4be ed1b 1cbe
00000060: ca65 c7be 8306 9abf 11b9 1fbf b9e1 0ebf
00000070: a4b9 183f 9b15 833f f8e9 85bf 5103 a6be
00000080: 6eb3 9b3d 4c33 37bf b5a9 a5bf 656c b7be
00000090: a6c7 a4be 75b1 babf 845b 09c0 06ca 633e
000000a0: 365b f5be 12ea 3ebf a246 ecbf dd31 13bf
000000b0: 0d6b 83bf 67d7 ab3e ce5f 27be 3e33 223f
000000c0: 4561 f33e 2985 3fbf d70e 47bc 0a8d debe
000000d0: 3f21 513f d0dd 4d3f ef43 d43d 0541 1abf
000000e0: 78ec d2be 2c10 e1bf 0e3b 2bbc 9465 e93e
000000f0: d3d4 f33e ff26 d03e f4bc 23bf e402 82bf
00000100: c1f6 1cbf 90e0 a3be 5db1 943e 4616 063e
00000110: 91c9 c8bf 4974 81bf a92d bd3d c955 ac3e
00000120: 5334 093f dafe 2ac0 2a33 ebbf 01af 93bf
00000130: 2366 92bf daff 39bf af05 dabe b636 19bf
00000140: 88c5 50bf 20d3 bdbe f2d5 9ebe fe16 59bf
00000150: 6378 f7be 7d33 efbe 7529 93be 139c a1bf
00000160: 142b 3b3f 4b62 bfbf fd45 efbd 46b1 60bf
00000170: 3e74 523f bef5 b13b 7b3b 10c0 9f4e b7be
00000180: 9fb8 14be 22c6 ab3f eb33 a73f ad8d afbf
00000190: 2ed2 59bf 70be a53e f2d9 823e e5cf 0cbd
000001a0: 371a 93bf b897 4c3f aa87 f23e 5d1d 1e3f
000001b0: 9946 8ebf 1a4d b2be 1458 b4bd 997e 2bbd
000001c0: 916f 2dbe b230 7dbd 147a 7cbf 88b9 2bbe
000001d0: 7111 d7be c0b0 d8bd 09b3 213e cb07 b93e
000001e0: c443 e63d 9eaf 68be b7bc 49bf 2d85 4cbf
000001f0: 2397 b8be ab2c 61bf 724d c0bf e4d0 debe
00000200: e0b5 b63f ba0a e73f afaf 0bbf e5a9 a8bf
00000210: 56f8 37bf b022 723f a7d2 0b40 6a2c 1f3f
00000220: 0d4d ca3c 2724 e13d c217 4dbf 13a7 80bf
00000230: 5ffc 3dbe 167d b93e 4b90 26bf 7f5b 1bbf
00000240: 28fc 79bf ea8c 9bbe 6549 713c 6175 19be
00000250: babd dabd eb44 92be 9f01 cbbe 4e72 69be
00000260: 7312 3ebf 363b 183e b140 41bc e4b2 243f
00000270: c4a1 a73e d84c ed3e a4c3 723e ba44 b9be
00000280: 224a 9a3f 8c6f d93d aa73 813d d66c 02bd
00000290: d8d6 c8be b192 7e3e 4dc7 053e 476f 003f
000002a0: 9953 16be eb92 abbe fa08 c3be 60ad 693d
000002b0: b831 593d ec9f 7dbf 5670 28bf b2a7 7cbf
000002c0: 10ea 00c0 1484 68be f41a 63be 6603 3f3e
000002d0: 0f1f f2bf a8e2 3fbf 41d4 47bf 5343 c1be
000002e0: dae2 b83d 7a2f 2c3e ae4d d2bc 5729 c1bb
000002f0: dc6c 8e3f 2505 b63f 69ec fe3e 6f34 4e3e
00000300: a355 d0bc 80e7 41bd c994 0f3f 5bce 123f
00000310: db10 b73e 4abb 903e 9107 75bc ca71 6abf
00000320: 9e56 ee3e 6e24 3cbf f43e 58bd 3ecf 66be
00000330: 7ace ce3d d7a6 a2be e20b 313f 2a07 e83e
00000340: fef1 cb3e 396e 523e 8695 713e a77f 9e3e
00000350: 15a7 acbf 5ac4 8ebe 1895 1f3d cfa6 f93e
00000360: baf0 97bf bfca d4bd 1493 2abe a6f6 033f
00000370: 11a3 adbf f51e 39bf 0e56 dd3e b25f 473f
00000380: de34 733f 45f8 9abf d64b 003c 9b29 57bf
00000390: 851f 3abf d96d 02bf e3a1 7abf 076d 463e
000003a0: e840 2cbe c560 69bf e578 6fbe a497 0c3d
000003b0: 5952 5cbe 7c04 43bf 30cb 7abf ccd6 eebe
000003c0: 539d e93e 43e1 4e3f 1ffd 943f f2b7 b6be
000003d0: 7806 a5be b76c a93d 6797 71be 9d5f 17be
000003e0: 3aa6 fcbe 0356 293e 5b7f 16be 3825 fcbe
000003f0: 2f26 1cbf 140d 1abf 523b 373f db50 f9be
-0.26491895 0.3230224 0.23114406 0.09168852 -0.7154233 -0.31732082 0.16451593 0.04646619
0.10728003 0.5313143 0.55938804 0.7895406 -0.47490448 0.29460782 -0.119272985 0.7691205
0.42288256 -0.27479097 -0.2064072 0.33672342 0.21426469 0.48690096 -0.41574827 -0.15245028
-0.38944846 -1.2033237 -0.62391764 -0.55813175 0.59658265 1.0240968 -1.0462027 -0.32424405
0.07602583 -0.7156265 -1.2942415 -0.35824886 -0.3218357 -1.4585406 -2.1462107 0.22245035
-0.4792115 -0.7457591 -1.8459055 -0.5749796 -1.0267044 0.33562776 -0.1634514 0.6335944
0.47535148 -0.7481256 -0.012149534 -0.4346698 0.81691355 0.80416584 0.1036452 -0.6025546
-0.41196036 -1.758306 -0.010451091 0.4558531 0.4762331 0.40654752 -0.63960195 -1.0157132
-0.61314017 -0.32007265 0.29041567 0.13094434 -1.5686513 -1.0113612 0.092372246 0.336592
0.53595465 -2.671805 -1.8374989 -1.1537782 -1.143742 -0.72656024 -0.4258246 -0.5984911
-0.8155141 -0.37075138 -0.31022602 -0.8480071 -0.48334035 -0.4671897 -0.28742567 -1.2625755
0.73112607 -1.4951872 -0.11683271 -0.877705 0.8220862 0.005430906 -2.2536304 -0.3580217
-0.14523552 1.341984 1.3062719 -1.3715111 -0.85086334 0.32371855 0.25556904 -0.03437795
-1.1492375 0.79919004 0.47369128 0.61763555 -1.1115295 -0.3482445 -0.08805862 -0.04186878
-0.1693709 -0.061814018 -0.98623776 -0.16769993 -0.42005494 -0.105805874 0.15790953 0.36138758
0.11243394 -0.22723243 -0.7880358 -0.7989071 -0.36052808 -0.8795878 -1.5023634 -0.43518746
1.4274254 1.8050148 -0.54564947 -1.3176848 -0.71863306 0.9458418 2.1847322 0.62177145
0.024694944 0.10993224 -0.80114377 -1.0050987 -0.18553303 0.36228245 -0.65063924 -0.60686487
-0.97650385 -0.30380946 0.014726971 -0.14986183 -0.10680719 -0.28568205 -0.39649674 -0.2279751
-0.742469 0.14866337 -0.011795209 0.64335465 0.32740605 0.4634769 0.23707443 -0.36185247
1.2053874 0.10616979 0.06320889 -0.031842075 -0.39226413 0.24860646 0.13064308 0.50169796
-0.14680327 -0.33510527 -0.38092786 0.05705011 0.05302593 -0.99072146 -0.6579641 -0.9869338
-2.014286 -0.22706634 -0.2217825 0.1865364 -1.8915728 -0.74955225 -0.7805825 -0.37746677
0.090276435 0.16814986 -0.025671806 -0.0058948207 1.1126971 1.422032 0.49789742 0.2013719
-0.02543146 -0.047339916 0.56086403 0.57346123 0.35755047 0.2826789 -0.014955417 -0.9157988
0.4655046 -0.7349309 -0.05279441 -0.22539994 0.10097976 -0.31767914 0.69158757 0.45317966
0.39833063 0.20549859 0.23592195 0.30956766 -1.3488489 -0.2788418 0.038960546 0.48760077
-1.1870339 -0.10390233 -0.16657668 0.5154823 -1.3565389 -0.7231286 0.43229717 0.77880394
0.95002544 -1.2107016 0.007830581 -0.8404786 -0.72704345 -0.50948864 -0.9790327 0.19377528
-0.16821635 -0.91163284 -0.23385961 0.034324303 -0.21515788 -0.7617872 -0.9796629 -0.46648252
0.4562784 0.8081247 1.1639746 -0.35687214 -0.32231498 0.08272689 -0.23592912 -0.14782567
-0.4934557 0.16536717 -0.1469702 -0.49247146 -0.60995764 -0.60176206 0.7157489 -0.486945

bias f4 [70]
00000000: d458 d3bd e17c 59bf 65b8 f8bc 2255 e13d
00000010: 0ae7 dbb8 56ab ae3e 18ed c1be db00 b63e
00000020: 5523 acbe 9647 36bf 42d7 c4be 7032 0eba
00000030: 9b35 3abf 7e14 f03e fe9e cb3d c1aa d43e
00000040: 4d65 1abf 8d41 22bf 2fd0 0bbe 65f9 61bf
00000050: 7af3 28bf 8c79 54bf 98a0 abbe b4e9 debe
00000060: 6071 62bf fbe9 7fb9 fb0b e5be a02d 2fbf
00000070: 4804 a0be 49c6 75b9 6e06 b2be f525 c3be
00000080: 4521 dbbe 2363 363f cebc 2d3e ac25 64b8
00000090: a4a4 f2be f643 41be c13d 6b3f 6d57 dfbe
000000a0: 4230 87b9 3cc9 c5be eb88 0cbf 69d3 29bc
000000b0: c5f6 183e bdb1 48bb ce33 28bf 4c4e 65bf
000000c0: 4bdb 3bbf b8c8 5abf 69dc a1be 565d 27bf
000000d0: 2a2a 05bf b40e e0be c1ac 5bbf a969 843f
000000e0: a7ae 91be 9646 863f 7730 21ba 28f6 853e
000000f0: 2c07 02bf 0a6b 78be dc08 2b3f 4231 cc3f
00000100: a39e a7be ecb1 6ebe acdf 2dbd 68ad e13e
00000110: fe4e 033f 2d35 f2be
-0.10319677 -0.84956175 -0.030361364 0.11002566 -0.00010485768 0.34115094 -0.378762 0.35547528
-0.33620706 -0.7120298 -0.3844548 -0.0005424386 -0.72738045 0.46890634 0.09942435 0.41536525
-0.6031082 -0.6338127 -0.13653634 -0.8827117 -0.65996516 -0.82997966 -0.3352096 -0.43537676
-0.88454247 -0.0002440586 -0.44735703 -0.68428993 -0.31253266 -0.00023438888 -0.3477053 -0.38114896
-0.4279882 0.7124502 0.16966555 -5.439452e-05 -0.47391236 -0.18873581 0.91891104 -0.43621388
-0.0002578516 -0.38630092 -0.5489642 -0.0103653455 0.14937885 -0.0030623518 -0.6570405 -0.89572597
-0.7338149 -0.8546252 -0.31613472 -0.65376794 -0.5201746 -0.43761218 -0.85810477 1.0344745
-0.28453562 1.0490291 -0.00061488844 0.26164365 -0.50792193 -0.24259582 0.66810393 1.5952532
-0.32738218 -0.2331006 -0.04244964 0.4407761 0.5129241 -0.47306195

weight f4 [10, 70]
00000000: 67a2 0c3f f797 9bbe 9e42 9f3c f2b8 90bf
00000010: 3074 f438 4987 9c3c d45b 87bf e636 1cbf
00000020: 0446 7ebe 22a8 83bf 14dc 853b c9f0 f6b9
00000030: ed81 5dbf 8be5 21bf 46b4 71be 679c 5f3d
00000040: e1d7 c93e 9885 22bf fdf7 053f 466a 26bf
00000050: 96af 59be 5c85 f5be 3535 06bf c3e1 f4bd
00000060: de05 69bf a624 d5b6 60ae 0d3d 2ad3 493d
00000070: c461 053e 27d4 35b9 2c92 883e 63ad dabe
00000080: e04e 05bf c60c 17bc 4f14 69bf d851 f937
00000090: 1e3d f1bd b497 8cbf 3289 9bbf 471b 08be
000000a0: d935 95b9 0068 8d3e a4f5 78be 08cb 27be
000000b0: 9ea5 b33e f289 04ba 5952 3cbf 932c 32bf
000000c0: 7ee2 a3bf 02f7 febe f6f4 10bf fe6a eebe
000000d0: 8ca9 fbbe 4f42 80bf 4229 37bf a700 26be
000000e0: 1de8 febf 40db a9be eefb 9637 d263 15bf
000000f0: 3bc6 6cbf 5aee d5be 78d4 103f 34ee 623c
00000100: f5f9 cdbe ff75 303f bbf2 5b3e 7b52 b7be
00000110: 1317 173e 5e95 58bd 88b3 aabe cb85 54bf
00000120: 31e5 77bf 1dd5 a93e a79e 0eb8 0bfa e9be
00000130: e784 1bbf 0c6b 15bc 7108 aabf c75d bfbe
00000140: 7fc7 2fbe 9a98 1cba 1c66 0fbe 562f 3a3f
00000150: 4d69 3f3e 30c7 bebe 0977 6dbf 7d92 37bd
00000160: d225 4abf f4fa 39be 5574 763d a206 ccbe
00000170: f71d e0bc d6bd 77be 0433 1cbf 6ed4 0a39
00000180: 2e44 3ebe 0173 c0bf a7b5 83bd 5f1c 07b9
00000190: 4da7 62bf 8137 c03d 324a 2dbf 3753 683c
000001a0: 3ac6 f3be c397 eab7 f872 9ebc 2e07 8cbe
000001b0: 7070 9a3f 3ef5 d3bd 838d 68b9 9bb7 503e
000001c0: 61e6 61bf 22b4 63bf 69b2 b83e f703 263b
000001d0: 7223 85be 400c 53be 1a5d 0bbe dd64 f43d
000001e0: 6f7e aa3e 3593 e9be e6c9 afbe 8636 3e3f
000001f0: bf4d 9cbe df48 f43e 79ee 87be 9271 a33e
00000200: 8cfc ef39 8b9b bebe fde5 0b3e 77a6 5cbf
00000210: fa65 0bbf 94e6 333f 3cd9 f73c d5c2 5bbe
00000220: 1926 9ebf bead e9be 05d0 4b3e 7417 7ebe
00000230: 610c 34bf 25f0 4cbf 9ebe 08bf 3587 8f3d
00000240: b92c 8138 60c6 65be 62e1 21bf c39e 3e3d
00000250: 00ca 92bf d466 f3be 6f99 0f3f 3901 16ba
00000260: db19 d0be 005f 6cbe b492 30bd d54e d03e
00000270: 7e50 413e bf8f 973e c286 c33d 67b1 b63e
00000280: 5d3e 1cbf b5db e0be 94d7 8f3e 38cf b63e
00000290: 9fa4 04bf 4642 e4b5 a71a 96be 2417 c4be
000002a0: 109f 7fbe d6b3 ceb8 4d93 d83d 7cbe 4dbe
000002b0: cb56 eabd c013 9bbf 634c fdbe 3b95 b138
000002c0: 6cb4 9e3e a47f 13bf d26e 94bf 2dd9 953e
000002d0: 30b4 3639 d470 013f 833b f93e 0ce2 70bf
000002e0: 8c09 05bf 2c16 04ba 6527 1b3f eb5b 04bf
000002f0: 3f00 02bf edc5 27bd 4b73 88bd 5ae3 d9be
00000300: e5fd 3c3f 05e7 cfbe 86fb c1be 98aa 09bf
00000310: 5eb5 1fbf 4f90 8dbe 7587 12b9 4c2b 03bf
00000320: 40cc 8d3e 1587 edbe 8ff1 e7be a909 03bf
00000330: 2223 0abf ca60 1dbf 06fb 23bf fdb6 a7be
00000340: dbb7 3bbf 17aa 72bd 28a2 2cbf f9b7 13bf
00000350: b699 5cbf 0ca6 2fbf 4c53 0339 8de5 393e
00000360: 00ca abbd 6a38 19bf 97a5 5c3c f683 143f
00000370: 76e8 4cbf 371b d9b9 122a 013e 3467 1fbf
00000380: 7a4e 7fbf 0815 3dbf 6f02 843c daf7 9b3e
00000390: 4d0b b3be 648f bebe d42c 83be 99f7 433e
000003a0: e52f c7be e9ad a2be dc89 ba3e 5bf0 25b7
000003b0: e487 b9bd 6328 dd3c 6689 75be d8cc 8d39
000003c0: bd89 cabb e0c1 a0be f468 0fbf b361 81bf
000003d0: fdc7 64bf f8ed acb8 9b93 08bf 5672 0cbf
000003e0: b268 a8be caef 193f e634 1e39 80b1 14be
000003f0: 3553 78bd 5a8a 83bf fe4b 0abf 805f 8039
0.54935306 -0.30389377 0.019440945 -1.1306441 0.00011656468 0.019107478 -1.0574899 -0.6102127
-0.24831396 -1.0285685 0.0040850732 -0.00047100175 -0.86526376 -0.6324088 -0.23603925 0.054592516
0.39422515 -0.634851 0.52331525 -0.6500591 -0.21258387 -0.47953308 -0.5242494 -0.11957123
-0.9102458 -6.352161e-06 0.034590125 0.049273647 0.13025576 -0.00017340538 0.2667402 -0.4271041
-0.5207348 -0.009219354 -0.91046613 2.9721225e-05 -0.11779235 -1.0983796 -1.2151244 -0.13291655
-0.00028459614 0.27618408 -0.24312454 -0.16386044 0.35087293 -0.0005055956 -0.7356315 -0.69599265
-1.2803495 -0.49797827 -0.5662378 -0.46566004 -0.49152792 -1.0020236 -0.7154733 -0.16211186
-1.9914585 -0.33175087 1.7998707e-05 -0.5835544 -0.92489976 -0.4178341 0.565742 0.013850737
-0.40229765 0.6893005 0.21479313 -0.35805115 0.14754896 -0.052876823 -0.33340096 -0.8301665
-0.96834093 0.33170405 -3.4003195e-05 -0.4569858 -0.6074967 -0.00911976 -1.3283826 -0.37376234
-0.17165945 -0.0005973667 -0.14003795 0.7272848 0.18692513 -0.37261343 -0.9275976 -0.044817436
-0.7896396 -0.18162137 0.060169537 -0.3984881 -0.027358038 -0.2419351 -0.61015344 0.00013239842
-0.18580696 -1.5035096 -0.06431132 -0.00012885172 -0.8853653 0.093855865 -0.6769134 0.014179996
-0.47612172 -2.7965643e-05 -0.01934193 -0.27349228 1.2065563 -0.103495106 -0.00022177961 0.2038254
-0.88242155 -0.88946736 0.36073616 0.0025331953 -0.26003605 -0.20610142 -0.13609734 0.11933301
0.33299586 -0.45620123 -0.34333724 0.74301946 -0.30528066 0.47711846 -0.26549128 0.31922585
0.00045773794 -0.37228045 0.13661952 -0.86191505 -0.5445248 0.7027371 0.030254953 -0.21461041
-1.2355376 -0.45640367 0.19903572 -0.24813634 -0.7033139 -0.8005393 -0.5341586 0.070082106
6.1595296e-05 -0.22438955 -0.6323453 0.046538126 -1.1467896 -0.4753939 0.56093496 -0.0005722228
-0.40644726 -0.23083115 -0.043108657 0.40685144 0.18878362 0.29601857 0.095471874 0.35682222
-0.6103266 -0.43917623 0.2809416 0.3570497 -0.5181369 -1.7006612e-06 -0.2931721 -0.38298905
-0.24963021 -9.8563425e-05 0.105749704 -0.20092195 -0.11442336 -1.2115402 -0.4947234 8.467814e-05
0.30997026 -0.5761664 -1.159632 0.29267254 0.00017423998 0.5056279 0.48678216 -0.9409492
-0.5196769 -0.0005038704 0.60606986 -0.51702756 -0.50781626 -0.04096024 -0.066626154 -0.42556268
0.7382491 -0.4060594 -0.3788721 -0.5377593 -0.6238612 -0.2764916 -0.00013974107 -0.5123794
0.27694893 -0.46392122 -0.45301482 -0.51186615 -0.5395986 -0.61475813 -0.64054906 -0.32756796
-0.73327416 -0.05924424 -0.6743493 -0.57702595 -0.86172044 -0.6861274 0.00012524164 0.18153973
-0.08388138 -0.59851706 0.013467214 0.58013856 -0.8004221 -0.00041409742 0.12613705 -0.6226685
-0.9972912 -0.73860216 0.016114442 0.30462533 -0.3496956 -0.37218773 -0.2562014 0.1913742
-0.38903728 -0.31773308 0.36433303 -9.8907285e-06 -0.09059122 0.026996797 -0.23978195 0.00027046236
-0.0061809705 -0.31397915 -0.5601952 -1.010794 -0.8936766 -8.245924e-05 -0.5335023 -0.5486196
-0.32892376 0.60131514 0.0001508776 -0.14520836 -0.060626227 -1.0276597 -0.54022205 0.00024485216

bias f4 [10]
00000000: fa88 443d 0af2 a2bd 1daf 1c3e 013e 00be
00000010: b3df 6bbd 8daf 52bf 42b6 8cbe 99dc e13d
00000020: 8ba5 883f 6c09 a2be
0.047982194 -0.079563215 0.15301175 -0.12523653 -0.057586383 -0.8229912 -0.27482802 0.11028404
1.067552 -0.31647813
