checkpoints/YourNet/pruning/10/epoch-6.pth (torch, 22863 bytes, 8 tensors)

weight f4 [3, 1, 3, 3]
000000 eb 89 e8 3e 26 f4 5f 3e f7 2a 08 be 2d 94 40 3e
       0.45417723 0.21870479 -0.1329764 0.18806525
000010 7a a1 f1 bc f3 43 01 bf 84 3c b9 be 17 c7 3a bf
       -0.029495943 -0.5049431 -0.36178982 -0.72960037
000020 9a 85 9f bd a1 13 72 3d 54 56 ad 3d ea 0a d1 be
       -0.07789154 0.05910075 0.084637314 -0.4082864
000030 de 98 94 3e df 73 8b bc af b1 7b be 22 3e ad 3e
       0.29022878 -0.017023025 -0.245795 0.33836466
000040 02 ca 38 3e 1d d9 2f 3e a1 0b 1f 3e eb 70 05 3e
       0.1804581 0.17172666 0.1553178 0.13031356
000050 f5 c5 e6 3e 81 d7 8f be 63 19 3c 3e ca eb 1f 3e
       0.45072904 -0.28094104 0.1836906 0.1561729
000060 e1 7c 1e bf 9a 8e 19 bf a4 de cf be
       -0.619093 -0.5998322 -0.4059955

bias f4 [3]
000000 4b 26 04 bf af ee 05 bc c7 3b e1 be
       -0.5162093 -0.008174582 -0.4399092

weight f4 [4, 3, 3, 3]
000000 ea df 23 be b7 bf 4d be b9 c1 b9 be 52 d2 ea 3e
       -0.16003385 -0.20092665 -0.3628061 0.45863587
000010 58 73 d0 be 1e 60 61 be 5d 7e 23 be 1b 95 82 3c
       -0.40713 -0.22009322 -0.15966173 0.01594024
000020 dc 72 6e 3e 22 ec 47 be 14 d4 29 be 67 a4 cd 3e
       0.23286003 -0.19523671 -0.16584808 0.40164492
000030 29 f4 44 bf 7d f1 41 be 27 67 a6 3e ed b4 81 bf
       -0.7693506 -0.18939777 0.32500574 -1.0133339
000040 48 b0 9f be 4d 24 16 3f 1a ba 9e 3e 78 b9 96 3e
       -0.3118918 0.5864914 0.3100136 0.29438376
000050 f9 e4 e0 be 23 66 ef 3e 93 ac 06 bf 7b 6b 2b bf
       -0.43924692 0.46757612 -0.5260708 -0.6696088
000060 e9 4e 82 be 40 05 29 be e2 91 38 bf d3 81 14 3e
       -0.2545083 -0.16505909 -0.720976 0.14502649
000070 70 5c b0 3d 85 a7 13 be a3 dd 24 bf f9 b6 65 bd
       0.08611381 -0.14419372 -0.6440069 -0.0560827
000080 2c 75 b7 3d ff 92 90 be 2c 77 9c 3d 8b 15 29 3f
       0.08957896 -0.2823715 0.07639918 0.66048497
000090 65 40 77 3c 91 12 84 bd 3d 87 87 3d 57 f8 fb 3e
       0.015091036 -0.06448854 0.066175915 0.49212906
0000a0 0d 61 16 3d 0f 29 95 bd f2 e8 91 be 0c 83 aa be
       0.03671365 -0.07283222 -0.28498036 -0.33303106
0000b0 ac 47 9d be bd 73 d7 be 7a d3 e1 bd 7b 86 9b be
       -0.30718744 -0.4208049 -0.11026664 -0.30376038
0000c0 b3 1a 47 be 87 a8 4a bd 58 e1 db 3b 54 f7 be 3e
       -0.19443779 -0.049477126 0.0067102127 0.3729807
0000d0 6a 32 10 3f 04 dc 88 3e e4 e6 2f be 7a c0 52 3f
       0.56326926 0.2673036 -0.17177922 0.82324946
0000e0 8a a9 f1 3e 9a 42 4a bf 7f 04 03 bf 10 17 89 3e
       0.4719966 -0.79007876 -0.51178735 0.26775408
0000f0 3f 0f 72 3c e0 e1 db be 2f 53 02 bf ed 8e de 3d
       0.014774143 -0.42945766 -0.5090818 0.10867105
000100 b4 15 f5 3b b6 8a 15 bf 9c ee 18 3e 26 a1 be 3e
       0.007479394 -0.5841478 0.14934772 0.37232322
000110 1e d2 01 3e 81 a6 c4 be 2f 94 5d 3e 41 ca b6 3e
       0.1267781 -0.38408282 0.21638559 0.35701182
000120 92 11 3a bf a6 12 10 bf b5 93 5b bd 1f 93 88 3e
       -0.7268306 -0.56278455 -0.05360766 0.26674744
000130 85 f1 a5 be e7 47 20 3e 98 7f 7c 3e 87 9a 96 3e
       -0.32410827 0.15652429 0.24658048 0.2941477
000140 6f f5 f8 3d d3 0e 49 bf 20 c7 4c be 1a dd 19 3e
       0.12156188 -0.78538245 -0.19997835 0.1502575
000150 ed d7 c0 be 8c 5a 35 c0 d5 ad 91 bf 67 cf 0e bd
       -0.37664738 -2.8336515 -1.1381174 -0.034865763
000160 0e 6a fb bd 87 5e b1 be 36 38 7a bf 26 e1 29 c0
       -0.12276088 -0.3464243 -0.9774202 -2.654367
000170 6d 60 06 bf f3 ef 26 3e fd 02 6a bd 17 61 a5 be
       -0.52490884 0.16302471 -0.057131756 -0.32300636
000180 ce 51 0c 3f 35 13 0a 3f c0 69 a1 3d 00 69 47 3d
       0.54812324 0.5393556 0.07881498 0.04868412
000190 23 ba 2b be 2f 7b ca 3e ac 39 8b bf b2 1e 44 3d
       -0.16770224 0.39547107 -1.0876975 0.047880836
0001a0 d8 3a 87 3f b0 68 4e 3e 36 a6 bc 3d 9c 71 59 bf
       1.0564833 0.20157123 0.0921139 -0.8493898

bias f4 [4]
000000 55 f2 da be 17 57 0d bf 37 0c 14 bf e4 82 92 bd
       -0.4276301 -0.55211014 -0.5783114 -0.07153872

weight f4 [42, 100]
000000 39 2a f9 be b4 1d c3 3d e8 59 d7 be bb 1e 79 be
       -0.48665026 0.0952715 -0.4206078 -0.24328129
000010 3b d2 d1 be eb 6b 08 be f2 93 be 3e 8d 8b 93 bc
       -0.40980706 -0.13322417 0.37222248 -0.018010879
000020 2f 56 20 bd 21 6f 60 3e a2 07 7f 3c d8 9b 8c 3f
       -0.03914469 0.21917392 0.015565785 1.098506
000030 9b 07 2a 3f 5d b6 f3 3e 63 05 79 3e 4a 6e b5 3e
       0.66417855 0.4760007 0.24318461 0.35435706
000040 93 43 70 3f 0d cd 18 3e 17 f4 ac 3e e9 d5 16 bd
       0.9385311 0.1492197 0.33779976 -0.036825094
000050 0c 0e 30 3f 5e 86 26 3e 89 d2 c5 3d d9 17 86 bf
       0.68771434 0.16262195 0.09659297 -1.0476028
000060 c6 f5 c4 3d 46 e4 78 bf 6f 18 de bf 6e 7b b0 3d
       0.0961719 -0.9722332 -1.7351207 0.08617292
000070 49 9b 4d bc 8c 48 90 bd f7 d7 9f bd 83 30 7b 3c
       -0.01254923 -0.07045087 -0.07804864 0.01533139
000080 bc 10 07 be fa ae 09 bf 01 8a b1 bf ae 58 72 bf
       -0.13189977 -0.5378262 -1.387024 -0.94666564
000090 35 2f 4e be a0 ab dc bf 32 77 d5 bf 2e 15 4b bf
       -0.20135196 -1.7239876 -1.6677 -0.7932919
0000a0 20 18 06 3e 85 6a 46 bf d0 75 c8 bf dd e7 a3 bd
       0.1309514 -0.77506286 -1.5660954 -0.08003209
0000b0 d4 aa 3f bf bf da aa 3e 87 b3 73 be 5c d1 e5 3e
       -0.7487004 0.33370015 -0.23798953 0.4488629
0000c0 c4 7a 0c 3f d0 bb 9b bf fb 8c b4 3e d8 d3 39 bf
       0.54874825 -1.2166691 0.3526381 -0.7258887
0000d0 b1 1c 87 bd 2b cd 73 3f 6d 9c 62 3e a8 e5 8e bf
       -0.06597269 0.95234936 0.22129984 -1.1163836
0000e0 bb 8d 79 3e 90 74 2a bf e5 51 02 3e 0c 81 1e 3f
       0.24370472 -0.6658411 0.12726553 0.6191566
0000f0 ba cf 99 3e 1c 60 58 be d1 64 f6 3c 02 28 42 bf
       0.30041295 -0.21130413 0.03007737 -0.758423
000100 d8 08 07 bf 61 b2 ef be 0d bb 76 3d 22 b5 1d 3e
       -0.5274787 -0.4681578 0.06023698 0.15401128
000110 c1 26 13 c0 fa 45 ea be 16 09 a8 bd ba b7 7b 3d
       -2.2992404 -0.45756513 -0.08204858 0.061454512
000120 62 f6 76 3e de 3e 03 c0 6a 1f 9e bf 26 2d 2b bf
       0.24117425 -2.050712 -1.2353337 -0.66865766
000130 62 b6 aa 3d 74 b0 3a 3b ae a1 35 3e 17 a1 d9 bd
       0.08335568 0.0028486522 0.17737457 -0.106264286
000140 2d 1e a4 bd d2 be a9 be 48 1b 4d 3e 0c 67 1d bf
       -0.08013568 -0.33153397 0.20029938 -0.6148536
000150 72 cb b8 3d a1 16 38 bf 0f 64 19 be 85 3b 72 bf
       0.09023179 -0.7190953 -0.14979576 -0.9462207
000160 3f 59 d9 3e 9c 14 1e bf bb 13 d9 3d 37 5d 98 bf
       0.42450902 -0.617502 0.105994664 -1.1903447
000170 ac 3d bb bd e7 53 4d be 42 20 40 c0 eb ea 6a bf
       -0.09142622 -0.20051537 -3.0019689 -0.91764706
000180 e0 48 9e 3e 20 d7 81 3f 56 39 b7 3e 32 ea 1b c0
       0.30914974 1.0143776 0.3578593 -2.4361691
000190 8b c9 03 be 08 57 3d 3f 88 61 6d bd 04 56 f9 be
       -0.12869851 0.73960924 -0.05795434 -0.48698437
0001a0 69 cf 99 bf 42 b2 f8 3e d6 7e a7 3e e7 40 8c 3e
       -1.2016422 0.485735 0.32713956 0.27393267
0001b0 3b 71 e7 bf be 25 15 c0 bf e5 84 be b4 3e 74 be
       -1.808143 -2.3304286 -0.25956532 -0.23852044
0001c0 c0 9f 6b 3e 02 c1 9c 3e f4 f6 d1 be e0 27 4e bd
       0.23010159 0.30616003 -0.41008723 -0.050330997
0001d0 5e 1a 46 bf 12 d6 d6 be 4b 2d 1c 3f 7d e1 ae 3e
       -0.77383983 -0.41960198 0.6100661 0.3415641
0001e0 c8 52 96 3e e5 c6 01 bf d7 f8 50 bf 05 f3 83 be
       0.29360032 -0.50694114 -0.816297 -0.25771347
0001f0 99 ef 1e 3e dc 4a 18 c0 8b 1d 07 c0 47 43 97 3e
       0.15521087 -2.379569 -2.1111782 0.29543516
000200 c3 a6 b6 3f 86 1c 96 3f 94 18 6d bf 70 20 6b be
       1.4269642 1.1727455 -0.9261563 -0.22961593
000210 0b d2 8e 3e ae ac 63 3f f9 2f b9 3f 2d 6a 89 bd
       0.27894625 0.88935363 1.4467765 -0.067097045
000220 1f 69 6c 3f e5 12 39 3e 59 9b 26 bf 00 15 95 be
       0.923479 0.18073614 -0.6508079 -0.29117584
000230 22 2b cb bd d8 f7 3e 3f b7 dd 00 3e f8 2b 9d be
       -0.09920336 0.7459693 0.12584578 -0.30697608
000240 c8 da 9e bf 08 dc 8e bd e3 c3 6d 3e 98 c8 06 3e
       -1.2410517 -0.069755614 0.23219256 0.13162458
000250 94 d1 a9 be 38 d0 45 bf ae dc 58 bf db 9f c7 3e
       -0.33167708 -0.7727084 -0.8471173 0.38989148
000260 61 d7 52 3e c3 75 bf be e7 dd 29 3c 97 ad 8d be
       0.20589973 -0.37394533 0.010367847 -0.276715
000270 12 87 2a bd 2d 23 e5 bc 3a e4 36 be 8f c1 e2 3d
       -0.04163272 -0.027970875 -0.17860499 0.110720746
000280 ae 5f 27 bf f7 4a 67 be 5c 12 52 bd 69 26 18 bd
       -0.6538037 -0.2258719 -0.05128704 -0.037146006
000290 44 9b 95 3e bc 2d 92 bd 9f 20 55 be 6c 5e 73 3d
       0.2922002 -0.071376294 -0.20813225 0.05941622
0002a0 98 65 20 3e 23 3f 18 3d 70 cb 34 bf f2 ee 1e 3d
       0.15663755 0.037169587 -0.7062292 0.038802095
0002b0 c4 9f bb bc 11 08 88 bf 73 a8 3b bf e2 d8 d3 bf
       -0.02290333 -1.0627462 -0.7330391 -1.6550562
0002c0 2f 55 0f bf 59 19 d4 bc 7a 46 8f be 88 5a 39 3b
       -0.55989355 -0.025890993 -0.27983457 0.002828272
0002d0 3c 7c 73 bf 9a ff 0e bf 1f 3b 2c bf 05 d3 bb be
       -0.9511144 -0.5585877 -0.6727771 -0.36684433
0002e0 e0 e8 31 bf c6 61 9c bc 41 1a 3d bd cc 87 30 be
       -0.69495964 -0.01908959 -0.046167616 -0.17239302
0002f0 5a ea c0 3f 86 b0 5e 3f 0b 33 94 3e b0 9e 32 3f
       1.5071518 0.86988103 0.28945193 0.6977339
000300 a8 64 e9 3e 6e 9b 2f 3f eb 40 22 3f 23 86 ad 3e
       0.45584607 0.6859654 0.63380307 0.338914
000310 0d d6 95 3d d3 b2 89 3e 47 91 86 be 80 72 52 bc
       0.073162176 0.26894245 -0.26282713 -0.012844682
000320 ba 14 28 bf 5f 55 0d c0 84 fe 67 3e 96 c9 ac bd
       -0.65656626 -2.2083356 0.22655684 -0.08436887
000330 5c 45 89 3f 65 fb 99 bf aa 24 07 c0 4c d9 f9 3e
       1.0724292 -1.2029845 -2.1116128 0.48798597
000340 b8 12 fe be 79 8e 86 3e b5 b6 15 bd 1a a6 62 be
       -0.49623656 0.26280573 -0.036551196 -0.22133675
000350 b3 62 29 be 66 35 97 3e f0 3d 9b 3c c2 aa 0a be
       -0.16541557 0.29532927 0.018950433 -0.13541701
000360 a7 73 80 be 3e 60 88 bd f3 5c 59 3d 16 ee 97 be
       -0.25088236 -0.06658982 0.05306716 -0.29673833
000370 b5 c0 d0 bf 72 11 a6 3e 6a b5 ed 3e b9 da 16 3f
       -1.630881 0.32435185 0.4642747 0.58927494
000380 7d d8 b0 be 10 1c af bf e6 dc 3b be 23 70 64 be
       -0.34540167 -1.3680439 -0.18345985 -0.22308402
000390 36 5e b5 be 10 cc 76 3e 59 29 bf bf 26 28 34 bf
       -0.3542344 0.24101281 -1.4934493 -0.7037376
0003a0 9a 04 bd 3d 8d a4 2d be 31 99 28 3a 9a 91 69 3f
       0.09229393 -0.16957302 0.00064315187 0.91237795
0003b0 7c 32 ae 3d 38 ac 36 bf 8e 8b 05 bf 81 5c d9 be
       0.08505723 -0.71356535 -0.5216607 -0.42453387
0003c0 57 20 49 bd 7d 7e cd bd dc cf 5a bd 5b 61 38 3f
       -0.049103107 -0.10033891 -0.053420886 0.7202355
0003d0 41 9a 89 3f 9c f7 93 3e 67 69 67 3c 39 a5 2e be
       1.07502 0.28899848 0.014124251 -0.17055215
0003e0 dc 23 28 3e 21 f2 b2 bc 30 10 4c 3e b5 c1 a8 bf
       0.1641993 -0.021843972 0.1992805 -1.3184115
0003f0 52 a4 c1 bd 74 e4 15 bf 1d 77 89 bf 69 f4 74 bf
       -0.0945517 -0.58551717 -1.0739475 -0.9568544

bias f4 [42]
000000 b5 27 80 bd d7 ff 08 bf bc 89 97 be c3 ad 23 be
       -0.062575735 -0.5351538 -0.2959727 -0.15984254
000010 09 c3 82 bd f6 d5 9f 3d f8 1a 17 bf 4e 3b 72 bf
       -0.06384856 0.07804482 -0.59025526 -0.9462174
000020 e1 df 17 bf 00 56 ec 3e 71 49 89 be 57 5c b0 bc
       -0.5932599 0.46159363 -0.26813844 -0.021528406
000030 cd b2 f2 be 13 03 26 bf 97 7d b9 be cb 44 14 bf
       -0.4740204 -0.6484844 -0.3622863 -0.5791747
000040 e4 48 37 bf 6f 28 4c bf ad 5b 42 3f 8a 50 c2 be
       -0.715956 -0.79749197 0.75921136 -0.3795207
000050 e6 75 0e bf 81 9c 8a be bb e9 45 bf 47 58 07 be
       -0.5564865 -0.27072528 -0.7730977 -0.13217269
000060 1f 76 49 bf f5 ef e2 3d 45 30 07 bf 28 9f 3c bf
       -0.78695863 0.110809244 -0.5280803 -0.73680353
000070 50 37 66 3d a3 3b ba be c4 77 8f be e5 de 95 3f
       0.056205094 -0.36373624 -0.2802106 1.1708647
000080 33 62 d9 3b f9 f8 5b be 03 cf 7d 3b 0d 11 3d 3f
       0.0066340207 -0.21481694 0.0038728125 0.7385414
000090 30 af a7 3f 75 be 07 bf 02 13 02 bf 25 2b 08 3f
       1.3100338 -0.5302499 -0.50810254 0.53190833
0000a0 d3 0d 42 3f bb f7 6c bf
       0.75802344 -0.92565507

weight f4 [10, 42]
000000 e1 bd 21 3f c5 32 b0 be 17 2c 90 be 62 70 09 bf
       0.6318036 -0.34413734 -0.28158638 -0.5368711
000010 3e 31 0b bf be 11 00 bf 63 d2 eb be 5e bf bd bf
       -0.5437201 -0.5002707 -0.4605895 -1.4824026
000020 dc 5a f4 bd f1 54 d6 bf 4c b0 38 bf b3 35 8c be
       -0.119313926 -1.6744672 -0.7214401 -0.2738472
000030 38 44 0c 3f a1 d9 d9 be c5 63 6d bf b7 e6 8a bf
       0.54791594 -0.4254885 -0.9273036 -1.0851659
000040 c6 a1 2a bd 5d a6 5c be a1 54 67 3e 04 3b 22 c0
       -0.041658185 -0.21547838 0.22590877 -2.534852
000050 a8 1e 5c bd cb 4e 22 bf 11 82 4f bf 1d 6f 97 3d
       -0.053740174 -0.6340148 -0.8105784 0.0739424
000060 e3 39 e9 be a8 da b8 be d5 5e b7 bd 1f 44 81 be
       -0.45551977 -0.3610432 -0.08953635 -0.25247285
000070 c4 91 cf be f7 62 99 3c b7 01 9f bf 37 76 1b bf
       -0.40540898 0.018723948 -1.2422398 -0.60727257
000080 e7 6b f7 be 14 16 78 bf bd 52 ed be bc 93 f0 3e
       -0.4832451 -0.9690869 -0.46352187 0.46987712
000090 e0 f1 66 bf 7f 5f 0a 3f 0f a8 03 be 17 20 4c bf
       -0.9021282 0.54051965 -0.12857078 -0.79736465
0000a0 2c 4e f9 be 1b 7a 2e bf fe ab 48 be e9 cb 18 bf
       -0.48692453 -0.6815507 -0.1959686 -0.5968614
0000b0 f1 0a bb bd 79 5f 29 bf a9 58 fa be 95 fa 12 be
       -0.09132946 -0.66161305 -0.48895767 -0.14353402
0000c0 29 11 86 bf 15 57 17 bf 82 99 f8 bd ef 04 22 3f
       -1.0473987 -0.5911725 -0.12138654 0.6328878
0000d0 78 2c 16 bf 20 87 e5 be ee 01 02 c0 a8 d9 0d be
       -0.58661604 -0.44829655 -2.0313678 -0.1385256
0000e0 d0 cf 47 bd 88 f1 cb be 2a 17 70 be da 7d 71 c0
       -0.04878217 -0.3983271 -0.23446336 -3.7733064
0000f0 70 40 de be 7d b3 f4 be 5f 3e de be f3 98 c0 be
       -0.43408537 -0.4779319 -0.4340696 -0.3761669
000100 0c 18 8b be 4e 8d 2d 3e f4 87 2f be 37 da 6c be
       -0.27166784 0.16948435 -0.17141706 -0.23130117
000110 f5 f0 75 be 30 00 10 be 38 42 04 3e 48 3a 23 be
       -0.24017699 -0.14062572 0.12915885 -0.15940201
000120 2b d1 10 3f a1 b4 80 3f 6b 80 03 bf 0f b7 98 bf
       0.56569165 1.0055124 -0.51367825 -1.1930865
000130 45 92 91 bf b7 33 aa bd 1f 7e 31 3f 8e ce 73 bf
       -1.1372763 -0.08310645 0.6933307 -0.9523705
000140 43 9b 6b bf 79 54 05 bc 1f 03 96 3e 5d 8d d9 bd
       -0.92033786 -0.008137816 0.29299256 -0.10622666
000150 ac bc 0e bf 78 65 26 bf 40 76 3c be 23 a9 2e bf
       -0.5575664 -0.6499858 -0.18404484 -0.6822683
000160 11 1b b9 bd 9e 26 8a be c6 fe 2c bf 82 ba 90 be
       -0.09038366 -0.26982588 -0.67576253 -0.28267294
000170 78 41 fa 3e 16 7b ea bd 77 87 46 3c 6e 92 8c 3e
       0.48878074 -0.11449258 0.012117258 0.27455467
000180 1d 5d 7b be bf 41 e1 3d ee 09 0a bf c3 cc 33 c0
       -0.24547239 0.10998868 -0.539214 -2.8093727
000190 cf 09 15 be a9 e8 e7 bd 62 15 74 bf e8 05 6c bf
       -0.14554523 -0.11323673 -0.9534513 -0.9219651
0001a0 e6 a5 fe 3e 29 6b 0c bf 8f 56 05 be f2 13 c0 3e
       0.49735945 -0.54851013 -0.130213 0.37515217
0001b0 0a c5 2d 3e 3f d7 c2 be 9a 50 21 3f ea 4d 27 be
       0.16969696 -0.38054845 0.63013613 -0.16338316
0001c0 01 7b 30 bf 4e 05 1c 3f 99 e8 f5 be b4 08 14 bf
       -0.6893769 0.60945594 -0.4802902 -0.5782578
0001d0 5d 46 98 be 61 c7 50 be fd 66 00 bf b0 09 1d bf
       -0.29741183 -0.20388557 -0.5015715 -0.61342907
0001e0 bc 10 09 bf 67 7f 10 bf e1 96 1b be 4d c6 51 3e
       -0.5354116 -0.564444 -0.15194274 0.20485802
0001f0 18 de 30 bf 69 68 8d be 91 21 10 bf 90 bd 37 be
       -0.6908889 -0.2761872 -0.5630122 -0.17943406
000200 e0 b8 a1 bf e3 16 7d be 96 58 80 be 9f 3d 99 be
       -1.2634544 -0.24715762 -0.25067586 -0.29929826
000210 21 59 33 3e 91 0b 08 3f ac c6 12 bf 11 79 b4 be
       0.17514469 0.5314265 -0.573344 -0.35248616
000220 ed 3c 43 be c9 96 1b bf 9a 63 d4 be 6b 29 b4 be
       -0.1906621 -0.60776955 -0.4148224 -0.3518785
000230 cf 4f 46 be 32 f7 50 be 95 f2 97 be d7 e8 03 bf
       -0.19366382 -0.20406798 -0.29677263 -0.5152716
000240 60 d5 a5 bf 8f 53 ae bf 0d ce ed be ac ed 4b be
       -1.2955742 -1.361925 -0.46446267 -0.19914883
000250 64 3a e1 3e 80 ff b2 be e2 22 c5 3e 63 c0 d1 bf
       0.4398986 -0.34960556 0.38503176 -1.6386837
000260 53 a4 99 be 99 bc ae be e9 ac 89 be 1a 87 0c bf
       -0.30008182 -0.34128264 -0.26889732 -0.5489365
000270 56 0b 20 bf 7d 99 63 bf f6 b0 c6 be 7e 16 11 bf
       -0.625173 -0.8890608 -0.38806885 -0.56674945
000280 e0 11 86 bf f8 34 96 bf ee 08 26 c0 07 e8 4c bc
       -1.0474205 -1.1734915 -2.594295 -0.0125064915
000290 5d 65 c3 be 6f 82 3f bf 41 fc 8f be 26 63 83 be
       -0.38163272 -0.748084 -0.28122142 -0.25661582
0002a0 a0 1c 8b bf 58 7e 0e bf 32 62 0f 3f 3a da 3f be
       -1.0868111 -0.55661535 0.5600921 -0.1873559
0002b0 a9 29 0e bf 8a 38 45 3f b2 21 88 bf fc 1a c2 bf
       -0.5553232 0.77039397 -1.0635283 -1.5164485
0002c0 f6 02 a0 be 53 bc fa be cd 4a da be c8 47 ca be
       -0.3125226 -0.48971805 -0.42635193 -0.3950789
0002d0 fd 02 7a be 6f 55 5f be 21 8b 0d be 96 8d d5 be
       -0.24415202 -0.21809934 -0.13822605 -0.41709584
0002e0 8b 6d 87 be 21 ba 46 be 97 e5 39 3d c2 fd cb 3e
       -0.26450762 -0.1940694 0.04538497 0.3984204
0002f0 c4 a3 61 3e 66 26 05 bf d8 57 da be 4e 68 2d bf
       0.22035128 -0.52011716 -0.42645144 -0.6773728
000300 e6 95 85 bf eb 27 e4 be 47 2b 4c be 1d 28 a4 be
       -1.043637 -0.44561705 -0.19938384 -0.32061854
000310 28 86 5f bd d1 3a 3b be ed dd 03 bf 33 2b 9c be
       -0.0545713 -0.18284155 -0.51510507 -0.30501708
000320 f4 b9 0b bb f0 98 5e be 9a a0 05 bf 1c ad 86 bf
       -0.0021320553 -0.21738029 -0.52198184 -1.0521579
000330 ac 8b 3b bf 36 19 13 bf dd 3e 4d bf 32 54 e4 be
       -0.7326 -0.57460344 -0.80174047 -0.44595486
000340 16 7c f1 be b4 d5 82 3c b6 51 51 3d d8 ad 0c 3f
       -0.47164983 0.015971042 0.051103316 0.54952765
000350 0c 5c 19 3e 62 04 38 be 2f 93 33 bf 82 a0 2d bf
       0.1497652 -0.17970422 -0.7014646 -0.6782304
000360 5d 61 98 3e 35 e9 96 bc 26 f5 f5 be e7 47 61 bf
       0.29761782 -0.018421749 -0.48038596 -0.8800034
000370 3f de 33 bc 83 57 6d bf e1 37 96 be 13 01 88 bf
       -0.010978281 -0.9271166 -0.29339507 -1.0625328
000380 13 67 11 bf b8 8a 36 3f 06 c0 0d bf 0d f5 d0 3e
       -0.56797904 0.7130542 -0.5537113 0.4081196
000390 47 27 39 bf 59 e6 20 bf 01 de 6e be c5 e3 81 3d
       -0.7232556 -0.6285148 -0.23326875 0.06342272
0003a0 7d dc b2 bd 20 76 df 3b 33 70 69 be d0 7b 3c bf
       -0.08733461 0.0068195015 -0.22796707 -0.7362642
0003b0 19 3b 48 bf 24 8b 99 be e1 31 62 3e 4f c4 b6 be
       -0.78215176 -0.29988968 0.2208934 -0.35696647
0003c0 b7 e6 fc be 6d 92 38 bf f2 4a 24 bf b8 a2 49 3f
       -0.4939477 -0.7209843 -0.6417686 0.78763914
0003d0 49 26 25 3e 1f f7 d8 be 2f df 8f be f9 16 cf be
       0.16127886 -0.42376038 -0.28099963 -0.40447214
0003e0 44 4f 8a 3e b4 5e bc be e8 78 57 be 32 04 f4 be
       0.270136 -0.36791003 -0.21042216 -0.4765945
0003f0 d3 5c de bd d1 1f 80 bd 74 66 ab be ea e2 48 bf
       -0.108575486 -0.062560685 -0.33476603 -0.78471243

bias f4 [10]
000000 6e 0b e6 be ef b2 c0 be b1 51 25 bf 4c 5e 25 3d
       -0.44930595 -0.37636515 -0.64577776 0.04037313
000010 c9 67 9d be 79 8e 8c bf 24 63 84 bf 22 8d d8 bd
       -0.30743244 -1.0980979 -1.0342755 -0.10573794
000020 20 43 d0 3f b4 63 ca 3e
       1.6270485 0.39529192
