checkpoints/YourNet/pruning/10/epoch-12.pth (torch, 22991 bytes, 8 tensors)

weight f4 [3, 1, 3, 3]
00000000: ab05 073f c1f2 493e ccde 3bbe 244f fb3d
00000010: 44e0 3cbe c8e0 02bf 7718 d7be 7553 1cbf
00000020: 7792 af3c 18c9 1f3e 86c9 5d3d 9053 cfbe
00000030: 91e4 983e 3cf2 0ebd 8652 17be ba14 563e
00000040: e1c8 603e eefe a43d 9a01 f33d 96f5 c43d
00000050: 2649 b63e 4f08 6bbe 29ad 033e d080 eb3d
00000060: 9496 1fbf 4d11 25bf 6db9 aebe
0.52743024 0.1972151 -0.18346709 0.12270954 -0.18444926 -0.5112424 -0.42010853 -0.61064845
0.021432145 0.15604055 0.054147266 -0.4049344 0.29861882 -0.03489898 -0.14777574 0.20906344
0.21951629 0.080564365 0.1186554 0.09617154 0.35602683 -0.22952388 0.12859024 0.114991784
-0.6233914 -0.64479524 -0.34125844

bias f4 [3]
00000000: ccdd 0cbf d648 bbbd b2b2 c2be
-0.55025935 -0.09144752 -0.3802696

weight f4 [4, 3, 3, 3]
00000000: fc8d 8dbe ca67 a1be 7e01 b9be 70d4 c33e
00000010: 5c35 19be aef2 bebd 1af2 dcbe 3cbf 9ebd
00000020: cfe0 ed3e 8954 1dbe c12b f3bd 9d3b ae3e
00000030: 93e1 35bf 4494 55be be26 7d3e 6a47 80bf
00000040: b3fe ecbd 51f8 0f3f e403 9e3e 6f39 5f3e
00000050: b21f 3dbf 95c1 e03e afd0 0bbf 7d57 3abf
00000060: 17ef edbe 18f1 6fbd ba41 23bf 3e1b 41bd
00000070: 301f ec3d fe5b 34be 2a80 25bf d665 5d3d
00000080: ea99 7e3c fa4a 88be 1960 d63c 3d6c 303f
00000090: 75e5 693c 4478 02bd 1928 a33d 2ba7 023f
000000a0: dcb2 1cbc e3fe 30bd caec 93be 9bc6 a6be
000000b0: 006e 7cbe 35f9 c6be 6f81 98bc 62d2 e2be
000000c0: 243b 5bbd 46b9 1c3c 672f 533e 1ec2 b03e
000000d0: 5d6f f93e 79be 253e c485 8fbe 117c 4b3f
000000e0: d935 003f 16f7 63bf c8f5 28bf 4458 b23e
000000f0: 41ee 36bd a8c1 1fbf 920a 72be 00e4 043e
00000100: 86d2 303d 2b87 fabe f37c 143e cee4 0b3f
00000110: f204 9abe 01bc debe dc1c 473e 151c cd3e
00000120: aaf5 40bf 5810 b3be 3fcb 123e 01bb 1f3e
00000130: 56c5 1dbf 9d90 4b3b bf8d a23e ac82 973d
00000140: c9dd 25be 2420 22bf a5e1 b8bd ddc1 b2bb
00000150: 9a03 3dbf 2fec 29c0 c713 82bf 5070 b4bd
00000160: 941e afbe 10b4 1fbf 7fda 65bf 5988 34c0
00000170: afeb 0dbf c6d5 6e3e d1a0 0ebc 1073 40bf
00000180: abe2 153f ef38 243f 7667 9b3c 34c0 8dbd
00000190: e641 d3bc 2de9 7a3e 82d8 54bf bcc0 a73d
000001a0: f701 843f be86 213d bf95 25bd 2d5d 2fbf
-0.27647388 -0.31524497 -0.3613395 0.38248014 -0.14961761 -0.09323631 -0.4315346 -0.07751319
0.46460578 -0.15364279 -0.1187358 0.34029856 -0.71047324 -0.2085734 0.2472181 -1.0021794
-0.115720175 0.56238276 0.30862343 0.21799253 -0.7387649 0.4389769 -0.546153 -0.72789747
-0.46471474 -0.058579534 -0.63772166 -0.04714512 0.11529386 -0.17613217 -0.6464869 0.054052196
0.015539626 -0.26619703 0.02616887 0.6891516 0.014275898 -0.031852975 0.079666324 0.5103633
-0.009564128 -0.04321183 -0.28891593 -0.325734 -0.24651337 -0.38862005 -0.018616406 -0.44301134
-0.053523198 0.009565657 0.20623551 0.345231 0.48717776 0.16185941 -0.28031743 0.79486185
0.50082165 -0.890489 -0.6600003 0.34832966 -0.04466081 -0.6240487 -0.23636845 0.129776
0.04316952 -0.4893125 0.1450079 0.54646003 -0.30081898 -0.4350281 0.19444603 0.40060487
-0.75374854 -0.34973407 0.14335345 0.1559868 -0.61629236 0.0031061538 0.3174877 0.073979706
-0.16197886 -0.6333029 -0.09027413 -0.005455239 -0.7383362 -2.6550405 -1.0162286 -0.088104844
-0.34203017 -0.6238413 -0.89786524 -2.820822 -0.5543775 0.23323736 -0.008705334 -0.7517557
0.5854899 0.64149374 0.018970232 -0.069214255 -0.025788259 0.24503012 -0.83142865 0.08191058
1.03131 0.03943514 -0.040426012 -0.6850155

bias f4 [4]
00000000: 1707 9dbe 397f b2be db70 4dbf 4b5a e3bb
-0.30669472 -0.34862688 -0.8025033 -0.006938254

weight f4 [42, 100]
00000000: d4f9 63bf 3127 da3e 5e80 c63e d363 fb3e
00000010: 318a d6bf 3f44 bfbf 2317 653e b484 f63e
00000020: 33b5 0b3f 2e3a 583d cb20 61be 90c1 9ebf
00000030: 86ab 593e fb81 43be 5ca7 423e fe2f e2be
00000040: 4fb8 f2be 00f9 bc3e 45ed 133e d27a 833f
00000050: fcb6 96bf 149a aebe c1ca 813f bafb 8a3f
00000060: 63f7 32bf 0de7 e1bf 577c 96bf 48bb 6ebe
00000070: 941e 863f d8c0 0dbf 41f3 20c0 7ab7 61bf
00000080: 1692 ec3d e09d 40bf fd3a 093e e7b1 c1bf
00000090: daee 28c0 1194 36bf 7496 80bf bcb9 053f
000000a0: 666b 8bbe 3602 28bf bb83 0dbf 14f6 76bf
000000b0: ca4b 09bf 5734 4cbf cde9 0c3f c2ba 163e
000000c0: f591 34be 1a69 133e ad8a d3be a041 1f3c
000000d0: 1a52 343e a32e 35bf 6f63 c3bf 1652 03bf
000000e0: 6108 04c0 3e42 383e d891 fc3a d187 3ebe
000000f0: b2b1 ed3d 3a5a 0ebe 3d3d da3c adec dbbe
00000100: 7b43 98bf b125 6bbf 9380 213f 0265 823e
00000110: 5c01 32bd 5553 8f3e 49d8 68bf 32d1 a9be
00000120: c86e f6bd 3a6e 163f 1680 9d3f f81d a7be
00000130: 13e9 98bf 4fbf 80be 905e b33e 8c93 79bf
00000140: f784 c0bf 78eb 353e f867 263f 824c 783f
00000150: 4f6a 17bf a017 babf 9fb9 65bf 220a 26bf
00000160: b827 493e 95d1 97bf e6f0 c4bf 85a8 80be
00000170: 3e1a 72bd 5116 63bf 6d69 19bf 5090 adbd
00000180: b47f 26bf 2fbb 4a3f 3d4d 0b3f 821a 623f
00000190: 6981 b1bf 642d c5bf 33f0 debf 8915 01c0
000001a0: 9ea9 36c0 92e6 333f eeca 18bc dbdc 0abe
000001b0: 596f 93bd f788 85be 41aa f43e fe71 883e
000001c0: eb70 31bf d091 20be c0ba 8c3e dc70 d8be
000001d0: cf0d 6dbf 1b22 9c3e 467b d53e 26d1 c3bd
000001e0: f4fb 15bf 0f48 b53e 077c f93d 92ba 4c3f
000001f0: 3979 0d3f af5b 39bf 05ba 1c3f c847 9a3c
00000200: daef c53d 96fa a3be fe05 5ebf 1854 fcbd
00000210: b2b1 ee3d fe82 c33d a9ed 7bbf 3fb0 33bc
00000220: 8284 7dbe e3ad 573f 0e49 59bd 0a88 3ebf
00000230: b715 25be 5238 0c3f 2085 693f dbe5 7cbe
00000240: 4951 22bf d1f9 59be 5d8b 153e f8c7 3dbe
00000250: d6c1 43bf 4c32 c6be 241c 29c0 d0fb f8bf
00000260: 7021 153f 1467 ff3e b74f 1d3f 85f6 00bf
00000270: bd5b f33e be63 e33e 248f 9c3e 121f e03e
00000280: e6d9 4d3f 58e1 603f 080c 7e3e 185c 7f3e
00000290: 894c 3dbf 7f03 3d3f 1e5c 583e 83df 053e
000002a0: 2730 9dbf 92a2 6dbe b87a a2be 8b4a a3bf
000002b0: d32c 5dbf 0f77 20bf be81 663f 964a b7bf
000002c0: 6d47 2dbf d7de 5f3e a67c 073f 15b8 d43e
000002d0: cb7c 73bf 480e ccbf 3827 47bf c434 113f
000002e0: 64bc 3d3f d641 50bf a642 debe feea c43c
000002f0: 8e4e 14bf 2855 c5be ccef b93e b0bf a83e
00000300: 4cd8 58bf 8729 72bf 7b7e a6bf b3bc 5b3d
00000310: f188 203f d5ba af3d 8760 883f b6ff aa3e
00000320: 0219 a63e 382b faba cf4c b4bf bddf 1cc0
00000330: 477b b7be 1345 d43e 73eb 213f 2579 08bf
00000340: 8a91 463f a3b1 0e3e ef8f fa3d 1cf0 253f
00000350: 4be4 9abe 6271 fc3e e90f 74bd 7708 1fbf
00000360: 7689 a4bd 11a6 b9be 5738 6cbe 2884 88bf
00000370: b5a3 3abf 312f 143c 72d2 cf3e adf0 093d
00000380: 891e 46bf 52a6 633f fd4d 85bb 4332 8d3e
00000390: 3481 833d 7710 2d3e d5f2 313f 6289 4a3e
000003a0: 6ee4 3d3e 7c9c 333d c310 d1bd f0fc cc3e
000003b0: 1062 db3e ef0c 0ec0 f915 07bf 861b ea3e
000003c0: 7ec1 073e 8744 8ebe e183 57bf 52f5 80be
000003d0: c87a 2d3f b11f d3be 523b d1bd 9201 92be
000003e0: 4840 91bf 847e 6cbf 1164 af3e 3282 573f
000003f0: 2f56 54be cb29 bb3d e41f 343b 79d8 593f
-0.8905308 0.42608026 0.3876981 0.49099597 -1.6760923 -1.4942702 0.22372107 0.4814812
0.54573363 0.05278986 -0.21985166 -1.240282 0.21256837 -0.19092552 0.19009155 -0.4417724
-0.4740624 0.36908722 0.1444598 1.0271857 -1.1774592 -0.34101927 1.014 1.0858071
-0.6990873 -1.7648636 -1.1756696 -0.2331363 1.0478082 -0.5537238 -2.514847 -0.8817059
0.11551301 -0.752409 0.13401408 -1.5132416 -2.6395783 -0.7131968 -1.0045915 0.52236533
-0.27230376 -0.65628374 -0.5527913 -0.96469235 -0.5363127 -0.79767364 0.5504425 0.1471968
-0.17633803 0.14395562 -0.4131674 0.009720236 0.17609444 -0.70774287 -1.526472 -0.5129713
-2.0630114 0.1799402 0.0019269539 -0.18606497 0.11606158 -0.13901606 0.026640529 -0.42954007
-1.1895593 -0.9185439 0.63086814 0.25467688 -0.043458328 0.27993265 -0.90955025 -0.33167416
-0.120328486 0.5876194 1.2304714 -0.32640052 -1.1946129 -0.25145957 0.35033083 -0.97490764
-1.5040578 0.17765605 0.65002394 0.9699174 -0.5914659 -1.453846 -0.8973636 -0.6485921
0.19644058 -1.1860834 -1.5386016 -0.2512857 -0.059107058 -0.8870593 -0.5992649 -0.08474791
-0.6503861 0.7919187 0.5441473 0.883217 -1.3867618 -1.5404477 -1.7417053 -2.0169394
-2.8541026 0.702737 -0.009325726 -0.13560812 -0.07198972 -0.26081058 0.47786143 0.2664947
-0.69312924 -0.15680623 0.2748623 -0.42273605 -0.92599195 0.3049477 0.41695613 -0.09561376
-0.58587575 0.3540654 0.121818595 0.79972184 0.55263096 -0.72405523 0.61221343 0.018833056
0.09664889 -0.3202712 -0.86727893 -0.12320727 0.116549864 0.09546469 -0.98409516 -0.010967313
-0.24757579 0.84249705 -0.053048186 -0.7442633 -0.16121565 0.5477344 0.9121876 -0.24697058
-0.6340528 -0.21286704 0.14603944 -0.18533313 -0.76467645 -0.38710248 -2.6423426 -1.9451847
0.58254147 0.4988333 0.6144976 -0.5037616 0.47530928 0.44412035 0.30577958 0.43773705
0.8041061 0.8784385 0.24809277 0.24937475 -0.7394491 0.7383346 0.2112889 0.13073544
-1.228032 -0.23206547 -0.31734252 -1.2757124 -0.8639652 -0.6268167 0.9004172 -1.4319637
-0.6768711 0.2186235 0.52924573 0.41546693 -0.95112294 -1.5941858 -0.7779422 0.5672114
0.74115586 -0.8135046 -0.43410224 0.024037834 -0.57932365 -0.38541532 0.36315763 0.32958746
-0.8470504 -0.94594616 -1.3007349 0.053646754 0.62708956 0.08580557 1.0654458 0.33398217
0.32440954 -0.0019086367 -1.408594 -2.451156 -0.3583624 0.4145895 0.6324989 -0.5330985
0.77565825 0.1393495 0.122344844 0.648195 -0.302523 0.49305254 -0.059585486 -0.6212229
-0.08034031 -0.3625951 -0.23068367 -1.0665331 -0.7290605 0.009044454 0.40590245 0.033676792
-0.7739034 0.8892566 -0.004068135 0.2757741 0.06421128 0.16900812 0.6951116 0.1977897
0.1854417 0.043850407 -0.10208275 0.40036726 0.42848253 -2.2195394 -0.527679 0.45724124
0.13257405 -0.27786657 -0.84185606 -0.25187165 0.67765474 -0.41235116 -0.102163926 -0.28516823
-1.1347742 -0.9238055 0.34256032 0.8418304 -0.20736001 0.09138831 0.0027484829 0.85095936

bias f4 [42]
00000000: fac4 813e b80f e5be f1c5 483e 360e 7f3e
00000010: afd4 2cbf e1a7 c9bc 4ea4 abbe 5f8b 88be
00000020: e63c 0bbf 1b9b 893f ab24 d63e 7145 ffbc
00000030: 34de 69bf 0755 aebd a452 803b eec5 573f
00000040: f593 1a3e 5f84 4cbf 2bbf 17bf 857d 36bf
00000050: 7507 173e baa5 84bf bbef 41bf 58bd d9be
00000060: 4bd0 0f3f 0928 893e 3f3f 23bf 8708 96bf
00000070: be2b b93e 076a 9b3e 97c5 cebe 015c bc3f
00000080: 26fc b43c 3ac8 9a3f 80f7 6dbf bff6 85bf
00000090: 1c2f 5a3e e597 fcbd 49bf 213e ed80 56be
000000a0: d3f5 0dbf ac90 12bf
0.25345594 -0.44738555 0.19606759 0.24907765 -0.6751203 -0.024616184 -0.33523792 -0.26668832
-0.543898 1.075046 0.4182485 -0.031161042 -0.9135468 -0.085123114 0.0039161015 0.8428639
0.15095504 -0.7988948 -0.59276074 -0.7128528 0.14748938 -1.0363076 -0.75756425 -0.4252727
0.56177205 0.26788357 -0.6376838 -1.1721352 0.36166185 0.3035433 -0.40385124 1.4715577
0.02209289 1.2092354 -0.9295578 -1.0465926 0.21307033 -0.12333659 0.15795626 -0.20947619
-0.55453223 -0.57252

weight f4 [10, 42]
00000000: b5b2 efbe b4ea 92be f82a 14bf 7491 b3be
00000010: 4e36 4dbe 7c62 36bf 045a f03e e68e bebe
00000020: ae08 67be 5aec 8cbe 5604 c3bf 7563 9f3d
00000030: c467 83bf 2ff8 61bf 1aa7 b13e df72 f0bd
00000040: 743e 3f3d ee45 b3be d3b2 d33d 0162 d13e
00000050: f082 5cbf 732b 93be fc59 3ebf 7201 91be
00000060: fbb4 3e3e 0555 023f 2698 b7bd d325 76bf
00000070: fed9 8cbf fd7a 7ebd a53f dbbf a295 5abf
00000080: 890a 36bf 0465 16bf 3104 44bf 1001 0fbf
00000090: ed82 82be fba5 d2bf 0f55 adbe a033 81bf
000000a0: def1 f9be 948c 38be fe52 093f f167 91bf
000000b0: 7fe4 3ebf c8f5 fcbe 62d2 d03d cfdb edbe
000000c0: e4e8 f4be eb64 743d 9ba2 f1bf 1b6a ab3e
000000d0: 8dc6 87bd 6f94 c1bf da59 c8be 432e 4dbe
000000e0: 23ce 5b3e 2da7 dd3d ac80 293e ee82 19bf
000000f0: 99c4 b1bf 1603 dbbf 527d a9be 759f 0cbf
00000100: fd73 1ebd 93ec bcbe dd64 f8be 909b 1dbd
00000110: cbfa b5be fd6f 9ebd 0bcb f23e 93bc 47bf
00000120: 4127 1d3f 15b4 433f c687 1bbd 2aae fa3e
00000130: b55d 12bf 6098 e9be f43b a0be 21ca 29bf
00000140: aa7a c1bd a1e1 72bf 85c0 77be 3e8c ddbe
00000150: 8ca4 7fbd ff0f 15bf d5b4 e93d 7501 28be
00000160: 4cf4 103f 307a c7be 7ee6 903c 0d3c 21be
00000170: b350 24bf 9b89 75bf 95e8 fabe b632 a1be
00000180: 986a 9cbc 7cbb 40be da95 153f fc91 05bf
00000190: a615 e23e d31f bcbe e893 24bf 27a5 aabe
000001a0: ac1e b33d 87bf bfbf f9ec b83d 5e6f 1a3f
000001b0: e055 8bbf 18cb ecbe 2aa5 313f 9db5 a3be
000001c0: 08d8 353d 78a0 37bf 93e1 b5be 8e68 54be
000001d0: a313 9cbe 1f72 66bd 714b 8cbc 4853 f8be
000001e0: 4667 49be de7d 8dbf 7727 04bf 9987 0e3e
000001f0: 375f 9fbd 5324 013f 206a 46be e9ce e3be
00000200: 320f afbe e9ab 01bf dadf 85bd d455 0b3e
00000210: 4536 14bf 4345 a2bf 2802 1bbe 3727 17bf
00000220: f23c 3fbf ccab 92be 8191 d03e fd0d 14be
00000230: 09e6 9cbe e4bd c7be f90c 80be da2b d5be
00000240: b5d4 87be 08a5 6ebd 9a45 9bbe 950d 15be
00000250: ccd5 dfbe 60dd 7bbe ef89 7ebf 229a 96bf
00000260: 3b8b 23be 6760 f63e 751c d0be 41a5 85bf
00000270: 0fd4 4ebf b567 73bf 5dc5 e8be 83c7 01bf
00000280: ac55 ef3e 49b0 c4bc 0d4b 95be 3594 cabe
00000290: 6978 9ebf dd8b 02bf 0ff4 cb3e 591d b4be
000002a0: c343 a3be 2c3e 16be 5b57 febe 5570 3f3f
000002b0: c495 9bbe 3317 cebe 4ad9 10bf 9332 083f
000002c0: 659d a6be 4705 c3be cfea 553e 8a2e 1fbf
000002d0: cb7a 61be 8f31 80be 6b69 a0bf 4314 c1be
000002e0: c4ea e7be 2c6e b23d 5b06 06bf 6b48 1abf
000002f0: e8c6 36bf 49e0 edbe 3a09 74be 8b5e 843c
00000300: d4fa 423e f348 f2be 012b cbbe c021 33bf
00000310: a319 29be affc 24bf 5e55 3bbf 31a1 96be
00000320: 5e84 58be 1d71 1fbf 7614 00bf 771a c6be
00000330: c934 5cbe 9663 853c e600 95be 7581 8fbf
00000340: e64a 9abf 9392 13be f97e b7be 89f0 82be
00000350: a6ef 0abf 8985 b4be 33f6 5cbf a6e1 57be
00000360: 8050 eabe 5b2a c2be 6946 fd3e 6dbf 9fbe
00000370: c469 43bf 7fdb a03c 424f cbbe bc14 c7be
00000380: b265 fcbd 2b58 743e 4939 88bf 22a1 12bd
00000390: 729d fc3e 3310 4cbe 694d 063d c60b 143f
000003a0: fb71 7ebf 3e68 4bbf 15bd 1abf 8a4a 0abf
000003b0: 061d 8cbf 81c9 a7bc 5450 91bf 652c c1be
000003c0: 86cc 3cbe c016 4fbf 22a1 16be ba8a b7be
000003d0: a113 603d bc42 ef3e 97f2 ddbc 9d55 26bf
000003e0: d230 57be 1d68 163f e371 ab3b db47 75be
000003f0: da44 33bf 8357 89bf a266 ffbe f0cc 2abe
-0.4681603 -0.2869469 -0.57878065 -0.3507191 -0.20040247 -0.71244025 0.46943676 -0.37218398
-0.22561905 -0.27524072 -1.5235698 0.07782642 -1.0266042 -0.88269323 0.346978 -0.1174066
0.04669042 -0.3501429 0.103368424 0.40895084 -0.86137295 -0.28744087 -0.74356055 -0.28321415
0.18623726 0.5091098 -0.08964567 -0.96151465 -1.1004026 -0.06212901 -1.7128798 -0.8538457
-0.71109825 -0.5874789 -0.76568896 -0.55860996 -0.25490513 -1.6456903 -0.33853957 -1.009388
-0.48817343 -0.18022376 0.5364226 -1.1359845 -0.7456741 -0.49406266 0.10196377 -0.46456763
-0.4783393 0.059666555 -1.8877748 0.3347939 -0.066296674 -1.5123423 -0.3913105 -0.20037179
0.21465354 0.10822902 0.1655299 -0.5996541 -1.3888122 -1.7110317 -0.33103424 -0.5493081
-0.038684834 -0.36899242 -0.48514453 -0.038478434 -0.35542902 -0.07736204 0.47420534 -0.78022116
0.6138802 0.7644666 -0.03797128 0.48961002 -0.57174236 -0.45624065 -0.3129574 -0.6632405
-0.094472244 -0.9487553 -0.24194534 -0.4327106 -0.062412784 -0.58227533 0.11411444 -0.16406806
0.5662277 -0.3896041 0.017688032 -0.15745564 -0.6418564 -0.95913094 -0.4900557 -0.31484002
-0.019093797 -0.1882152 0.5843178 -0.5217588 0.4415714 -0.3674303 -0.6428819 -0.33329126
0.087460846 -1.4980325 0.09029574 0.6032618 -1.0885582 -0.46248698 0.69392645 -0.31974497
0.044395477 -0.7172923 -0.35523662 -0.2074301 -0.30483732 -0.056261178 -0.017125817 -0.4850104
-0.19668302 -1.1054037 -0.5162272 0.13918914 -0.07781833 0.5044605 -0.19376421 -0.44493797
-0.3419128 -0.5065294 -0.06536837 0.1360696 -0.5789531 -1.2677387 -0.15137541 -0.5904421
-0.7470237 -0.28646696 0.4073601 -0.14458461 -0.30644253 -0.39012063 -0.25009897 -0.4163502
-0.2652947 -0.058262855 -0.3032654 -0.14555962 -0.43717802 -0.24596167 -0.9942922 -1.1765788
-0.15971081 0.48120424 -0.4064671 -1.0441056 -0.80792326 -0.9508012 -0.45463076 -0.50695056
0.4674505 -0.02400984 -0.29158822 -0.39566198 -1.2380496 -0.50994664 0.3983464 -0.3517864
-0.31887636 -0.14672154 -0.49676022 0.7478078 -0.303877 -0.40252075 -0.56581557 0.5320217
-0.32541957 -0.38089964 0.20890354 -0.6218039 -0.22019498 -0.2503781 -1.2532171 -0.3771077
-0.452963 0.0871242 -0.5235345 -0.6026675 -0.71397257 -0.46460178 -0.23831645 0.016158363
0.19040996 -0.4732128 -0.39681247 -0.69973373 -0.16513686 -0.64448065 -0.73177135 -0.29419854
-0.21144244 -0.6228197 -0.5003122 -0.38692066 -0.21504511 0.016282838 -0.29102248 -1.1211382
-1.2054107 -0.14411382 -0.3583906 -0.2557414 -0.54271924 -0.3525813 -0.8631317 -0.21082172
-0.45764542 -0.3792294 0.4946778 -0.31200734 -0.7633326 0.019635914 -0.39708906 -0.38883007
-0.12324084 0.23861758 -1.0642482 -0.0357982 0.4933887 -0.19928055 0.032788668 0.57830465
-0.9939267 -0.79455936 -0.60444766 -0.5401999 -1.0946357 -0.020481827 -1.1352639 -0.37729183
-0.18437394 -0.8089409 -0.14709905 -0.35848027 0.05470622 0.46730602 -0.027093215 -0.64974385
-0.21014717 0.58752614 0.005232082 -0.23953192 -0.70026934 -1.0729831 -0.4988299 -0.1667974

bias f4 [10]
00000000: be0d 83be b24c 223e c497 31be f377 723e
00000010: b28c b4be 66b7 02bf 69ed 4bbf 754d 27be
00000020: 490b ab3f efb7 15be
-0.25596422 0.1584957 -0.1734305 0.2367857 -0.35263592 -0.51061094 -0.79659134 -0.16338141
1.3362819 -0.14620946
