checkpoints/YourNet/pruning/10/epoch-1.pth (torch, 22863 bytes, 8 tensors)

weight f4 [3, 1, 3, 3]
0.4778514 0.18727711 -0.15663844 0.06957134 0.03432019 -0.6047037 -0.3927469 -0.6537466
-0.06743205 0.0793325 0.07542412 -0.3885764 0.36481643 -0.07156049 -0.24236472 0.21859479
0.1672908 0.08707435 0.12675041 0.15956973 0.38134715 -0.2910941 0.120884545 0.11076928
-0.7049687 -0.49166068 -0.3981959
00000000: f0a8 f43e 92c5 3f3e d465 20be 6b7b 8e3d
00000010: 5493 0c3d ddcd 1abf 1f16 c9be f05b 27bf
00000020: d119 8abd 1479 a23d f677 9a3d 7cf3 c6be
00000030: 38c9 ba3e 4e8e 92bd 752e 78be 50d7 5f3e
00000040: 484e 2b3e 0954 b23d dcca 013e 3f66 233e
00000050: ef3f c33e 490a 95be 5192 f73d 01db e23d
00000060: d478 34bf f3ba fbbe 55e0 cbbe

bias f4 [3]
-0.5106863 -0.03279799 -0.43892807
00000000: 56bc 02bf 2f57 06bd 2ebb e0be

weight f4 [4, 3, 3, 3]
-0.19320658 -0.23496385 -0.1857277 0.3119003 -0.19691195 -0.18435426 -0.16062804 -0.09447343
0.33375123 -0.036285654 -0.052022856 0.4626903 -0.582523 -0.19265035 0.35050666 -0.96002924
-0.22201163 0.5847584 0.27170384 0.3079304 -0.7912821 0.5034061 -0.4744116 -0.6316229
-0.3709444 -0.08769326 -0.37880248 0.13043334 0.18472332 -0.1305095 -0.66624767 -0.0048286887
0.009739305 -0.2614436 0.02063763 0.7329582 -0.0022542882 0.050519295 0.087928556 0.4980287
-0.061199185 -0.071597286 -0.2894598 -0.36762628 -0.18432829 -0.4473571 -0.15482406 -0.17436016
-0.11307473 -0.08764054 0.18098144 0.22186027 0.60380566 0.37140548 -0.06361615 0.8231878
0.5571252 -0.7813949 -0.59329134 0.30782756 -0.08035317 -0.5047318 -0.32748377 0.12359881
-0.04644958 -0.583606 0.24383968 0.4186127 0.02736068 -0.26654303 0.20123234 0.29664034
-0.7625634 -0.4803833 0.14797108 0.23855816 -0.14479673 0.089796856 0.2389057 0.2766409
-0.06423356 -0.9718169 -0.15439239 0.2812812 -0.65154624 -2.188913 -0.87662745 0.07686049
-0.23138629 -0.51657754 -1.1120778 -2.6732526 -0.5441148 0.13326563 0.09328787 -0.34908172
0.62386495 0.543793 -0.006777556 -0.0072394037 -0.100601725 0.39999062 -1.0825976 0.14304811
1.0101018 0.28618392 0.18331628 -0.79339385
00000000: f2d7 45be 5d9a 70be 672f 3ebe 65b1 9f3e
00000010: 49a3 49be 5dc7 3cbe ad7b 24be 497b c1bd
00000020: 71e1 aa3e 44a0 14bd eb15 55bd bee5 ec3e
00000030: 3a20 15bf 2246 45be 9c75 b33e 7ac4 75bf
00000040: 0457 63be bab2 153f c41c 8b3e 0ea9 9d3e
00000050: 7791 4abf 39df 003f 14e6 f2be 0ab2 21bf
00000060: 6dec bdbe 8698 b3bd 66f2 c1be 5190 053e
00000070: 1c28 3d3e 48a4 05be 358f 2abf fa39 9ebb
00000080: 9b91 1f3c efdb 85be 3f10 a93c 26a3 3b3f
00000090: aebc 13bb 52ed 4e3d e313 b43d 9efd fe3e
000000a0: ffab 7abd 99a1 92bd 1334 94be 8339 bcbe
000000b0: 8ec0 3cbe fd0b e5be 338a 1ebe 788b 32be
000000c0: b993 e7bd e27c b3bd 3353 393e 572f 633e
000000d0: 0293 1a3f dc28 be3e 2f49 82bd 70bc 523f
000000e0: c29f 0e3f 7f09 48bf f1e1 17bf 939b 9d3e
000000f0: 3490 a4bd 1a36 01bf f4ab a7be 5f21 fd3d
00000100: ea41 3ebd 3467 15bf 1cb1 793e 6754 d63e
00000110: 8123 e03c 5478 88be da0f 4e3e 3ee1 973e
00000120: 5b37 43bf cdf4 f5be bb85 173e 9748 743e
00000130: 9845 14be 6ae7 b73d b2a3 743e e0a3 8d3e
00000140: e28c 83bd fec8 78bf 0a19 1ebe 1704 903e
00000150: bccb 26bf 2717 0cc0 a86a 60bf 0869 9d3d
00000160: 87f0 6cbe 6d3e 04bf 9158 8ebf 9216 2bc0
00000170: 1c4b 0bbf c976 083e b60d bf3d d7ba b2be
00000180: 9db5 1f3f 0536 0b3f 4316 debb 8538 edbb
00000190: 4708 cebd 92cb cc3e 8f92 8abf 347b 123e
000001a0: 044b 813f b386 923e 43b7 3b3e dc1b 4bbf

bias f4 [4]
-0.4723512 -0.49039617 -0.67771566 -0.029536001
00000000: 04d8 f1be 3515 fbbe c67e 2dbf 7cf5 f1bc

weight f4 [42, 100]
-0.21598762 0.011600837 -0.4179222 -0.22882034 -0.61020887 0.20272332 0.23808157 -0.056414336
-0.01438058 -0.041094676 0.14744918 0.86436695 0.53826416 0.5556574 0.07876241 0.42881128
0.9410085 0.18645817 0.43554652 -0.116163544 0.78548145 0.06142812 0.08095069 -1.0512646
0.13990809 -1.2577022 -1.2320399 -0.08360987 -0.14413238 -0.14242682 -0.21829684 -0.07090719
-0.46627715 -0.30073708 -0.7272747 -1.5941198 -0.5718004 -1.7354791 -1.2533458 -0.42374352
0.33086163 -0.94978505 -1.8430538 -0.28716627 -0.8263243 0.11828149 -0.42961305 0.5647377
0.7514201 -0.76243395 0.9827797 -0.5115732 -0.115047336 1.31759 0.24055618 -0.6211676
0.08823333 -0.77449316 0.096250355 0.40213034 0.52282333 -0.0365929 -0.056322776 -0.751032
-0.45730847 -0.7854881 0.11557131 0.1340165 -2.1136866 -1.0925751 -0.01691815 0.20764405
0.27040085 -1.3747747 -1.3725959 -0.27288285 0.11575469 -0.238106 0.12601033 0.077065766
0.209905 -0.26549935 -0.20823427 0.02095485 -0.23984233 -0.6230841 -0.091416866 -1.1497465
0.30561817 -0.77565426 -0.30594826 -1.8550876 0.009078399 -0.04941734 -3.0704086 -0.6969377
-0.015869007 0.83702964 0.20763989 -2.321875 0.33742425 0.54293627 -0.42193815 -0.3793683
-1.2046763 0.789023 0.36793423 0.23012201 -1.9387511 -2.603363 -0.34604532 0.11362128
0.39198217 0.2726459 -0.5655946 -0.1626772 -0.8890645 -0.5526879 0.45297495 0.5378168
0.101364896 -0.57774454 -0.9910941 -0.07805901 0.04347215 -2.7356424 -1.7488706 0.43599853
1.3692689 1.3562338 -1.0850043 -0.14614056 0.14487739 1.0773078 1.5015361 -0.08503998
0.60388744 0.29156014 -0.5347141 -0.22395612 0.03226313 0.8721516 0.19824277 -0.2891547
-1.2446591 -0.37874934 0.2631688 0.18485858 -0.38724756 -0.7778107 -0.38120225 0.27961296
0.051797263 -0.40653372 -0.4030232 -0.7121153 0.06432402 0.20079735 -0.12029346 0.057720218
-0.73896897 -0.14570008 -0.115273125 0.0672505 0.4075752 -0.25479048 -0.15634444 0.072848424
-0.056117836 0.18931289 -0.7492652 -0.044630196 -0.010800065 -1.003157 -1.496312 -1.2384669
-0.4423533 0.12991142 -0.37309572 0.14138494 -0.8242208 -0.5661881 -0.49896762 -0.43873337
-0.7551543 -0.16601567 0.12593505 0.09690462 1.5326357 0.8809782 0.24660476 0.5106375
0.6101011 0.7011501 0.60819674 0.40692547 0.099389575 0.37359706 -0.3281705 0.14081152
-0.820542 -2.1148632 0.33136716 -0.4438593 1.0446856 -1.496741 -1.9673766 0.4032018
-0.19634093 -0.0016852668 -0.6126537 -0.17563747 -0.14709137 0.47153026 -0.23921667 -0.14502569
-0.42007777 -0.3507205 -0.18358196 -0.46245012 -1.4624631 0.05810625 0.64351815 0.669076
-0.05896604 -1.352135 0.037414055 -0.22405787 -0.5488476 0.35923606 -1.3220538 -0.50983363
0.23222707 -0.41687027 0.149188 1.0283248 0.07924488 -1.0122724 -0.90444714 -0.1773439
0.08913776 -0.044101566 -0.28046587 0.85223466 1.1602713 0.5853755 0.11974844 -0.25840777
0.18693167 -0.08730445 0.24711427 -1.2435458 0.3023689 -0.6577963 -1.1541071 -1.5116035
00000000: dc2b 5dbe 7011 3e3c e6f9 d5be e14f 6abe
00000010: a636 1cbf b496 4f3e a8cb 733e b812 67bd
00000020: 869c 6bbc e452 28bd ebfc 163e 2747 5d3f
00000030: aecb 093f 903f 0e3f 304e a13d 278d db3e
00000040: efe5 703f e4ee 3e3e f4ff de3e 27e7 edbd
00000050: 5015 493f 0d9c 7b3d 7ac9 a53d d78f 86bf
00000060: 1144 0f3e 63fc a0bf 7cb3 9dbf a73b abbd
00000070: 7097 13be 56d8 11be 3589 5fbe ca37 91bd
00000080: e1bb eebe 36fa 99be ad2e 3abf 1e0c ccbf
00000090: 8361 12bf 2e24 debf a36d a0bf e9f4 d8be
000000a0: b266 a93e 1d25 73bf 30e9 ebbf 7507 93be
000000b0: fd89 53bf 913d f23d 3ef6 dbbe a692 103f
000000c0: 115d 403f df2e 43bf 7397 7b3f 76f6 02bf
000000d0: f09d ebbd caa6 a83f 5c54 763e d704 1fbf
000000e0: adb3 b43d 2f45 46bf e81e c53d 07e4 cd3e
000000f0: c0d7 053f 70e2 15bd b6b2 66bd a243 40bf
00000100: 5624 eabe c015 49bf a7b0 ec3d 9f3b 093e
00000110: a446 07c0 80d9 8bbf ef97 8abc a4a0 543e
00000120: fb71 8a3e 9ef8 afbf 39b1 afbf 4db7 8bbe
00000130: cb10 ed3d 0fd2 73be da08 013e a8d4 9d3d
00000140: 56f1 563e 88ef 87be 5d3b 55be 81a9 ab3c
00000150: 3a99 75be 7182 1fbf c438 bbbd e52a 93bf
00000160: fc79 9c3e 4791 46bf 40a5 9cbe 8373 edbf
00000170: 91bd 143c d669 4abd 9381 44c0 826a 32bf
00000180: b8ff 81bc 9347 563f 8d9f 543e 9a99 14c0
00000190: dfc2 ac3e dffd 0a3f 4708 d8be 903c c2be
000001a0: d532 9abf 69fd 493f e061 bc3e 1ba5 6b3e
000001b0: ff28 f8bf 809d 26c0 da2c b1be 46b2 e83d
000001c0: e3b1 c83e 3e98 8b3e cfca 10bf da94 26be
000001d0: bb99 63bf f47c 0dbf 55ec e73e 5dae 093f
000001e0: 6698 cf3d 11e7 13bf 58b8 7dbf 67dd 9fbd
000001f0: da0f 323d c414 2fc0 feda dfbf 333b df3e
00000200: 3444 af3f 1299 ad3f 6ce1 8abf dfa5 15be
00000210: bd5a 143e 39e5 893f 5632 c03f 7129 aebd
00000220: 5e98 1a3f 5f47 953e 06e3 08bf c154 65be
00000230: 5826 043d 5445 5f3f 2700 4b3e 160c 94be
00000240: fd50 9fbf 6feb c1be 10be 863e 914b 3d3e
00000250: 5045 c6be 9a1e 47bf f12c c3be 6e29 8f3e
00000260: 5e29 543d 3025 d0be 0f59 cebe 304d 36bf
00000270: 50bc 833d d29d 4d3e 6b5c f6bd 096c 6c3d
00000280: 122d 3dbf 6732 15be 5114 ecbd a1ba 893d
00000290: b2ad d03e e673 82be c218 20be 8e31 953d
000002a0: d1db 65bd 3ddb 413e d8cf 3fbf 27ce 36bd
000002b0: c1f2 30bc 7367 80bf 2787 bfbf 1586 9ebf
000002c0: 227c e2be 8007 053e 6706 bfbe 37c7 103e
000002d0: 2200 53bf b4f1 10bf af78 ffbe a9a1 e0be
000002e0: cb51 41bf 0300 2abe 1ef5 003e ee75 c63d
000002f0: 682d c43f ca87 613f f585 7c3e 24b9 023f
00000300: 962f 1c3f 937e 333f c8b2 1b3f 8958 d03e
00000310: c38c cb3d 1d48 bf3e f705 a8be e530 103e
00000320: 0a0f 52bf eb59 07c0 f5a8 a93e 8741 e3be
00000330: 42b8 853f 3695 bfbf ffd2 fbbf 7770 ce3e
00000340: 990d 49be 2ce4 dcba dfd6 1cbf 4fda 33be
00000350: 1f9f 16be 6a6c f13e 37f5 74be 9d81 14be
00000360: 6f14 d7be a391 b3be e9fc 3bbe 43c6 ecbe
00000370: fe31 bbbf d200 6e3d 9bbd 243f 9148 2b3f
00000380: 6086 71bd c212 adbf 7b3f 193d 6d6f 65be
00000390: 4781 0cbf caed b73e 0f39 a9bf 7584 02bf
000003a0: efcc 6d3e 0570 d5be bdc4 183e 26a0 833f
000003b0: 244b a23d 2492 81bf d989 67bf a499 35be
000003c0: dc8d b63d d8a3 34bd 3999 8fbe 0d2c 5a3f
000003d0: c583 943f 2bdb 153f ac3e f53d 064e 84be
000003e0: 046b 3f3e adcc b2bd 860b 7d3e 822c 9fbf
000003f0: 19d0 9a3e 5765 28bf c8b9 93bf 397c c1bf

bias f4 [42]
-0.0028094975 -0.5616247 -0.31023884 -0.19530739 -0.08385042 0.106545605 -0.7148324 -1.0066245
-0.646661 0.45220798 -0.29445952 0.03984927 -0.44965905 -0.8507751 -0.3972066 -0.6368575
-0.59845126 -0.7232877 0.7541934 -0.3199856 -0.54538226 -0.20888871 -0.7352251 -0.19797961
-0.8760284 0.14950411 -0.6975692 -0.8080381 0.045248132 -0.450095 -0.31778732 1.2474096
0.033819247 -0.20105654 -0.052712757 0.67940784 1.20354 -0.49850076 -0.41717482 0.49849615
0.84361684 -0.88837785
00000000: 8c1f 38bb a3c6 0fbf a0d7 9ebe a9fe 47be
00000010: c5b9 abbd 9534 da3d 42ff 36bf 12d9 80bf
00000020: 938b 25bf ce87 e73e 66c3 96be fd38 233d
00000030: b639 e6be 66cc 59bf aa5e cbbe 1809 23bf
00000040: 1a34 19bf 6229 39bf d212 413f 27d5 a3be
00000050: 2c9e 0bbf ece6 55be b637 3cbf 2bbb 4abe
00000060: 6643 60bf 9b17 193e e593 32bf 96db 4ebf
00000070: 1b56 393d da72 e6be 05b5 a2be 1eab 9f3f
00000080: 0d86 0a3d c4e1 4dbe 55e9 57bd aced 2d3f
00000090: 990d 9a3f 7e3b ffbe f097 d5be e33a ff3e
000000a0: 46f7 573f bb6c 63bf

weight f4 [10, 42]
0.4695314 -0.35717607 -0.21725631 -0.4968656 -0.9379749 -0.5929198 -0.17586254 -1.462829
-0.19911563 -2.0381618 -0.1902549 -0.30782717 0.54969066 -0.47881567 -1.1112719 -0.9751738
-0.069399 -0.56756216 0.14147122 -2.4029803 -0.24347028 -0.5907853 -0.9086389 0.25018412
-0.5113879 -0.5148051 -0.17776354 -0.41063747 -0.6909024 -0.12676422 -1.6895201 -0.7274168
-0.6229838 -1.1354036 -0.43408665 0.56180227 -0.8964754 0.67660075 0.06317281 -0.86037004
-0.21213078 -0.5176096 -0.22166058 -0.92133486 -0.10326546 -0.55783874 -0.26419246 -0.21923047
-1.0657603 -0.88313687 0.09059058 0.7444788 -0.7467228 -0.69727135 -2.0107853 -0.041790765
-0.031099688 -0.34372672 -0.25626343 -2.289021 -0.5634864 -0.49964142 -0.4241507 -0.49918783
-0.13886094 0.28617218 -0.1465817 -0.5000989 -0.29025164 -0.27984494 0.33343852 -0.22808534
0.64164203 0.9189953 -0.46754462 -1.5903925 -1.0537114 -0.16611186 0.5605765 -1.0396315
-0.53029555 -0.29909015 0.31175116 -0.54373854 -0.5680124 -0.6578171 -0.4838909 -0.7829668
-0.088614225 -0.38048163 -0.7373815 -0.36079097 0.361126 -0.237162 0.10705276 0.37479368
-0.15089913 0.083157636 -0.40480065 -2.7893364 0.0005456056 -0.47494164 -0.96098626 -0.86005837
0.58737546 -0.59522545 -0.19532333 0.39665025 -0.06875539 -0.29651058 0.5314362 -0.1758518
-0.5007826 0.59613895 -0.4783865 -0.42015463 -0.41981056 0.14147668 -0.3090299 -0.69058055
-0.7052205 -0.2737166 -0.18253416 0.17959549 -0.9108126 -0.2358343 -0.68749946 -0.10685988
-1.0357593 -0.40746102 -0.49997988 -0.46365547 0.18299767 0.541993 -0.45577732 -0.60494477
-0.18302934 -0.61821747 -0.55479956 -0.38934535 -0.33328748 0.060696945 -0.49732822 -0.43137863
-0.7934906 -1.8282325 -0.41932493 -0.5212195 0.46999776 -0.2388824 0.4602052 -1.2709806
-0.18540488 -0.40909213 -0.30393913 -0.52169085 -0.49452335 -0.89069426 -0.34392634 -0.4529217
-1.0165509 -1.0635229 -2.3684752 -0.22704752 -0.39392185 -0.40107343 -0.2237027 -0.17784192
-0.94086164 -0.4362603 0.75041014 -0.18470074 -0.6737305 0.7414112 -0.8993956 -1.4197019
-0.35890913 -0.4620333 -0.5481271 -0.460726 -0.28724244 -0.30027568 -0.17194872 -0.29126638
-0.24788114 -0.0036790716 0.04045916 0.47388995 0.13941377 -0.28932583 -0.53934884 -1.0566676
-0.8606474 -0.43946433 -0.40541503 -0.33719254 0.11229176 -0.11673734 -1.0351847 -0.3739164
-0.0819453 -0.43670982 -0.66747546 -1.0162784 -0.78750265 -0.481199 -0.9857703 -0.4122052
-0.27825654 -0.09859153 -0.05488633 0.5881249 -0.253609 -0.27928337 -0.92694986 -0.54403484
0.3385863 -0.047060132 -0.8306988 -1.107714 -0.23714699 -1.1204094 -0.4415074 -1.0930294
-0.7049106 0.5227786 -0.509687 0.46713057 -0.5782046 -0.73456526 -0.2863941 0.07138626
-0.06384912 -0.07263751 -0.08705826 -0.65170383 -1.1582624 -0.3988257 0.39081144 -0.5445024
-0.8242281 -0.7910136 -0.5722369 0.6990731 0.1373004 -0.75385094 0.040214963 -0.39289564
0.37569895 -0.3959325 -0.40345913 -0.44700798 -0.10491421 -0.16042796 -0.27223703 -1.3689672
00000000: 6b66 f03e c8df b6be 7078 5ebe 2b65 febe
00000010: 1f1f 70bf 98c9 17bf 4f15 34be fb3d bbbf
00000020: f8e4 4bbe 3e71 02c0 2ed2 42be 869b 9dbe
00000030: 87b8 0c3f 5427 f5be 283e 8ebf fda4 79bf
00000040: 1021 8ebd c14b 11bf d5dd 103e 6eca 19c0
00000050: 4650 79be b53d 17bf 8f9c 68bf 2218 803e
00000060: 51ea 02bf 44ca 03bf a507 36be 133f d2be
00000070: fbde 30bf 7bce 01be 3242 d8bf fd37 3abf
00000080: de7b 1fbf e854 91bf 9b40 debe 46d2 0f3f
00000090: 697f 65bf b535 2d3f bf60 813d 3641 5cbf
000000a0: d038 59be 1082 04bf fefa 62be 9adc 6bbf
000000b0: d77c d3bd 85ce 0ebf 3c44 87be f47d 60be
000000c0: d56a 88bf 4215 62bf 8e87 b93d 2a96 3e3f
000000d0: 3a29 3fbf 6080 32bf b5b0 00c0 cb2c 2bbd
000000e0: c6c4 febc f3fc afbe f634 83be 527f 12c0
000000f0: a540 10bf 00d1 ffbe 482a d9be 8c95 ffbe
00000100: 9031 0ebe 2985 923e 8319 16be 7b06 00bf
00000110: dd9b 94be d647 8fbe 74b8 aa3e 348f 69be
00000120: a742 243f 4743 6b3f 0262 efbe fb91 cbbf
00000130: 04e0 86bf 3a19 2abe f181 0f3f a512 85bf
00000140: 73c1 07bf 5822 99be d99d 9f3e 7332 0bbf
00000150: 4369 11bf b466 28bf 8cc0 f7be 8370 48bf
00000160: 607b b5bd 7dce c2be 09c5 3cbf 98b9 b8be
00000170: 82e5 b83e 98da 72be 7a3e db3d f5e4 bf3e
00000180: 4d85 1abe 8d4e aa3d 0842 cfbe 7d84 32c0
00000190: f906 0f3a 8d2b f3be 3203 76bf c92c 5cbf
000001a0: 3d5e 163f b260 18bf d702 48be be15 cb3e
000001b0: a0cf 8cbd 3cd0 97be 340c 083f 7f12 34be
000001c0: 4a33 00bf 909c 183f 13ef f4be 821e d7be
000001d0: 69f1 d6be 43df 103e 2b39 9ebe e3c9 30bf
000001e0: 5589 34bf 9524 8cbe 3cea 3abe e1e7 373e
000001f0: 042b 69bf 8c7e 71be f7ff 2fbf 5ad9 dabd
00000200: c393 84bf bb9e d0be 5dfd ffbe 4064 edbe
00000210: be63 3b3e 0ec0 0a3f a55b e9be a9dd 1abf
00000220: 0b6c 3bbe 8043 1ebf 5807 0ebf 4658 c7be
00000230: a8a4 aabe 5c9d 783d cea1 febe a9dd dcbe
00000240: 3322 4bbf 8603 eabf c2b1 d6be a46e 05bf
00000250: 8ca3 f03e 969d 74be 04a0 eb3e 7eaf a2bf
00000260: c7da 3dbe 8674 d1be e99d 9bbe 888d 05bf
00000270: 2a32 fdbe 8a04 64bf 1d17 b0be 5ae5 e7be
00000280: 571e 82bf 8521 88bf 1995 17c0 257f 68be
00000290: 20b0 c9be 7f59 cdbe 5212 65be 311c 36be
000002a0: 4fdc 70bf 835d dfbe e11a 403f 3122 3dbe
000002b0: 9a79 2cbf 20cd 3d3f ca3e 66bf cbb8 b5bf
000002c0: f0c2 b7be a18f ecbe 0f52 0cbf 47e4 ebbe
000002d0: 7111 93be bcbd 99be 5313 30be de20 95be
000002e0: 8ed4 7dbe 941c 71bb 81b8 253d b4a1 f23e
000002f0: 7cc2 0e3e 8422 94be c412 0abf e240 87bf
00000300: 6353 5cbf 7801 e1be 8f92 cfbe 80a4 acbe
00000310: 39f9 e53d fd13 efbd ef80 84bf f871 bfbe
00000320: f0d2 a7bd 6e98 dfbe acdf 2abf 6915 82bf
00000330: c699 49bf b75f f6be 715b 7cbf 8f0c d3be
00000340: a477 8ebe 5bea c9bd 7dd0 60bd 5a8f 163f
00000350: 0ad9 81be 3bfe 8ebe 964c 6dbf de45 0bbf
00000360: 2f5b ad3e 20c2 40bd ada8 54bf 93c9 8dbf
00000370: a9d6 72be 9369 8fbf 420d e2be 63e8 8bbf
00000380: 0575 34bf d1d4 053f d97a 02bf bd2b ef3e
00000390: 3705 14bf 780c 3cbf 3fa2 92be f632 923d
000003a0: 54c3 82bd fac2 94bd 9a4b b2bd 10d6 26bf
000003b0: f141 94bf e232 ccbe 7018 c83e 8264 0bbf
000003c0: 9d00 53bf de7f 4abf 1e7e 12bf 74f6 323f
000003d0: 7a98 0c3e 60fc 40bf 72b8 243d 9e29 c9be
000003e0: 9d5b c03e aab7 cabe 3292 cebe 3bde e4be
000003f0: 43dd d6bd 3a47 24be a762 8bbe 513a afbf

bias f4 [10]
-0.5848441 -0.34836286 -0.5657763 0.063525945 -0.26362747 -1.1631452 -1.1887137 -0.12811583
1.6918739 0.1630552
00000000: 58b8 15bf 9e5c b2be b7d6 10bf e419 823d
00000010: 2efa 86be f1e1 94bf c527 98bf cc30 03be
00000020: 538f d83f f1f7 263e
