checkpoints/YourNet/init/epoch-11.pth (torch, 46735 bytes, 8 tensors)

weight f4 [3, 1, 3, 3]
00000000: 6f23 903e f3f2 3c3e 6a0c 01be 3414 a4bd
00000010: 9347 cebd 3f83 27bf 692a f2be 1e89 c0be
00000020: 7bb8 ef3d 895e cc3d aa0f e23c 0a0b 64be
00000030: afa3 153d f61d 093e 1f36 283d db1d 11bc
00000040: eaa8 6c3e b8e0 483e aaea d93d cd0e 243e
00000050: 1306 3c3e e856 e1be 181c 163e 86e1 563b
00000060: 8ee5 4bbe 743b acbe 022f fabe
0.28152034 0.18452053 -0.12602392 -0.08011666 -0.100722454 -0.6543464 -0.4729798 -0.37604612
0.11705109 0.09978969 0.02759536 -0.22269836 0.036533054 0.13390335 0.04106724 -0.008857216
0.2311131 0.19616973 0.10640462 0.16021271 0.18361692 -0.44011617 0.14659154 0.003278823
-0.19911787 -0.3363911 -0.4886399

bias f4 [3]
00000000: 6e21 0fbf 07cb a03d 0ee0 04bf
-0.55910385 0.078512244 -0.5190438

weight f4 [4, 3, 3, 3]
00000000: d433 683d 408c af3b dd34 6bbf e6f6 edbd
00000010: 5a29 a03d 9822 0cbf bf7e c93d 2d30 38bf
00000020: 9305 01bf af87 543c ebf0 733e 0c34 f03e
00000030: e118 993d c941 9abe dcfd 053f b536 13bf
00000040: 3242 00bf 2b9b eb3d bf66 863c de64 493d
00000050: 522c a8be 6523 1b3e 2408 493e 7f85 4bbd
00000060: 8f05 63bd f1f1 18be eb91 0fbe af65 06be
00000070: 7290 023e 5c76 433e 48b3 a0bd 6173 cc3e
00000080: 8859 1f3e 69fe dbbd 1488 2c3d 97a5 113f
00000090: 3e11 96bd 6a01 b0bd 15c9 273e f179 c53d
000000a0: 845b 1b3e a859 553c 7f11 a5bd e34b 7cbe
000000b0: f6cb 9ebe 4134 cabe 996d b2be f24b 09bf
000000c0: 10ef 3bbe 81ab 523e a974 883e 4af0 df3e
000000d0: ae93 033f 1a88 04bd 0f90 d1bc a40e 423f
000000e0: a0b8 553d 7796 cfbe 7715 d3be 23a4 333e
000000f0: b7d4 ef3c b88c 2ebe 6feb ad3d 36df 063d
00000100: d05c 10bf 69a1 efbe 8b03 a83e 30c3 883d
00000110: 5af4 123e 91ed 703e 5d12 ca3e 7839 723e
00000120: 1b64 2abf e7f5 6ebe 3436 1cbd c2b7 953e
00000130: 79c3 f03d 22d5 f23d 8a29 983e 1c84 bc3c
00000140: 3544 ab3e f5f7 0ebf a3b6 e7be 9df9 783e
00000150: cd34 92be 8b43 c0be c4fb 43bd e522 dabe
00000160: b1ed b3be 14f6 d1bd 91c9 e5bf a48e 16bf
00000170: 5133 8c3d 3e05 023e 129c 00bf 58a0 1bbf
00000180: d723 ae3e 87ea 743e 4b0a bd3e 82fb 733e
00000190: adbd 17be d011 033f ddf7 77bf d1ec 163f
000001a0: aa80 0f3f 64f9 57be 521c c33c 063e 30bf
0.056690052 0.0053572953 -0.9187754 -0.11619358 0.07820387 -0.54740286 0.09838628 -0.7194851
-0.5039913 0.012971803 0.23822372 0.4691471 0.074754484 -0.30128315 0.52340484 -0.5750535
-0.50101006 0.11504205 0.016406415 0.04916846 -0.32846314 0.1515022 0.19632012 -0.04968786
-0.055425223 -0.14936043 -0.14020507 -0.13124727 0.12750414 0.1908812 -0.07846695 0.39931777
0.15561497 -0.10741884 0.04212196 0.56893295 -0.073275074 -0.0859402 0.163853 0.09642399
0.15171629 0.013021864 -0.08059978 -0.24638323 -0.31014985 -0.39492992 -0.3484924 -0.5363151
-0.18352914 0.20573236 0.26651505 0.43738014 0.51397216 -0.03235636 -0.025581388 0.7580359
0.052178025 -0.40544483 -0.41227314 0.17543082 0.029276235 -0.17045867 0.08492171 0.032927714
-0.5639162 -0.46802834 0.32815203 0.06677854 0.14351025 0.23528124 0.39467135 0.23654735
-0.66559 -0.23335992 -0.03813763 0.2924176 0.117560335 0.11857058 0.29719192 0.023012213
0.33450475 -0.558471 -0.45256528 0.2431397 -0.2855591 -0.3755153 -0.047847524 -0.42604747
-0.35142282 -0.10252014 -1.7952138 -0.588114 0.06845725 0.12697312 -0.50238144 -0.6079154
0.3401172 0.2391759 0.36921915 0.23826411 -0.1481845 0.51199055 -0.96862584 0.58955103
0.560557 -0.21091229 0.023817215 -0.6884464

bias f4 [4]
00000000: 1d66 52be dc86 e4bd 7c4b 19bf 4197 e1bc
-0.20546766 -0.11158535 -0.59880805 -0.027537944

weight f4 [96, 100]
00000000: 7ca9 73bc 7b47 73bd 05ba 3cbb fa2b 21bc
00000010: 6735 f9bc 4a5d 25bd 0bc9 fdbc 7d84 eabc
00000020: 50a6 233c 8546 2fbd 7175 cc3b c1be f2bc
00000030: f955 20bc 8fab 9ebc 6877 06bd 72d2 7cbc
00000040: b165 b8bc 2cf6 3c3c f406 73bd 7d74 38bd
00000050: 9d45 5ebc 22a2 bcbc da22 d8bb ce46 90bb
00000060: bf82 bfbc d50a f4bc 030b 61bd b8dc 3c3c
00000070: 686f a9bc 9d7d 843b acf6 fbbc dab0 b03b
00000080: e891 51bd 336a 4bbd 2f46 07bd a139 aabc
00000090: d9e9 dfbc 7e6b 5ebd c98c e33b 2a7e 4dbd
000000a0: 95fb 6f3c 3b99 52bb c0d6 a43b 872e 45bd
000000b0: 3fb9 7cbd 09d5 063d 4c59 30bd fafb afbc
000000c0: 4b49 c2ba 8b14 d0bc c07a 153d 1346 78bd
000000d0: 8912 63bd 5e17 1b3c 99ea 3fbd 2443 8b3c
000000e0: 8377 9fbc a81d 083b 9196 0a3c cb92 f9bc
000000f0: 4127 b03c b31c ec3b 29b4 c8bc efff 15bd
00000100: a807 3d3d adf6 9dbc 6b7e 52bd ff04 39bd
00000110: 9f1c 07bd 008a 00bd 5e2e d43c 69e0 46bc
00000120: 3bab 31bd 50fc 15bc 7bf5 2c3d f536 13bd
00000130: 7393 cbbc df4a 6f3c 7a4a babc 6068 f9bc
00000140: a600 9ebc ddf9 06bd 147e b3bc 36d2 8eba
00000150: 425b 2dbd 20d5 01bd 833b c4bc fb65 3bbd
00000160: 1244 1fbd fee0 8abb 3b5f 17bb 56b4 74bd
00000170: 6f7f eabc e6bc abbc cfc9 ffbc cba2 983c
00000180: e8be 4bbd f1c1 8abc 4443 22bc 416a 79bd
00000190: 1fa0 48bd c1d7 b43b 6321 2c39 63ef 20bd
000001a0: 3b13 04bd d5df 62bc 1dfd 533c e558 1cbd
000001b0: 54f2 3cbc 9557 9d3c 2e12 1cbc 9a5c 33bd
000001c0: ace3 52bd 0b8c eebc 4742 463c f717 f9bc
000001d0: 20c4 413a 4700 a63b a47f 803c 4da5 24bd
000001e0: e5ba 4e3d 8ee3 54bd 57bb 0fbc 40b5 a8bc
000001f0: edf3 75bc 52ee 4dbd 6e3e 243b 06ad 3738
00000200: 4157 39bb 534b 9b3c 1f8c 403c 7c60 8e3c
00000210: d13d 2fbc 40ed 46bc 3a64 afbc 8705 57bd
00000220: 2573 d0bc 8203 dbbc 9afa f3bc 9aef 61bd
00000230: f626 5ebd 33a1 1ebd 7dcf 62bd 0ade 3a3c
00000240: 49e7 983c 613a 71bc 127d 7cbb a233 abbc
00000250: b335 5ebd 897a 80bb 3364 53bd 8a9f 49bd
00000260: 210c 9c3b 4959 38bd 50a8 2abc d316 4fbd
00000270: 3ad4 9f3c d680 0e3c 029b eabb 685a 0c3c
00000280: eb3f 89bc d3c8 a9bc 2a27 97bb 19ec 903c
00000290: c22c d6bc 9302 1b3c f6c7 9dbc 7342 93bc
000002a0: cd74 51bd a867 3fbd db38 dd3c f4c5 763c
000002b0: 8bf8 a5bc 7e6a 60bd 2178 e73b 2951 e6bc
000002c0: 089b e1bc 4967 513c af84 973c e23d d0bc
000002d0: 4d9a 86bc 9585 b7bb 031c cebc 28da 273c
000002e0: 0a5d 51bd eff9 7cbc 73f6 05bd 0d6e 30b9
000002f0: 348a 46bd 1ae5 14bd f6c3 6fbc 4c56 77bc
00000300: 668e 48bc 5cb7 6dbc 128f a1ba a874 3fbc
00000310: 00c0 49bd 7cc8 5cbd 4340 ce3a a7a1 42bd
00000320: 43d2 84bf 63a5 3dbf 04ba 75be 9d22 2f3f
00000330: 99ce d73d 4f0f 0b3e 8bc9 b13e 67cb d0be
00000340: 46f0 113f f485 943e b85f 1e3e a30b 573f
00000350: dd2c 4cbf d995 193f c46f 363d e533 88be
00000360: 1d7b ff3e f207 c0be a45a 6bbe e93d 12be
00000370: ae20 f6bd 412d db3d 2c83 08bf 866a 56bf
00000380: c714 b53e 8d66 86be 536a 2fbf d16f a4bb
00000390: fdb5 2cbe 6a9d f1bd e9d8 f2be e5a3 cebe
000003a0: 1397 833e d76f a6bc 120b 8ebf b549 58bf
000003b0: 36fc 06be 910e 5cbf 2dde 90bf 6382 81bb
000003c0: 3484 84bf d1e4 a5bf dd0c 08c0 606c 03be
000003d0: 84e2 cb3e 7d0e 15bf d430 b1be 2155 0d3f
000003e0: 00bd f63e fefd c8be ef43 57bf 6b47 37be
000003f0: a535 803e ad99 153f 96f9 863e ee73 3abf
-0.014871951 -0.05939434 -0.00287974 -0.009837145 -0.030420972 -0.04037217 -0.030979654 -0.028627628
0.009988382 -0.042791862 0.006239586 -0.029631974 -0.0097861225 -0.019368915 -0.03282872 -0.015431033
-0.022509428 0.011533301 -0.059332803 -0.045032967 -0.013566402 -0.02302653 -0.0065959515 -0.004402972
-0.023377774 -0.029790321 -0.054942142 0.011527233 -0.020683005 0.0040432946 -0.03075727 0.005392176
-0.051164538 -0.049661826 -0.033025917 -0.020779433 -0.027333187 -0.05430173 0.006944273 -0.050169148
0.014647384 -0.003213479 0.005030483 -0.048140075 -0.061700102 0.03291801 -0.04305391 -0.021482456
-0.0014822868 -0.02540042 0.036494017 -0.060613703 -0.0554376 0.00946602 -0.04685459 0.016999789
-0.019466167 0.002076963 0.008458749 -0.030465504 0.021503093 0.0072055697 -0.02449997 -0.03662103
0.04614988 -0.019282663 -0.051390093 -0.04517078 -0.03298628 -0.031381607 0.025901016 -0.0121384645
-0.04337619 -0.009154394 0.042226296 -0.035941083 -0.024850583 0.014605253 -0.022740591 -0.030445278
-0.019287419 -0.032953132 -0.021910705 -0.0010896388 -0.04232336 -0.031697392 -0.023954159 -0.045751553
-0.038883276 -0.004238247 -0.0023097533 -0.059742294 -0.028625218 -0.020964097 -0.03122416 0.018632313
-0.04974261 -0.016938182 -0.009903733 -0.060892347 -0.04898083 0.005518884 0.00016415636 -0.039290797
-0.032244902 -0.013847311 0.012938765 -0.038170714 -0.011532385 0.019206801 -0.009525819 -0.043789484
-0.051486656 -0.029119512 0.012100763 -0.030406935 0.00073915906 0.005065951 0.015685864 -0.040196706
0.050471205 -0.051974826 -0.008772693 -0.02059424 -0.01501177 -0.050276108 0.0025061625 4.379174e-05
-0.0028280767 0.018956816 0.0117521575 0.017379992 -0.0106958905 -0.012141526 -0.021410096 -0.052495506
-0.02544553 -0.026735071 -0.029782582 -0.055160142 -0.054236375 -0.03872795 -0.055373657 0.011405477
0.018664973 -0.014723391 -0.0038526696 -0.020898644 -0.05425043 -0.0039208573 -0.05160923 -0.049224414
0.004762188 -0.045007024 -0.010416105 -0.050558876 0.019510377 0.008697709 -0.0071595917 0.008566476
-0.016754111 -0.020725643 -0.004612823 0.017690705 -0.026144389 0.009461063 -0.019260388 -0.017976021
-0.05113678 -0.046729714 0.02700465 0.015061844 -0.020260116 -0.05478906 0.007063881 -0.028114872
-0.027539745 0.012780973 0.018495886 -0.025420133 -0.016430998 -0.005600641 -0.025159841 0.010244884
-0.05111412 -0.015440448 -0.032705735 -0.00016825665 -0.048471645 -0.0363513 -0.014634123 -0.015096258
-0.012240982 -0.014509048 -0.0012325963 -0.011685528 -0.04925537 -0.053902134 0.0015735704 -0.047517445
-1.0376667 -0.74080485 -0.2399674 0.6841219 0.10537452 0.13580059 0.34724078 -0.40780184
0.57007253 0.29008448 0.15466201 0.8400213 -0.79755956 0.59994274 0.04454018 -0.26602092
0.49898615 -0.37506062 -0.22983795 -0.1428143 -0.12017952 0.10701991 -0.5332515 -0.8375629
0.35367414 -0.26250115 -0.6852161 -0.0050182124 -0.16866298 -0.117976025 -0.47431114 -0.40359417
0.25701198 -0.020317001 -1.1097128 -0.8448747 -0.13182148 -0.85959727 -1.1317803 -0.003952311
-1.0352845 -1.2960454 -2.125785 -0.1283431 0.39821255 -0.5822523 -0.34607565 0.5520802
0.4819107 -0.3925628 -0.84088033 -0.17898338 0.25040928 0.58437616 0.26362294 -0.72833145

bias f4 [96]
00000000: a9c8 363c 7c55 26bd c696 503f 41f0 5abd
00000010: a0ae 1dbf c0e3 523e 3246 613f 82f2 c7bc
00000020: 5826 d6be b4ed 1dbd 940e c7bc 8233 543f
00000030: 2704 3d3e c837 45bd 6c4b 6cbd cc48 273f
00000040: 4426 27bf 3036 1bbf 1286 ffbc 303b fabc
00000050: 6c41 50be 935f d2bc f081 ebbb e17d 32be
00000060: d667 62bc 31c9 e4bd ee87 bebe eeed 75be
00000070: 69f8 03bf af56 07bb 94ff 543e 45db bcbe
00000080: c141 3e3e 6007 23bd bcac 34bb 95d3 82bf
00000090: 1d67 d6bd 360a 05bf b802 8cbf 5ff6 acbc
000000a0: 0b2e 7fbf c1c1 85be 94e1 b5bd 7eb3 c33e
000000b0: 56e1 04be fb71 1dbd 7651 953c 25c1 acbe
000000c0: 1509 2b3f bc52 13be 7328 0e3f 64ad da3e
000000d0: d9c1 903e 88fd 7d3f 013a 2cbd 0d62 673e
000000e0: bff5 9dbc 1cd3 183e 997e 4fbd 32dd 20bf
000000f0: 11b4 3ebf 9ff6 b93e edcb c53e 6f72 f1bc
00000100: 876d 4fbf a7a1 4cbf f6ad 84be 64c1 a53a
00000110: cf82 3c3e c424 2dbd 854d 23bd 605f 2fbf
00000120: 9334 10bf 1de9 71bc cc31 08bf 55df d03f
00000130: 2ce9 3a3e cae2 50bd 8329 bd3f 1587 cabd
00000140: b438 013f 4b7a 27bf 284c 5abf 986d 053f
00000150: e681 993f 9de8 e1bd 564d 02bb 4825 8cbe
00000160: 949f 24bf ae74 07bf 608e 40bf 1801 00bd
00000170: 4b5d 09bd 11c7 193f 38e4 00bd 5dd8 0fbf
0.01115624 -0.040608868 0.8148006 -0.05345178 -0.6159458 0.20594692 0.87997735 -0.024407629
-0.4182613 -0.03855677 -0.024298944 0.82891095 0.18458615 -0.0481489 -0.057689115 0.65345454
-0.65292764 -0.6062956 -0.03119186 -0.0305458 -0.20337456 -0.025680339 -0.0071871206 -0.17430831
-0.013818702 -0.11171187 -0.3721308 -0.24016544 -0.5155092 -0.0020651033 0.2080062 -0.3688604
0.1857977 -0.039801955 -0.0027568778 -1.022082 -0.10468886 -0.51968706 -1.093833 -0.021113573
-0.9967963 -0.26124385 -0.08880916 0.3822288 -0.12976584 -0.03843878 0.01822732 -0.33741108
0.66810733 -0.1438703 0.5553047 0.42710412 0.28272894 0.99214983 -0.042047504 0.22595997
-0.01928222 0.14924282 -0.050657842 -0.6283752 -0.7449351 0.3632097 0.38632146 -0.029473512
-0.810265 -0.7993416 -0.25913972 0.0012646136 0.18409275 -0.04227139 -0.03986885 -0.68504906
-0.5633022 -0.014765051 -0.53200984 1.6318156 0.1825301 -0.050997533 1.4778293 -0.09889046
0.5047715 -0.6542098 -0.85272455 0.5212035 1.1992767 -0.110306956 -0.0019882522 -0.27372193
-0.64305997 -0.52912414 -0.75217247 -0.031251043 -0.033536237 0.60069376 -0.031467646 -0.5618952

weight f4 [10, 96]
00000000: dc0a 3fbd a6f4 86bc 8f53 3a3f dbea 0eb9
00000010: 8c9b f3be 40a4 273e 2d0c 0f3f 23d6 02bc
00000020: 630f ee3e 188b 243c 2323 64bd 80d8 3dbf
00000030: 79db 19bf 14b1 88bc 3f9f e7ba 9818 3abe
00000040: dc9b 7abc ea48 30bf c2a3 e0bb 34b1 1c3f
00000050: d7db a73e 604e 24bc 290e 51bc 9397 c13e
00000060: 897e 7e3d 9af4 1dbf 9c15 883e 089e 953e
00000070: 8235 49bf 3724 5fbc de36 133f ba55 54bf
00000080: fad8 21bf ec4e 7dbb 7503 ea3b 1c61 a13e
00000090: b02d 793e 3afc adbe 6b43 6abf 828c cfbc
000000a0: d1ee bebe dffa 28be 4c57 8bbd 58b4 753e
000000b0: a13e 83bc 5c38 913c 5843 0dbd d149 11bf
000000c0: 5a88 cbbe bda4 25bf a6b2 8c3e fe35 1fbf
000000d0: a993 073e a704 66be 7c27 3abc a746 53bf
000000e0: 78f1 383e bca1 bb3e 1e20 a43b 83fc ee3e
000000f0: 9a8c 453d d503 d0be ff2c 6a3f 963f 93ba
00000100: 0f65 bebd 6e8d 21be 7ecd 87bf bbc2 21bf
00000110: 513d 25be f705 e3bc 5894 0dbc dfcd 043d
00000120: 261f 30be ed7c 16bf 5515 babe c5fc fabe
00000130: 19b9 73bf b1b2 e4bb 0f91 95be a41c ac3d
00000140: 2b66 b5be 288f 0d3d 6986 413d b7ec 023f
00000150: ec84 f6be 839a 69bd e19c a4bb 6fc5 cebd
00000160: c30d 003e 27bb 52bd fbb7 aebe a674 cdbb
00000170: ff9f 953c 5ffb acbe d3ea a5bc caa0 e1bc
00000180: fc03 c7bb 0424 e2bc 921c a83e 2add 2abd
00000190: b619 d5be 933c adbf f4a0 c53e 7da9 f9ba
000001a0: 94e3 0abe b490 6a3c c199 f83b 6e03 933e
000001b0: f770 2f3e c476 9dbc 26e8 cbbc 5a3b 153e
000001c0: d0d0 87be 6d2f d9be 72b3 903c a9ec 57be
000001d0: a6f3 8dbd 25ae 80bd 5492 23bb 8e19 59be
000001e0: 9894 a23c 75dc 1cbf 4028 debe 297e a0be
000001f0: 7955 5dbc 46ea c3bc 2af4 21bf 9649 6bbe
00000200: e790 03bd ede9 9c3b 1a5b 653c 4439 01bf
00000210: 524c b1be 3b64 62bf 5e9b 04bf 13ee a9bc
00000220: aa71 e8be c2db f7bd 9bef 15be dc1e 343e
00000230: c590 3cbe a433 993c 99e5 3dbd b07d f6bd
00000240: 9f68 b23b cd14 8bbf 787b 59be 9a57 3abe
00000250: 33e5 14be 0839 94be 0a17 01bd c132 ba3e
00000260: 5861 b63e 8eb1 473b ad5f a9bc f5cd 6d3e
00000270: afcc bd3e 6277 463e e96c dbbd be96 c4bc
00000280: ba87 d1be b363 13bf 2825 023f 2988 1bbe
00000290: eec0 9c3e 0840 4d3a de08 2cbd 4ba4 de3d
000002a0: 0388 0ebf 0382 433f 1849 0dbf e911 c63f
000002b0: f4ea e4be 4118 3fbd a964 653f cdfe b5be
000002c0: 319b 89bd 27d2 bf3d 413b 39bf d4f6 c1bd
000002d0: 823c 3b3f e17b 1bbe 2be6 a0bc 76a8 45bf
000002e0: 79de adbe dbc9 8bbf 956a 0bbe 57d6 983a
000002f0: f358 043c bc50 9d3e c53f 58bd c853 f9be
00000300: 7cd4 01bd 13d0 9f3c b8aa fcbd a4db 103c
00000310: 291f 41be 9988 273e d93e 633e a7aa c1bb
00000320: ae97 7b3e edc5 69bd ba0a 2fbd 07a8 99be
00000330: 5124 4ebe 1b16 cfbb e5cd 24bc 8638 fe3d
00000340: 56f1 0bbd 19f9 f1be bd95 37bc 48bd c13e
00000350: 5e85 cdbd 2b9e d93c cf18 fb3c 5dc8 91be
00000360: 72e7 c8bc d548 cbbd eff8 bb3e 387e 3c3d
00000370: 4a29 c53e 8fd1 adbc 9493 10bf 989d ea3e
00000380: bf03 023e ad9e 18bd 489a 003a 8f2e 00bc
00000390: 4219 0a3f c3b1 d03e 9136 02bf d331 05bb
000003a0: ed10 7fbe d3ff f4be 3281 3d3d e0ad 91be
000003b0: 098a 62bd fd85 9dbb 6f9e 21bd 9e48 3bbd
000003c0: cad8 1abf 4b33 65be bbca fbbc f594 1abf
000003d0: 6087 ad3e 8313 a43e 3c74 48bd 95c8 25bf
000003e0: 1e67 6c3e d864 b43e ef0d 013d bb9b 343f
000003f0: d3eb 703e 7be2 94be e26a c7be 5642 7abc
-0.046641216 -0.01647408 0.7278375 -0.00013629666 -0.4757961 0.1637125 0.55877954 -0.0079856245
0.46496114 0.010042928 -0.05569757 -0.7415848 -0.60100514 -0.016686 -0.001767136 -0.18173444
-0.015295949 -0.6886126 -0.006855459 0.6120789 0.32784912 -0.010028452 -0.012759724 0.37810954
0.062132392 -0.6170136 0.26578987 0.2922213 -0.7859727 -0.013619474 0.57505596 -0.8294331
-0.63221705 -0.0038651777 0.0071415254 0.315194 0.24333835 -0.33981496 -0.9150912 -0.025335554
-0.37291577 -0.1650195 -0.0680376 0.23994577 -0.016021075 0.01772707 -0.034488052 -0.5675326
-0.39752465 -0.64704496 0.27480048 -0.6219176 0.13239922 -0.22462712 -0.011361953 -0.8252968
0.18060863 0.3664683 0.0050087115 0.46677026 0.04822979 -0.40627924 0.9147491 -0.001123416
-0.09296619 -0.15776607 -1.0609586 -0.6318776 -0.16136672 -0.027712805 -0.008641325 0.032422896
-0.17199382 -0.5878437 -0.363444 -0.49020973 -0.9520431 -0.0069793095 -0.29212233 0.084039
-0.3542951 0.034560353 0.047247324 0.5114245 -0.48148286 -0.05703212 -0.0050235842 -0.10096251
0.1250525 -0.051448014 -0.3412474 -0.006270009 0.018264769 -0.3378553 -0.020253574 -0.02754249
-0.006073473 -0.027605064 0.32834297 -0.041714825 -0.41621178 -1.3534111 0.3859936 -0.0019047704
-0.13563377 0.0143167265 0.0075866883 0.28713554 0.17132936 -0.01922167 -0.02489097 0.14573422
-0.265265 -0.42418995 0.017663691 -0.21086372 -0.06931238 -0.062832154 -0.0024959045 -0.21201155
0.019846246 -0.6127389 -0.43390083 -0.31346253 -0.013509148 -0.023915421 -0.6326319 -0.2297729
-0.03212061 0.0047886283 0.013998771 -0.50478005 -0.3462854 -0.8843419 -0.5179957 -0.020743405
-0.4539922 -0.12102462 -0.14642183 0.17589897 -0.184146 0.018701382 -0.04636154 -0.12035692
0.0054446007 -1.0865723 -0.21238506 -0.1819748 -0.14540558 -0.2894976 -0.031516112 0.36366847
0.35621142 0.003047082 -0.020675505 0.23223098 0.37070224 0.19381478 -0.10714132 -0.02399766
-0.40923864 -0.57574004 0.50837946 -0.1518866 0.30615944 0.0007829671 -0.042000644 0.1087118
-0.5567629 0.7637026 -0.5518966 1.5474216 -0.44710505 -0.04665399 0.8960672 -0.3554596
-0.067190535 0.09366255 -0.7235604 -0.09470907 0.731392 -0.15183975 -0.019641003 -0.77210176
-0.33958796 -1.0920976 -0.13614877 0.0011660558 0.008077848 0.30725658 -0.05279519 -0.48696733
-0.03169678 0.019508397 -0.123372495 0.008841429 -0.18859543 0.16360702 0.22191943 -0.005910236
0.2456958 -0.057073522 -0.04273484 -0.30011007 -0.20131041 -0.006319774 -0.010058855 0.12413125
-0.034165703 -0.4726036 -0.011205134 0.37839723 -0.100352034 0.026564678 0.030651478 -0.28473178
-0.024524424 -0.09926001 0.3671336 0.04601881 0.38508064 -0.02121809 -0.56475186 0.4582336
0.12696742 -0.0372607 0.0004905802 -0.0078236 0.5394479 0.4076062 -0.5086451 -0.0020323887
-0.249088 -0.47851428 0.04626579 -0.2845297 -0.05530742 -0.0048072324 -0.039457735 -0.04572355
-0.60487044 -0.22382848 -0.030736318 -0.6038354 0.33892345 0.32046136 -0.048938975 -0.6475919
0.23086211 0.35233188 0.03150743 0.70550126 0.2352746 -0.2907904 -0.38948733 -0.015274605

bias f4 [10]
00000000: 9da6 a93d 58d6 093f dcff dfbe 0562 59be
00000010: de28 773e a76a 05bf fc15 3ebe 9568 703d
00000020: 3df1 2c3f 7f0e b8be
0.08283732 0.5384269 -0.43749893 -0.21228798 0.24136683 -0.52115864 -0.18563074 0.058693487
0.675556 -0.3594856
