checkpoints/YourNet/pruning/6/epoch-29.pth (torch, 29135 bytes, 8 tensors)

weight f4 [3, 1, 3, 3]
000000 c7 ff 16 3f 0f ea 0d 3e 1a 88 d7 be f2 4a ea 3c
       0.58984035 0.13858818 -0.42096025 0.02860019
000010 20 07 33 be d7 74 04 bf 99 9d c4 be 86 d4 e6 be
       -0.17483187 -0.51740783 -0.38401487 -0.45084018
000020 d9 c9 c0 bc 93 34 a8 3d 56 a2 4b bc 72 fe 9c be
       -0.023533748 0.08213153 -0.012428841 -0.30662876
000030 67 a9 b3 3e 24 5a af bc 52 ec ed bd 90 d7 2b 3e
       0.3509018 -0.021405287 -0.1161734 0.1678145
000040 0c d7 2c 3e 8b 1f 84 3d e9 4c 5c 3e b2 93 11 3e
       0.16878909 0.06451329 0.21513714 0.14216498
000050 f7 54 e3 3e ab 41 9a be f0 02 32 3e 74 34 f9 3c
       0.4440076 -0.30128226 0.17383933 0.03042052
000060 b6 fe 01 bf 1a 4f 18 bf b7 50 e4 be
       -0.50779283 -0.594957 -0.4459283

bias f4 [3]
000000 fc 5b 33 bf dd 1a 17 3e 3e 33 d9 be
       -0.7006223 0.14756341 -0.42421907

weight f4 [4, 3, 3, 3]
000000 c1 e9 ba be 37 58 86 be 54 dc dd be fd d4 93 3e
       -0.36506465 -0.26239178 -0.4333216 0.28873435
000010 e9 7a 86 be c5 e5 73 bd 84 e1 79 be f1 c1 54 be
       -0.26265648 -0.059545297 -0.24402434 -0.20777108
000020 7f ad fe 3e ed 19 79 bd cc ad d6 bd 85 95 bb 3e
       0.49741742 -0.06081574 -0.10482368 0.36637512
000030 3f 97 f4 be 68 bb a7 bd 54 04 d9 3e b8 27 82 bf
       -0.47771642 -0.08190042 0.42386115 -1.0168371
000040 3d 0d 6d be ff b9 fe 3e a9 b7 97 3e fe 27 86 3e
       -0.23149581 0.4975128 0.2963231 0.26202387
000050 37 f2 40 bf 29 9d 19 3f 00 a8 00 bf 38 60 4b bf
       -0.7536959 0.6000543 -0.5025635 -0.79443693
000060 83 c3 27 bf 2d 0f 47 be 46 94 0e bf 46 39 35 3e
       -0.655327 -0.19439383 -0.55695 0.1769763
000070 81 59 69 3e c4 23 19 bd 2e df 05 bf 3b 3b 3b 3e
       0.2278805 -0.037387624 -0.5229367 0.18284313
000080 5e 2d 24 3d 00 6a 84 be 80 06 60 bc 39 ef 2a 3f
       0.040082328 -0.25862122 -0.013673425 0.66771275
000090 1a 99 db bc 96 e2 1b be 06 33 cf 3d 52 57 04 3f
       -0.026806403 -0.15223154 0.10117154 0.5169574
0000a0 47 6a 39 3d 2d f1 e9 bc 4f 9e 84 be e7 d1 6c be
       0.04526737 -0.028557384 -0.2590203 -0.23126946
0000b0 b2 1e 67 be 2a 0b b1 be 42 16 03 bd df 84 cc be
       -0.22570303 -0.3457883 -0.03200365 -0.39945123
0000c0 b2 5d 76 be b3 e0 4e be c5 f1 64 3e 9e 9b a1 3e
       -0.2405918 -0.20202903 0.22357853 0.3156404
0000d0 67 66 0b 3f 5d 61 26 3e 61 ed ac 3d c9 97 4f 3f
       0.5445313 0.16248079 0.08443714 0.8109098
0000e0 f5 a2 09 3f 24 72 7c bf 06 b6 31 bf 27 f3 9c 3e
       0.5376428 -0.98611665 -0.6941837 0.3065426
0000f0 3e 83 83 3d 06 39 4a bf 18 6f 4d be f7 19 d4 3d
       0.06421517 -0.7899326 -0.2006191 0.10356515
000100 34 3b 5f 3d 46 17 d8 be ad c3 48 3e 06 30 05 3f
       0.05449982 -0.42205256 0.19605894 0.520264
000110 28 79 6e be b1 2b b6 be 99 d3 9c 3e b7 0e a9 3e
       -0.23288405 -0.3558021 0.30630186 0.3301904
000120 62 83 4f bf fe 4f d8 be 89 84 2f 3e e1 f2 6b 3e
       -0.8105985 -0.4224853 0.17140402 0.2304187
000130 f9 9f 82 be 1e 9f 11 3e 26 8a 6f 3e 62 6c 85 3d
       -0.25512674 0.14220855 0.23392543 0.06514813
000140 1b 87 12 be 02 0d c1 be 3f 24 c4 be 07 da fa bc
       -0.14309351 -0.37705237 -0.38308904 -0.030621542
000150 68 f9 ec be 96 d8 14 c0 76 4f 42 bf 10 ae 30 be
       -0.46284032 -2.3257194 -0.759025 -0.172539
000160 ab 46 92 be e0 d6 63 bf ce eb 82 bf ce f8 4e c0
       -0.2856954 -0.8899975 -1.0228212 -3.2339358
000170 a4 c1 e9 bd 23 15 5f 3e 2e b1 3f bd 17 f6 fc be
       -0.11413887 0.21785407 -0.04679983 -0.49406502
000180 11 0b 1e 3f 36 32 0a 3f 28 5b a0 3d ef e3 86 be
       0.61735636 0.53982866 0.07829887 -0.26345775
000190 16 b9 b5 bd 5e 51 b5 3e 96 3c 5a bf fd b8 1f bc
       -0.08873193 0.3541364 -0.85248697 -0.0097486945
0001a0 f0 1a 7a 3f 60 58 17 bc 12 dd e3 3d 04 0d 31 bf
       0.97697353 -0.009237379 0.1112615 -0.69160485

bias f4 [4]
000000 76 e8 a2 be b6 41 f9 be 8c 27 2a bf 15 4b bb bd
       -0.3181798 -0.48682946 -0.66466594 -0.0914518

weight f4 [56, 100]
000000 14 ba af bd 92 13 32 bf 8d ab f2 3d 3a ac 48 bf
       -0.085804135 -0.6956111 0.11849127 -0.78387797
000010 14 0d b0 be 06 c0 c1 3e 17 e7 01 3e 13 03 63 bf
       -0.34384978 0.37841815 0.1268581 -0.88676566
000020 77 fd b1 3e bd f7 b8 3e 30 c0 52 bf ff ce 2e bd
       0.3476369 0.3612651 -0.82324505 -0.042677876
000030 fd fc 4d 3e 93 c0 d9 be 4e cf 09 3e c6 a0 a7 bf
       0.20116039 -0.42529735 0.13457987 -1.3095939
000040 85 1b 0b 3f df 1d a6 3e f6 f2 05 3e 53 6e d6 3e
       0.54338866 0.32444665 0.13080963 0.41881046
000050 7d 0f b5 bc fb a8 0f 3f 7a 2d f6 be 84 fb c7 3e
       -0.022102112 0.5611722 -0.4808157 0.3905908
000060 10 76 32 3e dc 6e a6 3e 9d ad 46 bf c5 79 e7 3e
       0.1742785 0.32506454 -0.7760866 0.4521009
000070 b7 55 9f 3e 7d bd bc 3e a8 e1 bd bd c3 e9 2a bf
       0.31120083 0.36863318 -0.09271556 -0.6676294
000080 99 3d 2e be cf ce 54 bd 5e 0b 0d bf 9a da c5 be
       -0.17015685 -0.05195504 -0.5509547 -0.38643342
000090 ea 44 8c bf db 7e e2 be 8c 58 c7 be 85 69 24 3f
       -1.0958531 -0.44237408 -0.38934743 0.6422351
0000a0 11 62 81 bf a1 26 7e bf 3e 07 30 bf d3 68 c1 bd
       -1.0108052 -0.99277693 -0.6876105 -0.09443822
0000b0 04 f0 d5 bf 2d 69 fa 3e 35 b7 d3 be d4 7a 0e 3f
       -1.6713872 0.48908368 -0.41350713 0.5565617
0000c0 94 aa 94 3e f9 0e b1 bf dd 1f 5a bd e1 3d 4a bf
       0.2903639 -1.3832694 -0.053253043 -0.7900067
0000d0 88 b0 f8 be d1 5b 78 3e 2c 4f 0c be 0c e0 81 be
       -0.48572183 0.24253775 -0.13702077 -0.25366247
0000e0 44 06 21 3e 05 7c 37 3f 56 3b 7e 3d c4 9d 5a be
       0.15725046 0.71673614 0.062068306 -0.21349245
0000f0 ea a6 03 bf ac a7 68 3f a9 1d 66 3f 9b 76 5c 3c
       -0.51426566 0.90880847 0.8988901 0.013456012
000100 fc 3b 29 3f 5d 64 11 c0 be 94 c2 bf 80 f8 2c bf
       0.66107154 -2.2717507 -1.5201643 -0.6756668
000110 2e 5b 4e 3f 2d 8a 4b 3f 8d e6 47 bf 65 1f 9b 3e
       0.8060788 0.79507715 -0.7808617 0.3029739
000120 56 dc 09 3f 62 6b 63 bf f7 25 30 3f 15 2b 2f 3f
       0.5385183 -0.8883573 0.6880793 0.6842511
000130 4c 7a 01 3f ac 25 a0 be 3f 88 ce be bf 4c 47 be
       0.50577235 -0.3127874 -0.40338323 -0.1946287
000140 1d dd e7 3e 05 bf 6e be 9b ab b2 be 2f bc 13 bf
       0.45285884 -0.23315056 -0.3489655 -0.5770902
000150 2a c9 cc be 8d 9d 63 3f 87 62 0a 3f 58 ff b4 3e
       -0.39997226 0.8891228 0.5405659 0.35351062
000160 e7 32 de be 0f a0 b1 bf c7 4c 85 be 53 2c 11 3f
       -0.4339821 -1.3876971 -0.2603514 0.5670826
000170 69 5b ec bf 71 d9 b5 bf 5d b7 9e bf 51 fc 8b bf
       -1.8465396 -1.4206983 -1.2399708 -1.0936376
000180 f0 85 eb bf 08 e3 29 c0 87 aa 80 bf 76 8d 57 be
       -1.840025 -2.654482 -1.0052041 -0.21050057
000190 8a a7 a4 bf d8 90 4b 3d 3c 76 99 3e 77 fd ea 3e
       -1.2863629 0.04969868 0.29973018 0.45896503
0001a0 4d 04 94 bf c6 4e 39 bf 6f b0 9f be f8 dd cb 3e
       -1.1563812 -0.72385824 -0.31189296 0.39817786
0001b0 2f d3 08 3e f0 04 92 3e 83 b5 b0 3f a7 b9 b1 bf
       0.1336181 0.28519392 1.3805393 -1.3884782
0001c0 01 09 7c 3e 96 88 9e be 9b 73 8a bf 57 5f 50 3f
       0.2461281 -0.30963582 -1.081653 0.8139548
0001d0 4c 5b b3 be ba 91 a4 3e e1 41 2e 3e 14 fd ba be
       -0.3503059 0.3214243 0.17017318 -0.36521208
0001e0 0e 2f d6 bd 69 31 4e bf 0a 31 81 3e fa 5d 76 3f
       -0.10458194 -0.80544144 0.25232726 0.96237147
0001f0 02 c8 d7 be a3 4e bc bf f6 e1 94 bf d5 d8 3a bc
       -0.4214478 -1.4711498 -1.1631458 -0.011404236
000200 36 ed 5d 3f d0 b5 f3 3e 24 71 c7 bf 1b 80 6c bf
       0.8669008 0.4759965 -1.5581403 -0.92382973
000210 93 4e dd be 6e 39 2f bf 53 9d aa be 44 0a c8 bf
       -0.4322401 -0.68447006 -0.33323154 -1.5628133
000220 26 da 18 c0 a7 50 c7 bf 80 4a 38 c0 5f 34 cf bd
       -2.3883147 -1.5571488 -2.879547 -0.10117411
000230 55 28 b2 3d 91 04 ce be 0c 74 c3 bf 58 0c ba bf
       0.08699099 -0.4023786 -1.526979 -1.4535017
000240 d3 13 4a 3f d6 a0 58 bf 49 97 72 be 99 74 71 bd
       0.789365 -0.84620416 -0.23690523 -0.058949087
000250 1b db 06 be ff df a7 be e8 29 95 be ff 41 a6 be
       -0.1316952 -0.32788083 -0.29133534 -0.32472226
000260 07 d9 56 3e 08 13 3d bf 64 ef 95 bf 6c 07 91 be
       0.20981227 -0.73857164 -1.1713681 -0.28325975
000270 8e af a1 bf 89 1e b4 3e fe db 84 be 85 cf 1d bd
       -1.26317 0.35179546 -0.2594909 -0.038527984
000280 6e 71 c4 3e 65 02 56 3f 9f 1d 2f 3f 5e e6 89 3d
       0.3836779 0.83597404 0.68404573 0.06733392
000290 ad 94 6d bf af 3d 02 3e 2a 9f 9c 3e 05 bd 61 3d
       -0.92804986 0.12718843 0.30590183 0.055111904
0002a0 6f 1b d2 be 08 1d 82 be ea 29 e7 be 87 5d c7 3e
       -0.41036555 -0.25412774 -0.45149165 0.38938543
0002b0 09 de c5 bd c3 46 4b 3f b5 30 79 3e 8c 8d 18 bf
       -0.096614905 0.7940485 0.24334987 -0.59590983
0002c0 af e5 c5 bf 0a 0f 80 be c3 c6 0c 3e 13 2c c0 bf
       -1.5460719 -0.25011474 0.13747697 -1.501345
0002d0 45 0b ec bf 8f 6a e5 3e 6a 2e 05 3f 7b d9 ec 3e
       -1.8440939 0.4480786 0.5202395 0.46259674
0002e0 31 1c e5 bf cd 08 aa bf d8 a9 b9 bd 42 38 2d bf
       -1.7899228 -1.3283936 -0.09065598 -0.6766397
0002f0 df b6 5c 3f a0 36 77 be 15 3d b7 bf 4c 45 8a be
       0.8621654 -0.24141932 -1.4315516 -0.27005994
000300 2a ff ad 3f ad 19 2b bf 94 e6 45 bf 1d b8 c0 be
       1.3593495 -0.66836053 -0.7730496 -0.37640467
000310 a5 27 55 bf cf cc ff 3e 97 7e 85 3e 49 7f 2e 3f
       -0.8326362 0.49960944 0.26073143 0.6816297
000320 61 5a db 3e 75 79 09 bf 68 fa 02 be e0 c8 07 bf
       0.4284239 -0.53700954 -0.12790835 -0.53040886
000330 3c 93 01 3f 96 52 cb 3e 5e 23 98 bd 2c 25 a8 3e
       0.50615287 0.39711446 -0.07428621 0.3284086
000340 aa f1 88 3e 73 cb 17 bf 37 7b 49 3e 50 50 33 3e
       0.26746875 -0.59294814 0.19675909 0.17511106
000350 f5 f5 01 bf a4 f9 58 3e 4d 61 d3 3e 72 75 89 3e
       -0.50765926 0.2118898 0.41285172 0.26847416
000360 b3 08 6e bf fa 99 c9 be 09 27 08 be 3f c9 53 be
       -0.92982024 -0.39375287 -0.1329614 -0.20682238
000370 ea e1 ee bf 8a a4 bb 3e 5e 85 1e 3f d3 dc a8 3e
       -1.8662694 0.3664897 0.6192225 0.32980976
000380 f8 0b db 3d ce d5 30 3d 0e 4d 3c bf f1 b4 3c bf
       0.10695642 0.04317265 -0.73555076 -0.73713595
000390 5c 37 fc be 6e e2 26 bf 7d 52 75 bf 11 1b 36 3d
       -0.49260986 -0.65189254 -0.9582899 0.044459406
0003a0 91 27 c9 bd 47 f4 1c bf b5 f8 78 bf 2a 2f 63 bf
       -0.09822 -0.6131024 -0.97254497 -0.8874384
0003b0 86 67 52 bf 47 d9 2c bf 13 f9 1f bf ab 8c 0a bf
       -0.82189214 -0.6751904 -0.6248943 -0.5412089
0003c0 d9 26 60 3c 7c ca 4a 3f 71 2b 9b 3f 47 83 43 3e
       0.013681137 0.79215217 1.2122632 0.19093047
0003d0 bb 69 94 3e 6c f3 98 3e f5 81 41 3e ed 6f 1b be
       0.28986916 0.29873216 0.18897231 -0.15179415
0003e0 90 f3 0e ba e6 51 1b 3f 4e be 4d bf 2e 40 1b bf
       -0.0005453164 0.6067184 -0.80368507 -0.60644805
0003f0 45 41 8a bd 98 97 1d bf ad d2 07 bf 84 8c bf bd
       -0.067507304 -0.6155944 -0.5305584 -0.09352973

bias f4 [56]
000000 51 31 cd be 33 a3 0a bf 1d a6 ac be c1 26 41 be
       -0.40076688 -0.5415527 -0.33720484 -0.1886244
000010 b8 0a 9d be c0 48 a4 3d f1 f1 a5 3d 4e cf 0a bf
       -0.3067224 0.080216885 0.08102787 -0.5422257
000020 d3 ae 62 be 5d 07 80 be 6a fc fa be f2 e0 4c bf
       -0.22137003 -0.25005618 -0.49020702 -0.8003074
000030 a0 cc 7f 3f ce 0e 97 3e 36 5e be be 8f fa 7b bf
       0.9992161 0.29503483 -0.37181252 -0.984292
000040 95 35 9a 3e 71 5f 70 3f 4b 2a a1 bd ec fe 30 3f
       0.30119005 0.9389563 -0.07869395 0.6913898
000050 0c 81 2b be b9 86 46 bf 28 a7 2d bf f0 41 c7 be
       -0.16748446 -0.7754932 -0.67833185 -0.38917494
000060 9a 19 b3 be 24 ee 8b bc ba 74 29 bf 61 fb 9a 3e
       -0.3498047 -0.017081328 -0.66193736 0.30269912
000070 4c 37 7d bf 04 71 2a bf 03 4a 3d bf 23 ce 60 bf
       -0.989125 -0.665787 -0.7394106 -0.8781454
000080 bc 56 cc be 4f 83 1a 3f 00 15 d0 3e 77 44 03 bf
       -0.39909923 0.6035661 0.40641022 -0.51276344
000090 11 46 76 bf 55 4f 1f 3f 37 38 2a bf 06 63 3e 3e
       -0.9620066 0.62230426 -0.6649203 0.18592462
0000a0 b5 3b 94 be cd 0c 25 be 1a 36 80 3f 4d 61 65 bd
       -0.28951803 -0.16118164 1.001651 -0.056000996
0000b0 5d ad 86 3f 8f 24 83 bf 09 05 88 be 84 8c 34 bf
       1.0521656 -1.0245532 -0.26566342 -0.7052691
0000c0 9c 4e 0e bf af e3 9e 3e 01 1e 47 3d 10 e7 42 3d
       -0.555887 0.31033084 0.0486126 0.04758364
0000d0 43 6d 19 bf 06 ee aa be 87 7e 01 bf d0 0a ec be
       -0.59932345 -0.33384722 -0.5058369 -0.46102

weight f4 [10, 56]
000000 be 73 c6 3d 09 35 8c bf 65 ae c9 3c 93 ea 54 3e
       0.09690045 -1.0953685 0.02461929 0.20792608
000010 df df 42 be ec 68 9a bf 43 03 41 bf 5f a4 f6 3d
       -0.19030713 -1.206327 -0.753956 0.1204307
000020 cf cc 67 bf b1 c2 1b 3f 7d 3f f0 be f7 94 8a 3d
       -0.9054689 0.6084395 -0.46923438 0.06766694
000030 e0 17 ae bd 89 7b 6b bf ce 81 4c 3e b8 1e d5 be
       -0.085006475 -0.91985375 0.19971392 -0.41625
000040 f9 91 05 bf 9a d0 42 bf a5 5b fa 3e 74 10 a0 be
       -0.5217586 -0.7609955 0.48898044 -0.31262553
000050 4f a8 93 bd 89 b6 d7 be bc 42 9e 3e a8 f1 1d bf
       -0.07209837 -0.4213145 0.3091029 -0.61696863
000060 74 1c d8 be 82 24 c7 3e 17 16 60 bf a5 27 cc be
       -0.42209208 0.3889504 -0.87533706 -0.39873996
000070 51 34 46 bf fa 40 05 bf fb 25 77 be 3b 9d d9 be
       -0.7742358 -0.5205227 -0.24135582 -0.4250277
000080 5d ca 06 bd 98 83 ca 3e b6 c0 41 3f f3 c7 be be
       -0.032907832 0.39553523 0.7568468 -0.37261924
000090 28 99 62 bf 11 8b 5a bf 3a bf cc bd a9 e3 27 be
       -0.8851495 -0.8536845 -0.09997411 -0.16395439
0000a0 ff 19 3a bf 89 11 43 bf 65 0a 1c bf a2 a5 d7 be
       -0.72695917 -0.7619863 -0.6095336 -0.42118555
0000b0 6c e5 10 be a4 c2 63 bf 03 99 5a bf ce 14 48 bf
       -0.14150017 -0.88968873 -0.8538973 -0.78156745
0000c0 58 2b 98 3d 11 17 1d bf 40 5e 2e c0 79 ee 9d be
       0.07430142 -0.6136332 -2.7245026 -0.30846003
0000d0 d1 db d0 be 0d 6c 76 be 36 fa 9d be a4 db 53 bf
       -0.40792707 -0.24064656 -0.30854958 -0.8275702
0000e0 65 e0 ca be fd 98 19 3f f2 33 09 bf ce ea d1 be
       -0.39624324 0.59999067 -0.5359489 -0.40999454
0000f0 cb 4b 5c bf 27 16 59 be ed af 43 be e5 19 c1 be
       -0.8605315 -0.21199857 -0.19110079 -0.37715068
000100 5a 31 b2 be 09 c1 0b bf 87 ce 16 bc 7c 2e 37 bf
       -0.34803277 -0.54591423 -0.009204513 -0.71555305
000110 3a 74 01 3d 5a 57 94 be aa 3e 7a bf e2 a2 65 be
       0.031604983 -0.28972894 -0.9775187 -0.22425416
000120 c7 a1 06 be 37 2a 51 3f 4a ea 52 3e 9d 9e b5 3e
       -0.1314765 0.8170504 0.20597187 0.35472575
000130 7b a9 30 be 59 cc ab bf 22 09 40 bf f1 c3 5f bf
       -0.17252152 -1.3421737 -0.75013936 -0.8740836
000140 e7 cc d1 be ee a9 32 bf bf e9 35 be 00 48 07 be
       -0.4097664 -0.6979054 -0.17764948 -0.1321106
000150 63 49 c4 be 14 03 34 be a5 bd d5 be 78 50 ca be
       -0.3833724 -0.17579299 -0.4174625 -0.39514518
000160 36 97 af be be e3 7f be 88 aa 45 be cb 05 d0 be
       -0.34295052 -0.2498922 -0.19303334 -0.4062942
000170 32 2c 84 be f3 af 07 3f d2 8c f7 bd 5c 6e 1c bf
       -0.25814968 0.5300285 -0.12087406 -0.61105895
000180 ad 46 22 bf e1 8c 25 3f dd 0c 38 3f 0c 81 df be
       -0.6338909 0.6466809 0.7189463 -0.43653142
000190 b8 48 0b 3f ac 6e 0a bf ac cd 41 bf 83 bb 54 3d
       0.54407835 -0.5407512 -0.75704455 0.051936638
0001a0 fe ae ea be 97 78 57 3e eb 9b 8f be 74 a8 42 3d
       -0.45836633 0.21042095 -0.28048643 0.04752393
0001b0 3f c4 01 bf ba 70 8f bf 04 48 23 be 0d 37 b7 be
       -0.5069007 -1.1206276 -0.1594544 -0.35784188
0001c0 16 e4 8a be 3f 0a fc bd 55 d2 45 bf df 8a a8 3e
       -0.2712714 -0.12306642 -0.77274066 0.3291845
0001d0 55 df 07 be 09 ff c1 bd 87 33 a5 bd 0b 7e 19 3f
       -0.13268788 -0.09472472 -0.08066469 0.5995795
0001e0 15 0d 48 be ab 77 47 bc dd 43 5f be 2f e2 9d bf
       -0.1953624 -0.012174527 -0.21803232 -1.2334651
0001f0 88 7e 7f be 28 8b df be fc eb c9 be bc 7c cb bd
       -0.24950612 -0.43660855 -0.39437854 -0.099359006
000200 b2 e6 23 bf 66 dc 84 bf e2 a2 00 3f 34 f7 48 bf
       -0.6402389 -1.037976 0.5024854 -0.785022
000210 d6 36 10 3f e5 53 9c be 46 6f 8b bf 5b 3c 1c bf
       0.56333673 -0.30532756 -1.0893333 -0.61029595
000220 bb ad 2e bf 13 bb 0d bf dc a4 d1 be b1 b1 ae 3e
       -0.6823384 -0.5536358 -0.4094609 0.34119943
000230 e2 9b 74 bf 62 95 7f 3d 73 64 0e bf 49 72 93 3d
       -0.9555036 0.062398322 -0.55622023 0.071995325
000240 4b 36 29 3f 39 32 38 bf aa 10 00 bf 5c 7d 31 3f
       0.6609847 -0.71951634 -0.5002543 0.6933191
000250 38 bc 58 bf ff 5b 96 3b 83 8a c5 bd 12 42 7d bf
       -0.846622 0.0045886035 -0.0964556 -0.9892894
000260 7a 44 1b bf 52 fc 88 be 41 6b b4 be ae 99 77 3e
       -0.6065136 -0.26755005 -0.35238078 0.24179718
000270 d6 0c 2c bf 87 e7 a3 be 3d d3 9c be 29 bd 5a be
       -0.67207086 -0.3201258 -0.30629912 -0.21361221
000280 ff cf b3 be 4f 22 20 3e 6d 33 3e bf 9c af c4 bd
       -0.35119626 0.15638088 -0.7429722 -0.09603807
000290 1e dd b9 3d 35 d9 cc be 7b 8d 1b 3f f1 f3 3d be
       0.09075378 -0.40009466 0.6076276 -0.18550088
0002a0 8d ca c7 be 02 d7 09 3f 62 1b 38 bf 54 a0 94 be
       -0.3902172 0.538437 -0.7191678 -0.2902857
0002b0 f5 75 8a bd ad 03 17 be 03 1b b4 bd 6a 58 b2 be
       -0.0676078 -0.14747496 -0.087942146 -0.3483308
0002c0 3c db ea 3d 9e fa 07 bf e1 35 33 bf c2 03 af bd
       0.11467597 -0.53116786 -0.7000409 -0.085456386
0002d0 37 d3 7d be ea 42 36 bf c4 d3 7e be e3 af ac 3e
       -0.24787603 -0.7119585 -0.2488547 0.3372794
0002e0 03 31 ca 3c 26 42 af bf b6 59 0f bf 19 f6 94 be
       0.024681574 -1.3692062 -0.55996263 -0.29094008
0002f0 68 6d 86 be 88 d5 42 be 88 bb 95 be 6b a8 28 bf
       -0.26255345 -0.19026768 -0.29244637 -0.65881985
000300 90 de 81 bf aa 7e eb bd fa 69 ff 3e 5d 88 2e bf
       -1.0146046 -0.11498769 0.4988554 -0.68176824
000310 52 6b 8e bd e9 fa 07 3f 32 f2 4e be b9 f1 06 bf
       -0.069540635 0.53117234 -0.20209578 -0.5271259
000320 09 34 b9 be 88 ff 49 bf 91 b3 26 bf 50 77 cd bd
       -0.36172512 -0.78905535 -0.65117747 -0.10032523
000330 bd f6 c6 3e 99 71 1c bf 1f 7e 9a be 97 75 bd be
       0.3886012 -0.61110836 -0.30174348 -0.37003776
000340 e9 c4 08 bf 6d 7f e5 be 1c d6 38 bf ca 40 e7 be
       -0.5342546 -0.4482378 -0.72201705 -0.45166618
000350 ae 6c 0e bf d8 4f 11 3f 43 28 2d bf e3 87 1a be
       -0.5563458 0.56762457 -0.6763956 -0.15090899
000360 d6 53 ca be a6 3e 14 bf cf b3 0e bf e6 76 ea be
       -0.39517087 -0.57908094 -0.55743116 -0.45793837
000370 7c d7 30 bf f1 92 fb 3e 6b 9e 7c be b4 9d e5 3d
       -0.69078803 0.49135545 -0.24669807 0.1121172
000380 fc 00 31 be 27 6e 8d bf 50 b6 cd 3e 47 5f 28 3b
       -0.17285532 -1.1049241 0.40178156 0.0025691555
000390 95 cb c3 be d3 13 a0 be 13 bb 1b 3f c9 f0 bc bc
       -0.38241258 -0.31265125 0.6083233 -0.023064034
0003a0 fe 2d 17 bf 94 77 0d bf 8a 2e 2b 3f a9 2c 99 3d
       -0.59054554 -0.55260587 0.6686789 0.074792214
0003b0 7e 1f bd be 9f 1f 3b 3e 74 8d bb be 2b 6d ae bd
       -0.3693809 0.18273781 -0.36631358 -0.08516916
0003c0 e1 e7 a7 be 1c 7d 17 3f 84 83 81 bf 2c ae 8b be
       -0.32794097 0.59175277 -1.011826 -0.2728132
0003d0 f6 27 f0 be c2 07 64 bd 71 34 f8 be 82 94 10 be
       -0.46905488 -0.05567146 -0.4847751 -0.14119151
0003e0 dc 84 c4 be 7e 18 30 bf c9 7b f0 be d2 88 2b bf
       -0.38382614 -0.6878737 -0.4696944 -0.67005646
0003f0 1b a7 6f be d2 8b 06 bf 0b 8e d1 be 2d 67 04 3e
       -0.2340359 -0.525571 -0.40928683 0.12929983

bias f4 [10]
000000 f9 f6 ae bd a0 81 da bd 28 c1 ab be 31 26 87 bd
       -0.085432 -0.10669255 -0.33545804 -0.06599081
000010 c4 1f c6 3e a4 fe 16 bf 8c e2 50 bf dd c7 01 3c
       0.3869611 -0.589823 -0.81595683 0.007921186
000020 55 2e 98 3f 53 c1 01 be
       1.188914 -0.12671404
