checkpoints/YourNet/pruning/6/epoch-16.pth (torch, 29135 bytes, 8 tensors)

weight f4 [3, 1, 3, 3]
00000000: fe8d fe3e 4904 a93d f7d0 a4be 8fd9 03be
00000010: 1cc1 17be bbdd 01bf 5fad cabe 60e7 e6be
00000020: 2870 333e 259a 413d 7d32 6f3a 014f 92be
00000030: 8e83 723e 4157 c2bc 3a68 09be 0f67 de3d
00000040: 262c 953e 9f6a 833d 5669 503e 6e05 a63d
00000050: 421d d23e c97b 6bbe fa22 9d3d 3044 ff3d
00000060: c7f4 0bbf ef2e 00bf 5b66 f6be
0.49717706 0.082527705 -0.32190678 -0.12875961 -0.14819759 -0.5072896 -0.39585397 -0.450984
0.17523253 0.047266144 0.000912465 -0.285759 0.23682997 -0.023723247 -0.13418666 0.108595006
0.29135245 0.06416821 0.20352682 0.081065044 0.41037947 -0.22996439 0.07672687 0.124641776
-0.54670376 -0.50071615 -0.48124966

bias f4 [3]
00000000: 404e 1dbf 25ca af3c 3997 c9be
-0.61447525 0.021458695 -0.39373186

weight f4 [4, 3, 3, 3]
00000000: cf4c 7cbe 5f11 02bf df79 acbe 4d68 083e
00000010: 797b d9be 732d 9dbe 674d 39be 93f6 15bd
00000020: 936f 053f 7a96 61bd 2db1 02be 6838 9e3e
00000030: e988 2abf b68f 83bd 4388 ac3e fe7b 5dbf
00000040: dfc1 49be 1f54 e23e 7b0e 923e 0516 ae3e
00000050: 0d70 5bbf 1d5a 063f b7c1 05bf 22ca 27bf
00000060: 27c4 14bf f816 61be ab80 36bf d501 863d
00000070: 6cac 523e 5376 a6bd 5b93 afbe 1b35 60bd
00000080: a77e e53d 60b3 94be 9340 0dbd 03f1 1c3f
00000090: 6633 f9bb 6329 d3bd ecbe 453e b5da 133f
000000a0: d743 8e3d e820 2e3d 5e45 94be 16a0 8ebe
000000b0: cfc0 4ebe 6eae e9be 092a d1bc a28f d2be
000000c0: fda6 01be beff 9ebd 2690 813e a768 af3e
000000d0: 49b9 173f d83b 253e ecb9 31be 29c1 613f
000000e0: ba8d f43e 53da 9fbf 807e 47bf b90d 963e
000000f0: 956a 67be 5113 47bf 9f22 c3be 95f6 163e
00000100: 1b0c 993d b8c5 94be a6a2 693e 729d e93e
00000110: e182 8fbe 3b0c dfbe e111 a83e 4d58 a03e
00000120: 0080 40bf 8fb3 a0be 38fa d43c db26 cc3d
00000130: 155b 0abe 30c5 293e 8fc2 a63e ceab a53d
00000140: a263 a3bd b3a1 f6be 5745 31bf e14c ce3e
00000150: 1b7d 9bbe ee0c e3bf 35eb 5abf dcb0 34be
00000160: 25af 55be c152 91be 7d62 88bf 266c 45c0
00000170: 5ff0 d7be f4a8 473e fdf1 9bbd 6b78 34bf
00000180: 8290 003f 0c70 0c3f 5069 153e ef82 ecbd
00000190: 8b06 d2bd faa8 ec3e 880e 23bf 7e64 f2bd
000001a0: b450 663f 26b7 3a3e 63d4 383e 42b7 33bf
-0.24638675 -0.50807756 -0.3368673 0.13321038 -0.42477015 -0.30698738 -0.18095933 -0.036612105
0.52123374 -0.055075146 -0.127629 0.3090241 -0.6661516 -0.06423895 0.3369771 -0.8651732
-0.19702862 0.44204804 0.28526673 0.34001175 -0.8571785 0.5248125 -0.5224871 -0.65542805
-0.58111805 -0.21981418 -0.7129008 0.06543318 0.20573586 -0.08128037 -0.3429211 -0.054738145
0.11205798 -0.29043102 -0.03448541 0.61305255 -0.007605004 -0.10310628 0.19311112 0.57755595
0.06946533 0.04251185 -0.28959173 -0.2785651 -0.20190738 -0.45640892 -0.02553274 -0.41125208
-0.12661357 -0.07763623 0.2530529 0.3425953 0.592671 0.1613611 -0.1735608 0.88185364
0.4776438 -1.2488502 -0.779274 0.29307345 -0.22599252 -0.7776385 -0.3811235 0.14742501
0.07473012 -0.29057097 0.22815952 0.45627934 -0.2802954 -0.4356402 0.3282614 0.31317368
-0.7519531 -0.31386992 0.02599822 0.099683486 -0.13511308 0.16579127 0.3257031 0.0808941
-0.07977988 -0.48170242 -0.6924643 0.4029303 -0.30368885 -1.7738321 -0.8551515 -0.17645591
-0.20867594 -0.2838345 -1.0655056 -3.0847259 -0.42175576 0.19498044 -0.07614515 -0.70496243
0.502205 0.5485847 0.14590955 -0.11548411 -0.10255154 0.4622267 -0.6369405 -0.118355736
0.89966893 0.18233928 0.18049769 -0.70201504

bias f4 [4]
00000000: 4140 bdbe d5e1 19bf 149f 21bf d962 e0bb
-0.36963084 -0.6011022 -0.6313336 -0.006847721

weight f4 [56, 100]
00000000: 1971 393f a78f 87bf d7fd 96be 90cb 1dbf
00000010: 822f 983d 769e 353e 54cd 9cbb 89c1 b1bf
00000020: d3f1 843d 435d 033e 5c1f 32bf 648f b9bc
00000030: 53e3 943e 0550 a0be ccd8 8ebd e39b 22bf
00000040: a7e1 f13e 20bb e43e 8034 723d d348 433e
00000050: 955a 84be 462e 503e 9d8a 64be af0e c83e
00000060: eb83 933e 5515 b13e c4a5 41bf 8869 f33e
00000070: 2862 963e fb60 b23e c31b 9e3e bcf7 21bf
00000080: b879 04be 5a74 9b3d 938c 08bf ca09 b3be
00000090: e747 78bf 0735 6cbf ac88 12bf ed3e c73e
000000a0: 6ffa f0be c76e a2bf 8494 a5be af89 093e
000000b0: fc71 9cbf 4439 d33e 8b68 23bf 7c6d 073f
000000c0: 6f25 d93e 1e34 a7bf c8f4 c03e ce3c 47bf
000000d0: a16c b3be c4ba 5ebd fafd f9bd b8d5 bfbd
000000e0: d360 68bd b902 473f 4ef4 72be fd10 82be
000000f0: 917c 34bf 8523 423f 06a1 803f fb3d d83d
00000100: 5cb0 c43d 0782 e9bf 4b8b ebbf 5506 6fbf
00000110: 6987 773f 37e8 283f 312a 09bf f8c4 a33e
00000120: 8c7a a73e ce5d 08bf f5ac c63e 5534 8b3f
00000130: c22c 503f 99ae 9fbe e273 64be 7c0c aabe
00000140: 0d1d 853e 8c76 e8be 7cbc f2be 69a9 35bf
00000150: bd3a c0bd bf16 903f 828d 1a3f a724 e7bd
00000160: ba20 14bf e0ac 9ebf 4546 c7be 1a0d 013f
00000170: 9eee f7bf 445f 8cbf 13bf 70bf 88f8 a6bf
00000180: 173c a7bf c911 1ec0 710e 67bf 4304 d8be
00000190: 8e45 cebf ed5e 723e c1c6 1f3e 1655 e93e
000001a0: d783 b6bf 2b9a 36bf bec4 b5be 3818 e73e
000001b0: ca87 4a3e ece2 e23e 0735 623f 90c5 a5bf
000001c0: 71d2 ce3e b5b5 afbe 492a 8ebf 8e46 373f
000001d0: 1fe6 93be 1531 1d3f 5878 183e c073 3fbf
000001e0: 518c b7be 0375 eabe 1483 b73e 19e9 183f
000001f0: 1dcf 2cbf 258f b5bf 1b4d 82bf 8e21 08be
00000200: 7bf0 6e3f 3661 4e3f 0996 debf 0b95 84be
00000210: ccd9 b7bd c525 b9be c666 ecbe fd2b cfbf
00000220: a20e 01c0 a837 d2bf a615 2bc0 2734 03bf
00000230: 1b6c 173f 5568 4ebf 9277 00c0 46f6 aebf
00000240: b4c3 8a3e 8c06 7abf 77e3 94be 21a6 80bd
00000250: 88f2 053d 83c7 34be 9113 d1be 1173 94be
00000260: f965 a83e d6b2 20be 2e62 75bf 6954 b0be
00000270: 0072 bebf 816e a63d 2824 123f 21dc c03e
00000280: d7a5 283f 3779 6a3f c325 493f 0deb d83c
00000290: 3135 5fbf d678 183e e017 7a3e 30ef 9a3e
000002a0: 34a0 e1ba d56e e63c acd7 33bf a903 b43d
000002b0: 7cc6 583d b74f 373f 921c 443d 2665 e6be
000002c0: cdb3 91bf ce3c c33d 6fc4 043f 4918 82bf
000002d0: 401a b4bf 8aed 143f 2158 893e 97c0 53bd
000002e0: 8c30 d8bf 97bf 73bf 964f 883e 6a8a 06be
000002f0: d4bf 063f 3f2f 1abf 2a85 a2bf ed85 bd3e
00000300: ce52 6a3f b1da febe 954d 29bf bfa3 2dbe
00000310: f013 01bf 052d e13e db8d 0c3f e2f7 4f3f
00000320: bbf8 4e3e 9a6e 01bf 8af7 ffbd 69d1 56bf
00000330: 0881 3c3f faca a43e 4eaf af3e 674b e63e
00000340: 8bef 713e 02d1 01bf db8d 3dbd 604f 953e
00000350: 50c5 2dbe c6d5 903e 1c73 003f 37da 8ebd
00000360: 6d8e 5bbf 549c 93be d984 30be 92ef 81be
00000370: 78d5 eabf bf77 293f 6f3b 6f3f a329 793e
00000380: 669a 013f 6de3 82bf 2ad6 0dbe 71e0 48be
00000390: 74df c0be bfff 22bf 8e6f 89bf 54ea f5bd
000003a0: c436 2fbe b6b6 3abf 1192 4fbf 4907 48bf
000003b0: 65d8 44bf 19a5 6abf c9c6 9bbf 9eb2 42bf
000003c0: 9954 8a3e f20e 593f 0a25 b13f 07a9 183f
000003d0: 9922 7e3e 2bc6 013d 80d7 c93e e7e1 a93e
000003e0: c0ca b33d d8f0 c33e 9638 31bf 7d85 5dbf
000003f0: 4e6c 383e 788c 93be 1fff b0be bf7b 8e3d
0.724382 -1.0590714 -0.2949054 -0.61638737 0.074309364 0.1773623 -0.004785219 -1.3887187
0.06491437 0.12828545 -0.695791 -0.022651382 0.29079685 -0.3131105 -0.069749445 -0.63519114
0.47242472 0.44674015 0.0591321 0.19070749 -0.2585036 0.20330152 -0.22318502 0.39073703
0.28811583 0.34586588 -0.75643563 0.4754145 0.29371762 0.34839615 0.30880556 -0.6326864
-0.12937057 0.07590552 -0.533395 -0.34968406 -0.96984714 -0.92268413 -0.57239795 0.38915196
-0.47066066 -1.2690057 -0.3233987 0.13431428 -1.2222285 0.41254628 -0.63831395 0.52901435
0.42411372 -1.306278 0.37686753 -0.77827156 -0.35043815 -0.054377332 -0.12206645 -0.093669355
-0.056732964 0.7773853 -0.23726007 -0.25403586 -0.70502573 0.7583545 1.004914 0.10558697
0.096039504 -1.8242806 -1.8401884 -0.93369037 0.96690995 0.6597933 -0.53580004 0.31986213
0.32710683 -0.53268135 0.3880383 1.0875345 0.81318295 -0.31187895 -0.22309831 -0.3321265
0.25998726 -0.45402944 -0.47409427 -0.70961624 -0.093862034 1.1256942 0.60372174 -0.11286288
-0.57862437 -1.2396507 -0.389208 0.50410616 -1.9369695 -1.0966573 -0.94041556 -1.3044596
-1.3065213 -2.4698355 -0.9025641 -0.4219075 -1.6114976 0.23669024 0.15603162 0.45572728
-1.4258984 -0.7132899 -0.35501665 0.45135665 0.19778362 0.44313753 0.88362163 -1.2950916
0.4039493 -0.3431832 -1.1106654 0.7159203 -0.28886506 0.6140302 0.14889657 -0.74785995
-0.3584924 -0.45792398 0.35842192 0.5973068 -0.6750353 -1.4184309 -1.0179781 -0.1329405
0.93335694 0.8061708 -1.7389537 -0.2589496 -0.08977088 -0.36161628 -0.4617216 -1.6185299
-2.016518 -1.6423235 -2.6731963 -0.51251453 0.5914933 -0.8062795 -2.007298 -1.3668907
0.27102435 -0.9766624 -0.29079792 -0.062816866 0.032702 -0.17654233 -0.4083524 -0.2899404
0.328903 -0.1569322 -0.95852935 -0.344394 -1.487854 0.08126546 0.5708642 0.37667945
0.6587805 0.9159121 0.78573245 0.026479268 -0.8719054 0.14889845 0.2442317 0.3026061
-0.0017213882 0.02812902 -0.70250964 0.087897606 0.052923664 0.7160601 0.04787881 -0.44999045
-1.1382996 0.09533082 0.51862234 -1.0163661 -1.4070511 0.58174956 0.2682505 -0.05169734
-1.6889815 -0.9521422 0.2662322 -0.13138738 0.52636456 -0.6022834 -1.2696888 0.3701624
0.915326 -0.49776223 -0.66134006 -0.16956995 -0.5042105 0.4397966 0.54903954 0.81237614
0.2021207 -0.5055939 -0.12498386 -0.83913285 0.73634386 0.3218611 0.34313434 0.44979402
0.23626535 -0.50709546 -0.046277862 0.2916212 -0.169698 0.28288096 0.5017564 -0.06975215
-0.857642 -0.28830206 -0.17238177 -0.2537809 -1.8346395 0.66198343 0.93450063 0.2433229
0.5062622 -1.0225655 -0.13851228 -0.19616868 -0.3767048 -0.6367149 -1.0737169 -0.12007585
-0.17110735 -0.72935045 -0.81082255 -0.78136116 -0.7689269 -0.9165817 -1.217004 -0.760538
0.27017668 0.8478843 1.3839428 0.59632915 0.24817885 0.03168313 0.39422226 0.33180162
0.08778906 0.38269687 -0.6922697 -0.8653181 0.18010065 -0.28818107 -0.34569642 0.069571964

bias f4 [56]
00000000: 4adb 81be 329e cfbe 6793 7abe 08f3 11be
00000010: 115f 58be 2277 4e3e 73f1 373e 99c0 2fbf
00000020: d011 c6be 41b2 a9be 731f acbe 7aa2 40bf
00000030: 20e2 5a3f 7f67 8c3e 4810 f5be 51fc 85bf
00000040: 0a24 833d 51ca 3c3f 4266 10be dd49 233f
00000050: e3b3 99bd 8610 5ebf bb9e febe 987a debe
00000060: 6449 aabe 908c f3bc dfa3 48bf 7f7c cf3e
00000070: e3d8 6fbf 2cb7 23bf 3bf2 59bf 408f 61bf
00000080: 7e32 b5be 9e16 2a3f 91a7 b03e ec66 1abf
00000090: 2854 28bf 8436 063f c5fb 6bbf 0d36 913e
000000a0: afe3 2fbe ee71 9ebe 4a16 7b3f 8dd8 e93c
000000b0: 5e2f 5b3f 9ffa 85bf 6d3d 93be 7b5c 3dbf
000000c0: 4ded 3fbf b276 a03e 2ce4 84bd ea3f bf3d
000000d0: 7c77 d5be 27e1 91be e9c5 1bbf bad7 07bf
-0.25362617 -0.4055038 -0.24470292 -0.14252865 -0.21130015 0.20162633 0.179632 -0.68653256
-0.38685465 -0.3314381 -0.33617744 -0.7524792 0.8550129 0.2742271 -0.47863984 -1.0467626
0.06403358 0.7374621 -0.14101508 0.6378458 -0.07505014 -0.8674396 -0.49730477 -0.43452907
-0.33259118 -0.029730111 -0.7837505 0.4052467 -0.9369032 -0.63951373 -0.8513524 -0.8810921
-0.35390085 0.6644076 0.34502843 -0.60313296 -0.6575341 0.52426934 -0.92181045 0.2836155
-0.17176698 -0.30946296 0.98080885 0.028545642 0.8561915 -1.0467108 -0.28757802 -0.7396924
-0.7497147 0.31340557 -0.06488833 0.093383625 -0.41692722 -0.2849209 -0.6084886 -0.5306355

weight f4 [10, 56]
00000000: f402 c33d 092a 80bf 3a64 86bd f1e8 753e
00000010: 38b3 26be 0c1b b2bf 29c9 31bf d74b 393e
00000020: 9690 96bf 0545 223f e8bf 63be c205 c43c
00000030: d754 bb3e 7bb9 93bf 2c4f d2be 6ba7 36bf
00000040: 9967 86be 5b9c 4fbf 1b28 ef3e 298d bbbe
00000050: e6df a2be a3ff ebbe 607d 883e c1af 15bf
00000060: d0e9 cebe c814 f43e 615c cbbe c468 71be
00000070: dd05 15bf 2726 25bf a7a1 13bf 2a02 cebe
00000080: 6f6c bb3d 71e4 1b3e 7f92 393f 61ca 8dbe
00000090: a2b9 43bf f383 6ebf 8efb 6ebd 5e06 e1be
000000a0: 3f78 cebe 9591 9fbf 0fa7 2bbf 007e 25bf
000000b0: b794 5dbd abf3 2abf b6eb 05bf b542 1cbf
000000c0: b369 a73c 573d f9be 9723 16c0 9afb c4bd
000000d0: a46c 0bbf d716 9bbe 5029 b4be a2c4 6fbf
000000e0: 9d84 a0be cf9b af3e e905 20bf f4e4 47bf
000000f0: 81ca 44bf aaff bcbd 9179 39be 7a68 05bf
00000100: 3475 b8be 37a3 fdbe 5755 9d3c 72a3 62bf
00000110: 1864 95bb 4375 50be ee47 dfbe 7b9d 44be
00000120: bf41 b1be b9b9 793f a95f 973e d571 313e
00000130: 52fe f23d 5663 2abf de1d a3bf 43b9 00bf
00000140: 5e92 20bf 85ab 2fbf 5f8e e1be 1f88 d3bd
00000150: bf60 3dbf fa93 debd 760e 00bf f8ee 2abe
00000160: 4adb 93be e709 89be 62a2 1bbe 7332 abbe
00000170: 39c0 debe d7e1 f43e d045 8bbe fdab 2dbf
00000180: f086 63bf 197b 463f 6c57 303f ff24 afbe
00000190: 7df6 8c3e 768c 7bbe 896c 27bf 7b6c 65be
000001a0: 6032 e7be 679a 8e3e b3cf 92be 6033 7d3c
000001b0: 2259 80bf 96dd 56bf 7340 e7be 6609 4ebe
000001c0: 53da 45be 703a 4ebe b44f 1fbf 7d42 bb3e
000001d0: 67d5 87be 0ac3 75be d313 9fbd 4710 403f
000001e0: 738d 84be 080d a6be 0686 72be 209e 04bf
000001f0: dbcc b2be 2f0a 25bf a1af c1be cd19 083c
00000200: 2b24 73bf 88d2 5fbf 7ac5 fe3e 1fda 73bf
00000210: ccf8 f83e c548 e6be 9223 6fbf 0cfa e9be
00000220: 808a 00bf ad47 12bf 8d84 5ebe 035c 853e
00000230: e9e6 60bf 8403 143e 14c9 aabe 9b3d 14bd
00000240: 65f5 2a3f b1d1 16bf 6db8 c4be 4b96 0c3f
00000250: cc66 14bf 8b96 debd bf01 0a3d bec9 20bf
00000260: 4c48 ffbe 29c1 00bf e35f b7be 7a28 1d3e
00000270: 93d5 6dbf ecd6 d0be 0029 16bf 8d6d a5be
00000280: 3b05 a0be 7732 483e 6193 eabe b1b3 00bf
00000290: 74df 963e f692 b0be abaf 0e3f 2c25 44be
000002a0: ce6c 89be 1f3f 62be 3496 39bf 8ec7 e8be
000002b0: e2f2 f8bd 1161 d0bd b1eb 18be 5416 9ebe
000002c0: be04 593e bba3 36be da1a 27bf 41de ffbd
000002d0: 253b 24bf 11dc 30bf 3079 a2be ab34 c73e
000002e0: b047 67be b586 86bf b9ee d9be 362d 5e3e
000002f0: 3a0f 29bf c634 50be 9d83 e73d 4457 f9be
00000300: 5e9a 48bf 17e6 a2be 0e42 dd3e ac8b 60be
00000310: 6463 86bd b580 fa3e 986d bebd 5bac 1dbf
00000320: 8888 dabe 731e 07bf a6b2 69bf 8a99 20be
00000330: 26d5 f93e 78c8 bbbe b055 3dbe dc80 f5be
00000340: c79e 06bf 1a44 a3be 1d5c 39bf d4c1 b9be
00000350: 2f3f 3fbe 4812 393f 7e8a 67bf 455a 66be
00000360: c186 fbbe eee3 25bf bfa8 80bf 1d00 a6be
00000370: 453c c8be f682 c03e 8f90 bfbd 8312 2b3b
00000380: 2077 02be 685b 7cbf ef31 e93e 0b45 b0be
00000390: 5dfb cbbe 7706 9fbe 18f1 273f 540b 64be
000003a0: 6d0d ebbe 965c f9be 6a4c f53e 8cb4 fabc
000003b0: edf6 06bf 4f2e 693e 8c45 05bf 1869 02be
000003c0: 70a6 34be 785f 7d3e 3bd3 86bf 318d e3be
000003d0: d663 30bf 21a8 5bbd 08e6 30bf 3f65 1c3d
000003e0: 4406 c3be 0101 e4be 5390 85be c3f6 10bf
000003f0: c18e 99be 49dd e9be 86ae 02bf 417a 8a3d
0.09522048 -1.0012828 -0.065620854 0.24014641 -0.16279304 -1.3914504 -0.6944757 0.18095337
-1.1762874 0.63386565 -0.22241175 0.023928527 0.36588165 -1.1540979 -0.41076028 -0.7134921
-0.26250914 -0.81097955 0.46710286 -0.36631134 -0.31811446 -0.46093473 0.26658154 -0.58471304
-0.4041276 0.47672105 -0.39718917 -0.23575121 -0.5821207 -0.6451134 -0.57668537 -0.40236026
0.091515414 0.15223862 0.7248916 -0.27693465 -0.7645513 -0.9317009 -0.05834537 -0.4395017
-0.40326115 -1.2466303 -0.67051786 -0.64645386 -0.054096904 -0.6677806 -0.5231279 -0.61039287
0.020436144 -0.4867961 -2.3459222 -0.09618302 -0.5446265 -0.30290863 -0.3518777 -0.9365941
-0.31351176 0.3429856 -0.6250902 -0.7808373 -0.76871496 -0.092284516 -0.1811278 -0.52112544
-0.3602692 -0.49538586 0.019205732 -0.8853065 -0.0045590512 -0.20357232 -0.43609565 -0.19200699
-0.34620473 0.97549015 0.2956517 0.1732858 0.11864914 -0.66557825 -1.274349 -0.50282687
-0.6272334 -0.68621093 -0.44053933 -0.103286974 -0.7397575 -0.10868068 -0.50022066 -0.16692722
-0.28878242 -0.26765367 -0.15198663 -0.33436927 -0.4350603 0.47828552 -0.272017 -0.6784056
-0.88877773 0.7753158 0.68883395 -0.34207913 0.27531806 -0.245653 -0.65399987 -0.22404663
-0.4515562 0.27852175 -0.28674087 0.015454143 -1.0027201 -0.83931863 -0.45166358 -0.20120773
-0.19321565 -0.2013948 -0.6223099 0.36574164 -0.2653 -0.24000183 -0.07767453 0.7502484
-0.25889167 -0.32431817 -0.23683938 -0.5180378 -0.34921917 -0.64468664 -0.37829307 0.008306933
-0.9497706 -0.8743062 0.49760038 -0.952547 0.48627317 -0.44977394 -0.9341365 -0.45698583
-0.50211334 -0.5714062 -0.21730252 0.26046762 -0.8785234 0.14454466 -0.33356535 -0.036191564
0.6678069 -0.58913714 -0.38421956 0.5491683 -0.57969356 -0.108685575 0.03369307 -0.62807834
-0.49859846 -0.5029474 -0.35815343 0.15347472 -0.92904013 -0.40788972 -0.5865631 -0.32310143
-0.3125399 0.19550501 -0.45815566 -0.5027419 0.29467356 -0.34487122 0.557368 -0.19154805
-0.26840824 -0.22094391 -0.72494817 -0.45464748 -0.12155701 -0.10174764 -0.14933659 -0.3087641
0.21193215 -0.17835896 -0.6527535 -0.124935634 -0.6415275 -0.69085795 -0.31733084 0.3890737
-0.2258594 -1.0509859 -0.42564943 0.21696934 -0.6603886 -0.20332631 0.113044 -0.4869939
-0.78360546 -0.3181617 0.43214458 -0.2192828 -0.06561926 0.4892632 -0.09298247 -0.6159112
-0.4268229 -0.52780837 -0.9128822 -0.1568357 0.48795432 -0.36676383 -0.18489718 -0.47949874
-0.52586025 -0.31887895 -0.7240618 -0.36280692 -0.18676446 0.7229352 -0.904457 -0.22495373
-0.49126247 -0.6480092 -1.0051497 -0.3242196 -0.39108482 0.37599915 -0.09353744 0.0026103563
-0.12740755 -0.98576975 0.4554591 -0.34427676 -0.39840212 -0.3105962 0.65602255 -0.22269946
-0.4590868 -0.4870345 0.47909862 -0.03060367 -0.5272053 0.22771572 -0.52059245 -0.12735403
-0.17641616 0.2474345 -1.0533212 -0.44443658 -0.6890234 -0.053627137 -0.69101 0.038182493
-0.38090718 -0.44532016 -0.26086673 -0.5662653 -0.29991725 -0.4567664 -0.5104755 0.06761599

bias f4 [10]
00000000: bdba 85be b225 ebbd dc2d bcbe 4c93 8c3c
00000010: 1049 6e3e 48da 1cbf fadd 14bf 0fc9 05bb
00000020: d41c 993f d1c3 c8bd
-0.26119033 -0.11481799 -0.36753738 0.01716008 0.23270059 -0.6127057 -0.5815121 -0.002041403
1.1961923 -0.09802974
